ml_output/L6_CT_CTX_Glut/atac/model_2.pth (torch, 474380 bytes, 48 tensors)

query f4 [1, 64]
0	0x3f5fd339	0.87431675
1	0x3de16a5f	0.11006617
2	0xbe9e1da7	-0.30881998
3	0x3f7dbe8e	0.9911889
4	0x3e5ac2e9	0.21363415
5	0xbf2ede20	-0.68307686
6	0xbef55c1b	-0.47921833
7	0xbf0bff8e	-0.5468682
8	0xbf7f4963	-0.99721354
9	0xbe6c8696	-0.23098215
10	0xbe884c96	-0.2662093
11	0xc000e435	-2.0139287
12	0xbe9732a0	-0.2953081
13	0xbeb232a2	-0.34804255
14	0x3f897d23	1.0741314
15	0xbe2b5e3b	-0.16735165
16	0xbf648e27	-0.8927941
17	0xbf8aa922	-1.0832865
18	0x3f15fce7	0.58589023
19	0x3f8c4270	1.0957775
20	0x3f44604f	0.76709455
21	0x3f9c5f3d	1.2216564
22	0xbf00946d	-0.5022648
23	0x3e80723f	0.25087163
24	0xbf91de9a	-1.1396058
25	0x3fb1827f	1.3867949
26	0xbf173aef	-0.590743
27	0x3e6d8cf3	0.23198299
28	0x3f04efdc	0.51928496
29	0x3f214d92	0.6300899
30	0x3ff6b1a2	1.9272959
31	0xbef0728b	-0.4696239
32	0x3f2c1630	0.67221355
33	0x3cdfaf21	0.027305188
34	0xbe3cc0fe	-0.18432996
35	0xbda6fab8	-0.081532896
36	0x3edcfa4e	0.43159717
37	0xbebbc4e3	-0.3667365
38	0xbff545e7	-1.9161958
39	0x3eb3449b	0.3501328
40	0xbe248100	-0.16064835
41	0xbea43129	-0.32068756
42	0xbfb7377f	-1.4313811
43	0x3eb0d9bf	0.34541127
44	0xbfa1e46e	-1.2647836
45	0xbe72779c	-0.2367844
46	0xbe4d34e5	-0.20039709
47	0xbf912fcd	-1.1342713
48	0x3e181f17	0.1485561
49	0xbe48f90e	-0.19626257
50	0x3ef4dd19	0.47824934
51	0x3f4dffc8	0.80468416
52	0x3e1f155c	0.15535492
53	0x3fc1d16c	1.5142035
54	0xbfafd85e	-1.3737905
55	0xbf2cc1ac	-0.6748302
56	0xc02e0a43	-2.7193763
57	0x3fe933a3	1.8218883
58	0x3f557e66	0.83395994
59	0xbd33bbc5	-0.043880243
60	0xbe2c2836	-0.16812214
61	0xbf25260c	-0.6451118
62	0x3e3f40a1	0.18676998
63	0xbf395d8a	-0.72408354

cls_embeddings.atac f4 [1, 1, 64]
0	0x3fb51044	1.4145589
1	0x3f2631c2	0.64919674
2	0xbf86a137	-1.0517949
3	0x3c5e620a	0.013573179
4	0x402d7995	2.7105458
5	0x3eeef41a	0.4667061
6	0xbffd4cf6	-1.9789112
7	0x3d85a9d5	0.065265335
8	0xbfb9b8ba	-1.4509499
9	0x3f882614	1.063662
10	0xbf96e8d9	-1.178981
11	0xbe1ee03d	-0.15515228
12	0x3ebb00d6	0.36524075
13	0x3f414c33	0.75506896
14	0xbf3ebdd9	-0.74508435
15	0x3f6b0620	0.9180622
16	0x3fdec192	1.7402823
17	0xbfe299e3	-1.7703212
18	0x3e09adc3	0.13445191
19	0x3eb27a49	0.3485892
20	0x3f549f25	0.83055335
21	0xbfce94fb	-1.6139215
22	0xbe860383	-0.26174554
23	0xbf873acf	-1.0564822
24	0x3f8da98a	1.1067364
25	0xbde60672	-0.11231698
26	0xbfd8b162	-1.6929133
27	0xbfe77c1d	-1.8084751
28	0x3f277d0f	0.654252
29	0x3f339943	0.70155734
30	0x3ca72bd8	0.020406649
31	0xbdafdeb8	-0.08587402
32	0xbf239a29	-0.63907105
33	0x3f03cc29	0.514834
34	0x3fe902fb	1.8204035
35	0x3ee141dd	0.43995562
36	0x3f12e63b	0.57382554
37	0xbfa58dc6	-1.2933891
38	0x3cdd78f7	0.02703522
39	0xbfca4d39	-1.5804816
40	0x3f2220a3	0.6333105
41	0xbffbf0ea	-1.9682896
42	0x3fe33661	1.775097
43	0x3f374991	0.7159663
44	0xbd46fc3e	-0.0485804
45	0xbf5a73d2	-0.8533298
46	0xc00e847a	-2.2268357
47	0x3e505670	0.20345473
48	0x3f4507e2	0.76965153
49	0xbf1727bb	-0.59045
50	0xbf9de803	-1.2336429
51	0x3d072df9	0.033002827
52	0xbf464590	-0.77449894
53	0xc0019390	-2.0246315
54	0xbf0cfb69	-0.5507112
55	0x40051534	2.0794191
56	0x3f46cddf	0.77657884
57	0xbcd618da	-0.026134897
58	0xbf0ae2fc	-0.542526
59	0x3ef11117	0.4708335
60	0xbf307d0b	-0.689408
61	0xbd86aa6c	-0.06575474
62	0xbf60d5e8	-0.87826395
63	0xbe4a114e	-0.19733164

modality_embeddings.atac.weight f4 [64, 9]
0	0xbe9ac0b7	-0.30225155
1	0xbe94a4ea	-0.2903207
2	0xbe76bab2	-0.24094656
3	0xbe86e26d	-0.26344624
4	0x3e0b8145	0.13623531
5	0x3e85d507	0.2613909
6	0x3e20333b	0.15644543
7	0xbe95d6bb	-0.2926539
8	0x3e6c7913	0.23093061
9	0x3dadd032	0.08486976
10	0xbe84e46f	-0.2595553
11	0xbdccc3e9	-0.099983044
12	0xbe867e1a	-0.26268083
13	0x3e4ca0dd	0.1998324
14	0x3e25981a	0.16171303
15	0x3d2cb23c	0.042162165
16	0x3de24b1c	0.11049482
17	0x3de6d05f	0.112702124
18	0x3eab8d59	0.33506277
19	0x3daaa4f2	0.08332242
20	0x3e2b6bb7	0.16740309
21	0xbdf7c902	-0.12098886
22	0xbd32bf29	-0.043639336
23	0x3e911ffb	0.28344712
24	0xbe3abf7f	-0.18237112
25	0xbe666308	-0.22498715
26	0x3da1c324	0.07898548
27	0xbda67cc6	-0.081292674
28	0x3e59946e	0.21248028
29	0x3e1e44e5	0.15455969
30	0xbd0196a2	-0.031637795
31	0xbdafd987	-0.08586412
32	0xbcd21909	-0.025646703
33	0x3e5bfe19	0.2148365
34	0xbcc902df	-0.024537502
35	0x3e3f3529	0.18672623
36	0xbdee3878	-0.11631864
37	0xbda1ecb5	-0.079064764
38	0xbec4b6dd	-0.38420764
39	0xbc8bbde8	-0.017058328
40	0x3de2458b	0.110484205
41	0xbd8661e9	-0.06561644
42	0x3e4346ee	0.19070026
43	0x3cf24546	0.029574048
44	0xbe79c42e	-0.24391243
45	0x3d84a6b3	0.06477108
46	0xbe59d5dc	-0.21272987
47	0xbdc6c3ca	-0.097053126
48	0xbe09f9ad	-0.1347415
49	0xbe1cd46e	-0.1531541
50	0x3e1dc5fe	0.1540756
51	0x3dd9eeeb	0.10641273
52	0x3df3515b	0.11880752
53	0x3e23d9e2	0.16001084
54	0xbd7b2992	-0.06131894
55	0xbe47b189	-0.19501318
56	0xbd8d3281	-0.068943985
57	0x3e65a982	0.22427943
58	0x3e49b23b	0.19696896
59	0xbe522c9d	-0.20524831
60	0x3c00cfa1	0.007862003
61	0xbe63e616	-0.2225574
62	0xbe7466bf	-0.2386732
63	0xbdce8a72	-0.10085
64	0x3d4b22b7	0.049593654
65	0xbe17c732	-0.1482208
66	0x3dc5dbc3	0.09661057
67	0xbde44c2f	-0.11147343
68	0x3e882a5f	0.26594827
69	0xbe6cb5b5	-0.2311619
70	0xbd6dc2dc	-0.05804716
71	0x3e03dcce	0.12877199
72	0xbdda2718	-0.10651988
73	0x3e90efc2	0.2830792
74	0xbe3a6ea6	-0.18206272
75	0xbe5db802	-0.21652225
76	0xbd1024bf	-0.035191294
77	0xbd7fd78d	-0.062461425
78	0xbe8385be	-0.25687975
79	0xbe586d5f	-0.21135472
80	0x3e2bbb6d	0.16770716
81	0x3e5594fe	0.20857617
82	0x3e658f16	0.22417864
83	0x3cb40069	0.021972852
84	0xbe70981c	-0.23495525
85	0x3e103bf7	0.14085375
86	0xbd702105	-0.05862524
87	0x3e391ab3	0.18076591
88	0xbe1e2b54	-0.15446216
89	0x3e00a491	0.12562777
90	0x3e677091	0.22601534
91	0xbe0f1267	-0.13971864
92	0x3e67656d	0.22597285
93	0x3e71d192	0.23615101
94	0x3d6f97a6	0.058494233
95	0x3da71ab5	0.08159391
96	0xbba18a52	-0.004929819
97	0x3c9fe9f0	0.01952073
98	0x3c9fbf5d	0.019500429
99	0xbca1524f	-0.019692568
100	0xbeba0fe7	-0.36340258
101	0xbe31c75c	-0.17361206
102	0xbe91e4b1	-0.2849479
103	0x3cb09a29	0.021557884
104	0xbe070927	-0.13187085
105	0x3d1580c1	0.036499742
106	0x3e700b5a	0.2344183
107	0x3e3215df	0.17391156
108	0x3d58acc5	0.05289914
109	0x3e6d67c0	0.23184109
110	0x3e280104	0.16406637
111	0x3e72769a	0.23678055
112	0xbdc1373a	-0.09434362
113	0x3d524586	0.051335834
114	0xbe17beb4	-0.14818841
115	0xbb964aac	-0.0045865383
116	0xbe3d111c	-0.18463558
117	0x3e22bc54	0.15892154
118	0x3e3b07fb	0.18264763
119	0x3e90c4e6	0.28275222
120	0x3e7150e1	0.23566009
121	0x3e67f2b6	0.2265118
122	0x3d928b5b	0.07155486
123	0xbe9bb7b3	-0.3041359
124	0x3e6ed0a6	0.2332178
125	0x3d9f8a83	0.07790091
126	0x3d4a30a7	0.049362805
127	0x3d001b5b	0.03127609
128	0xbe45bbb7	-0.19309889
129	0x3d955808	0.07292181
130	0xbea3684e	-0.31915516
131	0x3e6643fc	0.22486871
132	0x3e5c4298	0.21509778
133	0x3e4728df	0.19449185
134	0x3e333a27	0.17502652
135	0x3da1123c	0.07864806
136	0xbbb028f8	-0.0053759776
137	0xbe9a1a92	-0.30098397
138	0xbe9230b8	-0.28552794
139	0x3e4c2096	0.19934306
140	0xbe7aa0d9	-0.24475421
141	0x3cc82877	0.024433358
142	0x3e406594	0.18788749
143	0xbe80325c	-0.2503842
144	0x3e01fdcd	0.12694474
145	0x3d8d852c	0.06910166
146	0x3e941f48	0.28930116
147	0x3e9626ad	0.29326382
148	0xbe28825c	-0.16455978
149	0x3de6924c	0.11258373
150	0xbe80231e	-0.25026792
151	0x3d9bda33	0.076099776
152	0x3e84da6a	0.25947887
153	0x3e8001d9	0.2500141
154	0x3eaef4c1	0.34171107
155	0x3e1e939c	0.15485996
156	0xbe3e8fd0	-0.18609548
157	0xbdaf79ed	-0.08568177
158	0x3e302af2	0.17203882
159	0x3e401c0d	0.187607
160	0x3e429e7c	0.1900577
161	0x3da3a3f7	0.07990258
162	0xbdca12ed	-0.09866891
163	0xbe17d3b7	-0.14826857
164	0x3e668b67	0.22514115
165	0xbd59e44f	-0.053196248
166	0xbe39e06f	-0.18152021
167	0x3d12b084	0.03581287
168	0x3e496bd2	0.19670036
169	0xbdf4b991	-0.119494565
170	0x3db2d21c	0.087314814
171	0xbdd3de26	-0.10345106
172	0x3e3d80b9	0.18506135
173	0xbe7c0a13	-0.24613218
174	0xbe25f791	-0.1620772
175	0x3de7076d	0.11280713
176	0x3d9f04aa	0.077645615
177	0xbc020ecd	-0.007938099
178	0xbe12d8fe	-0.14340588
179	0xbe327d1a	-0.17430535
180	0x3db84a4b	0.08998545
181	0x3e459f73	0.19299106
182	0x3e81f682	0.25383383
183	0x3d0f4ed9	0.034987304
184	0xbe802d9b	-0.25034794
185	0xbe48bac2	-0.19602492
186	0x3e1352e8	0.14387095
187	0x3dd2072c	0.10255274
188	0xbde682f9	-0.1125545
189	0xbe5d7438	-0.21626365
190	0xbda4875e	-0.08033632
191	0xbe706c12	-0.23478726
192	0xbe805241	-0.25062755
193	0x3df27786	0.118392035
194	0xbe6c401d	-0.23071332
195	0x3e4ae300	0.19813156
196	0x3db79a26	0.08964948
197	0x3e286857	0.16446052
198	0xbea20a04	-0.31648266
199	0x3e09b587	0.13448153
200	0xbe92df10	-0.28685808
201	0xbe3ed882	-0.18637279
202	0x3e046a1f	0.12931107
203	0xbe3af670	-0.18258071
204	0xbce0a5f5	-0.027422884
205	0xbd2cc628	-0.042181164
206	0x3c7a70f2	0.015285717
207	0x3e5b0e35	0.21392138
208	0xbb5119cb	-0.0031906243
209	0xbdb8caa6	-0.09023027
210	0x3e0fc0cf	0.14038394
211	0xbe482e48	-0.19548905
212	0xbe78837e	-0.2426891
213	0x3e575886	0.21029863
214	0x3c85c4f2	0.016329262
215	0x3cb1103d	0.021614188
216	0xbdd466a4	-0.1037114
217	0xbe5d9ba6	-0.21641406
218	0xbebfebce	-0.37484592
219	0xbdfb9743	-0.1228471
220	0xbe5d52f2	-0.21613672
221	0x3cf3afcb	0.02974691
222	0x3e969b40	0.2941532
223	0x3d4eb083	0.050461303
224	0xbe62dd71	-0.22154786
225	0xbe044fba	-0.12921038
226	0x3d108c04	0.03528978
227	0xbeb2d5be	-0.34928697
228	0x3e204c60	0.15654135
229	0x3dd3a8c1	0.10334922
230	0xbe375c58	-0.1790632
231	0x3d558083	0.05212451
232	0xbdce9c45	-0.100884
233	0x3d765b09	0.06014541
234	0x3e162f8c	0.14666575
235	0x3e645994	0.22299796
236	0x3e0310dc	0.127994
237	0x3cd4dc17	0.025983853
238	0xbe19048b	-0.1494314
239	0x3db5710e	0.08859454
240	0x3e56df23	0.20983557
241	0x3d98c6b0	0.07459772
242	0xbe1b7cf1	-0.1518438
243	0xbdb3d93f	-0.08781671
244	0x3e6a15c1	0.22859861
245	0x3eb484f6	0.3525769
246	0xbe252545	-0.16127498
247	0xbe5f44e2	-0.2180362
248	0x3e4b24b1	0.19838215
249	0xbddbad28	-0.10726386
250	0xbde2403b	-0.11047407
251	0x3e0936b8	0.1339978
252	0xbce22e24	-0.027609892
253	0x3e4e04b2	0.20118979
254	0x3e6aacef	0.22917531
255	0x3e325452	0.17414978

modality_embeddings.atac.bias f4 [64]
0	0x3b9cd390	0.0047859624
1	0x3b088a4f	0.0020834391
2	0x3d372e69	0.044721995
3	0xbce0e53e	-0.027453061
4	0xbcb7e19e	-0.02244645
5	0xbd5eab9d	-0.054362882
6	0x3c3e01c9	0.011597105
7	0x3d1f0ba3	0.038829457
8	0x3d2824cc	0.041050717
9	0x3b0d911b	0.0021601382
10	0xbccfdf64	-0.025375076
11	0xbd05202b	-0.03250138
12	0x3d14293d	0.03617214
13	0x3bc703b2	0.0060734386
14	0xbd8282b0	-0.06372583
15	0xbc937f13	-0.01800493
16	0x3cd14415	0.02554516
17	0xbcbc4730	-0.022983164
18	0xbd093b8f	-0.033504065
19	0x3d16774c	0.036734864
20	0x3ae24351	0.0017262493
21	0xbd5a5a72	-0.05330891
22	0x3d05bc6b	0.032650393
23	0xbcdea0d2	-0.027176294
24	0xbcaf4e6f	-0.021399705
25	0xbce1bed5	-0.027556816
26	0xbcd9a0a6	-0.026565861
27	0x3cbbe03a	0.022934068
28	0xbaf52836	-0.0018704
29	0xbbf9136e	-0.007601193
30	0xbc94c63a	-0.018160928
31	0x3cbe5a18	0.02323632
32	0xbba52552	-0.0050398493
33	0xbb1b3378	-0.00236818
34	0x3d86f11c	0.06588957
35	0x3c527b8e	0.012846841
36	0x3d21b019	0.03947458
37	0xbd1fff00	-0.039061546
38	0x3ca90785	0.020633468
39	0xbc3ea9a9	-0.01163713
40	0x3d30434d	0.043032933
41	0xbc8d049f	-0.017214118
42	0xbc270b5f	-0.010195582
43	0xbc97fb93	-0.018552577
44	0x3c03ec18	0.008051895
45	0xbcd410ec	-0.025886975
46	0x3d1160b5	0.035492618
47	0x3cd1bb98	0.025602147
48	0x3d0a7ed6	0.033812366
49	0xbd8d7cae	-0.069085464
50	0xbcf3a69e	-0.029742535
51	0x3ca9293a	0.020649541
52	0xbc608748	-0.013704129
53	0xbba3bbcf	-0.0049967538
54	0x3d3835b2	0.044973083
55	0x3ac995cc	0.0015379726
56	0x3d1749d3	0.03693564
57	0x3d3fc9b0	0.046823204
58	0x3cd6bc0d	0.026212716
59	0x3c603c3e	0.013686238
60	0xbcf88579	-0.030337082
61	0xbd138737	-0.036017623
62	0xbd04976c	-0.03237097
63	0x3d4ee3e9	0.05051032

modality_transformers.atac.layers.0.self_attn.in_proj_weight f4 [192, 64]
0	0x3c6381ee	0.013885958
1	0xbe173369	-0.14765705
2	0x3e0a3bbf	0.13499354
3	0xbde6f482	-0.11277105
4	0xbdc954af	-0.09830605
5	0x3df42003	0.11920168
6	0xbd16feb8	-0.036864012
7	0x3a94fdac	0.0011367104
8	0x3e1f9227	0.15583096
9	0x3d9cedc0	0.07662535
10	0xbd8bacad	-0.06820045
11	0xbd46faa4	-0.048578873
12	0xbe0fb850	-0.14035153
13	0x3c7e9c0e	0.015540136
14	0x3e0fc4c4	0.14039904
15	0xbe0d72c6	-0.13813314
16	0xbd8b1cdb	-0.06792613
17	0xbe00fe0d	-0.12596913
18	0xbd60a4ac	-0.054844543
19	0x3e066a50	0.13126493
20	0xbdfb2713	-0.12263312
21	0x3d44356e	0.047902517
22	0xbda152ea	-0.07877143
23	0xbd800d48	-0.06252533
24	0x3d27cce1	0.040966872
25	0x3e3122c7	0.17298423
26	0xbd83412b	-0.06408914
27	0xbd91cba0	-0.071189165
28	0x3d748a85	0.059702415
29	0xbd575d62	-0.05257929
30	0xbcb5d417	-0.022195859
31	0xbcae7e80	-0.021300554
32	0x3e0bf785	0.1366864
33	0xbc4cacbc	-0.012492355
34	0xbd0453b1	-0.032306377
35	0xbc5d585f	-0.013509839
36	0xbde99257	-0.11404865
37	0x3dbce65b	0.09223624
38	0xbd15fc56	-0.0366176
39	0xbc7899bc	-0.015173372
40	0x3d638ff8	0.05555722
41	0xbd02f1c6	-0.031968854
42	0xbe0697c5	-0.13143833
43	0xbcaddb78	-0.021222815
44	0x3d836c1f	0.06417107
45	0xbe0098d7	-0.12558304
46	0x3e2d32cb	0.16913907
47	0xbd89c7fc	-0.06727597
48	0x3dd2341e	0.10263847
49	0xbc47a358	-0.01218494
50	0xbcd613b1	-0.026132436
51	0x3df5a436	0.119942114
52	0x3dc74601	0.09730149
53	0x3d2da528	0.042393833
54	0x3ce4d326	0.027932715
55	0xbd836739	-0.064161725
56	0xbd35d1bc	-0.04438947
57	0xbd8e4475	-0.06946651
58	0xbdcb65dd	-0.09931538
59	0x3b9f1a28	0.004855413
60	0x3e14edc2	0.14543822
61	0xbd5b68ef	-0.05356687
62	0x3d93399d	0.07188723
63	0x3ddc3405	0.107521094
64	0xbdb964d8	-0.090524375
65	0x3de9c161	0.11413837
66	0x3dea6ba6	0.114463136
67	0x3dbd63e0	0.09247565
68	0x3d9309de	0.071796164
69	0xbd840257	-0.06445759
70	0x3c09b34a	0.008404562
71	0x3ddc383c	0.10752913
72	0x3d4854d3	0.04890902
73	0x3e0969d7	0.13419281
74	0x3dcb7149	0.09933717
75	0xbe0113b2	-0.1260517
76	0xbd8aac27	-0.06771117
77	0xbdf8a389	-0.12140567
78	0xbd971f50	-0.07379019
79	0xbd4eb8f3	-0.05046935
80	0x3cc5e792	0.024158273
81	0xbcabc583	-0.020968204
82	0x3df302b9	0.11865754
83	0x3d1c6fe0	0.03819263
84	0x3d3cffb1	0.046142284
85	0xbc3c7a14	-0.011503715
86	0xbda70dfc	-0.08156964
87	0xbcd2165d	-0.02564543
88	0x3d95a5e3	0.07307031
89	0xbd51bb56	-0.051204048
90	0xbda98483	-0.08277228
91	0x3dc37565	0.095438756
92	0xbe085ce0	-0.13316679
93	0xbc1bdf5c	-0.009513702
94	0x3ddeb9fc	0.108753175
95	0xbd98dbf1	-0.074638255
96	0x3d51abb8	0.051189154
97	0xbd8582e1	-0.06519104
98	0x3be0510f	0.0068456004
99	0xbd875288	-0.066075385
100	0x3b5db029	0.0033826923
101	0xbd274c98	-0.04084453
102	0xbc8d1a5d	-0.017224485
103	0xbe17ca35	-0.1482323
104	0xbd87677a	-0.066115335
105	0x3d041ed5	0.032255966
106	0x3d8dc969	0.069231816
107	0x3d6c0de0	0.05763042
108	0x3e2cf0a5	0.16888674
109	0xbdbce3b8	-0.092231214
110	0xbe2241c9	-0.15845408
111	0x3de6fae3	0.112783216
112	0xbe157825	-0.14596613
113	0xbd218527	-0.039433625
114	0xbd7b3eb1	-0.061339084
115	0xbc949212	-0.018136058
116	0x3c14ddab	0.009086053
117	0x3e0129b9	0.12613572
118	0xbd17bb3a	-0.037043788
119	0xbd60757d	-0.054799546
120	0xbd1929ef	-0.037393507
121	0x3e0c5b5c	0.13706726
122	0xbd5625a8	-0.052282006
123	0x3d814877	0.0631265
124	0xbd919adc	-0.07109615
125	0x3dfaa220	0.12237954
126	0x3dcfc5db	0.1014516
127	0x3dc6b822	0.09703089
128	0x3e08143e	0.13288972
129	0xbde2a78e	-0.11067115
130	0x3dc233c6	0.09482531
131	0xbdcc1e96	-0.09966771
132	0x3db4632b	0.08807977
133	0xbd98a196	-0.07452695
134	0x3d1e1fdf	0.038604613
135	0xbac7b46e	-0.0015236267
136	0xbd3bbda6	-0.04583516
137	0xbddebc0c	-0.10875711
138	0xbc34a4d5	-0.011025627
139	0x3dec47dc	0.115371436
140	0xbd67326e	-0.056444578
141	0xbdcca052	-0.09991516
142	0xbd144436	-0.036197864
143	0x3d14d88a	0.03633932
144	0xbd8b8909	-0.06813247
145	0x3da615b7	0.081096105
146	0x3def360b	0.1168023
147	0xbdc2f8ac	-0.09520087
148	0x3d082b4b	0.033244412
149	0xbcfcfb48	-0.030881539
150	0x3dcf3b85	0.10118774
151	0x3dcb8b7b	0.09938713
152	0x3dc0d2f3	0.09415235
153	0x3dc7f13d	0.097628094
154	0xbda117f6	-0.07865898
155	0x3d4ec5c0	0.050481558
156	0xbd0dfc81	-0.034664635
157	0x3dc4a2cc	0.096013635
158	0x3e053388	0.13007939
159	0x3d143c0a	0.03619007
160	0xbde8f7dc	-0.113754004
161	0x3dafcd5d	0.08584092
162	0x3c190b0c	0.009341013
163	0x3a706755	0.0009170671
164	0xbd001ff9	-0.03128049
165	0x3e0d938e	0.13825819
166	0xbd1efb10	-0.03881365
167	0x3c4d72f5	0.012539615
168	0xbd58634f	-0.052829083
169	0x3db74bdc	0.08950016
170	0xbde067e1	-0.10957313
171	0x3d84ada7	0.06478434
172	0xbdc5f7ca	-0.09666403
173	0xbcee4ca0	-0.029089272
174	0xbd5f0755	-0.05445035
175	0xbd11424c	-0.035463616
176	0xbb9b938c	-0.0047478136
177	0x3dce6623	0.10078075
178	0x3c083b76	0.008314958
179	0xbddf42c8	-0.109014094
180	0x3a960249	0.0011444773
181	0x3dc9f41f	0.098610155
182	0x3beaffab	0.0071715913
183	0x3a567477	0.0008180807
184	0xbce53492	-0.027979169
185	0x3d881212	0.06644072
186	0xbc88af27	-0.016685082
187	0x3d19f454	0.037586525
188	0xbd768d20	-0.06019318
189	0x3e0b64fa	0.13612738
190	0xbd2ba76c	-0.041907713
191	0xbb74f8c9	-0.0037379733
192	0x3de17f50	0.11010611
193	0xbc9dbb02	-0.019254211
194	0xbe0ece27	-0.13945828
195	0xbd27cab1	-0.040964786
196	0xbd704a57	-0.058664646
197	0x3d2d821c	0.04236041
198	0x3d17d74a	0.03707055
199	0x3d4ad320	0.04951775
200	0xbd8bd6cb	-0.06828078
201	0xbdc7cc77	-0.097557954
202	0x3c73afce	0.014873458
203	0xbdc2febe	-0.095212445
204	0xbd30b8e2	-0.043145068
205	0xbca0646b	-0.019579133
206	0xbd92db7a	-0.07170768
207	0xbdeae4e5	-0.114694394
208	0xbdd41fd4	-0.10357633
209	0x3d3a6a7e	0.045511715
210	0xbdf7ee44	-0.121059924
211	0x3df7455b	0.120737754
212	0xbd36eda2	-0.044660218
213	0xbe2dc7eb	-0.16970794
214	0xbd4cb212	-0.04997451
215	0xbd678cc7	-0.05653074
216	0x3c9987b5	0.018741468
217	0xbdfff32d	-0.12497554
218	0xbc84d5da	-0.016215254
219	0xbdd25686	-0.10270409
220	0x3dff1eaf	0.12457024
221	0xbc8bfa47	-0.017087115
222	0x3d501490	0.05080086
223	0x3cee8e98	0.029120728
224	0x3d68acc1	0.056805376
225	0xbdf569d6	-0.11983077
226	0x3d496629	0.049169693
227	0xbda5b473	-0.080910586
228	0xbd90131e	-0.07034896
229	0x3d1a3e9d	0.03765737
230	0x3dd49c16	0.103813335
231	0xbcbe8b50	-0.023259789
232	0x3d0736e5	0.033011336
233	0xbdc2a837	-0.09504741
234	0xbd6f615d	-0.058442462
235	0x3db88f4e	0.09011708
236	0x3d0bda4e	0.03414374
237	0x3cbdac25	0.023153374
238	0xbd4b2e5f	-0.04960477
239	0xbd42da3e	-0.047571413
240	0xbcf1f6b6	-0.029536586
241	0x3c1ddadd	0.009634701
242	0x3d78e5b4	0.060765937
243	0x3e09692b	0.13419025
244	0x3d749fc5	0.05972268
245	0x3dcdc28f	0.10046875
246	0xbd0d67e5	-0.03452291
247	0xbd50e379	-0.050998185
248	0xbd2b4704	-0.041815773
249	0xbe15d1d7	-0.14630829
250	0x3e1b113d	0.15143295
251	0x3c8aee2a	0.016959269
252	0x3b5fdb3b	0.003415777
253	0xbd8a50bd	-0.06753681
254	0x3dd42190	0.10357964
255	0x3db3faa9	0.08788044

modality_transformers.atac.layers.0.self_attn.in_proj_bias f4 [192]
0	0xbcfb27bd	-0.030658597
1	0x3ca44e45	0.020056853
2	0x3bab9c73	0.005237156
3	0x3a9d76e3	0.001201358
4	0xbba4d636	-0.0050304187
5	0x3c2dadcd	0.010600519
6	0xbca2a84e	-0.019855645
7	0xbcacdfa6	-0.021102738
8	0xbb56e947	-0.0032792853
9	0xbc65875e	-0.014009325
10	0x3910c509	0.00013806311
11	0xbbca0143	-0.006164701
12	0xbc41ca1b	-0.011827971
13	0x3c4c7930	0.012480065
14	0x3be08614	0.006851921
15	0xbcc115e5	-0.02357001
16	0xbd0481e7	-0.032350447
17	0xbc5c6fd7	-0.013454399
18	0xbb1eb6da	-0.0024217875
19	0x3b930256	0.0044863624
20	0xbbfd002c	-0.0077209678
21	0x3c91236f	0.017717091
22	0x3c9eb9e0	0.019375741
23	0xbbde3735	-0.0067814835
24	0x3c2e6a70	0.010645494
25	0xbc13af19	-0.0090139145
26	0x3c62da06	0.013845926
27	0xbc7f3bb6	-0.015578201
28	0xbc3f29d4	-0.011667687
29	0x3be5183c	0.0069914144
30	0x3bb2b9d5	0.005454282
31	0xbbc9457c	-0.0061423164
32	0x3b5fc16e	0.0034142393
33	0xbcbe9cce	-0.02326813
34	0xbca3a123	-0.019974297
35	0xbaf8a3cc	-0.0018969714
36	0xbd44b35a	-0.048022605
37	0x3c07706e	0.008266551
38	0xbcaa1a7e	-0.020764586
39	0xbc5794fd	-0.01315808
40	0x3c622734	0.013803292
41	0x3d201451	0.039081875
42	0xbcd0ace9	-0.025473075
43	0x3d01dde4	0.031705752
44	0x3d862852	0.06550659
45	0x3c98beb8	0.01864563
46	0xbcb03c45	-0.021513114
47	0xbcf1bcbb	-0.029508939
48	0x3b3045ab	0.0026896994
49	0xbc255b85	-0.010092621
50	0xbca46d45	-0.020071635
51	0x3c418db5	0.011813571
52	0xba750dad	-0.0009348046
53	0x3b1c8e63	0.002388858
54	0xbccb1596	-0.024790566
55	0x3ca10d84	0.019659765
56	0xbcfc6cbd	-0.03081357
57	0x3ca2eb21	0.019887509
58	0x3b82afe7	0.0039882543
59	0xbbd20982	-0.006409825
60	0xbd5b738d	-0.053576995
61	0xbc6aa007	-0.01432038
62	0xbc6e154e	-0.014531447
63	0xbb7df479	-0.0038750453
64	0x39f9dc73	0.00047657228
65	0x3b67e63b	0.003538503
66	0xbab4b89c	-0.0013787928
67	0x3b01efce	0.0019826773
68	0x3b3911e9	0.0028239435
69	0xb9ebff7d	-0.00045013046
70	0x39a35525	0.0003115322
71	0xbae07afd	-0.0017126497
72	0xb9ea9263	-0.00044741025
73	0x3ae11386	0.0017171956
74	0xbb42bf7f	-0.0029716191
75	0xbb1bc4b5	-0.002376837
76	0xbaaf360c	-0.0013367548
77	0x3b0ffea6	0.002197185
78	0xb8de68b5	-0.00010605288
79	0x3a9f7df7	0.0012168278
80	0x3a876d39	0.0010332234
81	0xbb3c84d3	-0.0028765693
82	0xbbbafc35	-0.005706335
83	0xbaa1bed2	-0.0012340194
84	0x398ca9db	0.00026829433
85	0x3b3ae419	0.0028517304
86	0x3b20538e	0.0024463865
87	0x3b0b2f32	0.0021237847
88	0x3afa55e0	0.0019099079
89	0x3a0962d9	0.00052408647
90	0xbbc36af0	-0.0059636757
91	0xbb5ca179	-0.003366558
92	0xbb07c387	-0.0020715909
93	0xbacb9c5a	-0.0015534267
94	0xbb2133ea	-0.0024597594
95	0x3b0f9b8b	0.002191278
96	0x3ad1d096	0.0016007598
97	0x3a3268d2	0.00068057806
98	0x3b8bc66d	0.0042655976
99	0x39a6631a	0.00031735824
100	0x3ae1906d	0.001720918
101	0xbac01db8	-0.0014657294
102	0x39af29e5	0.00033409815
103	0x3af19d92	0.00184338
104	0xbaf31cd4	-0.001854802
105	0xbaac09ae	-0.0013125443
106	0x3b495ccf	0.0030725484
107	0xb998f1bb	-0.00029171802
108	0xbbbcb2ee	-0.005758635
109	0xba8bf9b8	-0.001067928
110	0xb81d199e	-3.7455575e-05
111	0x3a229126	0.00062014384
112	0xba9b16f6	-0.0011832404
113	0xbb094637	-0.0020946392
114	0xbaa79e01	-0.0012788178
115	0xbb4857aa	-0.003056983
116	0xbab056ee	-0.0013453641
117	0xbaf22155	-0.0018473068
118	0x3acb8d38	0.0015529757
119	0x3aa9e84a	0.0012962904
120	0xba846c4d	-0.0010103077
121	0x3bdae958	0.006680649
122	0xb98ad828	-0.0002648246
123	0xbbbd89ed	-0.0057842643
124	0xbbc36a83	-0.005963625
125	0xba53a9f9	-0.0008074339
126	0x3a94d674	0.0011355416
127	0xbbd0c577	-0.006371196
128	0x3b1b91b7	0.0023737976
129	0x3c3d13d6	0.011540374
130	0x3a252dd1	0.00063010777
131	0x3c8748c6	0.016514193
132	0x3ba587cb	0.005051588
133	0x3cb46ef5	0.022025565
134	0x3b5e57ad	0.003392677
135	0xbc5e6806	-0.013574606
136	0xbba7ee89	-0.005124871
137	0x39f435a8	0.00046579284
138	0xbc2f79a2	-0.010710152
139	0x3bf61e14	0.00751091
140	0xbc029503	-0.0079700975
141	0xbb45131f	-0.0030071212
142	0x3ac249fb	0.0014823073
143	0x3a991530	0.0011679288
144	0x3b83a3f9	0.00401735
145	0x3c5dacdf	0.013529985
146	0x3c07b8c8	0.008283801
147	0x3bb428e5	0.005498039
148	0xbc61753b	-0.01376086
149	0xbc025f5d	-0.007957307
150	0x3c59cf9f	0.01329413
151	0xbbf4cb8d	-0.007470554
152	0xbbc4bdbe	-0.0060040643
153	0x3c8eb567	0.017420484
154	0xbb97cbf0	-0.0046324655
155	0x3c0e128c	0.008671414
156	0x3bf65aef	0.0075181643
157	0x3a0ce998	0.00053753844
158	0x3c2f6b3e	0.010706721
159	0xbc3e3c94	-0.011611123
160	0xbbff3aac	-0.0077889767
161	0xbbf5c2e6	-0.0075000403
162	0x3c533b9a	0.012892628
163	0xbb09f9d9	-0.0021053462
164	0x3c0f0833	0.008729982
165	0x3c887e64	0.01666183
166	0xbc4a01ad	-0.012329501
167	0x3be544c0	0.006996721
168	0xb9986799	-0.00029068885
169	0x3ba426a2	0.005009488
170	0xbbb021a5	-0.0053751045
171	0xbc93264c	-0.017962597
172	0x3be1e1aa	0.0068933563
173	0x3cac3be5	0.021024654
174	0xb90b7a40	-0.00013301615
175	0xbcaee338	-0.02134858
176	0x3c1e50fa	0.009662861
177	0xbb9bcd88	-0.004754726
178	0x3c9f1557	0.019419355
179	0x3c32cd6e	0.010913236
180	0xbb2c7bb0	-0.002631884
181	0x3be9c89c	0.00713451
182	0xbc6bbf6f	-0.014388903
183	0x3ca104eb	0.019655665
184	0x3c87c159	0.016571688
185	0xbb874b62	-0.0041288594
186	0xbb15f250	-0.0022880025
187	0xbbf58743	-0.007492931
188	0x3a137b10	0.0005625943
189	0x3c2377b4	0.00997727
190	0x3b4c8f3c	0.0031213304
191	0x3bd3b439	0.006460693

modality_transformers.atac.layers.0.self_attn.out_proj.weight f4 [64, 64]
0	0xbe2c8a59	-0.1684965
1	0x3e1eaef4	0.15496427
2	0x3e13bc0a	0.144272
3	0xbe300dcb	-0.17192762
4	0x3cd29497	0.025705619
5	0xbdd59388	-0.1042853
6	0xbd9ee972	-0.0775937
7	0xbdceeb6e	-0.101034984
8	0xbe1948ae	-0.14969131
9	0x3e5ab0b0	0.21356463
10	0x3e2b89cc	0.16751784
11	0xbd2c1f5f	-0.042022105
12	0x3d10fddf	0.03539836
13	0x3dd5cc67	0.10439377
14	0x3b32d1ec	0.0027285768
15	0xbc907038	-0.017631635
16	0xbd1313e2	-0.035907634
17	0xbe71b1ca	-0.23602977
18	0x3de1ff67	0.11035042
19	0x3e38ffad	0.18066283
20	0x3d1ff6a3	0.03905357
21	0x3de5ca4c	0.11220226
22	0x3c187205	0.009304528
23	0xbc2e344b	-0.010632585
24	0xbe20bcc5	-0.1569701
25	0x3cdf05e8	0.027224496
26	0xbe1b0122	-0.15137151
27	0x3e26dbbe	0.16294762
28	0xbe30fea8	-0.17284644
29	0x3d4d35a0	0.05009997
30	0xbe07d8db	-0.13266318
31	0x3df7b812	0.120956555
32	0xbe3b0127	-0.18262158
33	0x3d151f20	0.036406636
34	0x3d7512ff	0.05983257
35	0xbdd4dd61	-0.10393787
36	0x3e37b453	0.17939882
37	0xbd8cb2e0	-0.06870055
38	0x3d9a19a5	0.075244226
39	0xbe3ca008	-0.18420422
40	0xbe2c6784	-0.16836363
41	0xbe0e7e63	-0.139154
42	0x3d9e8e04	0.07741931
43	0x3e839fee	0.25707954
44	0x3e05ea3a	0.13077632
45	0x3e4f0bb9	0.20219316
46	0xbe1cd68e	-0.15316221
47	0xbd950bcf	-0.07277643
48	0xbe410e3e	-0.18853089
49	0x3d989294	0.074498326
50	0xbdeff7f3	-0.117172144
51	0x3bdd82a1	0.006759957
52	0x3d5f2c17	0.054485407
53	0x3d98c82e	0.07460056
54	0x3e13f921	0.14450504
55	0xbe7b9a6c	-0.24570626
56	0x3dbf8c88	0.09352976
57	0x3d78520c	0.06062512
58	0xbdac6564	-0.08417776
59	0xbdaa5015	-0.08316056
60	0xbd957003	-0.07296755
61	0xbe182770	-0.14858794
62	0xbd54dd11	-0.051968638
63	0xbdebf9c8	-0.11522251
64	0x3dcbf0dc	0.0995805
65	0x3e5dc90a	0.21658722
66	0x3dfe838f	0.124274366
67	0x3dd68206	0.10474019
68	0x3dc01a7f	0.09380054
69	0xbbcf3975	-0.006323988
70	0x3e24ceb2	0.16094473
71	0xbe03dc9a	-0.12877122
72	0x3b7173b4	0.0036842646
73	0xbe12bdca	-0.14330211
74	0xbd8b8686	-0.06812768
75	0x3d8b0c9d	0.06789515
76	0xbe261935	-0.16220553
77	0x3cba2827	0.022724224
78	0x3c6eb9c3	0.014570656
79	0x3e49c771	0.19704987
80	0x3e6d5655	0.23177464
81	0x3e3f574b	0.18685643
82	0x3e5bfe99	0.2148384
83	0x3c4e79cf	0.012602284
84	0xbe069de5	-0.1314617
85	0x3e510280	0.2041111
86	0x3d114ac6	0.0354717
87	0x3e66d663	0.2254272
88	0x3e50472c	0.2033965
89	0xbd881141	-0.06643916
90	0x3df8b974	0.121447474
91	0x3d121b21	0.035670403
92	0x3ddf441e	0.10901664
93	0x3d86f1a9	0.06589062
94	0x3e19eacc	0.15030974
95	0xbcf4edc9	-0.029898541
96	0x3d4123f1	0.047153417
97	0xbcb2611a	-0.021774817
98	0x3d5c3528	0.05376163
99	0xbe4060af	-0.18786882
100	0x3dd172eb	0.10226997
101	0xb9f4139c	-0.00046553917
102	0xbc04f3fb	-0.00811481
103	0x3d69c1da	0.057069637
104	0xbe10ed19	-0.14152946
105	0x3e2256ce	0.15853426
106	0x3d9f5dbb	0.077815495
107	0xbdc2d65b	-0.09513541
108	0x3e1c8285	0.15284164
109	0xbc8186f1	-0.015811415
110	0xbe3f5aa9	-0.18686928
111	0xbda3a4a3	-0.07990386
112	0xbdfd1450	-0.1235739
113	0xbe29a395	-0.16566308
114	0xbd795512	-0.060872145
115	0x3d053e54	0.032530144
116	0xbe2fd069	-0.17169346
117	0x3e1c94c4	0.15291125
118	0x3e195264	0.14972836
119	0x3ca148dd	0.019688064
120	0xbe3d082d	-0.1846015
121	0xbc3fc676	-0.011705032
122	0x3dcc9cbc	0.09990832
123	0xbe0028c7	-0.12515555
124	0x3dab6dfb	0.083705865
125	0xbbdf954e	-0.0068232184
126	0xbe0b849c	-0.13624805
127	0xbe11cdf8	-0.14238727
128	0x3d3d5e86	0.046232723
129	0x3d21de0c	0.0395184
130	0xbd780943	-0.060555708
131	0x3d3b162f	0.045675453
132	0xbd0ea910	-0.0348292
133	0x3e2a337c	0.16621202
134	0x3d8c7322	0.06857897
135	0x3e74fa18	0.23923528
136	0xbd7ed68e	-0.062216334
137	0x3e37c314	0.1794551
138	0x3dc2cbce	0.09511529
139	0xbce44ede	-0.027869638
140	0xbe247e75	-0.16063865
141	0xbde41f21	-0.1113875
142	0x3d9aab9c	0.07552263
143	0x3e13e8bd	0.14444251
144	0xbde4ea2d	-0.11177478
145	0x3e816901	0.25275424
146	0xbe5d269b	-0.21596758
147	0x3e376d5e	0.17912814
148	0x3c83ed3c	0.016104333
149	0xbd787ceb	-0.060666006
150	0x3dc4023b	0.09570738
151	0x3e3a0001	0.18164064
152	0x3e00cd14	0.12578231
153	0xbe2fa943	-0.17154412
154	0x3e2289b1	0.15872838
155	0x3dbfc636	0.093639776
156	0x3c5ed268	0.013599969
157	0xbcc0be83	-0.023528343
158	0xbda30d6d	-0.07961545
159	0x3dfd7f77	0.123778276
160	0x3bc51f32	0.0060156817
161	0x3d9a3cc7	0.075311236
162	0x3df8f1c0	0.12155485
163	0xbda0ad65	-0.078455724
164	0x3e758925	0.23978098
165	0x3ca8f36e	0.020623889
166	0xbcd59502	-0.026072029
167	0x3def4104	0.116823226
168	0xbe587104	-0.21136862
169	0xbcbcd178	-0.023049101
170	0x3decf3bb	0.115699254
171	0xbd2c712b	-0.042100113
172	0xbde9ab83	-0.114096664
173	0xbbd59664	-0.006518172
174	0xbbc90c52	-0.006135502
175	0x3e2a5c16	0.1663669
176	0xbc970861	-0.018436613
177	0x3d97e28c	0.07416257
178	0x3e499636	0.19686207
179	0x3c4865c5	0.012231295
180	0xbd846567	-0.064646535
181	0x3d9d7ecb	0.076901995
182	0x3dec5553	0.11539712
183	0xbe1c2aa2	-0.15250638
184	0x3d8ac064	0.06774977
185	0xbdff564a	-0.1246763
186	0x3d80390d	0.062608816
187	0x3d995dac	0.074885696
188	0xbdd572b6	-0.1042227
189	0x3d0b30f9	0.03398225
190	0x3e47eae6	0.195232
191	0xbd38b3c9	-0.04509333
192	0xbbd11f14	-0.0063818786
193	0xbc53a662	-0.012918087
194	0xbd343c95	-0.044003088
195	0xbe36470b	-0.17800538
196	0xbe3a9cf5	-0.18223937
197	0xbd7cf208	-0.061754256
198	0xbd781883	-0.06057025
199	0x3e79995c	0.24374908
200	0x3dff65f8	0.12470621
201	0xbddbbb05	-0.107290305
202	0xbe3297bc	-0.17440695
203	0xbe522f4f	-0.2052586
204	0xbe678b7a	-0.226118
205	0xbce87515	-0.028376142
206	0xbd64b5a4	-0.05583729
207	0xbe1bef33	-0.15227966
208	0x3e066c1f	0.13127182
209	0xbd7f2230	-0.062288463
210	0xbde28ad9	-0.11061639
211	0xbe07f520	-0.13277102
212	0xbda1350d	-0.07871447
213	0xbd828dc4	-0.06374696
214	0xbdb9be36	-0.09069483
215	0xbe340115	-0.17578538
216	0xbe171d7c	-0.14757341
217	0xbe5607df	-0.2090144
218	0x3dd71862	0.105026975
219	0xbdf22f84	-0.11825469
220	0xbe4dca00	-0.20096588
221	0x3c360644	0.011109892
222	0xbe626600	-0.22109222
223	0x3e13780f	0.14401267
224	0x3db321f7	0.08746713
225	0x3cafbb45	0.021451602
226	0x3dd748b3	0.10511913
227	0x3e153f86	0.14575014
228	0x3c0be840	0.008539259
229	0x3d5d7f35	0.054076392
230	0x3e0b4d10	0.13603616
231	0x3db55444	0.08853963
232	0x3db73378	0.08945364
233	0x3d471261	0.048601512
234	0x3e078a63	0.13236384
235	0x3d97a689	0.07404811
236	0xbe2f00fa	-0.17090216
237	0xbe550577	-0.20802866
238	0x3e4e285e	0.20132586
239	0x3d6c352a	0.05766789
240	0x3a3fae6f	0.00073120644
241	0x3d41f045	0.04734828
242	0xbcc721fb	-0.024308195
243	0x3c875d34	0.016523935
244	0x3e15335e	0.14570376
245	0xbe0ee95a	-0.13956204
246	0x3d201717	0.03908452
247	0xbe6a2fbd	-0.22869773
248	0xbd894263	-0.067021154
249	0xbd6fadea	-0.058515467
250	0xbe10f8e9	-0.14157452
251	0xbd357413	-0.04430015
252	0x3e0d5a95	0.13804086
253	0x3dd23e97	0.10265844
254	0xbd3dc49a	-0.046330072
255	0xbdf77d75	-0.12084476

modality_transformers.atac.layers.0.self_attn.out_proj.bias f4 [64]
0	0xbcb90120	-0.022583544
1	0x3bb1ba21	0.0054237996
2	0x3ba7e69c	0.0051239263
3	0xbcecd8fb	-0.028912058
4	0x3c77f258	0.015133463
5	0x39e6b77d	0.00044005728
6	0x3c7e4934	0.015520383
7	0xbb9048cb	-0.004403209
8	0xbba68f45	-0.005082997
9	0x3b246792	0.0025086147
10	0x3cbacd4f	0.022802977
11	0xbc9dfbd0	-0.019285113
12	0xbc92df39	-0.017928706
13	0xbc5b0a82	-0.0133692045
14	0xbb5fa35b	-0.0034124467
15	0x3a91532f	0.0011087413
16	0x3bab12c2	0.005220742
17	0xbb7c5c87	-0.00385073
18	0xba3101cc	-0.0006752282
19	0xbb58aee0	-0.0033063218
20	0x3b051bb9	0.0020310713
21	0x3b12565d	0.0022329309
22	0x3c0d4fc3	0.008624974
23	0xbbbfc01c	-0.0058517586
24	0xbb320132	-0.0027161357
25	0xbc8d68af	-0.017261831
26	0x3cd6c684	0.026217707
27	0xbc81b1e2	-0.015831891
28	0xbb0874e8	-0.0020821635
29	0xbc558742	-0.013032736
30	0xbc596cd1	-0.013270573
31	0xbc4fab3a	-0.012675101
32	0x3c76896f	0.015047415
33	0xbc9095cf	-0.01764956
34	0x3b2ab314	0.002604668
35	0x3bafaa0a	0.0053608464
36	0xbbebf0c3	-0.007200332
37	0x3b985c92	0.004649707
38	0x38e4e8bf	0.000109152395
39	0xbb707863	-0.003669285
40	0xbc9569c9	-0.018238919
41	0x3b43a7f0	0.0029854737
42	0x3bda2338	0.0066570304
43	0xbcb94584	-0.022616155
44	0x3c4bf8da	0.012449468
45	0x3c84fefa	0.016234864
46	0x3c1ecdd3	0.009692627
47	0x3ccc300c	0.024925254
48	0xbbfe5551	-0.0077616354
49	0x3acbdcff	0.0015553533
50	0x39ecb537	0.00045148443
51	0x3c97b808	0.01852037
52	0x3c7df57e	0.015500424
53	0xbc0fb451	-0.008771018
54	0x3bf956c1	0.007609219
55	0x3b81dc4f	0.0039630304
56	0x3b42a01e	0.0029697488
57	0xbcbd7e03	-0.023131376
58	0x3c8540d2	0.01626626
59	0xb98383ab	-0.00025084367
60	0x3bf8e0c6	0.0075951545
61	0xbcada069	-0.021194654
62	0x3ca4e67b	0.020129433
63	0xbc1ba6a8	-0.009500183

modality_transformers.atac.layers.0.linear1.weight f4 [256, 64]
0	0x3d945e39	0.07244534
1	0xbcd78107	-0.026306642
2	0x3dbd6068	0.09246904
3	0xbd910cab	-0.07082494
4	0xbd29db99	-0.04146919
5	0xbdbd9d05	-0.09258465
6	0xbdcd5ee1	-0.10027862
7	0x3d85f603	0.06541064
8	0xbd27903f	-0.04090905
9	0x3d10f9e8	0.03539458
10	0xbcb501cc	-0.022095583
11	0x3cfd673c	0.030933015
12	0x3d4d9513	0.050190996
13	0xbd626eb6	-0.055281363
14	0x3e206a5a	0.1566557
15	0x3d9cff4b	0.07665881
16	0xbd62e9c3	-0.055398714
17	0x3db6cb55	0.08925501
18	0x3de6de1f	0.11272835
19	0xbe1669c2	-0.14688781
20	0xbd5e83e3	-0.054324996
21	0x3e1005b7	0.1406468
22	0xbbd1ddf2	-0.006404632
23	0xbda2e46e	-0.07953726
24	0xbcb78171	-0.02240059
25	0xbd02ae83	-0.03190471
26	0xbd25d584	-0.040486827
27	0xbda9a719	-0.082838245
28	0x3d87e239	0.066349454
29	0xbda09200	-0.07840347
30	0xbd310b8c	-0.043223903
31	0xbd7d16ec	-0.061789438
32	0x3dc6dd3f	0.09710168
33	0xbdb30097	-0.08740347
34	0xbda6e7ea	-0.08149703
35	0x3d1b4edb	0.037917
36	0x3e207ca9	0.15672554
37	0xbd997e60	-0.07494807
38	0x3dcf6a4b	0.10127696
39	0xbde342ea	-0.11096747
40	0xbc283de8	-0.010268666
41	0xbc761877	-0.015020481
42	0xbe1737c1	-0.14767362
43	0xbd96dac5	-0.07365946
44	0x3e03678f	0.12832473
45	0x3de22759	0.11042661
46	0xbd4cff63	-0.050048243
47	0xbd5404fa	-0.05176256
48	0xbd603668	-0.054739386
49	0xbd4af7bb	-0.04955266
50	0x3dac547f	0.08414554
51	0x3d8c6d6a	0.068568066
52	0x3c2999d3	0.010351616
53	0xbdddc078	-0.10827726
54	0xbc4cae68	-0.012492754
55	0xbd33be91	-0.04388291
56	0x3df49d4a	0.11944063
57	0x3deb22f1	0.11481274
58	0x3ca1e2fa	0.019761551
59	0x3debe376	0.11517994
60	0xbd21c4d9	-0.03949437
61	0xbc470e50	-0.012149408
62	0x3e14ae42	0.14519599
63	0xbdabcda8	-0.08388835
64	0xbda68347	-0.08130508
65	0x3d2b6561	0.04184473
66	0x3c7c634c	0.015404534
67	0x3de015ec	0.10941681
68	0xbbb5c481	-0.0055471067
69	0x3d8b692d	0.0680717
70	0xbc3e6458	-0.0116206035
71	0xbd93582e	-0.07194553
72	0xbdc9f3bb	-0.09860941
73	0x3d014166	0.03155651
74	0xbde9a92a	-0.114092186
75	0x3d54fceb	0.051999014
76	0xbcf5a58e	-0.02998617
77	0xbd9e6f2c	-0.07736048
78	0x3d47c7e4	0.048774615
79	0x3c2a3bbb	0.010390217
80	0xbda2e1fe	-0.07953261
81	0x3e06b0c5	0.1315337
82	0xbcd16638	-0.025561437
83	0x3dbcd228	0.092197716
84	0xbda5972a	-0.08085473
85	0x3dd2a676	0.10285656
86	0xbd7d2bd9	-0.061809395
87	0xbde78a78	-0.11305708
88	0xbde2a224	-0.11066082
89	0x3d2ccd42	0.042187937
90	0x3dae53ce	0.08512078
91	0xbd807d8a	-0.06273945
92	0xbcd09b5f	-0.025464712
93	0xbde7a081	-0.113099106
94	0xbc83384d	-0.016018057
95	0xbcb092c4	-0.021554358
96	0xbdaa9f20	-0.08331132
97	0xbddfd14b	-0.10928591
98	0xbc62306f	-0.013805493
99	0x3d9d6a6a	0.076863125
100	0xbd7f4422	-0.062320836
101	0xbd3de749	-0.04636315
102	0xbcab9442	-0.020944718
103	0x3cd4e419	0.025987672
104	0xba8c00f2	-0.0010681434
105	0xbd1f8301	-0.038943294
106	0xbdb444d7	-0.08802193
107	0x3bce17fc	0.0062894803
108	0xbdb3b79f	-0.08775257
109	0x3da03c5a	0.07824011
110	0x3dac0516	0.083994076
111	0xbe149607	-0.14510356
112	0x3cde3daa	0.027129013
113	0x3c6cb161	0.014446587
114	0x3d9663bf	0.07343244
115	0x3ddff706	0.10935788
116	0x3d79b6fb	0.06096552
117	0x3dd75a35	0.105152525
118	0x3d96f3c8	0.07370716
119	0x3c884c45	0.01663793
120	0xbcb1549d	-0.021646792
121	0xbd847ec6	-0.064694926
122	0x3df72db9	0.12069268
123	0xbd6728a3	-0.05643524
124	0x3dd9a6b2	0.10627498
125	0xbd6c46ca	-0.057684697
126	0x3d1d36b3	0.038382243
127	0x3e01c67a	0.12673369
128	0xbd2435b5	-0.04009028
129	0xbd869abb	-0.06572481
130	0xbd620abe	-0.055186026
131	0x3d7e9b55	0.062159855
132	0xbdcf7b52	-0.10130943
133	0x3d57cdbd	0.05268644
134	0xbd988ff1	-0.0744933
135	0xbdb35466	-0.08756332
136	0xbe1205db	-0.14260046
137	0xbdd14575	-0.10218326
138	0x3dad0bc3	0.08449509
139	0x3dafb70b	0.085798346
140	0x3d4efa55	0.050531704
141	0xbdd59495	-0.104287304
142	0x3de888ec	0.11354241
143	0x3dc9c59a	0.09852143
144	0x3da6e0aa	0.0814832
145	0xbd4a00b9	-0.049317095
146	0x3c95a7b4	0.018268444
147	0x3be66fad	0.0070323558
148	0xbd44c854	-0.04804261
149	0xbd2b5d4b	-0.041837018
150	0xbe2e66c7	-0.17031394
151	0xbc648bad	-0.013949317
152	0xb9db37d0	-0.0004181252
153	0x3d8ad155	0.06778208
154	0x3cc69df5	0.024245242
155	0x3b3decf8	0.0028980356
156	0xbddb2681	-0.107007034
157	0xbd319468	-0.04335442
158	0x3c965c29	0.018354492
159	0xbcd8f1a2	-0.026482407
160	0x3e028115	0.12744553
161	0x3de0015f	0.109377615
162	0xbcdb9c55	-0.026807943
163	0x3e00de2a	0.12584749
164	0x3df43703	0.11924555
165	0x3d51543c	0.051105723
166	0xbd7730c5	-0.060349245
167	0xbe263e09	-0.16234602
168	0x3a8afab7	0.0010603283
169	0x3d4d5add	0.050135482
170	0x3ddd2b86	0.10799317
171	0x3d600f78	0.054702252
172	0x3d5e57ac	0.05428283
173	0xbd2241f3	-0.039613675
174	0xbd41e83b	-0.047340613
175	0xbdc79b71	-0.09746445
176	0x3e0f98bd	0.14023109
177	0xbe03642e	-0.12831184
178	0x3c9ed684	0.019389398
179	0x3c8ff275	0.017571667
180	0xbcb8f08c	-0.02257564
181	0xbd5bc46c	-0.05365412
182	0x3caef5d6	0.021357458
183	0x3dc2921f	0.09500527
184	0x3dbc58dc	0.09196636
185	0xbcc8c6bb	-0.024508825
186	0x3d15cf29	0.036574516
187	0x3d9821a4	0.074282914
188	0xbdf65414	-0.120277554
189	0x3c2b1a68	0.010443307
190	0xbd94c125	-0.07263402
191	0x3d75ef39	0.060042594
192	0xbe1fefc1	-0.15618803
193	0xbd7d2f46	-0.06181266
194	0xbd223d8d	-0.03960948
195	0xbdc9bf27	-0.098509125
196	0xbdb37902	-0.08763315
197	0xbd49c757	-0.04926237
198	0x39c0c44b	0.00036767343
199	0x3d66b66e	0.056326322
200	0xbcf2cb73	-0.029638028
201	0xbd1a8cb2	-0.037731834
202	0x3da9f2cb	0.08298262
203	0xbe108240	-0.14112186
204	0xbc4eb094	-0.012615342
205	0x3dcaa732	0.09895171
206	0x3d3b0673	0.045660447
207	0x3c818491	0.015810283
208	0xbd830787	-0.0639792
209	0xbcd7b4da	-0.026331354
210	0xbd9d27a7	-0.07673579
211	0xbc4d13ae	-0.012516899
212	0xbda9341d	-0.08261893
213	0x3dfc972c	0.12333521
214	0x3e0182f8	0.12647617
215	0xbdad1c83	-0.08452704
216	0x3d475a0c	0.04866986
217	0x3c96a27f	0.018388031
218	0x3e1c9f3f	0.15295123
219	0xbd0d919b	-0.03456269
220	0xbd9110cb	-0.07083281
221	0x3d0ef482	0.03490115
222	0xbd5cdf8e	-0.053924136
223	0x3dc1ec6e	0.094689235
224	0x3dedd18d	0.11612234
225	0x3d20948d	0.03920417
226	0x3d588eee	0.052870683
227	0xbe0c1611	-0.13680293
228	0x3e10defe	0.14147565
229	0x3da59eca	0.08086927
230	0x3de462e3	0.11151674
231	0xbd660861	-0.056160334
232	0x3daa2a60	0.08308864
233	0x3d78436f	0.060611185
234	0x3da4a8de	0.08040021
235	0xbcd42355	-0.025895754
236	0xbd821f28	-0.06353599
237	0x3d9e441c	0.077278346
238	0xbd0503ed	-0.032474447
239	0xbe290c25	-0.16508539
240	0x3d64d004	0.05586244
241	0xbdf027c9	-0.117263384
242	0xbc2f54e8	-0.010701396
243	0x3ca8c438	0.020601377
244	0x3dcb2e53	0.09920945
245	0x3d2f81b8	0.04284832
246	0x3d35b2f7	0.044360127
247	0xbdc97f94	-0.09838787
248	0xbd31531b	-0.043292146
249	0x3cbc94aa	0.023020107
250	0x3d364616	0.044500433
251	0xbd16313a	-0.03666804
252	0xbb179b6d	-0.0023133412
253	0x3dce8411	0.100837834
254	0xbe14ae8e	-0.14519712
255	0xbdafe7e4	-0.085891515

modality_transformers.atac.layers.0.linear1.bias f4 [256]
0	0xbbcdc8a0	-0.00628002
1	0xbc890a64	-0.016728587
2	0x3ca8f725	0.02062566
3	0xbca3d3cf	-0.01999846
4	0xbbb4ec7a	-0.0055213543
5	0xbab38749	-0.0013696934
6	0xbc22d950	-0.009939507
7	0xbcf15c27	-0.029462887
8	0xbc55143d	-0.013005313
9	0x3c475a07	0.01216746
10	0xbce680d8	-0.02813761
11	0xbb3f2adc	-0.0029169833
12	0xbcdde77d	-0.027087921
13	0xbcbdb10f	-0.023155717
14	0xbc3c2b78	-0.011484973
15	0xbc48796b	-0.01223598
16	0x3c622c53	0.013804513
17	0xbc10ea64	-0.008844946
18	0x3c171f6b	0.009223799
19	0xbd116b57	-0.035502758
20	0x3cc2d844	0.023784764
21	0x3b4cf212	0.0031272215
22	0xbb973836	-0.004614855
23	0xbc6adf38	-0.014335446
24	0xbcb7c818	-0.02243428
25	0xbc60d05d	-0.013721553
26	0x3c81dafe	0.015851494
27	0xbcba4167	-0.022736264
28	0x395c6ce5	0.00021021401
29	0x3b03776d	0.0020060197
30	0xbb8d6f0c	-0.0043162163
31	0xbbd0266a	-0.0063522356
32	0xbbced469	-0.0063119424
33	0xbc292dc6	-0.010325855
34	0xbbffeaf3	-0.0078099906
35	0x3cb3cbea	0.02194782
36	0x3c334ca2	0.010943564
37	0x3c6a1830	0.014287993
38	0xbc1d3f7b	-0.009597654
39	0xb96781ce	-0.00022078233
40	0x3c5f95d9	0.013646566
41	0x3c9af55c	0.018915825
42	0x3b94c7c1	0.004540414
43	0xbc99b0da	-0.018761087
44	0xbc902f2e	-0.017600622
45	0xba4c1c12	-0.0007786165
46	0xbad40c01	-0.0016177894
47	0x3adfe4e8	0.0017081769
48	0xba594977	-0.000828884
49	0xbbdd52da	-0.0067542614
50	0xb94338ec	-0.00018617854
51	0x3c391623	0.011296782
52	0xbc32e746	-0.010919398
53	0x3bff500a	0.007791524
54	0x3c0ab9cd	0.00846715
55	0xbc8492b8	-0.016183242
56	0xba6e0009	-0.0009078985
57	0x3c272644	0.010201994
58	0x3c5f71ed	0.013638002
59	0xbcf58a03	-0.029973036
60	0x3b53da03	0.003232599
61	0xbc40aba5	-0.011759673
62	0x3b10c2d0	0.0022088774
63	0xbc832a6e	-0.016011443
64	0xbc429d73	-0.011878359
65	0xbc90624e	-0.017625
66	0x3a9f9865	0.0012176154
67	0x3d787488	0.060658008
68	0x3c0212e8	0.007939078
69	0x3be8439d	0.0070881383
70	0x3ce267d1	0.027637394
71	0xbb2fe66d	-0.0026840225
72	0xbc3cb800	-0.011518478
73	0x3cc81b22	0.024427
74	0xbbfbd96a	-0.00768583
75	0xbcba993a	-0.022778142
76	0xbbaf784b	-0.005354916
77	0xbcaeeaf0	-0.021352261
78	0x3bae1323	0.00531234
79	0xbc32b831	-0.0109081725
80	0xbc01dd81	-0.007926346
81	0x3c05973e	0.008153735
82	0xbb72b68a	-0.0037035071
83	0xbc5e2da6	-0.013560688
84	0xbca89377	-0.02057813
85	0x3c9b12e9	0.018929916
86	0xbc00b19b	-0.007854844
87	0xbc46c665	-0.012132262
88	0xbc720d6f	-0.014773711
89	0x3b1c1249	0.002381461
90	0x3cf1b71d	0.02950626
91	0xbcce86f7	-0.02521084
92	0x3b2cbb36	0.0026356704
93	0xbc9a55ad	-0.018839682
94	0xb87dfbc0	-6.055436e-05
95	0xbc867020	-0.016410887
96	0x3c7c8a16	0.015413782
97	0xbca5f449	-0.020258086
98	0xbc1c5472	-0.009541618
99	0xbc073117	-0.00825145
100	0xbc7de8ea	-0.015497426
101	0xbcbbbabc	-0.02291619
102	0x3ca6d49a	0.020365048
103	0x3c966215	0.018357316
104	0xbcd8d1d8	-0.026467249
105	0x3c221bf5	0.009894361
106	0x3caeff13	0.021361863
107	0xba2841ae	-0.00064184784
108	0x3c73014c	0.014831852
109	0xbc9b6141	-0.018967273
110	0xbc6129dc	-0.01374289
111	0xbb63db51	-0.0034768174
112	0x3c136279	0.008995646
113	0x3c5bb0ea	0.013408879
114	0xbbe8a00d	-0.0070991577
115	0xbbdc1c60	-0.0067172498
116	0xbb92658d	-0.004467672
117	0xbc7887a6	-0.01516906
118	0xbaa060d7	-0.0012235892
119	0xbc6b954d	-0.014378858
120	0x3c79145a	0.015202606
121	0xbc2a8c90	-0.010409489
122	0xbadacffa	-0.0016694062
123	0x3b98aadc	0.00465904
124	0xbc4355b0	-0.011922285
125	0x3c1e3b0a	0.009657631
126	0xbc28806c	-0.010284524
127	0x3c8d590a	0.017254371
128	0xbc0011b0	-0.007816717
129	0xbc5194b0	-0.0127917975
130	0xbb94804c	-0.0045318957
131	0xbd09bbc5	-0.033626337
132	0x3b09e007	0.0021038072
133	0xbad9fd17	-0.0016631213
134	0xbcfff6cf	-0.031245617
135	0x3d6feab5	0.058573443
136	0xbc8cf8da	-0.017208505
137	0xbcb49956	-0.022045773
138	0xbae86f4a	-0.0017733362
139	0xbc8c71dd	-0.017144138
140	0xbc6ca940	-0.014444649
141	0xbc6bfdb1	-0.014403746
142	0xbc5b25df	-0.013375728
143	0xbcffed80	-0.031241179
144	0xbccb610d	-0.02482655
145	0x3c30a130	0.010780618
146	0x3a53b897	0.0008076517
147	0xbb9671da	-0.004591209
148	0x3ba1b53b	0.0049349344
149	0x3b5871a1	0.0033026712
150	0x3b865200	0.0040991306
151	0xbc8dad76	-0.017294627
152	0xbc3b0338	-0.011414342
153	0x3c2101db	0.009827103
154	0xbaf1874d	-0.0018427164
155	0xbc65c198	-0.014023207
156	0x3b4ce306	0.0031263246
157	0xbd0373ba	-0.032092787
158	0x3d23fba7	0.040034916
159	0x3c0773bd	0.00826734
160	0xbc11919e	-0.0088848155
161	0xbc48ddfb	-0.0122599555
162	0xbbebfb6f	-0.007201604
163	0xbc268388	-0.010163195
164	0x3b0ceeb0	0.0021504574
165	0x3cda1448	0.026620999
166	0xbd24aab1	-0.040201847
167	0xbc88f380	-0.016717672
168	0xbcbf94f5	-0.023386458
169	0x3c5697cb	0.013097714
170	0xba9c4e5b	-0.0011925207
171	0xbc357c9f	-0.011077075
172	0xbd26166c	-0.040548727
173	0xbc44b655	-0.012006362
174	0xbca4cb76	-0.020116549
175	0xbc75ef26	-0.015010631
176	0xbc91cf5d	-0.017799074
177	0xbcc8522c	-0.024453245
178	0xbc0903a5	-0.008362685
179	0x3c0c9087	0.00857938
180	0xbc325039	-0.010883384
181	0xbc648688	-0.01394809
182	0x3b8ffaad	0.0043938966
183	0x3bcae4ee	0.0061918413
184	0xba38194c	-0.00070228125
185	0x3c4204a9	0.011841931
186	0xbc2f2e87	-0.010692245
187	0xbc4db68e	-0.012555731
188	0xbc711fdb	-0.014717068
189	0x3d11e5ca	0.035619535
190	0x3bfa2b06	0.0076345233
191	0xbc83cd89	-0.016089218
192	0xbc216dc2	-0.009852828
193	0xbcd0a83e	-0.02547085
194	0x3c468dc0	0.012118757
195	0x3aa83a50	0.0012834761
196	0x3cc9093d	0.024540538
197	0x3a961faf	0.0011453534
198	0x3b4badbf	0.0031078903
199	0xbca2343e	-0.019800302
200	0xbc838191	-0.016052993
201	0xbca286ce	-0.01983967
202	0xbb677fb6	-0.0035323924
203	0x3bd3c8e5	0.0064631575
204	0x3c705a31	0.014669941
205	0xbaf201c3	-0.001846366
206	0x3b9f7544	0.004866274
207	0x3be17764	0.0068806875
208	0xbc36752c	-0.011136334
209	0xbb0f5b40	-0.0021874458
210	0xbb6c89ee	-0.0036092955
211	0x3b56394b	0.0032687958
212	0xbc0c0a8a	-0.008547435
213	0xbb9009cb	-0.0043956987
214	0xbb2b044f	-0.0026095097
215	0xbbc35d15	-0.005962024
216	0xbbe6b6b9	-0.007040825
217	0xbc7a7e44	-0.015288893
218	0xbc0e7eb4	-0.008697201
219	0x3c1194fc	0.008885618
220	0xbcbce5b4	-0.02305875
221	0x3c8b072c	0.016971193
222	0x3cb21683	0.02173925
223	0x3b729e6d	0.0037020699
224	0xbc0ca281	-0.008583666
225	0xbcb0bd4e	-0.021574643
226	0x3c0fb0f1	0.008770213
227	0xbb264644	-0.0025371471
228	0xbc4b9c94	-0.012427468
229	0xbc71988e	-0.0147458445
230	0x3b7e3ef2	0.0038794843
231	0x3affc602	0.0019513967
232	0x3c03e4b3	0.008050132
233	0xbc3048b6	-0.010759523
234	0xba4aaccb	-0.00077314366
235	0x3c921117	0.017830415
236	0xbce99d89	-0.028517501
237	0x3c24f07a	0.0100671
238	0x3ac6c0bd	0.0015163642
239	0xbcb4a993	-0.022053516
240	0xbc6528c8	-0.013986774
241	0xbbc81ace	-0.006106711
242	0x3d2b6605	0.04184534
243	0xbb4838f4	-0.0030551525
244	0x3b1d4db1	0.0024002607
245	0x3bb52d04	0.005529048
246	0xba073046	-0.00051570346
247	0x3c95a61f	0.01826769
248	0x3c48aece	0.012248708
249	0x3c8ed3ca	0.017434973
250	0xbca2ec54	-0.01988808
251	0xbb8f7c23	-0.004378812
252	0x3c4e2e55	0.012584289
253	0xbc58c7c3	-0.013231221
254	0x3c21f5cb	0.009885262
255	0x3c6d5e4d	0.014487815
