ml_output/L6_CT_CTX_Glut/atac/model_3.pth (torch, 474380 bytes, 48 tensors)

query f4 [1, 64]
00000000: 9c4d 0fc0 bcc2 e3be 1895 043d f8e5 873d
00000010: ec7a 93be f4f3 ad3f e2f0 0ac0 c077 bc3e
00000020: c102 96bf 7390 303f 820c 39bf 749f c5bf
00000030: de1d 893d d7aa 533f 16d5 203e aab5 aa3f
00000040: b2b2 293e 8cdb cdbe a77a 2bbf 295e e03f
00000050: 62a9 22be 3d48 2a3e 3078 fdbe 8313 f0be
00000060: 1330 43c0 991c e8be dc05 cabd 9228 6dbf
00000070: e447 22c0 3262 c7bd a437 0a3f 3a78 8f3e
00000080: 40d4 5fbe 9c9d 4a3f 2d12 253f 7d0f 3ebc
00000090: e022 c33f 611b 1b3f 4c94 f2be 701d 00bf
000000a0: e923 54bc 20ad 5c3f 2999 c6be 1f18 323c
000000b0: cf5e 593e 49db 3abe 690b f5be f184 5fbe
000000c0: 6f52 4c3f 0964 83bf ca2f 583f ae82 04bf
000000d0: 8921 eabe 3838 b3bd 89f9 02bd 4320 453f
000000e0: deb6 563f 0d89 c1be 348c 3ebf 0f30 01bf
000000f0: 71e3 87bf 33cc f4be 6946 f33e 2a82 803f
-2.239112 -0.44484508 0.03236875 0.0663566 -0.2880472 1.3590074 -2.1709523 0.36810112
-1.171959 0.6897041 -0.7228471 -1.5439286 0.0669515 0.82682556 0.15706286 1.333669
0.16572073 -0.40206563 -0.6698403 1.7528735 -0.15884927 0.16629119 -0.49505758 -0.46889886
-3.0498092 -0.45334318 -0.09864399 -0.9264003 -2.5356379 -0.09735526 0.5399115 0.28021413
-0.2185831 0.7914674 0.6448086 -0.011600372 1.5245018 0.6058865 -0.47378767 -0.5004492
-0.012948015 0.8620167 -0.38788727 0.010870009 0.21227573 -0.18247713 -0.47860268 -0.21828057
0.79813284 -1.0264903 0.8444792 -0.517619 -0.4572871 -0.08750957 -0.031976257 0.7700235
0.83872783 -0.37799874 -0.74432683 -0.50463957 -1.0616285 -0.47812042 0.47514656 1.0039723

cls_embeddings.atac f4 [1, 1, 64]
00000000: ff62 13be cf8e 41bf fb7e 193f 37f0 77be
00000010: 79ab 77bf 09a3 95bf b55d 4c3f 3715 ac3e
00000020: bee5 c4bf 63f6 543f 1482 c9bf 92cb 8d3d
00000030: 5406 e3be d638 dbbf b341 6e3f 69c2 103f
00000040: 9e56 fdbe 0781 a2bf 15f2 8bbf 8ee1 fb3e
00000050: 9bad af3f 32ed d2be 09ed 793f 8c08 0d40
00000060: 85b4 a6bf 5bbc 5abf 8785 56bf 1d53 70bf
00000070: 52f2 193f 2a19 2e3e 9945 553f 1ad0 99be
00000080: afe4 df3e 6d6c 67be 1279 39c0 a644 9b3f
00000090: ade7 2f3e 4152 64bf fb42 ac3f ac19 d0be
000000a0: aacb 633f f0e6 db3f da98 5b3f 5249 1f3f
000000b0: cce5 c6be 9f85 22bf 94b2 613e 9ff8 ddbd
000000c0: d8c0 403e d74f 2b40 91a4 cc3f 9e62 a03d
000000d0: 5009 b03e 8f9b 1c3d 05c4 4440 edf8 0f40
000000e0: 5305 de3d d9ea ab3e 7a6e b9be 0f8a 3cbf
000000f0: b671 f53d 7ebb a1be 881a b2bf 5fee 843e
-0.14393233 -0.75608534 0.5995938 -0.24212728 -0.9674602 -1.1690379 0.79830486 0.33609936
-1.5382612 0.83188456 -1.5742822 0.069235936 -0.44340765 -1.712672 0.93069 0.56546646
-0.49480146 -1.2695626 -1.0933253 0.49195522 1.3724855 -0.4119659 0.9762731 2.2036467
-1.302384 -0.8544366 -0.83797497 -0.9387682 0.60135376 0.17001787 0.8330932 -0.3004158
0.4372916 -0.22599955 -2.8980145 1.2130325 0.17178221 -0.8918801 1.3457941 -0.40644586
0.8898264 1.7179852 0.8578011 0.6222125 -0.38847196 -0.6348514 0.22040778 -0.10838436
0.18823564 2.676748 1.5987722 0.0783131 0.34382105 0.03823429 3.074464 2.2495682
0.10840859 0.33577612 -0.362171 -0.7364816 0.11984579 -0.31588358 -1.3914347 0.25963113

modality_embeddings.atac.weight f4 [64, 9]
00000000: e619 ce3c 2b59 17be a8db 1d3e 154f 90be
00000010: 6863 fbbd ca80 99bd 85a9 7e3e e7e2 62bd
00000020: 1d00 28be 73ce a83e 2c4e 6f3e eacf 613b
00000030: 8d11 3c3b 9a6d 523e cc20 803e 98f5 2e3e
00000040: d3dd 373d 20d6 973c 4130 ab3e ae38 013e
00000050: 07cf 1ebc 3dee 073d e2f0 78be 726c 8e3e
00000060: 89a5 21be 76f1 e6bd 472e 033d 452e 64be
00000070: b23e d6bd 8d4b 0d3e f7de 18be d32f 4c3e
00000080: 5bd9 96bd 3b5f 45be bb42 9b3e ed65 1bbe
00000090: c1ef 04be 24a9 a8be 7bc3 d0bd 159d e93d
000000a0: b274 f6bc 0ae4 003e 7156 b63d cd20 00be
000000b0: e39f 91bd 3234 87be 96d6 7bbe 720d 8abe
000000c0: 85e5 87be 4b71 9ebd 35df 663e 73ab 733e
000000d0: de95 9abc 313a 943c 850e 643e 67a1 5a3d
000000e0: a371 05be d9cb f13c ae1b 59be 3b5a 03be
000000f0: 7a2f 34be 70cc 8a3e 3159 773e 52b1 7dbd
00000100: 0054 01be 3011 533d ba00 afbd 9172 8cbe
00000110: ff0d 643e 2054 bbbd 21b8 c03d 519d 503d
00000120: a585 7cbe c08d a2bd 16eb 38be 863e f3bd
00000130: a4e2 e63d efd7 e4bd 8e39 16bd e94a 64bd
00000140: 922f 59be f03f e9bd c56a 44bd 58d8 3bbe
00000150: 547f 0cbe 3a5c c93d 3264 223d 771f 873d
00000160: 74d8 92bd e36a ebbd addd c13c 2591 8ebe
00000170: 7a78 88bd 3ec6 7cbe 59ec 72bd 401d 0abe
00000180: d053 d7bd 4d16 603e 3ed9 6cbe fd84 40be
00000190: d7e4 0fbe cc01 223e d8a6 88bd 760b 26bd
000001a0: f372 203e 4c96 8f3e 884a 7abe 6afd 94bd
000001b0: 2cff a9bb d70f 85be 04e5 22be bff9 6abe
000001c0: a7b3 a13d fba5 15be 4611 37bd 0907 703e
000001d0: d6c7 00be c6d3 533e e524 903e fcee 26bd
000001e0: d049 84bc b21d 86bd 3ef5 9a3c 74f1 3f3e
000001f0: 6b44 6cbe b1c7 9cbc 5cfa 9abe 20c0 f03d
00000200: 1548 83be a594 673e 2e4b 5ebe a6f0 64be
00000210: 6157 0e3e 1115 073e 7c42 1dbe 8d9c 2d3e
00000220: 090a 91be d2b4 373e 8288 083e d95c 033c
00000230: 20bc 7dbd 5aa7 1f3e f335 7cbe a43b cd3c
00000240: d765 8ebc a873 d63d 6e36 06be f3d7 46bd
00000250: 5f38 563e e8a4 c33d ef53 153e 45e7 2c3e
00000260: 3370 97be bcfe 8cbd 92cc a3be 385a 7bbe
00000270: 90ae 95be acf5 133e 147c 4a3e 4571 483e
00000280: 8a37 633e 91a0 bbbd 4c8b 2b3e c4eb debd
00000290: 016e 743d ea2f 1ebe dbcf 77be 3c1b 073c
000002a0: c736 303d 78ee ab3d 4322 7f3e 52c4 39bd
000002b0: 0f26 c03b db8d 5dbe 2484 643e 010e 3abe
000002c0: ad5a 19be 878c 29bd a4cb b4bd 9a6a c63c
000002d0: 2a7a 413e 6916 193e dfee 533c 18e7 98be
000002e0: 5e90 5e3e 7835 43bd 9a06 5e3e 817a e0bd
000002f0: 32fa 5e3c d865 86be 779d 823d 3e97 3bbd
00000300: c189 8e3e 9575 28be 25ca 35be e61e 49bd
00000310: f21b bfbc 5717 173c cfb1 873e b124 663e
00000320: 7195 b23e a020 edbd 2fa7 88be c5b5 3ebc
00000330: 5e8e 7dbe fec8 4e3e c4d9 503e 54e2 6fbe
00000340: 1eca 173d 3e17 3e3e 1c56 52be 07cf 8c3e
00000350: c952 743d 2132 493d c50c 86be c8b2 08be
00000360: 1483 853e 7edd c73d 5859 6dbe 0866 bd3c
00000370: 4d23 633c 49cd 7abd 6a92 5fbe 07b7 58bd
00000380: dafa 03bd 37d9 233e 5a38 93be b68f afbc
00000390: 73ee 083d ea5b 913d 0848 a83b ad33 43be
000003a0: 31d7 203e a630 6f3c 6de8 143d 0e9d 4a3e
000003b0: 8f16 30bb 0035 7b3e b1aa fc3c 205d 0abe
000003c0: 3fc5 9dba f92c bf3c 6428 513d 1f20 8d3e
000003d0: 1f5f 1b3d 3ce4 c63e d3da b5bd 88b0 16bd
000003e0: 7813 553e ecb3 55bd c564 58be 3c0b 843e
000003f0: 8c2d 923e b79d 2d3e 88ef c03c 21e8 0fbd
0.025158834 -0.14780109 0.15415823 -0.28185335 -0.122748196 -0.07495268 0.24869354 -0.055392172
-0.16406293 0.32970008 0.23369664 0.0034456202 0.0028696985 0.20549622 0.25025022 0.17085874
0.044889282 0.01853472 0.33435252 0.12619278 -0.009692914 0.033186186 -0.2431064 0.27817112
-0.15785803 -0.11276524 0.032026555 -0.22283275 -0.10461177 0.13798352 -0.14928804 0.19940118
-0.07365676 -0.19274609 0.3032435 -0.151756 -0.12982084 -0.32941544 -0.10193535 0.11406914
-0.030084942 0.1258699 0.08903206 -0.12512513 -0.07110574 -0.2640701 -0.24593577 -0.26963383
-0.26542297 -0.07736453 0.22546084 0.23795871 -0.01887029 0.018094154 0.22271164 0.05337658
-0.1303163 0.029516147 -0.21201965 -0.12827389 -0.17596236 0.27109098 0.24155118 -0.061936684
-0.126297 0.051530063 -0.085450605 -0.27431157 0.22270964 -0.09146905 0.0941012 0.05093128
-0.24660356 -0.07937193 -0.18058428 -0.1187716 0.11273697 -0.111739986 -0.036675982 -0.055735502
-0.21209553 -0.11389148 -0.047953386 -0.18344247 -0.13720447 0.09832044 0.039646335 0.06597798
-0.071701914 -0.114949964 0.023665274 -0.2784511 -0.06663604 -0.24684998 -0.05930743 -0.1348772
-0.10514033 0.21883507 -0.23129746 -0.18800731 -0.14052139 0.15820998 -0.06672448 -0.040538274
0.1566885 0.28044355 -0.24442494 -0.072748974 -0.0051878896 -0.25988647 -0.15907675 -0.22946833
0.07895594 -0.14614098 -0.044694208 0.23440184 -0.12576231 0.20686254 0.28153148 -0.040755257
-0.016148478 -0.06548633 0.018915769 0.18744451 -0.23072974 -0.019138189 -0.30269134 0.11755395
-0.25640932 0.22615297 -0.21708366 -0.22357425 0.1390052 0.1319163 -0.15357393 0.1695425
-0.2832797 0.17940071 0.13333324 0.008017742 -0.061946988 0.15591183 -0.24629955 0.025052853
-0.017382545 0.104712784 -0.13106701 -0.04854579 0.20919941 0.09552938 0.145828 0.16885097
-0.2957779 -0.06884524 -0.31992012 -0.24546134 -0.29234743 0.14449185 0.19773895 0.19574459
0.22189155 -0.09161485 0.16752356 -0.108848125 0.05967522 -0.15447965 -0.24200384 0.008246239
0.04302099 0.08395094 0.24915414 -0.04535324 0.005863912 -0.21636145 0.22316033 -0.18169405
-0.14975996 -0.041393783 -0.08827904 0.024220753 0.18894258 0.14949955 0.012935369 -0.2986381
0.21734759 -0.047658414 0.21682206 -0.10960866 0.013609456 -0.26249576 0.0637769 -0.045798533
0.27839473 -0.16451104 -0.17752893 -0.049101733 -0.023328755 0.009221873 0.26502845 0.22474934
0.3487964 -0.11578488 -0.2669005 -0.011640017 -0.2476134 0.2019386 0.20395571 -0.23426181
0.03705799 0.18563554 -0.2054066 0.275017 0.059649263 0.049120072 -0.26181617 -0.1334945
0.26076567 0.09759043 -0.23178613 0.023119941 0.013863397 -0.06123093 -0.21833196 -0.052908923
-0.032221653 0.1600083 -0.2875393 -0.021430831 0.033430528 0.07097609 0.00513554 -0.19062681
0.15707089 0.014599001 0.03635447 0.19786474 -0.0026868915 0.24531937 0.03084311 -0.13512087
-0.0012036933 0.023336874 0.05106391 0.2756357 0.03793251 0.38846004 -0.08879628 -0.036789447
0.20808208 -0.05217354 -0.2113219 0.2578982 0.28550375 0.16954695 0.023551717 -0.035133485

modality_embeddings.atac.bias f4 [64]
00000000: 607f 27bc f6a2 0fbc 9e05 3b3d f415 313c
00000010: 75bd aebb f393 17bd b660 4abc 5d70 5f3c
00000020: 833a 903c d2f3 123a a765 8dbc c8b6 d1bc
00000030: b27d 2fbc 6e5b 96bc a419 3bbc 606f c0bc
00000040: b5c7 36bc ea18 61bd a2b5 79bc 631f 923c
00000050: c4e7 10bc 03a7 203c 033d 953c 1890 413c
00000060: 539b 143d d362 1e3c 44bb 033c c06f 313c
00000070: ea7e a33a 31ad 2bbb 88e0 f9bb 8016 df3c
00000080: 73c7 073d 53f6 adbc bb34 3c3c 2e9d 1e3d
00000090: d8cf 433d 9a54 f6bc 2216 0a3d 7aa3 193d
000000a0: 0bdc 4fbc b05b 683d 0e5d 4e3c f3f3 923c
000000b0: 288e 24bd f5be 08bd 8729 01bd dabc fabb
000000c0: c242 48bd df5f f8bc 9ca3 1039 1bd0 0cbd
000000d0: 26d6 cebc 3e49 cb3a 8411 243d 2668 3fbc
000000e0: b658 a0bc 34e1 09bd d626 253c 71e2 9abc
000000f0: 6bee 8b3c 0a79 073d f6d4 0a3d db5f 34bc
-0.01022324 -0.00876688 0.045659654 0.010808457 -0.0053326436 -0.03700633 -0.012352159 0.013637629
0.017606026 0.000560579 -0.017260386 -0.025599852 -0.01071112 -0.018354144 -0.011419687 -0.023490608
-0.011156012 -0.0549554 -0.015241059 0.017837232 -0.00884432 0.009805444 0.01821757 0.01181414
0.03628094 0.009667116 0.008040253 0.010829866 0.0012473736 -0.002619576 -0.007625643 0.027232409
0.033149194 -0.02123562 0.011487181 0.038724117 0.047805637 -0.030069638 0.033712514 0.03750942
-0.01268674 0.056728065 0.012595428 0.01793859 -0.040174633 -0.033385236 -0.031533744 -0.0076519074
-0.04889179 -0.030319152 0.0001379386 -0.034378152 -0.025248598 0.0015509499 0.040055767 -0.011682546
-0.01957355 -0.033662036 0.01008006 -0.018906804 0.01708146 0.033074416 0.0338945 -0.011009182

modality_transformers.atac.layers.0.self_attn.in_proj_weight f4 [192, 64]
00000000: a8b7 dabd 1097 febc 3915 1d3e d0c8 a53d
00000010: f0cf ccbd f15a ad3d 84fd 103d d4e5 df3d
00000020: 5aff 5f3d 3289 c03d 62bd a3bc 6a9a 063d
00000030: 0264 11be 8f6b f1bd c2b5 ae3d 1219 6bbd
00000040: acfa 01be 1743 10be 5750 943c 11ce 093e
00000050: 779d 673d 9776 443d b9e4 2c3e 1c42 eeba
00000060: ad06 f9bd b6dc f4bd f11c 873d eb91 0b3c
00000070: 5032 5d3d 2109 bcbd 9fdb 483c 82d9 eb3d
00000080: 5a1e cfbd 6297 a9bd c5ee c03d a3dd e5b9
00000090: 1786 39bb 4338 ca3d e7ed e33d e875 eabc
000000a0: 8771 aa3d 73f2 a83d 2908 1a3e eaaf 22bd
000000b0: cd31 493d 7cbb 8d3c c347 fa3c fa04 ff3c
000000c0: e0f3 e83c 4267 41bd 595a 443d 7d02 603d
000000d0: 4bc8 9bbd 05ff 503c 8647 dabb 5631 043e
000000e0: 835a eabd 9152 053e 8c0c ae3d 5c3f 8b3d
000000f0: d071 9b3d fb47 d03d 3df3 2abd 6148 853b
00000100: f38d 0e3e 06e6 92bc c627 d8bd 28f0 09be
00000110: ca53 dc3c 12ea 88bd 8190 27be 8244 a33d
00000120: 2fdf bc3d 9233 963d 4f0e 0e3e 9b17 dfbd
00000130: 59a1 9b3d 35ee a1bc 97ac ff3c c2b3 f73a
00000140: 609f a4bd 80ca 2c3c 07f7 cd3d d276 a13c
00000150: f3b2 18bd 9947 d3bd 4787 e83d 436e d43d
00000160: 8e0c c5bd 286f 863d 4526 4cbd 1cfc f6bd
00000170: 1a4a 163d 7d55 a03a 9273 f6bc 8ea6 803d
00000180: b79d a2bd be98 9cbd 080d 063d 535e db3d
00000190: 75b6 ddbd 9d6c 0b3e 1f1f dabb bf6b 02be
000001a0: 1b35 76bd 1888 1f3d 90ba 483d a72e 9f3c
000001b0: d1a2 113a d434 b83d 03ad 57bd 8f73 a23d
000001c0: 2258 8a3d b0a1 983d 162d 123d f095 54bd
000001d0: 788f b9bb fa68 a53c 1051 213d 022a 18bd
000001e0: 9b20 e6bc 0e37 183e 8d8f b13d fe9d 913d
000001f0: d0b3 d33d 85f0 06be 3636 113d 8e7c 21be
00000200: 5e91 52bd ac7a b73d e5f5 333d a89a bcbd
00000210: 45ce 1cbc 9bc5 8ebd a027 1bbe bab1 f4bd
00000220: 90e1 0bbe 09af c33b 0f1c 9ebd c112 dcbc
00000230: f5be 593d f9ee abbd 4c07 e13c 7060 b13d
00000240: 9a15 703e 036b 153e a42a aabc 08c3 3c3d
00000250: 103c 6c3d 28e3 093d 8477 e9bd 49b2 d1bd
00000260: 193a 843b 65d0 ae3b 1e64 d1bd ded5 853d
00000270: a2c9 813d 4926 343c bafa 25be b416 8f3d
00000280: bfe6 9c3d 28b0 8bbb 5781 70bd 380f f1bd
00000290: d9b3 a63d 6013 233d 9748 f53d 5537 a8bd
000002a0: c89e 143e c35f a43d c548 f1bb 9976 0e3e
000002b0: 7de8 d2bd 13ed 813d e0b0 67bd 1efa b9b9
000002c0: a864 0dbd e722 26bd ec06 01bb 2c12 ae3d
000002d0: e173 ad3b 8fce 3e3e 4e61 e13d dfd5 913d
000002e0: d82e f23d 1fea f2bd 55b6 473d 830d 27be
000002f0: 9671 f0bc 43c0 c83d 78e0 87bd 641e c83d
00000300: 25a1 d8bd b4a7 f2bc ad1b 033e a5fd 23bd
00000310: 4612 d6bd 61a3 78bd 5379 143d 32e2 d9bd
00000320: 37f6 203d 45f8 27be b35a 8ebc 2825 38bd
00000330: af9e cf3d d567 1d3d a8c0 ef3d d0f2 c0bd
00000340: f49c 7dbd b456 463c 4693 ea3c c94f a13d
00000350: 5111 48bd 43a0 e83d a8bc cebd bb33 f7bc
00000360: f1bf f53d 6638 eebc b11a 213e d5c8 fdbd
00000370: feb5 7c3d caac 43be beaa 20be 6915 d73d
00000380: a5bd d0bd cf33 6d3d 66aa a73d d8a9 013e
00000390: 93b5 ef3d a074 db3d 7014 033e cd8d c2bd
000003a0: 1583 623d 0f4a abbd 523d 1cbe 376d 2dbe
000003b0: 197a ac3d 1850 4ebc 5e51 aa3d 24e5 1bbc
000003c0: 8761 733d 06eb 943d 0205 a5bd d5cf e53b
000003d0: a57a 9bbd f103 b53d f9cf 883d 086f 453d
000003e0: 9629 87bd 075e f23d 76f7 92bd 8f4b 143e
000003f0: 6f82 7b3d e77e be3b 2b12 173e 33fe cfbd
-0.10679561 -0.031077892 0.15340127 0.080949426 -0.100005984 0.08464611 0.03539802 0.10932508
0.05468688 0.09401168 -0.019987766 0.032862104 -0.14198306 -0.11788093 0.08530761 -0.057396956
-0.1269328 -0.14088093 0.018104715 0.13457514 0.056546655 0.04796466 0.16884126 -0.0018177661
-0.121594764 -0.1195616 0.06597317 0.008518676 0.05400306 -0.09181429 0.012259393 0.11516096
-0.10113211 -0.08280827 0.09420542 -0.00043843416 -0.0028308684 0.09874012 0.11129361 -0.028620675
0.08322435 0.082493685 0.15042175 -0.039718546 0.04911976 0.017301314 0.030551797 0.031130303
0.028436601 -0.047217615 0.047937725 0.054689873 -0.07606562 0.012756114 -0.0066613583 0.12909445
-0.11443045 0.13019778 0.08498487 0.06799194 0.075900674 0.10169979 -0.041735876 0.004067466
0.13921337 -0.01793195 -0.10554461 -0.13470519 0.026895422 -0.0668527 -0.16363718 0.07972051
0.092222564 0.07334055 0.13872646 -0.10893174 0.07599134 -0.019766906 0.031210227 0.0018898176
-0.08038211 0.010546327 0.10056882 0.019709978 -0.037280034 -0.103163905 0.11353927 0.10372593
-0.09621535 0.0656417 -0.049841184 -0.12059805 0.036691763 0.0012232509 -0.030084405 0.06281768
-0.07940238 -0.07646321 0.03272727 0.1071135 -0.108258165 0.13615651 -0.006656542 -0.12736414
-0.06010924 0.03894815 0.049006045 0.019431425 0.00055555726 0.08994451 -0.05265523 0.07932197
0.06755091 0.074527144 0.03568753 -0.051900804 -0.0056628548 0.020191658 0.039383948 -0.037149437
-0.02809172 0.14864752 0.08669958 0.07110213 0.10337031 -0.13177688 0.03545209 -0.1577017
-0.051408164 0.08958945 0.043935675 -0.09209186 -0.009570663 -0.06971284 -0.15151834 -0.11947961
-0.13660264 0.0059717936 -0.077201955 -0.026864411 0.053160626 -0.0839519 0.0274693 0.08660972
0.2344574 0.14591603 -0.020772286 0.046084434 0.057674468 0.0336639 -0.11399749 -0.10239083
0.004035246 0.005334901 -0.10224174 0.065349326 0.063372865 0.010995456 -0.16208926 0.06986752
0.07661199 -0.004262943 -0.058717098 -0.11770481 0.08139772 0.0398134 0.11976736 -0.08213679
0.14513695 0.080260776 -0.007363411 0.13912429 -0.1029825 0.063440464 -0.056565166 -0.00035472302
-0.03451982 -0.04056063 -0.0019687964 0.0849956 0.005293355 0.18633483 0.110048875 0.07120871
0.11825341 -0.11861061 0.04875787 -0.16313748 -0.029351037 0.09802296 -0.06634611 0.097714216
-0.10577611 -0.029620983 0.12803526 -0.040036816 -0.10452704 -0.060702685 0.036248516 -0.106388465
0.03929731 -0.16403301 -0.017377233 -0.04495731 0.10137688 0.0384291 0.11706668 -0.09421313
-0.06191726 0.012105633 0.028634679 0.07876546 -0.04884464 0.113586925 -0.10094577 -0.030176034
0.119995005 -0.029079627 0.15732838 -0.12391821 0.061697 -0.19108883 -0.15690133 0.105021305
-0.10192422 0.057910737 0.08186798 0.12662446 0.117045544 0.10715604 0.12800765 -0.094997026
0.05530079 -0.08363735 -0.15257767 -0.16936193 0.08421726 -0.012592338 0.08316301 -0.009515081
0.05941918 0.0727139 -0.08057596 0.007013301 -0.07591752 0.088386424 0.06680293 0.04820159
-0.06599729 0.118343405 -0.07176106 0.14481948 0.061403688 0.005813468 0.14753024 -0.101559065

modality_transformers.atac.layers.0.self_attn.in_proj_bias f4 [192]
00000000: 5904 443d 1f1f e9ba 47eb c1b9 0597 fcb9
00000010: 1e52 76bc 6eb0 dfbc 7915 333d 2fd8 0b3c
00000020: ff32 0d3c 9899 fdbc 2dd7 fabb 20ad 3f3c
00000030: 5645 793b f8c1 8e3a f1d0 fe3a c1b9 283c
00000040: b822 c43b aead 94bc 0ef3 de3b e4bd 20bc
00000050: cde4 923b 09b6 80bd ab90 2f3c b0e2 24bb
00000060: 48e1 7a3c a8f2 62bc c661 af3d 01b0 f33b
00000070: c7ce 713c 1143 be3c 60e5 47bd dbe9 d6bb
00000080: 7e27 293d 91cc 433d decf 02bd 9c3a 38bc
00000090: 10bb 1abd f78c 4ebc d75e 79bc ac2c 623d
000000a0: 5cd9 5e3d 8bdc 56bd f134 4ebd 1766 d2bc
000000b0: dc81 0abc 9a75 483d 2939 f23c 9c95 75bb
000000c0: 97e8 473c e9f8 823c 5ec7 bfbb 9106 d23a
000000d0: 6a93 2ebd 1be0 013d 7094 cb3c 6d31 5a3c
000000e0: 9871 4e3d 518e d33c 7608 ad3c 707f e0bc
000000f0: ac03 7e3c ab27 593c a51a ec39 4a75 883b
00000100: a9ca 9439 7b4d e1ba 4ebc 40ba 2a67 55ba
00000110: 806e a43b 3f84 3dbb a9f9 2b3a d100 ee39
00000120: b7d5 33bb 5cc0 c63b d375 b83b 74dc 17ba
00000130: 61c8 7fbb e15f afba e18b 18bb 4e6f a839
00000140: 092b 543b 2cc8 42bb 99dc 9139 af91 52bb
00000150: 460a 573b ff32 83ba 76df 94ba 953f 24ba
00000160: 7130 9aba 7194 41ba ac32 503a c69d 2cba
00000170: b752 e73a 25d0 c0bb 4187 b83a bb52 b63b
00000180: 7210 aebb 6354 eabb f833 e83b 0b9c 47bb
00000190: b41a eb3b 3d47 18bb 6ed9 633b 2bc4 01bc
000001a0: 2fdb 08bc 1f7f 1a3c 287a 523c 41f4 2f3c
000001b0: 6ecf 123b fd4f d5bb edab b4ba 20ec 7abb
000001c0: 8344 543b b548 233a 6d8e dabb 4fe8 28bb
000001d0: 73a6 be3a 6366 453b ec3a 7a3a 04e7 37bb
000001e0: 99f6 453a 21e9 89bb 5e08 adbb befd 74ba
000001f0: 201b fd3a 9383 653a c576 a7bb 2e15 a63b
00000200: 9de0 6fbc 8a0d 93bb 37ff 5abc 936a 943b
00000210: 4713 2e3c 0b62 ebba bc12 a0bb e97b f73b
00000220: e849 153c 6070 0f3b 6e9c 64ba b8a3 6c3c
00000230: 16c5 23bc 03f1 bd3a eef0 8fbc 0a2b 2db7
00000240: 1aa6 8d3b a0a9 583c b01c c43b 29a8 8e3b
00000250: 2d07 2bbc 82e7 83bb d390 1cbb 5018 1d3c
00000260: 3fe7 eabb 91b5 6c3a a508 cdbc 5a7a 8c3c
00000270: 511d 9a3b 0959 143c abad 093c cb63 9dbb
00000280: 5cc0 aabb acd2 75bb 2597 c2bb 7da7 08bc
00000290: 3eb9 80ba 6847 a9bc ffc7 ec3b d261 daba
000002a0: 83d7 0abc 15f2 823c 577e 6f3b 1fb9 8c3b
000002b0: 2876 63bc 59be 24bc c80e 19ba 756b 54bb
000002c0: 706a 873a 1f94 00bc 26f5 09bb e420 4a3c
000002d0: e3ba 933b ff2e 99bb aba8 3dbb 411e dabb
000002e0: 605e 383c e226 123c ca12 9b3b fb08 ea3b
000002f0: 843c 4c3b f9f7 d33b 9d18 383c c55a 953c
0.04785571 -0.0017785764 -0.00036987124 -0.00048177704 -0.015034227 -0.027305808 0.04372165 0.008535429
0.008618115 -0.030957028 -0.0076550455 0.011698991 0.0038035712 0.0010891547 0.0019440932 0.010298193
0.005985584 -0.018149223 0.0068038767 -0.009810898 0.0044828416 -0.062847205 0.010715644 -0.002515953
0.0153125 -0.013851799 0.08563571 0.007436753 0.014758772 0.02322534 -0.048802733 -0.0065586395
0.04129743 0.04780251 -0.03193652 -0.011244442 -0.037776053 -0.012606851 -0.0152203655 0.055218384
0.05440651 -0.05245642 -0.050343458 -0.025683446 -0.008453812 0.04894028 0.029568272 -0.0037473207
0.01220145 0.01598783 -0.005852624 0.0016023685 -0.042621054 0.031707864 0.024851054 0.013317448
0.0504013 0.025824698 0.021122199 -0.027404517 0.015503805 0.0132540865 0.0004503328 0.0041643726
0.00028379753 -0.0017189229 -0.00073522783 -0.0008140678 0.0050180554 -0.0028917936 0.00065603346 0.00045395506
-0.0027440616 0.0060654115 0.00562928 -0.0005793043 -0.0039029347 -0.0013380015 -0.0023276734 0.00032126385
0.0032374284 -0.0029721363 0.00027820913 -0.0032130291 0.003281252 -0.0010009705 -0.00113581 -0.0006265578
-0.0011763704 -0.0007384485 0.0007942121 -0.00065847894 0.0017648552 -0.0058841878 0.0014078395 0.0055640615
-0.005312019 -0.007151173 0.0070862733 -0.0030458 0.007174814 -0.002323582 0.003476705 -0.007920305
-0.008353039 0.009429722 0.012846507 0.010739387 0.002240147 -0.0065097795 -0.0013784148 -0.0038287714
0.003238947 0.0006228791 -0.0066698105 -0.0025773232 0.0014545455 0.0030120842 0.0009545523 -0.002806128
0.00075516995 -0.0042086993 -0.0052805385 -0.0009345672 0.0019310452 0.0008755263 -0.005110594 0.005068443
-0.014640954 -0.004487698 -0.013366512 0.004529306 0.010624713 -0.0017958296 -0.004885046 0.007552613
0.009111859 0.002188705 -0.00087208196 0.0144433305 -0.009995719 0.0014491383 -0.017570939 -1.0321624e-05
0.0043227794 0.0132240355 0.005984865 0.0043535423 -0.010438723 -0.0040254006 -0.0023890033 0.009588316
-0.00716868 0.0009029741 -0.025028536 0.017148186 0.004703202 0.009054431 0.008403222 -0.004803156
-0.0052109193 -0.0037509603 -0.005938428 -0.008340714 -0.0009820831 -0.020663932 0.00722599 -0.0016661233
-0.008474234 0.015984574 0.003654381 0.004294529 -0.013883151 -0.010055148 -0.00058386894 -0.0032412682
0.0010331403 -0.007847815 -0.002105066 0.012336943 0.0045083626 -0.004674792 -0.0028939645 -0.0066564386
0.0112529695 0.008920403 0.0047324644 0.007142184 0.0031164 0.0064687696 0.011236337 0.018231759

modality_transformers.atac.layers.0.self_attn.out_proj.weight f4 [64, 64]
00000000: ee5f 17be 126e 903b 8831 373e 1025 42be
00000010: 4350 cbbc 458e cc3d 1b06 0cbe bd13 6ebe
00000020: a0cb a9bc f986 353e 1e0d a4bd c71a c83d
00000030: d975 363e 64f0 32be e748 b9bb 27d7 a23d
00000040: 6c21 09be bafa 67be 774c f1bc 3e95 88bd
00000050: e278 793e b2ec 66bb 9b59 59bd f5b5 10bd
00000060: 39c0 3a3d b252 81bd 8008 3d3e 8d21 d9bd
00000070: 1474 d4bc 3158 4f3d 70df 12bd f265 213e
00000080: b5ab b13a 6b8f 523e 3d90 ffbd 778d 253e
00000090: 5ef8 4dbe 44a3 2d3e aa2f ad3d 3ac7 523d
000000a0: 353d 4a3e 7747 1c3e fb7e 2cbc c45e 543e
000000b0: d7b0 7b3e cb8d 5c3e bf07 33bd 5026 0e3d
000000c0: fa67 873d 470f c93d 3faf f23d faf0 5b3e
000000d0: 9706 1a3e fd72 dabc d618 143e 8fc8 153d
000000e0: f225 493e c7a6 67be 9405 ff3d 3e65 213e
000000f0: 7b57 823d 4f49 2ebe 273f c1bd c408 86be
00000100: f971 7bbd 6ea8 6e3d ad1a 6c3d 4ae8 913d
00000110: d47f 30bd b362 983d f4fb c0bc 0cbd 383b
00000120: ca6a 623e ccbf 8cbd 6278 17be d156 debb
00000130: 819a c93d df9c 353e 2f2a 5e3d df4e e23d
00000140: 8bce eebd dd8e 153e 5d63 acbd c670 28bc
00000150: 6d43 d4bc 77a6 1f3d 749e 303e 73a7 0f3e
00000160: 4943 9b3d 3781 4fbe 4f71 5bbd 1223 ccbd
00000170: 2854 bf3d 7cca 3e3d d5bb 563e 7e73 503e
00000180: 09b9 3ebd e607 3ebe 3462 a5bc 41b7 593d
00000190: 15fa d93c bdf6 c43d 7c1f a63d b55a 013e
000001a0: 2f80 4abe 53b6 20be 6d91 0e3e 53b8 493e
000001b0: 4ed4 823d e917 1d3d 0d2f 2dbc 718e 383e
000001c0: de85 673e 63a1 c2bd 1694 2f3e aeae 24be
000001d0: 73ca 383e da82 c9bc 6103 70bd 5b4e e4bd
000001e0: a793 bc3d 9ef9 b33d 77b3 933e 1410 423e
000001f0: 0b89 693d e43a b43c a667 873e 7644 d13d
00000200: 5bf9 ad3c 3e64 ce3d f12f 5dbe 06e5 703d
00000210: beb3 133e 5f3f 14bd 922f 103e fad1 1f3e
00000220: b5f9 0c3e 5bb3 efbd f315 053e f8a9 483e
00000230: 76d9 383e dc1d 7abd a7bc 933d b928 673e
00000240: 07ee e53d 355d b63c adee a03d 6d02 193d
00000250: 666b f03c a543 ee3d 13fd a1bd ebca 08be
00000260: 1ede 28be 4886 4a3e 72e0 36be e300 643e
00000270: a340 053d 31ad fdbd 503f f63d 221c 50bd
00000280: 4055 03be 8bab 0fbe 5465 003d de2c 74be
00000290: 35b9 e7bd 0c96 7f3c e475 90bd 07f8 103e
000002a0: 3055 e13d ef92 133e c69f 933d cd19 4f3c
000002b0: 83aa 1b3d 4bed 4b38 da50 b23d a309 0ebe
000002c0: a41b 323d 0a7c 12bc 66b5 0c3e cccc 333e
000002d0: 1427 e53d e58d 1d3e 357a 4ebd 6320 57be
000002e0: ee7f 523e e672 b0bd 9617 df3d d836 9b3d
000002f0: cf1f 1dbe 71bb 713d 2921 debd f735 cb3d
00000300: c58d f23d 4ad9 c63b 30ec d9bd 2d30 113e
00000310: 5e90 a1bd 4a0a bd3d 11a3 6cbd c27f 393e
00000320: 809c 40bd 92e1 c33c 30a2 6abd e6cb b23c
00000330: c195 28be 9788 1cbe b09c 68bc 88ba 03be
00000340: 5631 6e3d 3968 0fbd 98ab 2abd c8c5 6dbe
00000350: ff7b 133e afe5 b1bb 91ec 523d d04d f73d
00000360: 3dd1 0c3e 6c8b c73c ebe0 313e 16ee c9bd
00000370: 06aa 4b3e aba6 023e c2f8 093e 0c42 a83c
00000380: 2917 193d 257a 48be 9753 f2bd 65e6 e43d
00000390: df7b 61be 496a 8f3d 2575 91bd eb2e 7dbd
000003a0: 3482 443e 0f23 d3bd 5a27 36be 633d 35be
000003b0: dd41 83be ac05 da3d b75e 383e a639 1e3e
000003c0: bc85 433e 6ad2 6d3d 7849 ac3d 33d7 f03d
000003d0: a6e2 a03d 10a8 00be 6f8c 12be 54ca 573e
000003e0: 4262 363d 9ad5 3ebe 16d1 14bd 0366 443e
000003f0: d89b dfbd 884a 243e ba94 273e f309 3f3d
-0.14782688 0.0044076527 0.17889988 -0.1895945 -0.024818545 0.09988073 -0.13674204 -0.23249717
-0.020726979 0.17727269 -0.080103144 0.097707324 0.17818393 -0.17474514 -0.0056544426 0.07951193
-0.13391656 -0.22654238 -0.029455407 -0.06669091 0.2436252 -0.0035236296 -0.05306397 -0.035329778
0.045593474 -0.06314601 0.18460274 -0.106021024 -0.025934257 0.050621215 -0.035857618 0.15761545
0.0013555201 0.20562522 -0.12478683 0.16167246 -0.20114276 0.16956812 0.08456357 0.05145953
0.19749911 0.15261637 -0.010528321 0.20739275 0.24579178 0.21538465 -0.04370856 0.034704506
0.06611629 0.09817367 0.11849832 0.21478644 0.15041576 -0.026666159 0.14462599 0.03656822
0.19643381 -0.22622214 0.12452236 0.15761277 0.06364342 -0.17020153 -0.094358735 -0.26178563
-0.06138799 0.058266096 0.057642628 0.07124384 -0.043090656 0.074407004 -0.02355764 0.0028188853
0.2211105 -0.0687252 -0.14792016 -0.0067852517 0.098439224 0.17735623 0.05423945 0.110502
-0.11660489 0.1460528 -0.084173895 -0.0102807935 -0.025911057 0.038977113 0.17247945 0.1402872
0.07581193 -0.20264135 -0.053574856 -0.09967627 0.093422234 0.046579823 0.2097009 0.20356557
-0.046563182 -0.185577 -0.020188428 0.05315328 0.026608506 0.09617374 0.08111474 0.12632258
-0.1977546 -0.15694551 0.13922663 0.1969922 0.0638815 0.03835288 -0.0105703 0.18023087
0.2260966 -0.09503438 0.17146334 -0.1608226 0.18045978 -0.024598528 -0.058596972 -0.111477576
0.0920785 0.08787845 0.28847858 0.18951446 0.05701546 0.022000737 0.26446265 0.10218136
0.021237066 0.100777134 -0.2160032 0.058812164 0.14424035 -0.036193248 0.14080647 0.15607443
0.1376713 -0.11704131 0.12996654 0.19596088 0.18051705 -0.061063632 0.07213717 0.22574128
0.11227041 0.022261241 0.07858024 0.03735583 0.029348087 0.11633996 -0.07909598 -0.13358657
-0.16490981 0.19777787 -0.17859057 0.22265963 0.032532346 -0.12386549 0.12023795 -0.05080808
-0.12825489 -0.14030282 0.031346634 -0.2384524 -0.11314622 0.015599739 -0.07053736 0.14157115
0.11002576 0.1441152 0.07208209 0.012640429 0.03800441 4.8619968e-05 0.087068275 -0.13870864
0.04348339 -0.008940706 0.13741073 0.17558593 0.11189094 0.1538616 -0.050409514 -0.21008448
0.20556614 -0.08615665 0.108931705 0.0757882 -0.15344165 0.05901665 -0.108461685 0.09922402
0.11843447 0.0060683833 -0.10640752 0.14178534 -0.07888864 0.09230478 -0.0577727 0.18115142
-0.04702425 0.023911271 -0.05728358 0.021825742 -0.16463377 -0.1528648 -0.014197513 -0.12864125
0.05815252 -0.035011504 -0.04166755 -0.23219979 0.1440277 -0.0054289917 0.05149514 0.120753884
0.13751693 0.024358474 0.17370956 -0.098598644 0.19889078 0.12758891 0.134738 0.020539306
0.037375603 -0.19577844 -0.1183235 0.11176757 -0.2201991 0.07002694 -0.07102422 -0.061812323
0.19190294 -0.10309421 -0.17788449 -0.17699198 -0.25636187 0.10645613 0.18004881 0.15451679
0.19093984 0.058061995 0.084124506 0.11759796 0.0785573 -0.12564111 -0.14311384 0.21073276
0.0445273 -0.1863617 -0.036332212 0.1917954 -0.10918397 0.16044056 0.16365328 0.046640348

modality_transformers.atac.layers.0.self_attn.out_proj.bias f4 [64]
00000000: 745d aabc 2964 233c a00f 8c3b 7690 13bb
00000010: c192 c13a f484 f8bb b447 ca3b d637 153c
00000020: 77e6 26bb d7df b33a 6990 c6ba 930c d2bb
00000030: 8eb2 71ba c2b8 c8ba 2ba1 c33b e1d8 533c
00000040: acd6 173c bb7c 303c 0d00 a8bb c090 d9bb
00000050: f7fc a9bc f461 02ba e557 87ba 3f93 a4ba
00000060: cab6 0d3c 0243 8f3b d82b 803b 251c 11bc
00000070: fd42 8e3c 034a 39bb 76a9 463a d242 be3c
00000080: 0b7f b63b 6adf dd3a dea6 2dbb 0366 b8bb
00000090: 68c6 073b 8b36 51bc 2832 033b 2dcb df3b
000000a0: 9f4f 703b 305b ba3a eeb4 cdba cfe1 bfbb
000000b0: 5da8 2cbc 0b18 43bc 4b46 52bc 4396 57bc
000000c0: 64f3 6a3c 7ede 463c dd2b bd3b 28f4 e03b
000000d0: af9d d5bb 8b34 fb3b 62e3 3e3b 139d 883b
000000e0: 5c60 e4bb fb3f 743c 0ac0 7e3b 49e5 2abc
000000f0: 11fc 6c3b 048b c33a 79a9 00b9 7c48 c639
-0.020796515 0.0099726105 0.0042743236 -0.0022516525 0.0014768468 -0.0075842086 0.0061730985 0.009107551
-0.0025466958 0.0013723326 -0.0015149239 -0.0064101904 -0.0009220027 -0.0015313851 0.0059701405 0.012930126
0.00926749 0.010771926 -0.005126959 -0.00663957 -0.020750506 -0.00049737026 -0.0010325877 -0.001255609
0.008649537 0.0043720016 0.0039114766 -0.008856808 0.017365927 -0.0028272874 0.0007578352 0.023225222
0.005569344 0.0016927544 -0.0026497166 -0.005627395 0.0020717625 -0.012769352 0.002001891 0.0068296404
0.0036668552 0.001421785 -0.001569418 -0.005855776 -0.010538188 -0.011907588 -0.012834142 -0.013158384
0.014340255 0.012138007 0.005773051 0.006865043 -0.0065190415 0.0076661757 0.002912723 0.0041691153
-0.0069694947 0.014907832 0.0038871788 -0.010430642 0.0036160985 0.0014918749 -0.00012270165 0.00037819508

modality_transformers.atac.layers.0.linear1.weight f4 [256, 64]
00000000: 4a80 c33d 7a03 55bc d7c6 84bd 2758 9cbd
00000010: 9ae3 5c3c f1e6 fbbc 1174 95bc 4eae 17bd
00000020: f866 d23b c557 993d c7e7 e03d 0558 9b3d
00000030: 9ea0 efba fa05 053e 3c9c 3c3b e435 4dbd
00000040: d32f 9b3c 94c3 9bbd 9351 e23d 9c5d af3d
00000050: a612 f13d d518 d13d a181 43bd 3322 81bd
00000060: 9468 de3d c011 02be b45a e03d e987 35bd
00000070: 09b2 8cbd 4ef1 5abd c4c6 adbd 259d 6bbd
00000080: d60e 103d d0dd a8bd b730 4a3c 7f98 33be
00000090: d4fa 1f3c e35b bcbd 7dd1 743d 2966 e03d
000000a0: 1d40 febd d7fb 13be 61f3 c9bd e9a9 ab3d
000000b0: 4983 913d 9e0e a03d 42c8 ccbd 3d09 c13d
000000c0: c110 c1bd 7a83 5cbd 8a12 a5bd 4f8a 143e
000000d0: d1cc 5e3c 1850 b23c f9c9 213d 8e7f a9bd
000000e0: 1dd8 9c3d e101 e4bd 2583 373e e77b 003d
000000f0: 9503 d4bc 105d c7bc a8d4 97bd 3726 04be
00000100: c238 363d c9da 2b3d 7906 1fbd 9a30 213d
00000110: 7ce3 013e 104a 04bd 70c3 0bbe 3bc4 f4bd
00000120: 88a1 1d3b aa09 6dbd 1eb5 3c3d 84c8 3c3d
00000130: 79ed 8bbd 2a78 023e 4310 dbbd 65f7 093d
00000140: 40a4 a1bd 5381 4c3d c5f3 0e3e 58b7 e0bd
00000150: 6899 713d 9bbb b83d f8b9 e7bb d139 a5bd
00000160: e092 b0bd 2b0b de3d 81ad d1bc 94e3 dc3a
00000170: 2207 a2bd 1d7c 203d 0303 38bd 3727 36be
00000180: 840c 6cbd 4d44 b8bd 6b92 183e 20dd 27bd
00000190: cac5 cbbb 348b 1c3e 6b13 05be 3610 dbbd
000001a0: 2fc2 07bd bbb0 2eba 10b2 d7bd 7d31 9cbb
000001b0: 8e45 c9bc cba4 593d bca3 04bd dbcd dc3d
000001c0: a3bf 6bbd 4ceb 40bd d9a4 7ebd bc89 f43d
000001d0: c981 7d3c e948 bcbd f5d9 18bd 6e73 843b
000001e0: f19f 353d 7696 f0bd aaf0 d03d 10cd 3e3d
000001f0: 8fb9 0ebe 709e 093e 66e0 ec3b ca5d 243c
00000200: ae3f c5bd a543 babd 7bd7 42bd 0efa 93bd
00000210: 0426 abbd 9212 963d 6573 e73c 5e62 4fbd
00000220: 9ccf 95bd 9622 b0bd c4ac 6fbd 034c 81bc
00000230: 5948 9abd 0f5f d0bd 4cc0 143e 2bed be3d
00000240: 2f6d cb3d d816 d9bd 4fa3 8bbc 5b3c a73d
00000250: faaa 78bb 1fc4 a83d 027b b4bd 0b16 80bc
00000260: 5e94 b63c 3729 03bd fdb7 5bbc e959 eebc
00000270: 64f0 933c 3da0 b13d 0b9b bbbd e7f1 98bd
00000280: 73b8 2a3c c4f2 0cbe 976a a83d 0e6d 80bd
00000290: 6000 023e 9bc6 48bd b0db cc3c d8c5 cebd
000002a0: dd90 cc3d 4b82 d4bd f35d 71bd 232a d8bd
000002b0: d17f bf3d f053 2e3e 62bd 0ebc c043 53bd
000002c0: 2eab 13bd 545c b7bc 45a1 9c3c 941a 9d3d
000002d0: 643a 8ebd 684f e0bd 27ab 623d 6081 5cbd
000002e0: 50e7 db3d 3062 1fba 232e 4f3b bac7 02be
000002f0: c442 f0bd 8e1b 04bd 3e32 4a3d c26a b6bd
00000300: 7544 75bd b414 5cbd 2f1b 27bd 323d 9d3d
00000310: 4956 53bd 4d61 72bd 371c 993d 615b 9f3d
00000320: 0a5e 5bbd c506 9f3c 41dd 363c c24f 11bd
00000330: 201a a2bd edd3 0bbe b008 cc3d d2f0 0f3e
00000340: feda 343c e66c acbd ba1b aabd f5d0 c73c
00000350: b5b1 a73d 262b 9abd 06ed c73d 8483 933d
00000360: 0945 fabc 5efd 0fbe a82b 573d 37d5 ef3d
00000370: edca e0bc f5cb 06be 3ca4 97bd 4ba8 9b3c
00000380: 8989 70bd f377 103d b274 bfbc 5b21 8dbd
00000390: 0849 ebbc 6c38 11be ecc5 a7bd a46e 083d
000003a0: df02 96bd 0772 c4bd 82dd d63d 6771 593c
000003b0: fa7a 8fbc b06a a7bc 95cb 71bd 5084 c8bd
000003c0: a5f6 f4bb 1d68 51bd 1081 243e a040 bd3c
000003d0: 13ac b23d 52dc f03d 27b4 f2bd c876 b5bd
000003e0: 8525 f3bd 96c4 be3d a4fc 023d cc74 afbd
000003f0: c4c4 06be 93a7 bb3c b4ee c8bd bd9f 14bd
0.095459536 -0.013001317 -0.06483238 -0.07634001 0.013481999 -0.03074977 -0.018243821 -0.037031464
0.0064209662 0.07487444 0.10981708 0.07585148 -0.001828212 0.12990561 0.0028779646 -0.050100222
0.018943703 -0.07605663 0.11050715 0.085627764 0.11771135 0.102098145 -0.047731046 -0.06305351
0.108597904 -0.12702084 0.109548 -0.044319067 -0.06869895 -0.053452782 -0.08485177 -0.05752291
0.0351704 -0.082454324 0.012340716 -0.17538641 0.009764392 -0.091972135 0.059770096 0.109569855
-0.124145724 -0.14451538 -0.09860874 0.08382017 0.07105119 0.07815288 -0.09999134 0.0942559
-0.09427024 -0.053836323 -0.08060177 0.14505886 0.013598637 0.021766707 0.039499257 -0.08276282
0.07658408 -0.11133171 0.17921121 0.031368162 -0.025880614 -0.024336368 -0.07413608 -0.12905203
0.044487722 0.041956697 -0.038824532 0.03935299 0.12684435 -0.032297194 -0.13648772 -0.119514905
0.002405258 -0.057870544 0.046071164 0.046089664 -0.06832404 0.12741151 -0.10696461 0.0336832
-0.07892656 0.04992802 0.13960178 -0.1097247 0.05898419 0.09020158 -0.0070717297 -0.08067668
-0.08621764 0.10841974 -0.025595428 0.0016852492 -0.07911517 0.039180864 -0.044924747 -0.17788397
-0.057629123 -0.08997402 0.14899604 -0.040982366 -0.0062186467 0.15287477 -0.12995689 -0.10696451
-0.033144172 -0.0006663908 -0.105320096 -0.0047666417 -0.0245693 0.053135674 -0.03238271 0.10781451
-0.057555806 -0.047099397 -0.06216893 0.11940333 0.015472838 -0.09193594 -0.037317235 0.0040420806
0.044341985 -0.11747448 0.10202153 0.04658228 -0.13937972 0.13439345 0.007228899 0.010032127
-0.096312866 -0.090949334 -0.04756878 -0.072254285 -0.0835686 0.07327761 0.028253267 -0.05063092
-0.07314989 -0.08600347 -0.05851437 -0.015783316 -0.075333305 -0.10174381 0.1452648 0.0932258
0.099329345 -0.1060006 -0.017045645 0.08165809 -0.0037943707 0.08240532 -0.088125244 -0.01563551
0.022287544 -0.032021727 -0.013410565 -0.029095607 0.018058963 0.08673141 -0.091604315 -0.07468014
0.010419953 -0.13764483 0.082234554 -0.062708005 0.12695456 -0.04901753 0.025007099 -0.100963295
0.09988568 -0.10376414 -0.058927488 -0.10554912 0.09350551 0.17024207 -0.008712145 -0.051578283
-0.03605192 -0.022382893 0.019119868 0.07671085 -0.06944731 -0.109526455 0.055339005 -0.05383432
0.10737479 -0.000608 0.0031613193 -0.12771502 -0.117314845 -0.03225284 0.04936432 -0.08907081
-0.05987974 -0.05373068 -0.04079741 0.07677688 -0.05159596 -0.059174825 0.07476085 0.07781101
-0.05355648 0.019412408 0.0111611495 -0.035476454 -0.07915139 -0.13655062 0.099625945 0.1405671
0.01103854 -0.08419208 -0.0830607 0.02439163 0.08188192 -0.07527761 0.097620055 0.07202819
-0.030550497 -0.14061496 0.05253187 0.117105894 -0.027440513 -0.13163741 -0.07404372 0.019001147
-0.058724914 0.035270642 -0.023371074 -0.06891128 -0.028721347 -0.1418168 -0.081920475 0.03330864
-0.07324766 -0.095920615 0.10491468 0.013271666 -0.017514694 -0.020436615 -0.05903204 -0.097908616
-0.0074756914 -0.05112468 0.16064858 0.023102105 0.08724227 0.11760773 -0.118507676 -0.08860546
-0.11872391 0.093148395 0.031979218 -0.08567199 -0.13160998 0.022907054 -0.09811154 -0.03628515

modality_transformers.atac.layers.0.linear1.bias f4 [256]
00000000: bf42 50bc b181 aabc a335 d4bb 21da 1f3c
00000010: 54d5 f5bb 1d3e 4cbc b24c 503c d92a 58bb
00000020: 8f74 1c3d 9245 fcbb cc76 ddb9 a5be 14bd
00000030: c9bd acbb 1e23 763b 860d da3b fb4d 973c
00000040: ed99 163d 9c8d 13bd d019 05bb 55e3 edbb
00000050: e277 1cbc 6197 b4bb f392 843c aa36 61bb
00000060: aca8 0cbd 0c8a 73bb 6306 d43b ad9d 5fbb
00000070: 4e11 64bb 0b2d d13c fff8 88bc fbcd b4bc
00000080: ae9d aebc 4e4c 1d3b 1e78 97bc fd5d 79bc
00000090: 9a20 413c dd4e 4ebc 77fb acbb 50ca b5bc
000000a0: 5ce6 7abb d3bb 74bc 4e8a 84bc ab09 fdbb
000000b0: bab1 3b3b 28d6 c1bc 310d aabc 5471 8abc
000000c0: f4b8 0abc 5006 53bb 16d3 2c3b e7b3 c53c
000000d0: 1b22 fe3b fabc 12bc 809e 20bc c548 603d
000000e0: bce2 a33b aa6f 143c b479 103c 83e4 c6ba
000000f0: 8af3 cf3c e334 73bc b144 e7bb 4d03 1a3c
00000100: e272 a33c 134f 6ebc 02f6 473b 9615 0abb
00000110: 5c39 f3bb 676d 9e3a d99f d33b 5aed f2bb
00000120: 38eb 02bc e572 92bb 791b 80b9 ee0e 023d
00000130: 1ecc 36bb dfcf 493b 8647 bbbc 3b13 903a
00000140: 7703 8cbc 13f8 80bb 9caf 4e3c 3ed2 babb
00000150: 76eb 8c3b b034 0dbc e306 763a 3b99 02bb
00000160: ec6c f33c 13ce ce3b 0601 073c f006 96bc
00000170: 97bb 8f3c eecc 8a3c 2881 6ebc f851 69bc
00000180: 7cb7 88bc be89 fa3c fe8b a3bb f57f d8bb
00000190: 2a9c 4abc 45a2 92bc 33ae 93bc 9aef afb9
000001a0: 8421 62bc 608a 1db9 a805 ec3b 96e1 51bd
000001b0: 2f8f 92bb 591c 95bc 495c 9bbc 426a 1f3b
000001c0: 935a 703c 334f 363b 1e1f 96bb 6be3 7939
000001d0: e519 e2bb 7d27 e5bb 2198 a0bd 74b9 4fbd
000001e0: 78a6 24bc a93b 613c c69f 99bc eb12 00bd
000001f0: d02b 8f3c cbad 043c f52f 17bc 5d57 7b3c
00000200: 9752 253c b37f 063d 1a1f 2cbd 7fcf 8dbc
00000210: 8277 863b b5a0 603c 2d17 8a3b 9fb2 e5bb
00000220: 862e 57bc 5cb3 89bc 43c6 ffbb f986 943c
00000230: cbd8 b23c a2f7 9e3c c815 42bd 3df7 49bc
00000240: 71a1 e4bb 3323 0ebc 685b ec3a 820d 2cbc
00000250: 02b5 dbbb fc12 f33b c12d c8bc 5c3f 3f3c
00000260: f89a 63bc 9c92 3cbc f046 7b3c e3d1 923a
00000270: 7513 f0bc d2a5 24bc 97f6 7bbc 30a2 573c
00000280: b455 16bc 424b 093d c7e3 15bc b8d5 163d
00000290: 1d80 c7bc 45c0 babc ce49 bdbb 425e ca3b
000002a0: 2dfd 803a 2039 5b3b 8604 8bbc 7bb2 98bc
000002b0: 96dc 7b3c 4996 06bd 653d 39bb 9f4b 6a3a
000002c0: 354e e23b 17fc a5bb df41 b53b a237 323c
000002d0: c5ad 373c eb6f cf3c 6372 15bb 7ff6 88bc
000002e0: 7d88 7ebc fb95 c73c 70a7 98bb 12c2 d13b
000002f0: 3f80 f23b 4533 1f3c 12cc 80bc 7ad7 9e3b
00000300: 214e b7bb 3bd2 c5bb 2014 223c 3ed1 ebbb
00000310: 7ef0 0b3c aad2 0fbd 4932 21bc 1c47 d33a
00000320: 7d1a 893c fc5c b3bb 8d76 91ba fac9 1c3c
00000330: cd65 a0bb ea7e c3ba 4ac0 18bc d519 8ebc
00000340: 5f87 29bc a29d 053d 8886 a8bc 1886 e0b7
00000350: d59b c13a 6b16 86bc 96c1 db3b 9cee 343b
00000360: e1d6 8bbc 640f 92bc cbe0 8cbc 9e12 b3bc
00000370: 1e28 a8bb 7b76 14bd 3691 8e3c 9d83 a23c
00000380: 7aa0 65bb 6387 643c f0b4 d5ba cbfc 02bd
00000390: 658e a4bc 612f 1e3d 59af 653b 3dfc 3d3c
000003a0: 6c81 7bbc ff54 59bd 1ea7 9cbc 4dbe e7bb
000003b0: 996d c3bb ae13 43bc 1b21 7b3c b7d0 4ebc
000003c0: ab74 ecbc 0eb9 47bc 1e4c 5a3c 86fe 6dbb
000003d0: bdb8 dd3a 5076 f0ba 8db3 0cbc 640b fabb
000003e0: 630a 5ebc c14e e0bb 2828 633c c39b 9cba
000003f0: 1ba4 acbb 8e0b a23b 6369 f33b d9a2 213b
-0.012711226 -0.020813795 -0.0064761206 0.009756596 -0.0075022373 -0.012465981 0.012713598 -0.0032984524
0.038197096 -0.007698723 -0.00042240915 -0.036314625 -0.0052716476 0.0037557553 0.006654444 0.018469801
0.03676789 -0.03602372 -0.0020309575 -0.007259766 -0.009550067 -0.00551121 0.016183352 -0.0034364858
-0.034340546 -0.003716114 0.006470488 -0.0034121082 -0.0034800353 0.025534173 -0.016720293 -0.022070875
-0.021315422 0.002400178 -0.018489894 -0.015220162 0.011787558 -0.012592045 -0.0052790004 -0.022191197
-0.0038284278 -0.014937359 -0.01617923 -0.0077221 0.0028639869 -0.023661688 -0.020758243 -0.016899742
-0.008466948 -0.0032199807 0.0026370934 0.024133636 0.0077555305 -0.008956188 -0.009803414 0.0547569
0.005001394 0.009059826 0.008818079 -0.0015174303 0.025384683 -0.014844152 -0.007057749 0.009400201
0.019952241 -0.01454522 0.0030511622 -0.0021069995 -0.0074226093 0.0012087048 0.0064582643 -0.0074135484
-0.007990651 -0.004469263 -0.0002443453 0.03175252 -0.002789266 0.0030794067 -0.022861253 0.0010992059
-0.017091496 -0.0039358228 0.012615111 -0.0057013324 0.00430053 -0.008618519 0.00093851815 -0.0019927758
0.029715024 0.006311187 0.00823999 -0.018313855 0.017545504 0.016943421 -0.01455716 -0.014240734
-0.016689055 0.030583259 -0.0049910536 -0.0066070505 -0.012366334 -0.017899642 -0.0180274 -0.00033557118
-0.013801936 -0.00015024235 0.0072028227 -0.051240526 -0.004472635 -0.018201994 -0.018964903 0.002432481
0.014670032 0.0027818203 -0.004581346 0.0002383121 -0.0069000595 -0.0069932328 -0.07841516 -0.05071397
-0.010049455 0.013747134 -0.018752944 -0.03126804 0.017476946 0.008098076 -0.009227742 0.015340653
0.010090492 0.032836627 -0.04202185 -0.017310856 0.004103602 0.013710191 0.0042141885 -0.0070098187
-0.013133651 -0.016809158 -0.007805617 0.018130766 0.02183189 0.01940519 -0.047384053 -0.012327013
-0.006977253 -0.008675384 0.0018032612 -0.010501267 -0.0067049274 0.0074180346 -0.02443588 0.011672821
-0.013891928 -0.011509564 0.015336737 0.0011201467 -0.029306153 -0.0100493 -0.015378616 0.013161227
-0.009175707 0.033519037 -0.009148545 0.03682491 -0.024353081 -0.02279676 -0.0057766205 0.006175787
0.0009841077 0.0033450797 -0.01696993 -0.018639794 0.015372416 -0.032858167 -0.0028265354 0.000893766
0.0069062957 -0.005065452 0.005531534 0.010877522 0.0112108635 0.025321921 -0.0022803776 -0.016719101
-0.015535471 0.024363508 -0.004658632 0.006401309 0.007400542 0.009716813 -0.015722308 0.004847464
-0.0055940305 -0.0060370243 0.0098924935 -0.0071965745 0.0085412245 -0.035113014 -0.009838649 0.0016119215
0.016736263 -0.005473731 -0.0011097953 0.009569639 -0.004894948 -0.0014915143 -0.009323189 -0.017346302
-0.010347216 0.032621033 -0.020571962 -2.6765323e-05 0.0014771173 -0.016368112 0.006706427 0.0027608043
-0.017070236 -0.017829604 -0.017197033 -0.021859463 -0.0051317355 -0.036245804 0.017403226 0.019838149
-0.0035038278 0.013948294 -0.0016304534 -0.031979363 -0.02008743 0.038619403 0.0035047142 0.011595783
-0.015350681 -0.053059574 -0.019122656 -0.007072246 -0.005963993 -0.0119065475 0.015327717 -0.012623004
-0.028864225 -0.012190117 0.013323812 -0.0036315038 0.0016916018 -0.0018345807 -0.00858773 -0.0076307524
-0.013552281 -0.0068453257 0.013864554 -0.0011948276 -0.0052685863 0.004945225 0.0074283346 0.0024663715

modality_transformers.atac.layers.0.linear2.weight f4 [64, 256]
00000000: f0af 29bd bec2 2abd 1959 ac3d df46 b9bd
00000010: e617 4e3c fdc6 1dbd f824 01bd 78a3 863d
00000020: 9fb5 69bd 89ab e6bd b1a4 a0bd 17fc a8bd
00000030: 04d0 33bc 9818 c3bc a470 0dbe 6fcc 08be
00000040: 9634 d03d 27da bc3d e119 9ebd b3a8 183d
00000050: a9b1 163e 427b bb3c aac6 e23d 1c47 e13d
00000060: b0bb 7b3c cf1b 863d 5af0 86bc 1977 19be
00000070: d8b2 c5bc dfe1 983d f984 d0bd 3765 263d
00000080: aa01 cdbb 1a9a b63d 5e00 c6bd aefd cabc
00000090: 7096 edbd ac21 123e a308 483d e7f1 ccbd
000000a0: 60cf c5bc a1f7 8d3d dd34 c03d 3da1 a53d
000000b0: 6d01 fbbd 36fb cebd c0d5 903d ce9d e63d
000000c0: 7144 e73d e471 ac3d ead6 f6bc 72ac 123e
000000d0: 2797 db3d 45f9 b73c 28e4 7abd 714b afbd
000000e0: bd9f 113d 6dad 15be 15c3 c33c 1dce 3abd
000000f0: b38c e33d c74b ec3d 15bc 023e b38a a03d
00000100: d044 f4bd 216e ebbd a6e4 47bd 986d 46bc
00000110: 1e98 a5bd 2560 fa3d 5830 e2bd 3461 963c
00000120: ff79 83bc e88c 523d 26c1 dabd 9bb1 0a3e
00000130: ca8f b83d 0f44 9bbd 284c e7bc cef6 1a3e
00000140: f687 743d 8c2f a7bd 9519 043d ae1b f5bd
00000150: 5266 d8bd 460c 91bd ab22 9bbd 717e 02be
00000160: d644 b9bd 771e 0b3d 7947 cabc 63f3 7dbd
00000170: acd4 2c3d 1f75 1fbd 71d0 bdbd 884a f2bc
00000180: 2e06 fabd c979 463c 52da 2cbd 760e 61bc
00000190: 5d22 683d 1127 ba3d d211 56bd 167b 4c3c
000001a0: 8559 f13c b39c 21bd 8a4e c73d 5b68 eebc
000001b0: fe1a 42bd c5d2 7ebd c7c4 9cbc ddf5 0f3e
000001c0: 977d d53d 5f9a cfbc 783e b93d de3a dabd
000001d0: 8be5 cf3d 07cc a7bd 2f1b 4a3d f704 19be
000001e0: 94e4 14bc 8842 1b3c 22f0 bf3d 599f 523d
000001f0: 13e6 903d 64a0 e8bd 1c09 97bd 3df7 b33d
00000200: 25bc af3c e169 dd3d 9721 1fbe 7d2d 413d
00000210: 194b b4bd 1a91 26bd 2002 1f3d 0415 b33c
00000220: 93a6 9b3d 3161 663d 2a0e 633c 0dc4 c43c
00000230: ab45 2a3d 1d9a e43c eab2 b3bd c029 923c
00000240: 824a 4f3d a041 693d 8854 f83d e70e 843a
00000250: 6da7 06be b2f0 9c3d e132 cdbc 2e6c fabd
00000260: dd1d a8bd 692c 8c3c b366 a1bc 3698 903d
00000270: 1d32 8dbc f3b9 7f3d 9ae8 033d 7aa9 f9bd
00000280: e301 02bd 1b95 97bd bf88 a9bd a495 92bd
00000290: c376 033e a2df 043e 95fa 2e3d 5b42 f6bd
000002a0: e668 f5bd 6f7d b23b afc0 c53d 4f1e 0cbe
000002b0: bc7c d73b 6627 97bd fb22 493c 487f c5bd
000002c0: b5eb e53d 69be f1bc 6401 b3bb bcdf a3bd
000002d0: 3d1b 4cbd 2c0d a03c 9ed5 ccbd 2f57 91bc
000002e0: 5835 923d f672 0e3e 2fd6 663d 20a4 babd
000002f0: 11d7 33bd 1e5d f0bc 7e2d ecbd 498f 08be
00000300: 060b 92bd 149f a23d 6968 d9bd 4956 183d
00000310: 8f63 973d 3be4 cf3d 5372 e43d 1ca4 82bc
00000320: 9809 783d cc03 0cbd cdfc 8bbc c168 93bd
00000330: 3de3 0abe 2114 d43d 9cdf 3e3d 563b c23d
00000340: 3c1c 173d 7afc b7bd bb7b 283d de58 d5bc
00000350: 0d1c af3d 42f6 d83c 352d 80bc b3e8 0abc
00000360: 20e1 a23d 05bd 723d 3f8f 7d3d 0f20 f13d
00000370: d849 dabb ab36 cfbd 74a1 9d3d 4ade 9f3d
00000380: ab0f 843d 9961 d3bc 214a aebd 9ab9 ff3d
00000390: f22f 1f3d 5da0 813d 7855 00be bd4b 2e3c
000003a0: 291b 393d fb4d 2abb 4072 8bbd 9e76 e9bd
000003b0: 10f9 d4bd ccce 0a3d ffd4 173d d33e bd3d
000003c0: 18ea aabd ba11 f23d 65d1 34bd 6923 843d
000003d0: 71bd c63d 3d2a a7bd 86e5 c23d ab29 a9bd
000003e0: 56cf 68bd 962f 03bc de19 8b3d 952a b1bd
000003f0: 9afd cbbd dbaa 033e a703 febb 78f6 e23d
-0.041427553 -0.041689627 0.084154315 -0.09046721 0.01257894 -0.03851985 -0.031529397 0.06574148
-0.057057973 -0.112631865 -0.078439124 -0.08251207 -0.010974888 -0.023815438 -0.138125 -0.13359235
0.1016628 0.09221297 -0.0771978 0.03727026 0.1471621 0.022885922 0.110730484 0.10999891
0.015364572 0.06548273 -0.01647203 -0.14986838 -0.02413313 0.074649565 -0.101816125 0.04062387
-0.006256302 0.08916111 -0.09668039 -0.024779167 -0.11600959 0.14270657 0.04883636 -0.10007077
-0.024146736 0.06931997 0.09385083 0.080873944 -0.12256131 -0.101065084 0.070720196 0.112605676
0.11292351 0.084201604 -0.030131776 0.14323595 0.107221894 0.022457728 -0.061252743 -0.08559311
0.03555273 -0.14616938 0.023896733 -0.04560672 0.111108206 0.11537891 0.1276706 0.07838955
-0.119271874 -0.11495615 -0.04880204 -0.01211109 -0.08085655 0.12225369 -0.11044377 0.018356897
-0.016049383 0.05140391 -0.106813714 0.13544314 0.090118006 -0.075813405 -0.028234556 0.15133211
0.059699975 -0.08163366 0.03225096 -0.1196817 -0.10566391 -0.07082419 -0.07574972 -0.12743546
-0.090463325 0.0339646 -0.024692284 -0.06199969 0.042195007 -0.038930055 -0.09268273 -0.029576555
-0.1220821 0.012113997 -0.042200394 -0.013736358 0.056673396 0.090894826 -0.05226309 0.012480518
0.029461632 -0.03945608 0.09731777 -0.029102495 -0.047389023 -0.062212724 -0.0191368 0.14058633
0.10424345 -0.025342165 0.09045118 -0.10655759 0.10151204 -0.08193212 0.04934233 -0.149433
-0.0090877 0.0094763115 0.093719736 0.051421497 0.07075133 -0.11358717 -0.07374784 0.08787391
0.021452019 0.108112104 -0.15540157 0.04716252 -0.08803386 -0.040665723 0.038820386 0.021860607
0.07600131 0.056245033 0.013858357 0.024019266 0.041570347 0.027905518 -0.087743595 0.017842174
0.050608166 0.05694735 0.12125498 0.0010075242 -0.13149805 0.076630965 -0.025048675 -0.12227665
-0.08208821 0.01711102 -0.019702291 0.07060282 -0.01723581 0.062433194 0.032204248 -0.12190528
-0.03174008 -0.074014865 -0.08278035 -0.07157448 0.12838273 0.12975934 0.042719442 -0.12024375
-0.119828984 0.0054470818 0.09655892 -0.13683437 0.006576149 -0.073805615 0.012276406 -0.096434176
0.11226598 -0.02950974 -0.0054628123 -0.08001658 -0.049830664 0.01953753 -0.10001682 -0.017741768
0.07139081 0.13911042 0.056356605 -0.091133356 -0.043906275 -0.029341277 -0.115321144 -0.13335909
-0.07131009 0.07940498 -0.10615618 0.037191663 0.07392036 0.101509534 0.11154618 -0.015947394
0.060556024 -0.03418331 -0.017088318 -0.071977146 -0.13563247 0.10355402 0.04659997 0.09483974
0.03689216 -0.08983703 0.041133624 -0.026043352 0.08550272 0.026484612 -0.015646556 -0.008478331
0.079530954 0.059262294 0.06190419 0.11773693 -0.006661635 -0.10117849 0.0769681 0.0780607
0.06448301 -0.025803374 -0.08510233 0.124865726 0.038864084 0.06329415 -0.12532604 0.010638175
0.045191918 -0.0025986421 -0.06808901 -0.113995776 -0.103990674 0.033888623 0.037068363 0.092404984
-0.08345431 0.11819787 -0.044145007 0.064520665 0.09704102 -0.08162353 0.09516434 -0.08259901
-0.056838356 -0.008006951 0.06792043 -0.086507 -0.0996048 0.12858145 -0.0077519002 0.110821664
