ml_output/L6_CT_CTX_Glut/atac/model_1.pth (torch, 474380 bytes, 48 tensors)

query f4 [1, 64]
000000 8d ea 4d bf f1 16 d5 3d d3 0c 0d 3f fe 7f 44 be
       -0.8043602 0.10404766 0.55097693 -0.1918945
000010 e5 ee ce 3e 48 54 8c be fa da ee 3e da 8d e4 bf
       0.40416637 -0.27408051 0.4665144 -1.785579
000020 b7 07 2c 3e d3 b0 62 be f4 c5 b6 bf a4 b2 75 be
       0.16799818 -0.22137766 -1.427916 -0.23993927
000030 8d be cc be 28 cc 1a bf d2 61 91 3e 10 1f 70 bf
       -0.3998913 -0.6046777 0.28394943 -0.937974
000040 5f 8e 5f 3f 9d dc b1 3e 32 34 6e 3f 38 b1 4a bf
       0.87326616 0.34738627 0.93048394 -0.79176664
000050 1d da 93 bf a5 71 3c bf ec 06 c6 3f 84 6b 79 bf
       -1.1550938 -0.7361091 1.5470862 -0.9742968
000060 99 2b ce 3f 3b 41 01 c0 2f f1 27 bf c0 0b 78 3f
       1.6107055 -2.0196064 -0.6560239 0.9689293
000070 fe 1e da bf 60 79 b1 3f 47 b3 82 3f 3c 3b 14 3e
       -1.7040708 1.3865166 1.0210961 0.14475721
000080 79 1b b5 3e 95 e0 a2 3e 39 7e 90 bf e9 4b 48 be
       0.35372522 0.31811967 -1.128852 -0.19560207
000090 a0 50 83 3f 93 b5 3d 3f 6d 93 85 bf 0c 2c 6b bf
       1.025898 0.74105185 -1.0435616 -0.91864085
0000a0 0b 2d ce bd 22 74 27 40 73 2d 7a 3e 15 8b 83 bf
       -0.10067185 2.6164632 0.244314 -1.027682
0000b0 56 3c c0 bf 8a 31 d6 3f de c5 fc 3f 40 4b 38 bf
       -1.5018413 1.6733868 1.9747884 -0.7198982
0000c0 1a a7 15 3f 2c b4 a4 bf 98 b9 6a 3e e5 5a 81 3e
       0.584581 -1.2867484 0.22922361 0.2526466
0000d0 cc 62 ce 3f 59 08 11 bf cb 47 4f 3f f7 ec 29 bf
       1.61239 -0.5665336 0.8096892 -0.66377205
0000e0 64 c4 c9 3f ba 51 93 3e 7a ee d0 3f 93 81 c3 3d
       1.5763059 0.2877329 1.6322777 0.09546199
0000f0 f9 a7 29 3c af 88 1c bf 07 46 71 3e 6a 63 56 be
       0.010354989 -0.6114606 0.2356187 -0.20936361

cls_embeddings.atac f4 [1, 1, 64]
000000 2a 18 99 be 4e 6a b4 3e 71 31 37 bf f4 0c d7 3e
       -0.29901248 0.35237354 -0.71559817 0.4200207
000010 80 81 76 3f f8 fd 03 be 56 f0 6f 3f 05 37 aa 3f
       0.9629135 -0.1288985 0.937261 1.3298041
000020 33 cf c3 be 1a 69 f4 3e 65 8f bc 3f 24 0f 12 be
       -0.38244018 0.47736436 1.473126 -0.14263588
000030 f9 b0 53 bd d9 25 17 40 91 e3 66 bf 25 00 e2 be
       -0.051682446 2.361685 -0.9019099 -0.44140735
000040 93 47 ac 3d 4f c3 f5 3d 6c de 69 bd e2 6e ad 3f
       0.08412089 0.12000143 -0.057096884 1.3549464
000050 5a c4 be be 8b c0 7b 3e bd 4d 84 bf 78 df 82 3f
       -0.3725918 0.24585168 -1.0336224 1.0224447
000060 ea f5 8d bf c0 41 95 be 2d 0f 03 3e 35 fa 3f 3f
       -1.1090672 -0.29151726 0.12798758 0.7499116
000070 bc a7 8a 3e fd 57 65 bd 43 55 ca 3f f4 06 91 3e
       0.27081096 -0.055992115 1.580727 0.28325617
000080 1a db f5 bd 1b 59 99 bf 0b 3f ea 3e 80 50 49 3f
       -0.12004681 -1.1980318 0.45751223 0.7863846
000090 a8 60 8f bb df 23 ab 3f de ea 2f 3f df d6 9b 3e
       -0.004375536 1.3370322 0.68717754 0.3043737
0000a0 fa 2e d3 bf 05 80 10 bf 4b c3 73 bf 30 cf 33 bf
       -1.6498711 -0.5644534 -0.9521987 -0.7023802
0000b0 6d b5 48 3f e8 f8 9f 3f 94 1f d6 bd 7e 76 ac 3e
       0.78401834 1.2497835 -0.10455242 0.33684152
0000c0 3c ec e0 bf 9c 5e e0 3d de c1 37 3e c8 d8 d7 be
       -1.7572093 0.10955545 0.17945048 -0.42157578
0000d0 c4 fb 91 3f 74 05 c2 bd 92 5b 56 be 9d 9a 7b bf
       1.1404958 -0.09473696 -0.20933369 -0.98282796
0000e0 53 ec f7 bd e0 a6 13 3f 0d 11 b5 bf 20 c6 65 3f
       -0.12105622 0.57676506 -1.4145828 0.8975544
0000f0 5c 78 99 3f b3 cc af be 2b 03 7b bd 02 03 e3 bd
       1.1989856 -0.3433586 -0.061282318 -0.11084558

modality_embeddings.atac.weight f4 [64, 9]
000000 fd f1 3e 3e 5c a9 33 3e f4 99 92 3e 1b 12 32 be
       0.18646999 0.17545074 0.28633082 -0.17389719
000010 e0 d3 d8 3d 8f 91 a0 bc 48 42 69 be 5c f3 2b 3e
       0.10587287 -0.019600658 -0.2277919 0.16792053
000020 60 29 da 3d 90 77 eb 3d 6d 14 4a 3d b3 c5 d7 3d
       0.10652423 0.11497414 0.049335886 0.10535755
000030 bd c6 f6 3c 37 b3 2a be 3d f1 e8 3d 7d d9 4a 3e
       0.030124063 -0.16669928 0.113741376 0.19809528
000040 2e 98 28 bc b6 5a 82 be 3d 11 59 be eb c7 40 be
       -0.010290189 -0.25459832 -0.21197982 -0.18826263
000050 2a 1d 9e bc 73 87 07 bd a4 1c 35 be 71 c0 83 bd
       -0.019301016 -0.03308816 -0.17686707 -0.0643319
000060 8f 47 8c 3e 17 e5 fd bc d7 98 4b be 51 9b ba bd
       0.27398345 -0.030993028 -0.19882523 -0.091116555
000070 33 43 c2 bd bb df c2 3b 8e cc 2f be 9d 5c 1c be
       -0.094854735 0.005947081 -0.17167875 -0.15269704
000080 30 4a 8e bd 7a d7 63 bd d5 da d6 bd c4 90 f7 3d
       -0.06947744 -0.055625416 -0.10490958 0.12088159
000090 63 86 7b 3e 37 5e a4 3e a2 2a be 3e b7 86 d0 3d
       0.24562983 0.3210313 0.371419 0.10181945
0000a0 8e 8c 71 3e 6c 48 1a 3e e9 5c 83 be 70 ec 07 3e
       0.23588774 0.15066689 -0.25656822 0.13273787
0000b0 c8 85 e4 3d e8 bc 32 be e7 cb f4 bb 38 a2 05 be
       0.11158329 -0.17454875 -0.007470596 -0.13050163
0000c0 e0 39 65 be 1c e8 90 be fe aa 33 3e 2a 4d 79 3b
       -0.22385359 -0.28302085 0.17545697 0.0038040378
0000d0 5b ca 79 3e 38 60 df 3d 92 bd 0d be f5 b1 6e be
       0.24393599 0.10907024 -0.13841847 -0.23310073
0000e0 6e 91 29 be 0b 9b 86 3e ec f1 3f 3e 5e 26 93 bd
       -0.16559383 0.26290163 0.1874463 -0.07185052
0000f0 f5 11 6e 3d c0 c5 2c be f8 7f 59 be 39 8c 80 3e
       0.058122594 -0.1687231 -0.21240222 0.2510698
000100 59 f2 3a 3d 4a 14 74 be 12 e5 43 3d 06 38 78 3d
       0.045641277 -0.23835865 0.04782588 0.060600303
000110 68 90 84 be c2 ab 4b 3e 09 7c 17 3d df 00 16 3d
       -0.25891423 0.19889739 0.036983524 0.036621924
000120 a0 c2 57 3e ea 54 84 3d 29 f6 b4 3e 99 8e 00 3e
       0.21070337 0.064615086 0.35344055 0.12554397
000130 e9 b4 76 be b2 24 29 3e 22 eb 8f be ad d3 1c 3e
       -0.24092449 0.16517904 -0.2810908 0.15315123
000140 c1 de 13 be 13 8a 7d bd 11 7f a7 3e 6e 94 5e 3e
       -0.14440443 -0.061899256 0.3271413 0.21736309
000150 0f 56 1e 3d a7 1c 20 bd cd 29 fe 3d 7e 5d 5e bc
       0.03865629 -0.039089825 0.124103166 -0.013572095
000160 90 a5 34 be e7 9b 38 3e 99 10 4d bc 97 27 88 3e
       -0.17641282 0.18028222 -0.012516164 0.26592705
000170 43 07 07 3d 89 14 b2 bd 14 b4 d9 3c ad f6 d3 3d
       0.03296591 -0.08695323 0.026575126 0.10349784
000180 6c 81 89 be cf 8b 68 3e 24 87 59 3e ec 4b 9c be
       -0.26856554 0.22709583 0.21242958 -0.30526674
000190 22 e8 cf be e5 b4 b4 bc cc 64 2a 3e a0 ce 75 be
       -0.4060679 -0.022058913 0.16640013 -0.24004602
0001a0 7c 38 9f 3d 2b 92 35 3e 00 85 cb 3d ef 30 24 be
       0.077744454 0.1773154 0.09937477 -0.16034292
0001b0 c5 b6 68 be 74 30 7e be bc 95 1a 3e 28 79 5b 3e
       -0.22725971 -0.24823171 0.15096182 0.21432936
0001c0 b2 9e a3 3b 48 93 f1 3c 0d 61 56 3d 76 29 6c 3e
       0.004993283 0.029489174 0.05233865 0.23062691
0001d0 fb 4d 6e 3e 00 e3 8e bd 02 63 2a bd f4 54 08 3e
       0.23271935 -0.069768906 -0.041598327 0.13313657
0001e0 80 43 57 3e 0b de 85 be 5b a4 e1 bd 4d f1 33 be
       0.21021843 -0.26145968 -0.110176764 -0.17572518
0001f0 35 67 00 3d af b0 c9 bc 1e e9 2b 3e 59 4a b8 3c
       0.031348426 -0.024620382 0.16788146 0.02249639
000200 96 a1 82 3e 61 85 0f 3e 3d a9 77 bc b0 b5 99 be
       0.25513905 0.14015724 -0.015116033 -0.3002143
000210 75 d7 80 3e e0 e4 a4 3d 71 16 7a bd 5b 7d 62 3e
       0.2516438 0.08051467 -0.061056558 0.22118132
000220 cc 0b b6 bc de 0f 82 3d 3a 49 f8 3d 99 fe 7b 3e
       -0.022222422 0.06350683 0.12123342 0.2460884
000230 74 ae 87 be df cd 02 3d c5 17 08 bd 67 52 0a 3e
       -0.26500285 0.031934615 -0.033225793 0.13507996
000240 2c 53 b5 be 31 fe c3 be 87 50 3f be ce 1f e8 3d
       -0.35415018 -0.3827987 -0.18683062 0.11334191
000250 bc 7d ee bc c4 d1 3b be e6 46 4f 3e 15 4f 7d 3e
       -0.02911269 -0.18341738 0.2024189 0.24737199
000260 19 45 55 be 86 08 c4 be 2b 9b ab be 3f e9 3e be
       -0.2082714 -0.38287753 -0.3351682 -0.18643664
000270 ec 4a 40 be 5e 12 40 3e ce 6e 87 3b 60 a2 b5 3d
       -0.1877858 0.18757007 0.004133082 0.08868861
000280 e9 a9 0d 3e 6c 70 00 bd d9 57 a8 3d aa 9f 4a 3d
       0.13834347 -0.031357214 0.082198806 0.049468674
000290 0a 2b be bd ab c0 ef bd bc dc 3c be b5 69 2e 3d
       -0.09285553 -0.117066704 -0.18443578 0.04258128
0002a0 ea b5 f0 3d 50 df 60 3d 06 4e c5 bc c3 d6 be 3b
       0.11753447 0.054900467 -0.024085056 0.0058239414
0002b0 53 23 f2 bd 17 f6 3c bd 5f 4a aa bd 31 19 66 3d
       -0.11823144 -0.046133127 -0.083149664 0.05617637
0002c0 4c 22 50 3e e1 86 9f 3d 4c ab 84 3d fd 78 82 bc
       0.20325583 0.07789398 0.06477985 -0.015926832
0002d0 3e b4 17 bd 25 d9 b8 3e 9a 81 39 3e 74 39 57 3e
       -0.037037127 0.36103168 0.18115845 0.2101801
0002e0 6b 99 f2 bc 92 f4 95 3c e1 39 07 3e bb 38 23 be
       -0.029614171 0.018305097 0.13205673 -0.1593961
0002f0 71 07 3b be 06 6a 8d 3e b7 65 a1 3e 90 78 ae 3d
       -0.18264557 0.27619952 0.31522915 0.08519089
000300 87 2e 6f 3e f6 75 a7 bd 45 44 1a be 74 d6 db bd
       0.23357593 -0.08176796 -0.15065105 -0.10734263
000310 b1 37 57 3d 40 14 51 be 74 0e 47 3e 27 1a a7 bd
       0.052543346 -0.20417881 0.19439107 -0.08159285
000320 db 49 0a bd 93 f2 8e 3e db c3 34 3e c7 68 25 3d
       -0.03376184 0.27919444 0.17652838 0.040383127
000330 d2 95 53 be a4 b5 0d be ec 4f 44 be 19 0f 0d be
       -0.2066262 -0.13838822 -0.19171113 -0.1377529
000340 26 5f 57 3d 06 c5 84 3d 43 2f 9f 3e eb 7c 9c bd
       0.052580975 0.06482892 0.31090745 -0.07641014
000350 47 cc 0b 3e a4 e3 18 be 8a a4 c3 bd 54 ae 32 be
       0.13652144 -0.14930588 -0.09552868 -0.17449313
000360 a3 15 25 be ee 5e 7c be 95 c3 8f bd 4b 6e 93 be
       -0.16121535 -0.24645588 -0.07019726 -0.28795084
000370 f7 2b a6 bd 4e d5 e4 bd 19 16 9b 3e 9f c2 96 3d
       -0.081138544 -0.11173497 0.30290297 0.0736134
000380 6b 04 0c be 67 9b 19 be b0 12 13 be 12 50 c0 bd
       -0.1367356 -0.15000688 -0.14362597 -0.09390272
000390 64 47 20 3d 22 cc 66 3e 8f 34 38 be dc 42 6c be
       0.039130583 0.22538808 -0.179888 -0.2307238
0003a0 2a 0b 58 be 4f 14 70 3e 36 7d 18 be 68 f3 3e 3e
       -0.21098009 0.23445247 -0.14891514 0.1864754
0003b0 68 28 7a 3e d2 fd 7d be 97 f3 8a 3e 2f 8f 6d bd
       0.24429476 -0.24803856 0.2713897 -0.05799788
0003c0 eb bf 0f be 37 d9 13 3e 2a c1 7d 3e 55 53 b1 bd
       -0.14038055 0.1443833 0.24780717 -0.086584724
0003d0 f2 6c 5f bd bd 0f 7b 3e 77 5c 83 3d 72 70 fa 3c
       -0.054547258 0.24517722 0.06414121 0.030571196
0003e0 0b d0 81 bd 4e df 00 3e f1 bb 18 3d 5a 94 22 3e
       -0.06338509 0.12585184 0.03728861 0.15876904
0003f0 a0 41 a7 3c be 18 e2 3d b0 06 a2 3d 76 9e fb bd
       0.020417035 0.110398754 0.07911432 -0.122860834

modality_embeddings.atac.bias f4 [64]
000000 f9 ba f7 3c c9 2b 3b bc 10 e7 b1 bc 25 63 ca 3c
       0.030240523 -0.011424013 -0.021716624 0.024705479
000010 60 0b ae bc 80 6c b5 bc d3 65 3a 3b 3b 20 c7 bb
       -0.021245658 -0.022146463 0.002844204 -0.00607684
000020 22 85 a6 3c fd f7 38 3c 22 af 63 39 26 5d eb bc
       0.020327155 0.011289594 0.00021713649 -0.02873094
000030 ea b6 6b bd e8 43 d5 3c 9f 6a 0a bd 84 74 c1 bc
       -0.057547487 0.026033357 -0.033793088 -0.02361513
000040 58 f4 d2 bc 0c cb fe bc 34 17 24 bc 51 ea b1 3b
       -0.025751278 -0.03110268 -0.010015298 0.005429544
000050 bb a6 3c 3c a5 00 0d 3d 3c 11 cd 3c 2b 5d 2e 3d
       0.011514361 0.034424443 0.025032632 0.04256932
000060 85 a8 c5 bc 3d f0 71 3c 29 d9 8a b9 31 5d 21 bd
       -0.024128208 0.01476675 -0.00026483208 -0.039395515
000070 fa 82 01 3d 49 52 2e 3d 8d eb aa 3c 46 50 03 3d
       0.03161905 0.042558942 0.020864272 0.032058977
000080 bb 0b 89 bb eb 90 52 bb e2 78 d6 bc 87 72 83 bc
       -0.0041823066 -0.0032129835 -0.026180688 -0.016045822
000090 8b da 81 3c 93 d5 b8 bb c2 56 5d bd e4 34 ea bb
       0.01585128 -0.0056406944 -0.054037817 -0.0071474183
0000a0 ae 5c 45 bd 0d 2f e8 3c 8c 4a 2e 3c 9e 50 ef bc
       -0.04818409 0.028342748 0.010637891 -0.029213246
0000b0 91 66 ae bc f1 18 6d bb d9 e8 0c bd a2 3b a3 3c
       -0.021289142 -0.0036178196 -0.03440175 0.019925896
0000c0 7f f3 cd 3b 05 ee c9 bc 30 ca 51 3c c9 a7 90 bc
       0.0062851305 -0.02464963 0.012804553 -0.017658131
0000d0 c4 ac 1c 3c ec 1b 8b 3d 58 51 e0 3b bc e5 53 3d
       0.009562675 0.06792435 0.0068456344 0.051732764
0000e0 3a a4 30 3c b2 87 16 bd 59 91 8e ba e1 a0 1d 3d
       0.010781342 -0.036750503 -0.0010877057 0.038483504
0000f0 3c 5f 30 bc 7e b4 7f bc a5 a2 fc 3c 39 33 cf bb
       -0.010764893 -0.015606998 0.030839274 -0.006323245

modality_transformers.atac.layers.0.self_attn.in_proj_weight f4 [192, 64]
000000 a0 8c d5 bc f8 e8 0f 3e 99 af 94 bd 81 6a 35 3b
       -0.026068032 0.14053714 -0.07260055 0.002768189
000010 29 54 bc bd f9 cd 00 3c 49 dc 23 bd cd 51 c8 bd
       -0.0919574 0.007861608 -0.040005002 -0.09781227
000020 c6 26 94 3d f4 cc e2 bc 86 43 7b 3d de b0 87 3d
       0.07233958 -0.02768562 0.061343692 0.066255316
000030 b7 ec 05 be e3 ae b5 3d 08 37 e4 3d 46 66 06 bd
       -0.13078581 0.088712476 0.11143309 -0.03281238
000040 79 1b 15 be fd 61 1e be 68 af cc bc aa d5 a8 39
       -0.14561261 -0.15467067 -0.024985984 0.0003220265
000050 b4 d6 b1 bd da 9f 2d be 13 62 88 bd 60 99 6b bd
       -0.086835295 -0.1695551 -0.06659331 -0.057519317
000060 52 f1 c0 3b 2a 49 70 bd 88 a6 ff bd 20 01 29 bd
       0.0058881426 -0.058663525 -0.12482935 -0.04126084
000070 23 fb 98 3d 47 c6 7b 3d f3 01 47 bd ba 0d 4d 3c
       0.074697755 0.06146839 -0.048585843 0.01251548
000080 ca 66 af bd ac a3 0b be c8 34 0b 3e b3 0f 06 3d
       -0.08564527 -0.13636655 0.13594353 0.032729816
000090 d6 d4 f6 3d 48 f9 c7 3d a5 a2 34 bd 37 68 12 3e
       0.12052314 0.097643435 -0.044100422 0.14297567
0000a0 5f 63 a5 bd 6f b3 83 bb f0 74 88 3d 3c c9 07 3e
       -0.08075594 -0.004019193 0.06662929 0.13260359
0000b0 d7 23 10 be 10 83 e9 bd 2e d2 8d 3d 67 1a 8b bc
       -0.14076172 -0.11401951 0.06924854 -0.016980363
0000c0 8d fb 75 bc c6 32 06 be 41 17 50 bd 67 9b e5 3d
       -0.015013588 -0.13105306 -0.050803427 0.11211281
0000d0 61 44 95 3d c6 3e c6 bd 0e a1 79 bc a3 6c 0f be
       0.07288433 -0.09679942 -0.015236152 -0.14006285
0000e0 4a 89 0a be 5c 0e b1 3d 43 d6 8f 3c ee d1 b9 3d
       -0.13528934 0.08645317 0.017558223 0.09073244
0000f0 7a 9a 8e 3d 76 50 9d bd f7 76 8b 3d f9 9c 3e bd
       0.06963058 -0.07681362 0.068098 -0.04653642
000100 82 c7 7d bd e3 7d bf bd a1 2a a6 3d 6e e8 90 3d
       -0.061957844 -0.09350183 0.081135996 0.070755824
000110 3e ae 0f 3e b6 d9 d3 3c 6d 42 ce 3d f9 3c 06 3e
       0.14031312 0.025860649 0.100712635 0.13109197
000120 da 30 71 3d d0 20 02 3d 11 98 64 bd fc bc 01 be
       0.05888448 0.031769574 -0.055809084 -0.12669748
000130 0a 0d d0 bc 8b a5 81 bd 1b a4 d2 3d ad b2 b3 bc
       -0.025396843 -0.06330403 0.10285207 -0.021935785
000140 4f a7 14 3e 67 5c b9 3d d5 f7 f7 bb 78 01 f1 bd
       0.14516948 0.090508275 -0.0075673857 -0.11767858
000150 69 4b 62 bd 94 3b c7 bc 1d e1 24 bd bd db e6 bc
       -0.055247698 -0.024320401 -0.040253747 -0.028180951
000160 fb ae fd 3d 40 1f 67 3d ef 25 88 3d 9d 86 f2 bd
       0.123868905 0.056426287 0.0664786 -0.11842082
000170 aa 34 06 3e bd 5f eb 3d 06 06 b7 bd c3 26 19 bc
       0.13106027 0.1149287 -0.08936696 -0.00934762
000180 51 6e 9e bd aa 65 cd 3c 3a 77 a5 bd 03 b3 87 bc
       -0.07735885 0.025072891 -0.08079381 -0.016564852
000190 8c 93 10 be df 33 a3 bd 31 08 07 3d 5f 34 b4 3c
       -0.14118785 -0.07968878 0.032966796 0.021997629
0001a0 e1 94 89 3d f6 ca 1e be d2 ec 1f bd ed 56 7e 3c
       0.067178495 -0.15507111 -0.03904421 0.015523654
0001b0 2e db e0 bd e7 e3 c7 3d 31 b5 9d 3b 1e 43 05 be
       -0.10979305 0.09760266 0.0048128595 -0.13013884
0001c0 20 d3 70 bd 16 46 0f 3e e4 17 0a be 4c 35 92 bd
       -0.058795094 0.1399158 -0.13485676 -0.07139072
0001d0 37 c1 ea bd ce 25 69 3b 01 72 af 3d 6b e1 87 3d
       -0.11462634 0.0035575512 0.085666664 0.06634792
0001e0 17 dd c4 3d 00 f9 05 3e 75 0f b3 3d 20 ab 66 3c
       0.09612482 0.13083267 0.087431826 0.014078885
0001f0 dc ef ae 3d c8 db 95 3d cb 6c 61 bd a7 15 a6 bd
       0.08541843 0.073173106 -0.055035394 -0.081095986
000200 81 75 97 bd a5 96 0b 3e 11 a1 d6 3d 5c 40 ad bd
       -0.07395459 0.13631685 0.1047994 -0.08459541
000210 c5 fa 96 3d 01 b0 b8 bd c8 00 0a 3e c9 9c 6a bd
       0.07372049 -0.09017945 0.1347686 -0.05727843
000220 82 be 40 bc 42 53 ad 3b 6d 48 b4 3c 62 de 2c bd
       -0.011764171 0.005289466 0.022007192 -0.04220427
000230 66 1e 00 be 6e 7b bc bd 84 03 88 bd 2f 68 49 3c
       -0.12511596 -0.0920323 -0.066412956 0.012292906
000240 08 e9 aa bd a0 b1 bc bd 88 a8 ac bc cb af 10 3e
       -0.083452284 -0.09213567 -0.021076456 0.1412956
000250 2b 38 c2 3d f5 67 17 3e 79 97 db bd af 15 d9 3d
       0.094833694 0.1478575 -0.107222505 0.10599839
000260 12 34 aa 3d 42 6a 14 3e ba 2b 18 be 93 cb 34 3d
       0.08310713 0.14493659 -0.1486043 0.044139456
000270 d9 13 d9 bd 04 69 0c bc ee 2f e4 bd e4 57 ed bd
       -0.10599489 -0.00856996 -0.11141954 -0.115890294
000280 ad 71 d4 3d 10 44 e3 3d 9a e1 2d bc 72 20 10 3e
       0.103732444 0.11096966 -0.01061287 0.14074877
000290 81 c3 58 3d 77 82 08 3e bb d9 8a bd 07 3d 09 3e
       0.052920822 0.13331018 -0.0677981 0.13402186
0002a0 b2 c3 83 bd 77 a5 f2 bd 77 7c 12 be e3 f7 00 be
       -0.0643381 -0.11847966 -0.14305292 -0.12594561
0002b0 52 58 a6 bd 1a 93 d0 bd 8d 9c e9 3c e2 6e b3 3d
       -0.081223145 -0.101843074 0.028517032 0.087613836
0002c0 fe 6e f7 bc 9b 05 08 3d c4 ed e5 bd 68 28 8e bd
       -0.030204292 0.03320847 -0.11226991 -0.06941301
0002d0 da ea 17 3c 0c 0c a8 3d 56 1a 07 3d f0 14 f1 3d
       0.009272302 0.08205423 0.0329841 0.11771572
0002e0 d7 dc b2 bc 6f 28 11 3d 61 fc 16 3d 58 5e 6e bd
       -0.02183382 0.03543895 0.03686178 -0.058195442
0002f0 95 a8 0d bd 80 92 7a 3d cc 4e 82 bd 1a 70 37 ba
       -0.0345846 0.06117487 -0.063626856 -0.00069976004
000300 ca 54 e0 bd 5c ea b9 3d 7c 0b 69 3d bd db b1 bd
       -0.10953672 0.09077904 0.056895718 -0.0868449
000310 fa 7c 7f bd 74 2b e9 bd 63 21 28 bc 82 56 ba bd
       -0.062375046 -0.11385241 -0.010261866 -0.09098531
000320 92 0b eb bd b7 e1 9c 3d ed 2e 81 bd ed 60 d4 bd
       -0.11476816 0.07660239 -0.063077785 -0.103700496
000330 63 82 e0 bd f5 69 35 bb 85 32 04 be 5a c5 1e be
       -0.10962369 -0.0027681564 -0.12909897 -0.15504971
000340 76 f7 e2 3d e7 eb ea bd 29 ed 5b 3b 69 67 8f bb
       0.11082356 -0.11470776 0.0033558107 -0.004376341
000350 5d 6f 8a 3c 68 e6 7f bd 38 59 02 bd 8c 34 20 bd
       0.016898805 -0.062475592 -0.031823367 -0.039112613
000360 6d 98 b1 bd 26 be ed bb 4d 7d 86 3d 82 ae e1 bd
       -0.08671651 -0.0072553335 0.06566868 -0.11019613
000370 f4 66 fc 3d 69 be 08 3d 6f e6 93 bd 41 89 42 bd
       0.12324324 0.033384714 -0.07221686 -0.047494177
000380 d1 c9 51 3c ba 30 d1 3d 04 fd 7a 3b d8 65 c1 bd
       0.012804464 0.10214372 0.0038297782 -0.09443253
000390 ae 3d 8a bd 27 6a e4 bc 81 40 8f 3d bc 4d df bc
       -0.06750046 -0.027882649 0.06994725 -0.027258746
0003a0 22 e3 ab bb 0e 79 06 3e aa 4d b4 bd f4 33 b0 bc
       -0.005245582 0.13132116 -0.08803876 -0.021509148
0003b0 fa 65 96 3d 9b 3a 6b bd 05 be ca bc 9c 25 8f 3c
       0.07343669 -0.057428937 -0.024748811 0.017473988
0003c0 ef 54 b5 ba 6f 0f 13 3d f5 f0 c3 3d 30 af 4b 3d
       -0.0013834516 0.03590339 0.09567443 0.04972762
0003d0 51 db ea bd 9d 7a 3b bd 5f ff d4 3d 68 d6 57 bd
       -0.114676125 -0.04577123 0.10400271 -0.052694708
0003e0 7d c5 ab bd 83 d2 11 be 70 5c d2 3d 4f 3c 2e 3d
       -0.08387277 -0.1424046 0.10271537 0.042537984
0003f0 80 47 ed 3c 11 8e 6a bc ac c5 a7 3c 46 62 8c bd
       0.028964758 -0.014316098 0.02048 -0.06854682

modality_transformers.atac.layers.0.self_attn.in_proj_bias f4 [192]
000000 53 b3 35 3b d0 b1 91 3c d7 b3 7e 3b 45 22 aa bc
       0.0027725294 0.017784983 0.0038864517 -0.020768294
000010 eb 15 37 3c 40 5a 34 bc 1e b3 12 39 2b 45 13 3c
       0.011174659 -0.011007845 0.00013990371 0.008988659
000020 a3 4c 8b bb b0 94 83 bc 4a 87 aa bb d1 c1 0f bc
       -0.004251079 -0.01606211 -0.005204116 -0.008774237
000030 68 04 95 bb 32 b5 c3 bc de b6 03 3c fa 2e 28 bb
       -0.0045476444 -0.023890112 0.008039204 -0.0025662766
000040 d5 3a 7b 3a db a8 c4 3c 87 c3 e2 bb 86 57 dc 3a
       0.0009583657 0.024006298 -0.0069202813 0.0016810752
000050 5b fd 8b 3c 90 fb 0d 3b 81 d6 fd bb 4f 80 40 3c
       0.017088583 0.0021664836 -0.007746518 0.011749341
000060 6f da 2d bc d6 a1 20 3b c9 96 22 bb f3 e6 7b bc
       -0.010611161 0.0024510524 -0.0024809113 -0.015374887
000070 da da 1a 3c 38 81 0f bc 36 7f a9 3c 17 e5 6c 3c
       0.009451592 -0.0087588355 0.020690542 0.014458916
000080 d9 51 66 bb 35 6b e0 b9 35 00 d7 bb 58 ba d1 bc
       -0.0035144 -0.00042804485 -0.006561304 -0.025601551
000090 41 32 05 bc 4f 23 b2 3b 7d f6 25 bc 38 d1 ea bb
       -0.008129657 0.005436338 -0.010129568 -0.007166054
0000a0 3f 4a f4 bb 68 fe 25 3c 0a f3 05 3b a9 da b6 bc
       -0.00745514 0.010131456 0.0020439052 -0.022321062
0000b0 9f a0 cd bc 7c 25 9a 3c f6 08 a9 bc 69 d7 a6 bc
       -0.025101004 0.018816702 -0.020634156 -0.020366387
0000c0 69 10 94 3c 8b ad 60 bc 7b 6a 8c bb 32 90 55 bb
       0.018074231 -0.013713251 -0.0042851544 -0.0032587168
0000d0 b2 87 06 bd 3c f3 60 3d 5c 3c 42 bc 5e b6 0a 3e
       -0.032844253 0.054919466 -0.011855211 0.1354613
0000e0 20 18 3c 3d df 07 f8 3a 70 a5 2b bc 1c 92 3d 3d
       0.045921445 0.0018923244 -0.010476455 0.04628192
0000f0 ad 99 44 3c 60 7b ef 3c 5d 03 eb 3b 5b ce 85 3b
       0.01199953 0.029233634 0.007172032 0.0040834374
000100 4c 5d ec bb 8f aa 0d 3b b6 78 89 ba 17 f3 6e 39
       -0.0072132703 0.0021616553 -0.0010488245 0.00022788007
000110 c4 74 e9 ba b0 5b df 39 15 c6 2d 3b a5 0f 02 3a
       -0.0017811288 0.00042602187 0.0026515771 0.00049614377
000120 fa d5 72 38 34 41 87 3a 79 0f 12 39 c6 f3 09 bb
       5.7896577e-05 0.0010319115 0.00013929409 -0.0021049841
000130 41 17 0b 39 51 32 71 3b 52 6a be ba 13 b1 03 3b
       0.00013264736 0.0036803673 -0.0014527536 0.0020094558
000140 0e ec 8b 3b 4e 07 3a bb 95 2c a2 bb a3 ac 90 39
       0.0042700833 -0.0028385702 -0.0049491622 0.00027594445
000150 1d d5 b5 3b 1f 5d c3 bb 16 1d 78 3b 89 eb 11 3b
       0.0055490867 -0.0059620286 0.0037859133 0.0022265634
000160 d7 cf 1a bb dc 38 cb 3b 17 09 91 3b b2 c1 27 bb
       -0.0023622417 0.0062018465 0.0044261324 -0.002559763
000170 02 58 f9 ba 51 26 47 3b 68 a3 23 3b 8d 24 4c 3b
       -0.0019023421 0.0030387829 0.0024969224 0.0031149716
000180 c8 f2 45 bb a9 e7 ad 39 9f f9 14 3c 99 cc b5 3b
       -0.0030204523 0.00033169732 0.009092717 0.0055480716
000190 91 5e cd 3b 91 13 ec ba 08 a0 6b 3b c0 9c dd 3b
       0.0062673767 -0.0018011202 0.003595354 0.006763071
0001a0 78 ac 88 3b 63 1b d7 ba 7c d5 b3 bb be 2a d5 35
       0.0041709505 -0.001641136 -0.005488096 1.5882176e-06
0001b0 28 20 18 3c 25 4e 3d 3a da 97 b5 3b 03 46 a5 3b
       0.00928501 0.0007221422 0.0055417838 0.0050437464
0001c0 45 41 aa 3b e1 24 01 ba 2a e9 86 3a 4b 62 d5 3b
       0.005195769 -0.0004926455 0.0010292877 0.0065119616
0001d0 5b 86 0c bc 06 bb de 3b e8 01 e4 ba 36 e3 9b 3c
       -0.008576955 0.0067971973 -0.0017395588 0.019029241
0001e0 d5 c7 26 3c 63 54 9f 3b a7 66 86 bb 34 95 49 3b
       0.01017948 0.0048623546 -0.0041015926 0.0030759098
0001f0 2e 8e 2d 3b fb c0 fe 38 44 da 15 ba 25 7f 14 3c
       0.002648245 0.00012147609 -0.0005716423 0.009063517
000200 67 8a aa bb 4f 00 c7 3b fd 7f 65 3a 5e 3d 93 3c
       -0.005204487 0.006073035 0.00087547285 0.017973598
000210 29 1b ef bb 96 9b 96 bc 85 48 8e bc 5c 08 15 38
       -0.007296939 -0.018384736 -0.017368564 3.5532154e-05
000220 f5 82 cd bb 3f c9 a1 bb e1 b7 c5 3b 65 a9 63 bc
       -0.006271715 -0.0049373205 0.006033883 -0.013895367
000230 8d 8f 83 bb b6 e0 13 3b 03 cf b9 3c fe 8a ce bb
       -0.0040149153 0.0022564358 0.022681719 -0.0063031903
000240 6d a8 0f bc 2e 32 0c bc 43 7f 24 3c 67 cf 4d 3c
       -0.008768183 -0.008556886 0.010040107 0.012561656
000250 50 de c7 3b 8e 9c 1e bb 3c 6a 30 3c 21 22 20 3c
       0.0060994998 -0.00242022 0.010767516 0.009773762
000260 f1 3c 34 bb 61 d1 41 bb b4 a1 ba bb bb 25 93 bb
       -0.0027502144 -0.0029574262 -0.005695546 -0.004490582
000270 e8 0a 33 3c 01 17 46 bc fb 89 98 bb 2a 8e 2a bb
       0.010927893 -0.0120904455 -0.0046551204 -0.0026024678
000280 b7 18 d3 bc d9 d1 33 bc 7c 8a 36 3b 93 29 50 bb
       -0.02576862 -0.010975325 0.002785354 -0.0031763061
000290 82 aa 96 bc ad d0 98 ba cb 10 2f bc 6d af 57 bc
       -0.018391851 -0.001165887 -0.010685156 -0.013164383
0002a0 f9 9a 60 38 2e e6 cf ba ad 32 d5 b8 a5 04 b1 3c
       5.355009e-05 -0.0015861446 -0.000101660706 0.02160866
0002b0 24 e6 e6 3b 63 7f c6 3b f6 64 64 bc 62 7a 84 bc
       0.007046478 0.006057666 -0.013940087 -0.016171638
0002c0 41 fd c0 bb 9b 68 16 bc 15 a6 d6 bb 52 fb b1 3b
       -0.005889565 -0.009180213 -0.0065505602 0.005431571
0002d0 9c ec 42 3b e0 f5 76 bb a9 48 9c bb fb 3c a7 3b
       0.002974308 -0.0037683174 -0.004769404 0.005103705
0002e0 dd d5 1f 3c 4e 9b 9c ba c7 59 91 bc 66 7d 3e 3c
       0.009755579 -0.001194814 -0.017743004 0.011626577
0002f0 b7 70 b9 3b f8 91 25 3c c0 f6 d8 3b e4 93 75 3c
       0.0056591886 0.010105602 0.006621212 0.014988873

modality_transformers.atac.layers.0.self_attn.out_proj.weight f4 [64, 64]
000000 80 49 4a be ad e7 b8 3c 65 69 1b be 9a 55 92 3e
       -0.197546 0.02257141 -0.15176924 0.28580934
000010 42 b0 52 be 9e 97 59 be a8 42 8d be 38 ce 3a 3e
       -0.2057505 -0.21249244 -0.27589917 0.18242729
000020 f9 2e 05 3e c7 f6 55 3e 4a f2 1f 3e be 01 6f be
       0.130062 0.2089492 0.1561977 -0.23340508
000030 a6 36 6b 3c 73 31 cb bc 2d 05 fe 3d fd 50 b1 3d
       0.014356291 -0.024803853 0.12403331 0.086580254
000040 fd 21 42 3e a8 83 18 3e a4 d1 fb bd 55 13 11 3b
       0.18958278 0.14893973 -0.12295845 0.0022136767
000050 49 28 4c 3e f7 e7 08 be 72 62 13 3d f0 b9 2d 3e
       0.19937243 -0.13369738 0.035982557 0.16965461
000060 d3 1b bc bc 27 d1 36 3c 2f bc 38 3e c4 f2 30 be
       -0.022962486 0.011158264 0.18040536 -0.17280108
000070 42 1c 44 3e c1 1f b3 ba 77 81 ea bd e3 60 a2 bc
       0.19151405 -0.001366608 -0.11450475 -0.01982159
000080 de 93 9b 3d 99 ee d0 bd 06 74 65 be 42 08 c6 3d
       0.07596563 -0.10201759 -0.2240754 0.09669544
000090 7e 5a f3 3b 2a f3 8e 3d 04 65 2e be 78 07 13 3e
       0.007426559 0.069799736 -0.17030722 0.14358318
0000a0 04 19 95 bd 5b 81 a9 bd 4f fb dc 3d ed 9e 3f be
       -0.07280162 -0.08276626 0.10790121 -0.18712969
0000b0 f6 ee 8c 3d a6 27 06 3e 82 44 ee bd 44 14 5d 3d
       0.06881516 0.13101062 -0.116341606 0.053974405
0000c0 48 d6 12 3d 1c bf 2a 3d b1 f2 15 3c 90 cb 00 3e
       0.035848886 0.041686162 0.0091521 0.12577653
0000d0 5d 81 49 3e df 02 5d bd e2 37 38 be 82 37 71 be
       0.19678254 -0.053957816 -0.17990068 -0.23556331
0000e0 c3 06 1e bd 0a ca 89 bd b6 49 5d be fb d1 28 be
       -0.038580667 -0.06727989 -0.2161015 -0.16486351
0000f0 1f 60 47 be 25 02 2e be 80 47 3e 3e 1b 41 24 be
       -0.19470261 -0.16993006 0.18581963 -0.16040461
000100 b7 0d 4a be 9f 9b c5 bc 36 28 b0 3d fc f0 7a 3d
       -0.19731794 -0.024122057 0.0860142 0.061264977
000110 fd d1 42 3e 0f 3c 04 3e 3b 49 35 be e6 ba 87 bd
       0.19025417 0.12913536 -0.17703716 -0.06627445
000120 8b 05 6b bc cb b9 4d 3e a8 37 14 3e a0 53 15 3e
       -0.014344583 0.20090406 0.14474356 0.14582682
000130 58 ba 6a be f7 ff 95 3c e7 58 aa bd ec 59 19 3e
       -0.22922647 0.01831053 -0.08317738 0.14975709
000140 b5 bf 27 3e f5 ee f3 bd 1e 1c d9 3c 83 0f 98 3d
       0.16381724 -0.11910812 0.026502665 0.074248336
000150 b9 75 fa 3c 6d 9f 10 be 6c ac 3a 3e 96 6b aa bd
       0.030573713 -0.14123316 0.18229836 -0.08321302
000160 ad 2a 5a be d4 4f c1 bd a1 0f 4e be 22 6a 32 3e
       -0.21305342 -0.09439054 -0.2012315 0.17423299
000170 bc 80 c2 bd aa b3 01 be a3 c1 4f be 57 ce 1e 3e
       -0.094972104 -0.12666193 -0.2028871 0.155084
000180 f4 6e 16 3e 90 52 0f 3d 41 35 40 3d 67 fe 46 3e
       0.14690763 0.034990847 0.046925787 0.19432984
000190 b7 53 27 be b6 e0 16 3e 99 72 87 bd fe e4 38 ba
       -0.16340528 0.14734158 -0.06613655 -0.00070531655
0001a0 3b 4e ed bd d1 57 0a 3e 44 82 63 bd 8b 4e bc 3d
       -0.11587187 0.13510062 -0.055544153 0.091946684
0001b0 6c 09 39 3d 76 41 7f 3d ed 70 14 be 14 88 01 3e
       0.045175 0.062318288 -0.14496203 0.12649566
0001c0 39 c1 22 be c8 ec c8 3c e3 7f 07 be f5 18 6b be
       -0.15894021 0.024526969 -0.13232379 -0.22958739
0001d0 75 61 1c be f6 26 66 3e f2 0d b1 bd c8 70 c1 3d
       -0.15271552 0.224758 -0.08645238 0.094453394
0001e0 99 34 42 be 4b 3d a5 bd 6c b3 4e 3d 5a e4 6e 3e
       -0.18965377 -0.08068331 0.05046408 0.23329297
0001f0 58 dd 77 bc e4 84 8e bd 52 5a dd 3d 78 14 38 be
       -0.015128456 -0.069589406 0.10808243 -0.17976558
000200 ce eb 32 be ae 93 48 3d c1 bc b6 3d 17 ea 32 3e
       -0.17472765 0.048968963 0.08922721 0.1747211
000210 f2 4d be bc 21 eb 59 3e 18 9a 31 bd 83 bc df 3d
       -0.023230527 0.21281101 -0.043359846 0.10924628
000220 78 72 13 be fc 45 b9 bd a1 36 45 3e 59 7d 67 be
       -0.14399135 -0.090465516 0.1925912 -0.2260641
000230 d2 6b a3 bc e7 77 da bd 07 be e9 3d e2 64 33 be
       -0.019948874 -0.10667401 0.11413198 -0.17518952
000240 c4 c4 34 3e d9 a6 b5 3d cc f1 0f 3e 35 c3 e0 bd
       0.17653185 0.08869714 0.14057082 -0.10974733
000250 e6 b5 db bb 10 e5 cf 3d df 02 53 3d a8 5e 00 3e
       -0.0067050336 0.10151112 0.05151641 0.12536108
000260 c7 b7 a5 3c 16 7f 24 be 19 61 03 3e 47 4b 5f be
       0.020229233 -0.16064104 0.12830009 -0.2180606
000270 be f5 e7 3d ad f2 42 bd 77 18 85 bd 41 63 be bd
       0.113261685 -0.047594715 -0.06498807 -0.09296275
000280 9a 60 47 3d cc d7 ab 3d d8 c0 56 3c 89 fe 1a be
       0.04867611 0.08390769 0.013107501 -0.1513616
000290 36 8d 26 3d ec 80 a8 bd ab e2 78 3d f3 a1 08 be
       0.040662013 -0.08227715 0.060763042 -0.13343029
0002a0 ad 53 ab 3d 3c 24 67 bd 3e eb 67 be fc b8 17 be
       0.08365569 -0.05643104 -0.22648332 -0.1481666
0002b0 a1 fc 14 3e fe e4 92 3d b3 04 92 3d 2e 7a c7 3d
       0.14549495 0.07172583 0.071298026 0.09740101
0002c0 04 c7 77 3d 36 8b 61 3e 82 6e 4f be 91 31 5a 3e
       0.06049253 0.22025761 -0.20256999 0.2130797
0002d0 2d 4c fa bd 96 fd 00 be 0a b9 08 3d 47 c6 67 be
       -0.122215606 -0.12596735 0.033379592 -0.2263423
0002e0 24 f1 3a 3e d0 7b 44 be 74 01 0d 3e 4a 97 46 be
       0.1825605 -0.19187856 0.13770086 -0.1939365
0002f0 38 fb 30 bd c7 78 9f 3d 31 4a 58 3e f2 c5 d8 3d
       -0.04320833 0.07786708 0.21122052 0.1058463
000300 1e 5d 99 bd 96 31 2d bd 23 cb 8a 3d 37 d3 60 be
       -0.07488464 -0.042283617 0.067770265 -0.21955572
000310 f4 f5 3b 3d b3 20 a3 3d 28 88 58 3e 1b 28 37 be
       0.045888856 0.07965221 0.2114569 -0.17886393
000320 4f dc 05 3e e9 7d 1b bd ba ec 87 3d ca e1 fd 3d
       0.13072322 -0.037961874 0.06636949 0.123965815
000330 4d 1b 93 3d 45 1c 23 bd 07 9b b8 bd e6 c9 02 3d
       0.071829416 -0.03982188 -0.09013944 0.031930827
000340 4c 5e 8f 3d 36 6e ff 3d 04 21 91 bc 05 a3 39 bd
       0.070004076 0.12472193 -0.017715938 -0.045321483
000350 f6 52 74 be c7 6c 0f 3e 52 9a 05 be 55 f8 11 3e
       -0.23859772 0.14006339 -0.1304715 0.14254887
000360 99 6c 43 3e 3a 55 51 be 82 98 22 be 4d 2b 63 3e
       0.19084395 -0.20442668 -0.1587849 0.22184487
000370 f9 9a 3e 3e 47 12 11 3e 82 3c 3c be a6 dd c6 3d
       0.18613805 0.14167129 -0.18382457 0.09710245
000380 cc 49 5a 3e f1 05 f7 bd 55 0d 89 bd c7 c3 d9 3d
       0.21317214 -0.1206168 -0.06691996 0.10633045
000390 06 fa d8 3d 7f cc 39 3d 0c 56 99 bd ce 5b 05 3e
       0.10594563 0.04536104 -0.07487115 0.13023302
0003a0 a0 f8 2e 3d b3 d8 15 be 5e b1 be bc f2 7e 8d bc
       0.042717576 -0.14633445 -0.023277935 -0.017272446
0003b0 86 14 ff bd c5 34 32 be 73 46 05 be a3 9b 2f 3c
       -0.124550864 -0.17402942 -0.13015155 0.010718259
0003c0 85 23 fa bd 33 41 31 3e 86 33 d2 3d 79 b9 f0 bd
       -0.12213806 0.17310028 0.102637336 -0.11754126
0003d0 c2 d8 c9 3d 16 e6 81 3e 7b 54 ed bd b2 f4 97 bd
       0.098557964 0.25370854 -0.11588379 -0.07419719
0003e0 13 69 87 bd 3b e0 b0 bd 73 38 1b 3e 95 5e f7 bd
       -0.06611838 -0.086365186 0.15158252 -0.12078587
0003f0 f6 e6 9c bd 71 a4 ec bd 14 d3 87 bb f3 09 50 3d
       -0.0766124 -0.11554802 -0.0041450355 0.05079074

modality_transformers.atac.layers.0.self_attn.out_proj.bias f4 [64]
000000 34 0a e3 3b fe dc 94 bc 3f c9 82 3c d6 d3 41 bc
       0.0069287065 -0.018171784 0.015965102 -0.011830291
000010 42 0d 13 3a 3c d8 1f 3c 01 7f 88 bc 7a 26 0f bb
       0.00056095805 0.009756144 -0.016662123 -0.0021843002
000020 be 97 ce 39 04 e5 dc 3b 10 e4 a0 bc b3 d3 1d 3c
       0.0003940444 0.006741168 -0.019639999 0.009632993
000030 ff 3a ad 3b d2 4c cc 3c bd 8a b0 3b 83 fe 14 3c
       0.005286574 0.024938975 0.0053876326 0.009093883
000040 83 1f 8b bc bf 26 49 3c 19 d9 fc bb d6 e4 3e bb
       -0.0169828 0.012277304 -0.0077163097 -0.0029128096
000050 30 f3 d3 ba bb 6b b9 bb 06 7b e7 3a b0 61 e1 bb
       -0.0016170498 -0.0056585944 0.0017660565 -0.0068781003
000060 1b 5f 09 3b 90 73 2a 3c df 6c b1 3b a0 29 3f 3c
       0.0020961228 0.010403529 0.00541459 0.011667639
000070 38 43 17 bc b2 db 07 bc 9a 15 eb bb 9e 7f 9c 3b
       -0.009232335 -0.008292126 -0.007174206 0.0047759553
000080 ed 97 cd bb 22 0c 91 3b a1 9b b8 bb ea bd 2e 3b
       -0.0062742145 0.004426495 -0.005633787 0.002666349
000090 78 1c d9 3a 74 78 06 bc 41 02 d4 bb 80 85 05 bc
       0.001656427 -0.008207429 -0.0064699952 -0.008149505
0000a0 0e 08 46 3c 4f 9a 04 bc ff 61 ad 3c 26 ab 4a 3c
       0.012086881 -0.008093431 0.021164892 0.0123699065
0000b0 5a 51 b0 3b de bb fc 3b 89 48 3f bc 23 38 41 bc
       0.0053807916 0.007712825 -0.011675009 -0.011793169
0000c0 20 ac cc 3a 4e 73 f2 3b e2 c7 16 3b 58 a1 17 3c
       0.0015615262 0.0073989993 0.0023007323 0.009254776
0000d0 90 c3 82 bb 5b 4a 9e ba af c7 4d 3c 5a 51 a5 3c
       -0.003990598 -0.0012076603 0.012559815 0.020180393
0000e0 b5 32 f4 3c eb 1c 6f 3c eb c3 a0 3c d5 39 33 3c
       0.029809335 0.014594297 0.019624671 0.010939081
0000f0 5f 3f 43 bb cf 71 c6 bb 3c 84 d5 bb 79 9f b6 3a
       -0.002979241 -0.0060560475 -0.0065160077 0.0013933025

modality_transformers.atac.layers.0.linear1.weight f4 [256, 64]
000000 be 6b 9a bd 47 3f dc bd bc 3d b9 bd 3c b5 6d 3d
       -0.075400814 -0.10754257 -0.09044978 0.058034167
000010 ad 11 5a bb 34 bf 06 3e 2d b9 e6 bd a6 4f 00 be
       -0.0033274696 0.13158876 -0.11265788 -0.12530383
000020 ab b2 c7 3d 8e bc bc bd 64 51 b7 bd 2d 29 8f 3c
       0.09750875 -0.092156515 -0.08951071 0.017475689
000030 bf 96 f0 3d 2c db 01 be 93 e6 1b 3e 31 92 28 3e
       0.117475025 -0.12681264 0.15224676 0.16462018
000040 34 7f 89 bc b8 b0 81 3d 5f 48 0f 3d 2b dd 05 be
       -0.016784288 0.063325346 0.034981128 -0.1307265
000050 d7 a1 ae 3c 6f ed 81 bd 0b 2c 0b 3e 94 6f 04 be
       0.021317406 -0.06344115 0.1359102 -0.12933189
000060 18 22 ad 3d 5d 5e 15 3d cd 2e 70 3d 13 8c 1b ba
       0.084537685 0.036466945 0.058638383 -0.00059336534
000070 e1 de a5 bd 02 76 86 3b 5d bd 23 bd 05 02 9f bd
       -0.080991514 0.004103423 -0.039975513 -0.07764057
000080 21 c5 aa bb 09 88 c4 bd 0d 48 d4 bc 7c bb c6 3c
       -0.005211488 -0.09596259 -0.025913263 0.024259321
000090 fa bd a8 bd c8 bd 3d bc bf 39 ed bd fe 1a 8b bb
       -0.0823936 -0.011580892 -0.1158328 -0.004245161
0000a0 2e 66 33 bd 00 67 c8 3c 39 f8 2e be ab f4 0e 3d
       -0.043798618 0.024463177 -0.17086877 0.034901302
0000b0 8e ba be bd 31 a7 ef 3c a8 4e a2 3d 57 0d 6b 3c
       -0.09312926 0.029254528 0.07925159 0.014346442
0000c0 bf 1d f1 3d d9 39 2e bd ca ab 7e bd ab 7b a4 3c
       0.11773252 -0.042535637 -0.06217555 0.0200785
0000d0 bb 41 dc bd 41 4b 6b bd 40 2d 1f bd 0d 28 00 be
       -0.107547246 -0.057444815 -0.038861513 -0.12515278
0000e0 e3 85 f1 bd 05 46 a7 3d f0 6a 91 bd a8 7f be bd
       -0.11793115 0.08167652 -0.07100475 -0.09301692
0000f0 ea b5 e7 3d 82 e4 f7 bb fe 9e a1 bc d1 ec cb 3b
       0.11313994 -0.007565082 -0.019729134 0.006223299
000100 8e 7b ea 3d f7 96 9b 3d b1 e9 6d bd 08 89 b3 bd
       0.114493474 0.07597154 -0.058084194 -0.08766371
000110 6c d5 84 3d 8d 6d 71 bd 43 f8 be 3b f0 96 b2 3d
       0.064860195 -0.058942366 0.005827935 0.08720195
000120 25 5c 86 3d f2 89 b0 bd 18 5c fa bd 05 e3 5a bd
       0.06560544 -0.08620061 -0.12224597 -0.05343916
000130 e6 0a 10 be 06 e2 84 bd f9 b2 8f 3d af 04 5c bc
       -0.14066657 -0.06488423 0.07016558 -0.013428851
000140 80 0d 0f bd a2 f7 94 bc ce 00 ac 3d 76 af 83 3d
       -0.034924984 -0.018184487 0.08398591 0.06429951
000150 be 43 fc bd ed 8c 8d 3d cd bd 61 bd 1d b0 19 bd
       -0.12317608 0.06911645 -0.05511265 -0.03752147
000160 f9 58 da bd be d2 74 3d 2d 0f 87 3c cc 33 dc 3d
       -0.106615014 0.059771292 0.016486729 0.10752067
000170 45 91 f1 3c ec 26 a1 3d 9f de b4 bd 2a e0 91 bd
       0.029488215 0.07868752 -0.08831524 -0.07122834
000180 8d ab a3 3c f3 98 b4 3d b1 7f 8b 3d 5d e7 e9 bd
       0.019979263 0.08818235 0.068114646 -0.11421082
000190 36 7f c6 3d 9a 4f 79 3d a5 93 83 bc 56 2d 6a bd
       0.09692232 0.06086693 -0.016061613 -0.057172142
0001a0 b4 c3 56 3d 4f 9e a1 bd a8 c6 42 3c 3d 88 d8 bd
       0.05243273 -0.07891523 0.011888184 -0.105728604
0001b0 22 52 e2 3d 21 93 f6 3d bb 3d cf bc eb b4 13 3e
       0.11050822 0.12039781 -0.02529799 0.14424483
0001c0 98 b6 99 3c 2c 51 9c 3c 49 cd b5 bd f8 5f 98 bc
       0.018763825 0.019081675 -0.08877046 -0.018600449
0001d0 e4 72 db bd 45 0d b7 3d a6 9a 00 be c5 d3 8a 3d
       -0.10715273 0.08938078 -0.12558994 0.06778673
0001e0 29 45 d2 bd 26 33 15 bd b4 bf 15 3e f8 6f ba bc
       -0.102670975 -0.036425732 0.1462391 -0.022758469
0001f0 53 cd c8 bd 2b fb 8d 3d a3 85 87 3d a4 f5 85 3d
       -0.098047875 0.06932672 0.06617286 0.06540993
000200 49 a3 d9 bd ef a7 06 3e 21 e5 d4 bd 91 86 9a 3d
       -0.10626847 0.13149999 -0.10395265 0.07545198
000210 3b 0f b6 3c 90 b0 57 bd 28 53 52 3d 21 3b c8 bc
       0.02222406 -0.052658617 0.051348835 -0.024442257
000220 58 2e 85 3d 76 10 87 bc 8f 7e b7 3d 4f 34 71 bd
       0.0650298 -0.016487341 0.08959686 -0.058887776
000230 e6 d6 dd bd 7f 41 60 3d f5 cb 7b 3d fa 68 dc bc
       -0.10832004 0.054749962 0.061473805 -0.026905525
000240 a7 43 c4 3d 2a 37 8d bc 2e c8 e8 3d 0a 99 07 bb
       0.09583216 -0.017238218 0.11366306 -0.0020690584
000250 88 51 c5 3b 80 4e c5 bd 6f 41 1a 3e 19 3f 93 3d
       0.006021682 -0.09634113 0.15064023 0.07189769
000260 57 f6 a1 bc e4 74 e2 3d be 3f 98 bd 79 a4 85 3d
       -0.019770784 0.11057451 -0.07434033 0.06525511
000270 25 09 00 bd f1 38 b8 3d 6b 1f e5 3d aa 4a bf 3d
       -0.03125872 0.08995236 0.11187633 0.09340413
000280 58 b2 02 3e a7 8c a3 bc b4 8b 81 bd ac ec 58 bd
       0.12763345 -0.01996453 -0.063254744 -0.052960083
000290 1c f8 01 be ef fc b6 3d 33 28 de 3c 4d 22 fd bb
       -0.12692302 0.08934962 0.027118778 -0.0077250362
0002a0 fd 36 bc bd ba 1e f9 bc 5a 1c cb bd c9 76 9e bc
       -0.09190176 -0.03041016 -0.09917517 -0.01934375
0002b0 60 46 61 3d 61 6a 5f 3d 6d 6a 41 bd 7e 47 02 bd
       0.054998755 0.05454481 -0.047220636 -0.03180646
0002c0 8b 32 70 bb c2 2d ee bd e1 cc f1 3c e7 ce 2e bd
       -0.003665122 -0.11629821 0.02951664 -0.042677786
0002d0 bc 65 0e 3d 26 22 57 bd e6 cb cd 3d 24 98 c0 3d
       0.03476499 -0.0525228 0.10048656 0.094040185
0002e0 c1 e6 6c 3d 8d 1c 71 bd f1 55 60 ba f2 5a de 3c
       0.05783725 -0.05886512 -0.0008557728 0.027142975
0002f0 d4 46 0e be 61 8c 14 3e 1c d5 11 3e c2 ec a5 bd
       -0.13894206 0.14506675 0.14241451 -0.081017986
000300 03 69 7d 3d c2 2f 98 3d 7d a8 7b 3d d3 95 77 3d
       0.061867725 0.07430984 0.06143998 0.060445618
000310 43 c2 b7 bd 41 74 80 bd 89 85 06 be ef 9c d7 bd
       -0.08972599 -0.06272174 -0.13136877 -0.105279796
000320 61 7f f6 3c be 80 fd 3d 81 ef 00 3e b6 d5 8c 3d
       0.030090036 0.12378071 0.12591363 0.068766996
000330 4a 8f a1 3b a2 be 91 bd fa f5 4d 3b 43 6e ed bd
       0.0049304115 -0.071164384 0.003142713 -0.115932964
000340 6d e0 e3 bd 94 f7 93 3d a4 6c 23 bc 23 4b 6b bc
       -0.1112679 0.07224956 -0.009974632 -0.014361176
000350 db 83 06 3e 55 ee 97 bd 84 4a c0 bd 07 8e 60 bc
       0.13136236 -0.07418505 -0.09389213 -0.013705737
000360 15 24 ec 3b cf e7 18 3e 6d 38 9c bd 6d 56 7e 3c
       0.0072064498 0.14932178 -0.0762795 0.015523535
000370 8c cb 01 be 16 c4 d1 3b f9 05 83 3c db 7c 10 3e
       -0.12675303 0.006401549 0.015994059 0.14110129
000380 5a f7 7f 3d e6 e1 00 be ac aa d3 3c 78 c9 81 bd
       0.062491752 -0.12586173 0.025838219 -0.06337255
000390 6a 01 6c bd af 01 55 3d 13 d1 b2 bd 37 ff 1e be
       -0.057618536 0.05200356 -0.08731284 -0.15527044
0003a0 bb 54 12 bd c5 91 0f 3d 4e ee d0 3c d9 35 68 bc
       -0.035725337 0.035051126 0.025504258 -0.0141729945
0003b0 0f 36 01 be b6 f8 a5 3b a1 60 ef 3d ef ff 97 3d
       -0.12618278 0.005065049 0.116883524 0.07421862
0003c0 b3 b1 8e 3c 56 32 99 bc 11 2d 9c bb 73 01 f9 bd
       0.017418718 -0.01870076 -0.0047661145 -0.121584795
0003d0 9c 90 e8 3d ab 54 f5 3c 47 8a 50 3d 6c c9 06 3e
       0.11355707 0.0299476 0.05091312 0.13162774
0003e0 ab aa 05 bc fa 8c 10 3c 6c 2f 39 3d dd 81 51 3d
       -0.008158366 0.008822674 0.04521124 0.051149238
0003f0 f2 b8 77 3d 5a 55 44 3d e4 7d f2 3d 62 b3 f1 3c
       0.060479112 0.04793296 0.11840418 0.029504482

modality_transformers.atac.layers.0.linear1.bias f4 [256]
000000 e7 dd 68 bc 70 3f 53 bc 41 38 56 bc 19 ef 1f 39
       -0.014213062 -0.012893543 -0.013074935 0.00015252492
000010 0f 51 65 3b 97 03 e5 bc b2 6b 95 3c e8 59 30 bc
       0.0034990942 -0.027955813 0.01823983 -0.010763623
000020 65 5e 90 bc 4a c0 f3 3b c9 54 0e bc ca 9c 9a 3b
       -0.017623136 0.007438694 -0.008687207 0.0047183977
000030 84 e7 04 3b 49 bc 24 bd 9e 78 01 bd af 5c 0e bd
       0.0020279596 -0.040218625 -0.03160917 -0.03475636
000040 7c 69 bc 38 f1 32 9a bc ce b2 6c 3c a2 24 6e ba
       8.9841866e-05 -0.018823119 0.014446927 -0.0009084438
000050 9e d9 9f 3b 32 30 96 bc 43 5e 86 bb de af 65 3c
       0.004878237 -0.018333528 -0.0041005923 0.014018981
000060 24 63 95 ba 5e 0f 20 3a 32 3b 46 3d 43 5a 23 3c
       -0.0011397344 0.00061058055 0.048396297 0.009970251
000070 8d 9f 68 b8 ff 4f b4 bc 88 80 0f bc 0a a1 41 bc
       -5.5461704e-05 -0.022010801 -0.008758672 -0.01181818
000080 33 20 33 3c 49 b8 b7 bc 41 d6 89 3b 16 a6 c0 3b
       0.01093297 -0.022426741 0.0042064493 0.005879174
000090 a1 43 1f b9 a8 7c 16 3d 50 bc 1b bc f7 0d 61 39
       -0.00015188615 0.036739975 -0.009505346 0.00021462874
0000a0 ff 3f 52 bc 8c c0 99 3b 42 dc 29 bc 30 69 72 bc
       -0.012832641 0.004692143 -0.010367455 -0.0147955865
0000b0 25 8d 5e bc e1 57 49 3c 13 22 89 bb e7 75 20 bb
       -0.013583456 0.012289018 -0.00418497 -0.0024484338
0000c0 d2 c8 00 bc 35 32 1a bb b3 fd 47 bc c3 bf e3 bb
       -0.007860379 -0.002352846 -0.012206483 -0.00695035
0000d0 6e 87 13 bc f2 b0 7e bc 38 83 5f 3a 0d d5 e2 3b
       -0.009004457 -0.015545117 0.0008526328 0.0069223703
0000e0 3b 38 ff bb d8 6f 76 bc 28 8d 22 bc 07 d0 81 3c
       -0.0077886856 -0.015041314 -0.00992135 0.015846265
0000f0 8e 81 00 3b 69 37 af 3b bc 9b 4b bc e1 7d 42 3c
       0.001960847 0.0053471816 -0.012427267 0.011870832
000100 75 94 2e 3a 0e a1 06 3d c3 14 c1 3c 53 49 81 bc
       0.0006659695 0.032868437 0.02356947 -0.015782034
000110 10 be a9 bb d0 c9 05 bd 59 44 62 bc 0b e1 65 bc
       -0.005180128 -0.032663167 -0.013810241 -0.014030705
000120 5e 5e 49 3c 1a 92 99 bb 14 10 3e 3c 97 e3 e1 bb
       0.012290565 -0.004686606 0.011600513 -0.006893586
000130 81 ee 3f 3a a8 24 81 3a 55 5c ef 3b 73 8f 8e bc
       0.00073216116 0.0009852843 0.007304708 -0.017402386
000140 2b e7 2f bc a9 35 85 3c b3 e4 9e 3c fc 52 a6 bb
       -0.010736267 0.016260939 0.019396162 -0.0050758105
000150 c3 b7 6f bc 2a 76 44 bc f7 c7 bc 3a 4c 16 85 bc
       -0.014631215 -0.011991063 0.0014402856 -0.016245984
000160 85 89 38 bc 65 9e aa bc ee 7b af b9 96 50 80 b9
       -0.011263256 -0.020827482 -0.00033470936 -0.00024474104
000170 8e 64 0c 3c bd be b8 bb 40 cd 03 bb 1c eb 1a bb
       0.008568896 -0.005637972 -0.0020111352 -0.0023638671
000180 2d 8b 15 bb 69 59 18 bc ad 73 b4 bc 4f 52 17 3b
       -0.002281855 -0.009298661 -0.022027815 0.0023089831
000190 59 99 82 3b bc 1a 0e bd f2 91 c0 3b 0e d9 37 bc
       0.0039855656 -0.034693465 0.005876773 -0.011221183
0001a0 0d 01 96 bc a2 8e 9b 3c bc 94 9d 3c b4 a5 72 bd
       -0.018311048 0.018988911 0.019235961 -0.059240058
0001b0 f5 87 20 bc f4 aa 0f bc 7e 71 ba 3b 39 cb 82 bc
       -0.00979804 -0.008768786 0.005689799 -0.015966045
0001c0 83 3c b7 bc 1a 86 d1 bb 58 72 a1 bc 18 84 a3 bc
       -0.022367721 -0.00639416 -0.019707844 -0.019960448
0001d0 c8 8d 90 3c 8c ce f0 bb 2e d2 1b bc 4d 42 72 bc
       0.017645732 -0.007348841 -0.00951056 -0.014786315
0001e0 69 a9 87 bb a2 58 0b 39 05 0d a4 ba 45 34 16 bc
       -0.0041400683 0.00013289091 -0.0012516087 -0.009167735
0001f0 ca e0 09 bd 87 76 02 3c 09 ae 3e bc 88 5b 66 bc
       -0.03366164 0.007962829 -0.011638173 -0.014059909
000200 c6 2c a9 3a c6 43 da bb 1a 72 48 bd 67 8c 43 3b
       0.001290702 -0.0066609113 -0.04893694 0.0029838325
000210 92 88 00 bd e6 7c a0 bd 7f 13 89 3c 4c 0f a3 3b
       -0.031380244 -0.078363225 0.01673293 0.0049761888
000220 cb 36 f2 bc 08 e5 50 3c 61 6a 00 bc e3 1d b6 bc
       -0.029567143 0.012749918 -0.007837863 -0.022231048
000230 67 f5 92 bc bb 2a b7 bb 66 8b 8a 3c ae e8 81 bb
       -0.017939283 -0.0055898107 0.016912173 -0.003964505
000240 9f b0 cb 3c 54 dd 7b bc 80 94 97 3b 0b c2 dd 3b
       0.024864493 -0.015372593 0.004625857 0.0067675165
000250 9e e7 30 3c e4 1d 94 ba 9b 64 8b 3c 23 3f 3c bc
       0.010797409 -0.0011300412 0.017015746 -0.011489662
000260 c8 53 f2 3b 66 df a3 b9 47 d5 88 bc c4 8e 91 bc
       0.0073952414 -0.00031256228 -0.016703261 -0.017768271
000270 90 eb 26 3c 60 e0 94 ba ec c0 03 bd 87 93 97 3c
       0.010187998 -0.0011358373 -0.032166407 0.018502964
000280 01 16 1f b8 d5 29 ec 3c 67 e1 6e 3c 8b c6 04 3c
       -3.7929047e-05 0.02882854 0.014580107 0.008103977
000290 91 5f ca 3c 95 a9 2a bc de a7 54 3b 44 cf 19 bc
       0.024703773 -0.010416408 0.003244869 -0.009387795
0002a0 39 8b 99 3c c9 f7 0c bb de 62 64 b9 e6 9b 3d bc
       0.018743144 -0.0021509996 -0.00021780605 -0.011572814
0002b0 af 59 9a bd 39 e4 44 bc 7d 28 0d bb cc 89 73 bb
       -0.07536637 -0.012017303 -0.0021539025 -0.003716099
0002c0 ac 7b 9d bc f5 0b 51 3c 78 da 97 3b 29 69 f8 3a
       -0.01922401 0.012759198 0.004634198 0.0018952239
0002d0 8b 11 ab 3a f3 4e b8 bc ae 3b ac 3c df 99 d0 bc
       0.0013051493 -0.022498583 0.021024551 -0.025463996
0002e0 d5 d7 74 3a aa 84 20 3c 2b 3e 0d 3c 10 79 8f 3c
       0.0009340023 0.009797255 0.008620779 0.017513782
0002f0 84 8b 81 3c f0 ee 03 39 1d 78 22 3c 9a b6 06 bc
       0.015813597 0.00012582145 0.009916333 -0.008222247
000300 f3 71 27 bb 0d cd 77 bb f8 ea 49 bb ce 6b 8d 3c
       -0.0025550097 -0.0037811429 -0.0030810218 0.01726332
000310 25 03 13 bd 67 bf 50 3c a4 37 da bc 0d 00 a7 bb
       -0.03589167 0.012740946 -0.02663786 -0.0050964416
000320 95 38 84 bc dc 55 54 bc ef 1b 16 3d 02 5d 97 bb
       -0.016140262 -0.012959924 0.036647733 -0.0046192417
000330 8e e6 85 3c c8 90 38 3c d2 95 23 bc 1d a7 db 3b
       0.016345289 0.011264987 -0.00998445 0.006703271
000340 5f 2c 6f bc 71 00 91 3a ba 67 22 3c bc 22 13 3d
       -0.014597981 0.0011062754 0.009912426 0.035921797
000350 d3 f7 0c 3c ed 8b 2b bc 52 d5 b0 bc ca 42 f0 bb
       0.008604008 -0.010470373 -0.021586094 -0.0073321806
000360 1b 40 0a bc 1c c2 fa 3b 9c 6e f1 3b 30 9b e0 ba
       -0.0084381355 0.007652534 0.007367922 -0.0017136093
000370 2d 6a bc 3b 1e da 91 bd e7 7a 94 bb f1 1f 60 bb
       0.005749962 -0.07121681 -0.0045312527 -0.0034198726
000380 d0 d1 a2 bc 00 13 b6 bc af 14 6a bc df 57 a8 3c
       -0.019875437 -0.022225857 -0.014287158 0.020549713
000390 8f 40 27 bb 37 9e dc bc 94 14 02 bc 82 44 26 3d
       -0.0025520658 -0.026930911 -0.0079394765 0.040592678
0003a0 84 84 9f 3c f8 73 bf bc c5 8f 1b 3c 3f 4c 96 b9
       0.019472368 -0.023370728 0.009494727 -0.00028667037
0003b0 e8 c1 e2 3b 40 85 6b bb 47 e4 59 bd 0b af 74 bc
       0.006920088 -0.0035937577 -0.053196218 -0.014934312
0003c0 8a b8 bb bb 24 b4 c5 bc f5 e5 1f 3c 25 b9 41 3c
       -0.005728786 -0.02413375 0.009759416 0.011823927
0003d0 0e 56 04 bc 05 42 3d bc d0 42 50 bc 55 a7 9a 3c
       -0.008077158 -0.011551385 -0.012711242 0.018878618
0003e0 14 8a 6d bb f9 2c 9a bc f9 ce 66 3a f0 8e 4c 3c
       -0.003624563 -0.018820273 0.0008804645 0.012485251
0003f0 0b 06 8a 3b 78 b0 a3 3b 45 58 85 bc de 45 5d bd
       0.004212146 0.004995402 -0.016277442 -0.05402171
