ak_workspace/result_data/baseline_results/DG_Glut/mch_genebody/imbal_model_0.pt (torch, 828614 bytes, 53 tensors)

cls_embedding f4 [1, 1, 64]
-0.5329327 -0.17553413 -0.67376524 -0.1066279 -1.678645 -0.34553716 -0.6798383 0.08890411
2.002598 0.5788178 -2.0998206 -0.07255341 0.6976413 -0.41957843 0.65535223 0.6424675
0.7487171 -0.56029695 -0.53921324 -1.7625121 -0.48777312 -0.054793198 0.50628334 1.0740389
2.1008685 0.29651836 -0.055793453 0.1995469 -1.2710881 -0.71650165 0.3321123 0.06272245
1.2453144 -0.24058491 -1.4841096 -1.1733707 0.5276619 -0.19856143 -0.48565254 0.8351068
-0.014227555 0.6435421 0.48559207 0.16384017 -0.13935795 -0.47224498 -1.2736466 -1.617842
-0.32373926 -0.08634862 0.34397128 0.34367335 -1.513163 -1.0024383 -0.56894034 0.4000115
-0.6899056 -2.0081503 -0.3275323 0.005875449 0.050093368 -0.25479543 0.22289583 0.12894297
00000000: 476e 08bf 38bf 33be e17b 2cbf ba5f dabd
00000010: d7dd d6bf 3fea b0be e209 2ebf 5c13 b63d
00000020: 912a 0040 672d 143f 7663 06c0 e296 94bd
00000030: 9f98 323f fcd2 d6be 2ac5 273f c078 243f
00000040: edab 3f3f 9f6f 0fbf e109 0abf ff99 e1bf
00000050: 66bd f9be d56e 60bd c99b 013f 1b7a 893f
00000060: a174 0640 41d1 973e ad87 64bd 0656 4c3e
00000070: 04b3 a2bf a76c 37bf a00a aa3e a174 803d
00000080: 7666 9f3f e45b 76be 4ef7 bdbf 0331 96bf
00000090: da14 073f b053 4bbe 73a7 f8be 8fc9 553f
000000a0: b11a 69bc 2dbf 243f 869f f83e b8c5 273e
000000b0: dab3 0ebe 18ca f1be da06 a3bf 7215 cfbf
000000c0: 27c1 a5be 8cd7 b0bd 011d b03e f4f5 af3e
000000d0: 53af c1bf e64f 80bf 13a6 11bf 4fce cc3e
000000e0: a79d 30bf 8985 00c0 50b2 a7be d786 c03b
000000f0: b42e 4d3d 8c74 82be ce3e 643e a009 043e

weight f4 [64, 12]
-0.12956502 -0.13775559 -0.09040544 -0.18765625 0.17184362 0.061454993 0.06888174 0.22577764
-0.19098967 -0.23525085 -0.0129356915 -0.2883146 0.08116898 -0.09672564 -0.2294346 -0.037215028
0.07109147 -0.2828394 -0.15507138 -0.12398785 -0.07015141 0.07637412 0.22795397 0.18401259
0.033783246 -0.037643928 -0.20022427 0.18862015 0.12402738 0.11205751 -0.24545883 -0.26175228
-0.015201644 0.13578846 -0.0013028765 0.040034145 -0.015252717 0.12208725 -0.066763125 -0.27477992
0.046331137 0.070087716 -0.27876997 -0.083974026 0.24279721 -0.22022681 0.22424175 0.021961467
-0.1762961 -0.16371927 0.28809085 -0.18899307 -0.24544062 -0.21639456 0.26808313 -0.2800129
-0.11361237 -0.13563752 -0.10847218 -0.101483494 -0.029623328 -0.2108752 0.1190651 -0.27789026
-0.014722018 0.15411717 0.22777414 -0.16768105 0.25978363 0.20321354 -0.024247773 0.038370248
-0.11546933 -0.09325321 -0.25049937 0.09566254 0.023859397 0.0006804509 0.13754977 -0.1803795
-0.14326581 -0.19320704 -0.21490319 0.23296338 0.20523432 -0.1412384 0.06921562 -0.18879227
-0.001606312 -0.26039448 0.15633045 -0.19367431 -0.25516364 -0.15095313 -0.009259322 0.011403278
-0.14200152 0.15088713 0.18523829 -0.109161444 0.016154896 0.1354445 0.11777034 -0.09709852
-0.056332823 0.079773344 0.24713698 -0.01758174 0.13456394 0.17272101 0.19146931 0.09731402
-0.08057337 0.06480874 -0.23006037 0.2086079 0.03960774 -0.2480018 -0.009846008 0.19575496
0.17833506 0.27688086 0.060884286 0.22849488 -0.20047022 0.21506329 0.21407035 -0.23414461
-0.16641717 0.262903 0.1356679 -0.24038061 0.16172992 -0.10330803 -0.020160893 -0.15940663
0.12445569 -0.23088446 0.24497616 -0.21490179 0.12914422 -0.04727045 0.11526476 -0.10437092
0.09908382 0.25061798 -0.20592882 -0.11773601 -0.1494852 0.11013671 0.2194732 0.26421925
0.16908772 -0.30275273 0.2295989 -0.24002449 -0.23010571 -0.24395409 -0.14903796 0.09704097
0.009704373 -0.12160285 0.05862834 0.24240577 0.18640612 -0.27975303 0.09763286 -0.07444624
0.04799677 0.08236272 -0.20203076 -0.20423208 -0.08158625 0.18071887 0.112645194 -0.22161226
0.17598727 0.068669915 -0.016416315 0.23568168 0.070512526 -0.2871856 -0.1395378 -0.12732667
0.042679988 -0.015970903 -0.08288872 -0.08670383 0.24933565 0.2839505 0.07135929 -0.115084745
0.12517121 -0.20568268 -0.26391527 -0.23528637 -0.046688706 -0.098259464 0.09700196 -0.042903792
0.030922865 -0.16996138 -0.13075137 -0.24182138 -0.06825051 0.024038738 -0.16647875 0.09896218
0.12603916 0.11184906 -0.09121985 0.105838165 -0.10020335 0.2518833 0.18678537 0.025144793
-0.22491871 -0.20111834 -0.15487403 -0.1602394 0.14660151 -0.112514876 0.19308083 -0.0025421835
0.23102327 -0.1881294 -0.08335024 0.043139867 -0.005509318 0.20479047 -0.16434132 -0.05937928
-0.022043187 -0.15646501 0.119857475 -0.07490775 -0.004900922 0.2032859 0.24603872 -0.119372405
0.13689785 -0.117210306 0.30606928 -0.06521496 0.051337603 -0.1502812 0.17113627 -0.14476891
0.21748199 -0.2685402 -0.2627643 0.08783007 0.2712583 -0.12967502 0.22350216 -0.10037924
00000000: b1ac 04be cd0f 0dbe 7d26 b9bd f628 40be
00000010: c6f7 2f3e 3bb8 7b3d df11 8d3d 4132 673e
00000020: cc92 43be 99e5 70be 39f0 53bc f99d 93be
00000030: ec3b a63d 1818 c6bd e7f0 6abe c96e 18bd
00000040: 6898 913d 53d0 90be 08cb 1ebe 58ed fdbd
00000050: 8bab 8fbd 096a 9c3d c46c 693e cc6d 3c3e
00000060: 4d60 0a3d 8530 1abd 9707 4dbe a425 413e
00000070: 1102 fe3d 687e e53d 8f59 7bbe 6504 86be
00000080: 5110 79bc 210c 0b3e 48c5 aaba d8fa 233d
00000090: 88e6 79bc e108 fa3d 1bbb 88bd f4af 8cbe
000000a0: b8c5 3d3d 268a 8f3d f0ba 8ebe 93fa abbd
000000b0: d59f 783e 2383 61be a19f 653e 89e8 b33c
000000c0: f786 34be 06a6 27be a580 933e 6687 41be
000000d0: c954 7bbe 8996 5dbe 3142 893e da5d 8fbe
000000e0: 9aad e8bd 90e4 0abe aa26 debd 94d6 cfbd
000000f0: 9fac f2bc abef 57be 67d8 f33d a247 8ebe
00000100: 9e34 71bc e4d0 1d3e a03d 693e 95b4 2bbe
00000110: 5c02 853e 3617 503e 44a3 c6bc 1f2a 1d3d
00000120: 2f7b ecbd 8afb bebd 7441 80be b9ea c33d
00000130: c874 c33c 4960 323a d9d9 0c3e 67b5 38be
00000140: 46b4 12be 11d8 45be 950f 5cbe f48d 6e3e
00000150: f228 523e cda0 10be ebc0 8d3d c352 41be
00000160: e38a d2ba 6d52 85be 1715 203e 8f52 46be
00000170: cfa4 82be 7593 1abe 69b4 17bc d1d4 3a3c
00000180: d968 11be 2882 1a3e 1baf 3d3e 0990 dfbd
00000190: 4657 843c f7b1 0a3e 9331 f13d 97db c6bd
000001a0: 3fbd 66bd 3560 a33d 7a11 7d3e 9507 90bc
000001b0: 21cb 093e c7dd 303e 8810 443e 934c c73d
000001c0: a703 a5bd 72ba 843d f294 6bbe 4f9d 553e
000001d0: ba3b 223d 2ff4 7dbe 2751 21bc fd73 483e
000001e0: 779d 363e 54c3 8d3e cd61 793d 90fa 693e
000001f0: 1148 4dbe 8d39 5c3e 4235 5b3e 9bc3 6fbe
00000200: 4369 2abe 399b 863e 87ec 0a3e 5626 76be
00000210: 879c 253e 2993 d3bd 7528 a5bc 7e3b 23be
00000220: a0e2 fe3d fa6c 6cbe 08db 7a3e 370f 5cbe
00000230: 623e 043e a99e 41bd ee0f ec3d 6cc0 d5bd
00000240: 75ec ca3d 0051 803e 01df 52be 941f f1bd
00000250: a612 19be 5b8f e13d 95bd 603e bf47 873e
00000260: 5525 2d3e 6802 9bbe f91b 6b3e fbc8 75be
00000270: d5a0 6bbe 1acf 79be 689d 18be 6bbd c63d
00000280: 17ff 1e3c ea0a f9bd 4524 703d 3839 783e
00000290: 3fe1 3e3e ca3b 8fbe bdf3 c73d 4577 98bd
000002a0: 4398 443d c9ad a83d 27e1 4ebe 3722 51be
000002b0: b116 a7bd 5e0e 393e 86b2 e63d 53ee 62be
000002c0: 0236 343e d0a2 8c3d 827b 86bc 8a56 713e
000002d0: df68 903d fe09 93be ffe2 0ebe ec61 02be
000002e0: 36d1 2e3d 69d5 82bc 90c1 a9bd c791 b1bd
000002f0: d851 7f3e f661 913e d224 923d 8db1 ebbd
00000300: e22c 003e 7b9e 52be e71f 87be e9ee 70be
00000310: a83c 3fbd 423c c9bd f7a8 c63d e3bb 2fbd
00000320: f351 fd3c 5b0a 2ebe b0e3 05be 06a0 77be
00000330: ecc6 8bbd e3ec c43c 6879 2abe afac ca3d
00000340: 6910 013e 1f11 e53d 79d1 babd aec1 d83d
00000350: 6a37 cdbd d9f6 803e aa44 3f3e 74fc cd3c
00000360: 1751 66be f7f1 4dbe 4c97 1ebe cc15 24be
00000370: b51e 163e 336e e6bd fbb6 453e c39a 26bb
00000380: 5d91 6c3e fea4 40be 88b3 aabd 6eb3 303d
00000390: 8287 b4bb 98b4 513e 1749 28be b037 73bd
000003a0: ea93 b4bc 5d38 20be d677 f53d 3c69 99bd
000003b0: ea97 a0bb 2e2a 503e 93f1 7b3e 8579 f4bd
000003c0: f32e 0c3e f50b f0bd 1db5 9c3e 6c8f 85bd
000003d0: 6147 523d 51e3 19be 593e 2f3e 4d3e 14be
000003e0: 99b3 5e3e 1a7e 89be 0b89 86be 40e0 b33d
000003f0: 5ee2 8a3e 87c9 04be c0dd 643e a293 cdbd

bias f4 [64]
0.23365347 0.1534734 0.03566243 0.055108193 -0.17666891 -0.2711916 0.0978762 -0.037936457
0.18874218 0.20404299 -0.1249604 -0.0727318 0.24471846 -0.17355813 0.019910026 -0.13178232
0.008964307 -0.13955082 0.15676668 0.21104158 -0.15273152 0.110163175 0.2278174 -0.2705541
0.17899016 -0.1574034 0.057953175 -0.049043305 -0.23232676 -0.1841173 0.18223548 -0.19340533
-0.15976235 0.014359181 -0.119976275 0.19548236 -0.07636728 -0.14029732 -0.16856207 -0.06263888
-0.09466388 -0.03138501 -0.26166335 -0.05952542 0.08909665 0.1227576 -0.17663433 0.18483242
0.077677 -0.18862353 0.08748078 -0.2527998 0.28949264 0.17630577 0.028546898 -0.26750132
-0.23153885 0.015397841 0.07392917 0.21558225 0.26546767 -0.19654249 0.21821366 -0.25020793
00000000: db42 6f3e 2228 1d3e c512 123d 21b9 613d
00000010: b2e8 34be a0d9 8abe 5173 c83d 4263 1bbd
00000020: a145 413e a5f0 503e 3deb ffbd 69f4 94bd
00000030: 7a97 7a3e 39b9 31be 5a1a a33c f2f1 06be
00000040: 07df 123c 69e6 0ebe 7287 203e 491b 583e
00000050: a765 1cbe 3b9d e13d f748 693e 1186 8abe
00000060: 3249 373e 5b2e 21be 4f60 6d3d a2e1 48bd
00000070: 11e7 6dbe 3f89 3cbe f09b 3a3e 0c0c 46be
00000080: be98 23be c542 6b3c 1fb6 f5bd 872c 483e
00000090: 7366 9cbd 1aaa 0fbe 899b 2cbe d048 80bd
000000a0: 23df c1bd 918d 00bd bdf8 85be edd0 73bd
000000b0: 4e78 b63d 5668 fb3d a1df 34be b644 3d3e
000000c0: 1e15 9f3d 8726 41be 2029 b33d fa6e 81be
000000d0: 6138 943e 8089 343e 2fdb e93c eff5 88be
000000e0: 8518 6dbe 3a47 7c3c 2d68 973d 98c1 5c3e
000000f0: 61eb 873e 6f42 49be 6773 5f3e 411b 80be

in_proj_weight f4 [192, 64]
-0.012541621 0.15162104 -0.12375612 -0.041169144 -0.028011415 -0.12405188 0.007835747 0.04037491
-0.06588266 0.017829359 0.038782537 -0.11126369 0.034166086 0.0415851 -0.09912546 0.036261853
0.1507512 0.16738392 -0.11114049 -0.05485433 -0.12654173 -0.17446417 0.033617932 0.016263401
-0.12831482 0.051973663 -0.08949419 0.09638675 -0.0352366 -0.08272207 -0.00983646 0.14057952
-0.12632498 0.055304274 0.05571554 -0.077117585 0.13078323 -0.09974262 -0.15428884 0.16916084
-0.1279713 0.07351401 0.15070032 -0.010516034 0.015078998 -0.007548054 0.07237655 -0.025101243
0.06716015 -0.113737 -0.12289855 0.008424014 -0.0020035347 -0.049710035 0.1148264 -0.03271181
-0.1234836 0.112556584 -0.040353727 0.07137104 0.085669935 -0.13982174 0.10691402 0.0025037308
0.019685604 -0.15312125 0.040694065 0.05718407 -0.100276455 -0.1654837 0.0688006 -0.09676586
0.011028687 -0.0858052 0.0064187683 -0.012114507 0.095813766 0.08887183 0.13593641 -0.12470586
0.110169314 0.045050196 0.08252956 -0.10186814 0.055095762 -0.009846613 -0.14845055 0.110225424
-0.1153961 -0.14322816 0.05045974 -0.06668408 0.09470346 0.12537748 -0.0555711 0.111427374
0.03525781 0.1247464 0.022831805 0.024728714 0.009503741 0.08244426 -0.15285362 -0.01966592
-0.07722295 -0.1277788 0.041982286 0.13779229 0.0097265 0.017932763 0.10537939 -0.07607304
-0.13554935 0.029309724 -0.137219 0.061747093 -0.0756105 0.022166315 -0.08044058 -0.15100121
0.10073162 0.08524203 0.0534434 -0.037705973 0.025650436 -0.09539588 -0.116317466 -0.08714955
-0.04075007 0.089500986 -0.15030469 -0.16322932 0.045019157 -0.12399584 0.15003587 0.04373022
0.018081695 -0.13156044 -0.056138508 -0.016169779 -0.01588552 0.05802157 0.068781495 0.14634432
0.15620749 -0.1402184 0.14560355 0.12345362 -0.01107995 0.17591283 -0.117783636 0.0837828
0.067570925 -0.026770549 0.08933218 -0.015124622 0.06222552 -0.15591896 0.008846175 -0.10488318
-0.107049555 -0.0059209787 0.09161874 -0.045645162 0.0147937145 0.038813114 0.05520643 0.097604714
-0.08593444 -0.053369623 0.09262005 0.14041069 -0.08216732 -0.094518825 0.14575686 0.016653491
0.13812433 -0.09932961 -0.1271623 0.12101079 -0.054871075 0.096611276 -0.004682912 0.058789775
0.14868945 -0.063010454 0.124348715 0.12991019 -0.026559034 -0.11296721 -0.15740177 -0.0029608144
-0.025588429 -0.084731944 -0.06223332 -0.16328213 0.08783243 -0.010531242 0.074477196 0.0472292
0.037803605 -0.08072307 0.15551195 0.101394854 0.14919086 -0.043442715 -0.13179576 -0.089619905
-0.041421145 -0.11643431 -0.02340957 -0.060967453 -0.08504623 -0.09761502 -0.030223923 -0.106063485
-0.08383049 -0.036868423 -0.13692734 -0.1356624 -0.07548339 -0.16161555 -0.03717257 0.08804806
-0.077344984 -0.10353825 -0.035531007 0.01920698 0.015974997 -0.09899134 -0.047891326 -0.066313356
-0.1226579 0.06378401 -0.10048179 0.010344294 0.04799052 0.093047366 -0.104326345 0.14292407
0.14407 0.002893624 -0.08795424 0.0041498584 0.13945091 0.016464528 -0.07587806 0.10156527
-0.1102859 0.06236182 0.049614113 -0.09634731 0.061830115 0.105946995 -0.12450954 0.009017937
00000000: 5f7b 4dbc 8c42 1b3e d973 fdbd faa0 28bd
00000010: 3278 e5bc e90e febd 8161 003c 2960 253d
00000020: 7ded 86bd e00e 923c 70da 1e3d 38de e3bd
00000030: bdf1 0b3d 2355 2a3d 4a02 cbbd 4f87 143d
00000040: 865e 1a3e b166 2b3e a09d e3bd efae 60bd
00000050: 2894 01be bca6 32be f5b2 093d d33a 853c
00000060: f664 03be 56e2 543d bb48 b7bd 6b66 c53d
00000070: 4154 10bd 306a a9bd 1b29 21bc 14f4 0f3e
00000080: 565b 01be bc86 623d fa35 643d d3ef 9dbd
00000090: 0aec 053e dc45 ccbd e5fd 1dbe 8038 2d3e
000000a0: e90a 03be 838e 963d 2f51 1a3e 724b 2cbc
000000b0: e70d 773c ab55 f7bb 283a 943d 1fa1 cdbc
000000c0: 438b 893d f2ee e8bd 3cb2 fbbd e004 0a3c
000000d0: bc4d 03bb c09c 4bbd 1b2a eb3d d2fc 05bd
000000e0: f8e4 fcbd 1184 e63d f349 25bd fb2a 923d
000000f0: b873 af3d 6e2d 0fbe bdf5 da3d a215 243b
00000100: b443 a13c d1cb 1cbe d2ae 263d d839 6a3d
00000110: be5d cdbd 8f74 29be 54e7 8c3d 2e2d c6bd
00000120: aab1 343c a3ba afbd 8854 d23b ed7b 46bc
00000130: 023a c43d 6f02 b63d ea32 0b3e c965 ffbd
00000140: 73a0 e13d 8e86 383d 4205 a93d 3ea0 d0bd
00000150: 18ac 613d b053 21bc 6c03 18be debd e13d
00000160: ca54 ecbd 67aa 12be dfae 4e3d aa91 88bd
00000170: e3f3 c13d f462 003e 869e 63bd 0934 e43d
00000180: 7e6a 103d 0a7b ff3d c409 bb3c df93 ca3c
00000190: 94b5 1b3c 89d8 a83d a985 1cbe 6c1a a1bc
000001a0: 1127 9ebd 72d8 02be 9ef5 2b3d 6c19 0d3e
000001b0: e65b 1f3c bbe7 923c 26d1 d73d 2fcc 9bbd
000001c0: 73cd 0abe f21a f03c 2383 0cbe 85ea 7c3d
000001d0: aed9 9abd 2296 b53c 08be a4bd 10a0 1abe
000001e0: 614c ce3d 6093 ae3d 77e7 5a3d 9471 1abd
000001f0: dd20 d23c ea5e c3bd da37 eebd 777b b2bd
00000200: 8ce9 26bd 4b4c b73d 79e9 19be 9625 27be
00000210: 0266 383d 88f1 fdbd 01a3 193e 761e 333d
00000220: 1020 943c c8b7 06be 7ef1 65bd 7c76 84bc
00000230: 5a22 82bc 07a8 6d3d 50dd 8c3d 49db 153e
00000240: dbf4 1f3e 6a95 0fbe 1919 153e 40d5 fc3d
00000250: ae88 35bc 7e22 343e 8c38 f1bd 5196 ab3d
00000260: a062 8a3d e94d dbbc caf3 b63d 43cd 77bc
00000270: 30e0 7e3d 38a9 1fbe 8cef 103c fecc d6bd
00000280: cc3c dbbd c504 c2bb 9ba2 bb3d 6cf6 3abd
00000290: 5661 723c 80fa 1e3d 2320 623d fbe4 c73d
000002a0: 65fe afbd 1b9a 5abd 95af bd3d d2c7 0f3e
000002b0: 5747 a8bd 1693 c1bd 4941 153e e76c 883c
000002c0: 7770 0d3e 536d cbbd d536 02be 81d4 f73d
000002d0: 7ec0 60bd 22dc c53d 1d73 99bb 8ccd 703d
000002e0: 0c42 183e a00b 81bd 8aaa fe3d 2d07 053e
000002f0: 5592 d9bc 5a5b e7bd ee2d 21be 390a 42bb
00000300: d39e d1bc f187 adbd 5ee8 7ebd 6e33 27be
00000310: 7de1 b33d 3b8b 2cbc 8087 983d 6873 413d
00000320: f4d7 1a3d 2352 a5bd 863e 1f3e 1ba8 cf3d
00000330: 7dc5 183e fdf0 31bd 78f5 06be a48a b7bd
00000340: 38a9 29bd 1d75 eebd 6dc5 bfbc 02b9 79bd
00000350: b82c aebd 62ea c7bd 2998 f7bc d037 d9bd
00000360: 52af abbd 5803 17bd ae36 0cbe 16eb 0abe
00000370: 0997 9abd 8c7e 25be 4442 18bd 8b52 b43d
00000380: 0c67 9ebd dd0b d4bd f688 11bd f557 9d3c
00000390: ffdd 823c f9bb cabd b229 44bd 4ccf 87bd
000003a0: 1134 fbbd 31a1 823d 66c9 cdbd 1d7b 293c
000003b0: b591 443d 9e8f be3d 0da9 d5bd b05a 123e
000003c0: 1687 133e f4a2 3d3b 5a21 b4bd 89fb 873b
000003d0: 38cc 0e3e 9ee0 863c f565 9bbd 7401 d03d
000003e0: 93dd e1bd 1c6f 7f3d 2b38 4b3d bd51 c5bd
000003f0: 9341 7d3d bdfa d83d dcfe febd f8bf 133c

in_proj_bias f4 [192]
0.007498272 0.0022392021 0.0075524487 0.008336504 0.006316445 -0.023975125 -0.014431163 -0.02016442
-0.017993579 0.016406499 -0.01554933 -0.028458541 -0.022245979 0.012027456 0.0022035446 0.015003139
0.021061946 -0.014225201 0.032339178 -0.052588943 0.023032842 -0.07707589 -0.015055594 0.00542685
0.0057773953 -0.0026833385 0.0070686266 0.024950381 -0.0050340453 0.0011233782 -0.038257677 -0.007708004
0.002517676 -0.0112047605 0.013945279 -0.0070691193 0.022695174 -0.0018952622 0.001928125 0.020499974
0.0067915726 -0.009472143 0.04521643 0.0029943155 0.0011571 0.0023984336 0.0026558568 -0.0332025
-0.0040704664 0.03502842 -0.014787651 0.0026320948 0.006693766 0.0075589106 0.0024341976 0.005968255
-0.015123059 -0.014268725 0.015441857 0.013493861 0.001340898 0.00025715702 0.016088802 0.0066610333
9.667159e-05 0.00011905359 0.0001307557 0.00033740344 -0.00045139831 -5.4901077e-05 0.000164516 0.00023321014
-0.0008173192 0.00043379862 0.0014908327 0.0003691127 0.0005567371 0.0010286048 0.00073906634 0.0019133332
0.0009828071 -8.906273e-05 0.00079063704 -0.0014122904 0.0005997193 -0.0010135341 4.9725404e-06 0.0004390238
0.00017302894 -0.00011959961 -6.3589105e-05 -0.00016304689 1.0413444e-05 7.3983494e-05 0.00039902664 0.00014592729
-2.3526603e-05 6.908717e-05 -0.00018128438 9.921346e-05 -5.7998117e-05 0.00020221196 9.2743896e-05 -9.044002e-05
-0.0001488629 -0.00013001783 -0.00077108195 -0.00013355509 -2.9304088e-05 9.833091e-05 -0.00010357999 -3.5294623e-05
2.377073e-05 0.00012585781 -0.00018818147 0.00012763042 -0.00022108783 1.0683201e-05 -7.633525e-05 7.816899e-05
-0.0001645174 6.405462e-05 -0.00010660075 -3.5078865e-05 1.3127393e-05 -0.00019139262 -7.175631e-05 -1.9281579e-05
0.0019754139 0.0024076216 -0.0005897139 -0.005283059 0.00058117893 -0.0065272795 -0.008052548 0.0021857384
-0.0034964893 0.0011809374 0.019163528 -0.008902187 -0.004362365 -0.01312941 0.01492733 0.005347253
-0.0011343437 -0.02156177 -0.00025030732 -0.0075377766 1.1158512e-05 0.008238024 0.0030640932 0.0025957986
-0.00280865 -0.0007461464 -0.0057867365 0.0065786596 -0.00056041026 -0.0072790016 0.005029927 -0.0023716702
-0.0025824981 0.0053625447 0.0057664183 0.012074603 -0.0022201142 0.0068671 0.0074305222 -0.0017305347
-0.004441342 0.003353967 -0.008576373 0.0070590656 0.0030617916 0.0001662919 0.009110662 -0.0066637555
-0.0021649282 0.0036805961 0.0062447763 -0.004330354 -0.0049433187 -0.013537229 0.0018081571 -0.0049431524
-0.007542271 -0.003960837 -0.0023351507 0.009053266 0.006015742 -0.0046179052 -0.0017836525 0.008846178
00000000: 11b4 f53b 94bf 123b 887a f73b d595 083c
00000010: 2efa ce3b 7b67 c4bc af70 6cbc db2f a5bc
00000020: 4567 93bc ec66 863c 9ec2 7ebc e321 e9bc
00000030: 333d b6bc cf0e 453c 5869 103b bacf 753c
00000040: 1a8a ac3c d110 69bc 1676 043d 8167 57bd
00000050: 5faf bc3c f7d9 9dbd bdab 76bc b8d3 b13b
00000060: 4e50 bd3b f3da 2fbb f09f e73b be64 cc3c
00000070: a2f4 a4bb 513e 933a 15b4 1cbd 6d93 fcbb
00000080: 98ff 243b 2c94 37bc bd7a 643c 12a4 e7bb
00000090: 3beb b93c 726a f8ba 24b9 fc3a 90ef a73c
000000a0: d78b de3b 0c31 1bbc dd34 393d 473c 443b
000000b0: d5a9 973a 0a2f 1d3b e20d 2e3b 58ff 07bd
000000c0: 8c61 85bb f679 0f3d e747 72bc 397f 2c3b
000000d0: 6157 db3b bdb0 f73b 0f87 1f3b 5a91 c33b
000000e0: b5c6 77bc 5fc7 69bc d8ff 7c3c 5b15 5d3c
000000f0: 12c1 af3a 08d3 8639 aacc 833c cc44 da3b
00000100: 2abc ca38 69ac f938 771b 0939 86e5 b039
00000110: a8a9 ecb9 9545 66b8 ed81 2c39 df89 7439
00000120: 5d41 56ba 776f e339 0b68 c33a 7885 c139
00000130: fff1 113a 40d2 863a e7bd 413a cfc8 fa3a
00000140: 89d1 803a 30c7 bab8 c142 4f3a 9a1c b9ba
00000150: 7b36 1d3a 90d8 84ba ccd9 a636 c72c e639
00000160: 1a6f 3539 8dd1 fab8 245b 85b8 91f7 2ab9
00000170: 67b5 2e37 9627 9b38 7334 d139 0f04 1939
00000180: ff5a c5b7 e4e2 9038 2817 3eb9 d210 d038
00000190: 0143 73b8 dc08 5439 807f c238 9eaa bdb8
000001a0: 1518 1cb9 6555 08b9 6f22 4aba ec0a 0cb9
000001b0: 0dd2 f5b7 0137 ce38 1539 d9b8 5009 14b8
000001c0: 4167 c737 b3f8 0339 9452 45b9 88d4 0539
000001d0: d0d3 67b9 003c 3337 2d16 a0b8 a8ee a338
000001e0: 4e82 2cb9 1055 8638 d88e dfb8 a521 13b8
000001f0: b93d 5c37 91b0 48b9 e07b 96b8 e0be a1b7
00000200: f275 013b 30c9 1d3b 0897 1aba 831d adbb
00000210: 425a 183a cae2 d5bb d6ee 03bc 9b3e 0f3b
00000220: 5b25 65bb afc9 9a3a d5fc 9c3c 7bda 11bc
00000230: 2cf2 8ebb bd1c 57bc c391 743c 0238 af3b
00000240: 42ae 94ba 4fa2 b0bc ae3b 83b9 74ff f6bb
00000250: 7235 3b37 c7f8 063c f4ce 483b 461e 2a3b
00000260: 5411 38bb 0a99 43ba aa9e bdbb cc91 d73b
00000270: 7fe8 12ba b184 eebb 16d2 a43b 066e 1bbb
00000280: 213f 29bb 49b8 af3b 39f4 bc3b 8ed4 453c
00000290: 567f 11bb 6905 e13b bd7b f33b 1cd3 e2ba
000002a0: ad88 91bb 3bce 5b3b ea83 0cbc bc4f e73b
000002b0: 57a8 483b a45e 2e39 e344 153c a25b dabb
000002c0: 78e1 0dbb 2836 713b fba0 cc3b a4e5 8dbb
000002d0: 90fb a1bb 41cb 5dbc afff ec3a 2bfa a1bb
000002e0: 2825 f7bb e9c9 81bb 5409 19bb 2654 143c
000002f0: b41f c53b cc51 97bb 72c9 e9ba 8fef 103c

weight f4 [64, 64]
0.0196645 0.11977791 0.062172625 -0.10120041 -0.048865937 0.024664452 0.012801496 -0.08607734
-0.019403072 -0.06394548 0.09989682 -0.10341108 0.01858653 -0.053655796 -0.07584426 -0.028946474
-0.05064175 0.11304827 0.033069205 0.089356974 0.003655029 -0.05968745 0.02944215 0.07193649
-0.015866222 -0.10935903 0.016383355 -0.003341019 0.02780428 0.07601387 -0.03161674 -0.07106133
0.11681758 0.04410258 0.05574741 -0.044549666 0.007537984 0.02302399 -0.062555335 1.21131725e-05
-0.096187524 -0.12676504 -0.03250796 0.055209026 -0.10480208 0.101084314 0.02210772 -0.050575025
-0.039601877 0.0245274 0.11502883 -0.027871335 -0.07471392 -0.09092748 0.017428556 -0.09514952
-0.024392538 0.102009654 0.09378673 -0.015052431 -0.016927933 -0.1093226 -0.061113596 0.08352072
-0.08466523 0.002375527 -0.015114512 0.12498717 0.08250714 -0.05089012 0.1260639 0.030977817
0.052429717 -0.0018343122 0.054494932 0.06512115 -0.07277557 0.08502045 -0.10544455 0.10430189
0.10261086 0.010239733 -0.12189472 0.035600733 -0.06694779 0.11682811 -0.045939684 0.0063452795
0.0943804 -0.034795057 -0.07856798 -0.004291809 -0.06691584 -0.10065611 0.023739092 0.014227513
0.107411675 -0.037341744 0.04744036 0.0135711655 -0.04249471 0.0059803426 -0.012888041 0.120762266
0.12668055 0.044774562 -0.005237473 -0.05258359 -0.0030846524 -0.013784172 -0.08754426 0.025475029
0.070666626 -0.0025854935 0.048109524 0.118089706 0.07527665 -0.106042676 0.08019925 -0.11992577
-0.100560665 0.07195204 -0.010401931 0.08788804 0.0063723177 -0.012778807 0.08044043 0.105630614
-0.010262903 -0.108919635 0.0071829767 0.035009924 -0.012239362 0.022922378 0.10421965 -0.103823476
0.124833636 -0.033874124 -0.0075069075 0.09438277 -0.030869298 -0.056722775 -0.07338364 -0.07390815
0.04238393 -0.06129731 0.08295689 -0.004139342 0.022699293 -0.019190924 -0.10749299 0.054236982
0.07791419 -0.027112825 0.03808689 0.026839763 -0.073098496 0.117311366 -0.008598452 -0.05907939
-0.06409951 -0.03881137 -0.08879114 -0.11700951 -0.018151619 -0.010360546 -0.052084193 -0.039336864
0.09908923 -0.08828763 -0.070930615 -0.11856059 -0.07695252 0.079170525 -0.029763807 0.08276962
-0.0009996815 0.010363053 0.029629936 0.11683426 0.09330527 0.08277703 -0.1141868 0.061076514
0.06015574 -0.11923036 -0.03573462 -0.10745863 -0.021335669 0.08040298 -0.06345555 0.042226087
-0.013093171 -0.03774085 0.09485069 -0.07539636 0.113571756 -0.09238644 0.033102863 0.0619768
-0.0064472887 -0.10203965 0.06415274 -0.015679229 -0.063718535 -0.011959897 0.03847281 0.04937064
0.055937726 -0.10404488 0.013664851 0.12785238 0.07614911 -0.0022762509 0.0269529 -0.008372155
0.06140626 -0.009616837 -0.030993197 -0.10627172 0.058763325 -0.0060050944 0.019873548 -0.102524
-0.028583355 -0.020435289 0.023070779 -0.11074477 -0.0655505 0.01039279 -0.0048979227 -0.103588164
-0.08877042 0.10738407 -0.05472786 -0.04576567 0.08649714 0.09975975 -0.057280313 -0.060660165
0.1105406 0.060916174 0.08480205 0.043824516 -0.038533997 -0.12302123 -0.030112749 0.12888373
0.011764592 0.040839292 0.082459144 0.065106615 -0.09955601 0.025710078 0.00399688 0.07242362
00000000: 7217 a13c 1f4e f53d b9a8 7e3d 2942 cfbd
00000010: a627 48bd 1b0d ca3c 5ebd 513c 5149 b0bd
00000020: 31f3 9ebc d9f5 82bd b496 cc3d 30c9 d3bd
00000030: c742 983c 2ec6 5bbd 3c54 9bbd 2821 edbc
00000040: b96d 4fbd da85 e73d 9373 073d ca00 b73d
00000050: 3689 6f3b d47a 74bd aa30 f13c 7053 933d
00000060: e1f9 81bc a1f7 dfbd 6336 863c fff4 5abb
00000070: cdc5 e33c 29ad 9b3d 8e80 01bd 9a88 91bd
00000080: 0e3e ef3d e8a4 343d 6557 643d b679 36bd
00000090: 3101 f73b cf9c bc3c 031d 80bd ae39 4b37
000000a0: f7fd c4bd b2ce 01be 1127 05bd dc22 623d
000000b0: 79a2 d6bd 4b05 cf3d 401b b53c c227 4fbd
000000c0: 9435 22bd b0ed c83c 3c94 eb3d 6d52 e4bc
000000d0: 9d03 99bd 3038 babd 55c6 8e3c c0dd c2bd
000000e0: dcd2 c7bc 70ea d03d 4213 c03d 799e 76bc
000000f0: 73ac 8abc 87e4 dfbd 4052 7abd e90c ab3d
00000100: f764 adbd bbae 1b3b dca2 77bc 46f9 ff3d
00000110: 81f9 a83d 2972 50bd e516 013e 31c5 fd3c
00000120: 8bc0 563d 4e6d f0ba 1436 5f3d 3d5e 853d
00000130: 5c0b 95bd 341f ae3d 50f3 d7bd 3b9c d53d
00000140: a425 d23d 8ec4 273c f0a3 f9bd 13d2 113d
00000150: ec1b 89bd 9343 ef3d 402b 3cbd 10ec cf3b
00000160: 834a c13d 4385 0ebd 40e8 a0bd 4ea2 8cbb
00000170: 2c0b 89bd ca24 cebd 7c78 c23c 841a 693c
00000180: a7fa db3d a8f3 18bd d350 423d 9859 5e3c
00000190: ef0e 2ebd c0f6 c33b 5d28 53bc 3552 f73d
000001a0: 8cb8 013e 8865 373d 1c9f abbb e461 57bd
000001b0: e127 4abb 02d7 61bc 684a b3bd 02b1 d03c
000001c0: aab9 903d 6271 29bb 7e0e 453d 04d9 f13d
000001d0: a52a 9a3d e72c d9bd 813f a43d a49b f5bd
000001e0: c0f2 cdbd 975b 933d dc6c 2abc a5fe b33d
000001f0: e0ce d03b 345e 51bc f4bd a43d dd54 d83d
00000200: bc25 28bc 4211 dfbd 2d5f eb3b 9166 0f3d
00000210: 9b87 48bc b6c7 bb3c 1d71 d53d 67a1 d4bd
00000220: c7a8 ff3d 98bf 0abd 81fc f5bb c14b c13d
00000230: 9ce1 fcbc 2456 68bd 294a 96bd 285d 97bd
00000240: c69a 2d3d e312 7bbd 4de5 a93d 51a3 87bb
00000250: def3 b93c 4936 9dbc 4925 dcbd 9927 5e3d
00000260: 7a91 9f3d b71b debc 0001 1c3d 10df db3c
00000270: aab4 95bd f140 f03d 86e0 0cbc 3bfd 71bd
00000280: 9b46 83bd acf8 1ebd 21d8 b5bd afa2 efbd
00000290: b4b2 94bc 48bf 29bc 3c56 55bd b11f 21bd
000002a0: 4bef ca3d 25d0 b4bd 1244 91bd e5cf f2bd
000002b0: 4899 9dbd 2824 a23d 3ad3 f3bc 1e83 a93d
000002c0: bf07 83ba cbc9 293c 7bba f23c cd46 ef3d
000002d0: d516 bf3d 0187 a93d c5da e9bd 5e2b 7a3d
000002e0: dd65 763d 0c2f f4bd 775e 12bd 4513 dcbd
000002f0: 24c8 aebc 51aa a43d fcf4 81bd 43f5 2c3d
00000300: bd84 56bc 2696 1abd 1441 c23d 6869 9abd
00000310: 4f98 e83d 1a35 bdbd de96 073d 63db 7d3d
00000320: c743 d3bb 2afa d0bd 8362 833d ba71 80bc
00000330: dd7e 82bd 72f3 43bc aa95 1d3d de38 4a3d
00000340: f51e 653d 7b15 d5bd 8ae2 5f3c bceb 023e
00000350: 11f4 9b3d 272d 15bb 54cc dc3c 5d2b 09bc
00000360: 2185 7b3d f08f 1dbc 72e5 fdbc fda4 d9bd
00000370: d0b1 703d 62c6 c4bb dacd a23c 1af8 d1bd
00000380: a427 eabc e867 a7bc eefe bc3c 27ce e2bd
00000390: 573f 86bd 8546 2a3c c17e a0bb 0826 d4bd
000003a0: 44cd b5bd 2eec db3d 522a 60bd c874 3bbd
000003b0: 6a25 b13d d74e cc3d c39e 6abd cb76 78bd
000003c0: 1c63 e23d 3d83 793d b2ac ad3d 5681 333d
000003d0: d3d5 1dbd 8ef2 fbbd 03af f6bc 19fa 033e
000003e0: 46c0 403c 1a47 273d 57e0 a83d 9e56 853d
000003f0: 05e4 cbbd f19d d23c 42f8 823b d652 943d

bias f4 [64]
0.009611295 -0.0024625722 0.009405345 0.012555621 0.0039995364 -0.0015401498 0.0079753 -0.00012881325
0.003559338 -0.0071852976 -0.0024005368 -0.0029064913 -0.007230563 0.006387336 0.0020215258 -0.00416438
0.0064434805 -0.004968733 0.0013609425 0.013097368 -0.00028862938 -0.0057210233 -0.0029914712 0.0017198927
-0.0018833582 0.005591461 -0.0052034035 0.00041131594 0.0017401718 -0.0022795608 -0.005532202 0.002295804
-0.008191965 -0.0026962624 -0.0016070153 0.0031317074 0.0033105055 -0.0019192158 -0.012702262 -0.0100601725
-0.0036418322 -0.00252386 0.007778729 -0.0020476559 0.0007289589 -0.020035917 0.0064536687 -0.00070227886
-0.0018118107 -0.0005860932 -0.0046084914 -0.002764857 0.0073069935 0.0036451078 -0.0002102392 0.008720086
-0.0027722472 0.0045282682 0.0013000988 -0.0036384303 -0.001477134 0.0039418894 4.7361253e-05 0.0014380252
00000000: b178 1d3c 1b63 21bb e018 1a3c 17b6 4d3c
00000010: 8b0e 833b dade c9ba d5aa 023c 0b12 07b9
00000020: c843 693b a572 ebbb 5352 1dbb d57a 3ebb
00000030: 5cee ecbb dc4c d13b 937b 043b 5a75 88bb
00000040: d523 d33b c1d0 a2bb a761 b23a 5896 563c
00000050: 2e53 97b9 6c77 bbbb 8f0c 44bb 066e e13a
00000060: 04db f6ba 9338 b73b 5081 aabb e4a5 d739
00000070: 7a16 e43a af64 15bb 7947 b5bb 3375 163b
00000080: 9737 06bc c7b3 30bb 7ca2 d2ba 553d 4d3b
00000090: 11f5 583b 328e fbba 261d 50bc 6cd3 24bc
000000a0: ceab 6ebb 5867 25bb b5e4 fe3b f731 06bb
000000b0: 9b17 3f3a 5d22 a4bc 4c79 d33b 2319 38ba
000000c0: 477a edba 0da4 19ba d402 97bb 9a32 35bb
000000d0: 816f ef3b c3e2 6e3b a873 5cb9 b1de 0e3c
000000e0: 97ae 35bb de61 943b 1468 aa3a bb72 6ebb
000000f0: 649c c1ba f72a 813b c2a5 4638 1e7c bc3a

weight f4 [256, 64]
0.12965563 0.07964899 -0.07954343 0.0067514726 0.13526976 0.09080193 -0.10609006 0.08564219
0.032342393 0.038494784 -0.052344102 0.081065595 -0.11406869 -0.10160863 -0.11614953 -0.0804944
-0.08863981 -0.1257581 0.036704127 0.10284401 0.03108917 -0.051303253 -0.049407672 -0.039476458
0.068943225 -0.034707718 -0.015432143 0.13484882 0.11327066 0.036299735 0.10327334 -0.053932615
0.0161141 -0.033297572 0.08534627 -0.010355134 -0.02892948 -0.11949222 -0.048636466 -0.003832324
0.104217835 -0.034637228 0.11274932 -0.06759576 0.04140843 0.10763311 0.1251516 -0.013192216
-0.11700319 -0.015463111 -0.06282305 -0.044557337 0.10681564 0.0025478385 -0.015182077 -0.07478615
0.0975282 0.0034898536 -0.03431189 -0.10195525 -0.08322286 0.06682251 0.08722455 -0.067232616
0.049362037 -0.07607235 -0.05249309 -0.108760625 -0.04027105 -0.055450197 0.05827462 0.022535054
0.021106126 -0.011958669 0.084291436 -0.0050592194 0.07891325 -0.04527959 0.01711036 -0.09435158
0.0831727 -0.049464397 0.034157537 0.028290045 -0.022404984 -0.016909558 0.1222276 -0.06783194
-0.001097875 -0.0015887396 -0.07393645 0.0888756 -0.017184256 0.12234912 -0.0991427 0.01364879
-0.058714338 0.016942164 0.045635212 0.107718185 0.030793907 -0.11660787 0.034535304 0.047803994
0.022390578 -0.0024210073 0.05102961 -0.016510995 -0.039769553 0.09680267 0.031175727 -0.01119516
-0.02577751 -0.02611167 -0.029742153 -0.024780365 0.118814476 -0.052515585 -0.13720702 -0.09580671
-0.119373396 -0.025236936 -0.008477305 -0.04241696 0.09812038 0.051827207 0.014597586 -0.06992005
0.09233562 -0.08940738 -0.08687587 0.07836245 0.009698917 -0.008773613 -0.08635498 0.03909015
-0.06601732 0.034572605 0.12574612 -0.019488988 -0.09032885 -0.102229334 -0.12535895 0.07529186
-0.022070654 -0.08980849 0.07612103 -0.024233272 0.022873616 -0.088027634 0.028250292 -0.09207698
0.0639347 0.090134464 -0.0033133915 -0.09834323 0.03695675 0.09321097 -0.08158455 0.023833899
0.09133456 0.0814169 0.027446799 -0.053390034 -0.081607945 -0.031037794 -0.10531634 -0.015377968
-0.02708144 0.0914811 0.0639758 -0.10328583 -0.017399061 0.03662556 -0.06499588 -0.10391961
0.055167284 0.056162097 -0.042159505 0.05717055 -0.023779104 -0.089794174 0.033343345 -0.123245254
-0.103475586 0.044174552 0.019527681 0.07339497 -0.0747856 0.0138510745 0.117089316 0.08010412
0.114743955 -0.055806708 0.07483031 0.016780317 -0.10457332 -0.036676347 0.025978705 0.114110105
-0.104900114 -0.118277244 -0.06438747 0.12709804 -0.11106337 0.118593656 -0.0075589977 -0.048908513
0.04602497 -0.0239685 0.1138094 -0.09781231 -0.11493684 0.028449278 0.078458324 -0.027824325
0.11941898 -0.110880546 -0.11099142 0.0010955101 0.11936612 0.034189437 0.038904443 -0.083617955
0.032449543 0.06626077 0.10268092 -0.059400193 0.045322273 0.042611152 -0.12622674 -0.0027398737
0.080444 0.09966771 -0.09152096 -0.09498045 0.08914287 0.038302004 -0.12194811 -0.0507921
-0.015266327 -0.0907531 0.08028903 -0.032471236 -0.08974467 -0.11739777 -0.048919756 0.10109651
-0.0031927011 0.08058066 0.09960836 -0.07672569 -0.07241726 0.032588296 0.04453634 -0.07845231
00000000: 72c4 043e 021f a33d aae7 a2bd 753b dd3b
00000010: 2884 0a3e 5df6 b93d bf45 d9bd 2c65 af3d
00000020: 7579 043d b5ac 1d3d c566 56bd b805 a63d
00000030: d89c e9bd 2f18 d0bd cedf edbd 3fda a4bd
00000040: ca88 b5bd bbc6 00be 1157 163d e19f d23d
00000050: b7ae fe3c 5c23 52bd b35f 4abd 11b2 21bd
00000060: 1b32 8d3d ae29 0ebd 19d7 7cbc cf15 0a3e
00000070: 73fa e73d 08af 143d f980 d33d 72e8 5cbd
00000080: b801 843c 0963 08bd 06ca ae3d 94a8 29bc
00000090: 84fd ecbc 56b8 f4bd 0837 47bd ba27 7bbb
000000a0: 2970 d53d c4df 0dbd 1ee9 e63d a56f 8abd
000000b0: e39b 293d bf6e dc3d be27 003e 2a24 58bc
000000c0: 5e9f efbd fd58 7dbc 5fa9 80bd c181 36bd
000000d0: 29c2 da3d a3f9 263b 3fbe 78bc 7b29 99bd
000000e0: ddbc c73d 07b6 643b a08a 0cbd eacd d0bd
000000f0: bf70 aabd 3dda 883d c9a2 b23d 41b1 89bd
00000100: d92f 4a3d d2cb 9bbd ff02 57bd e4bd debd
00000110: 42f3 24bd bf1f 63bd 5eb1 6e3d 6f9b b83c
00000120: c1e6 ac3c 4bee 43bc fda0 ac3d cfc7 a5bb
00000130: 459d a13d 1777 39bd 072b 8c3c 673b c1bd
00000140: 7356 aa3d 2e9b 4abd c6e8 0b3d 86c0 e73c
00000150: a88a b7bc ea85 8abc 7752 fa3d 79eb 8abd
00000160: 92e6 8fba 413d d0ba fe6b 97bd 6904 b63d
00000170: ffc5 8cbc 2d92 fa3d 540b cbbd 2d9f 5f3c
00000180: 727e 70bd 4bca 8a3c fdeb 3a3d 5a9b dc3d
00000190: 8143 fc3c 1bd0 eebd e474 0d3d 1fce 433d
000001a0: 726c b73c c3a9 1ebb 6d04 513d 1142 87bc
000001b0: 66e5 22bd 7a40 c63d 3d64 ff3c e86b 37bc
000001c0: 5b2b d3bc 24e8 d5bc d1a5 f3bc 3100 cbbc
000001d0: 0155 f33d 951a 57bd ff7f 0cbe 4f36 c4bd
000001e0: 0a7a f4bd b1bd cebc 65e4 0abc 68bd 2dbd
000001f0: 56f3 c83d c448 543d b72a 6f3c 3e32 8fbd
00000200: 751a bd3d 371b b7bd faeb b1bd 7e7c a03d
00000210: 35e8 1e3c 33bf 0fbc e1da b0bd fe1c 203d
00000220: 1734 87bd 019c 0d3d 97c3 003e 5fa7 9fbc
00000230: 55fe b8bd 9d5d d1bd 195e 00be 9e32 9a3d
00000240: 84cd b4bc 83ed b7bd 58e5 9b3d db84 c6bc
00000250: 7361 bb3c d547 b4bd 286d e73c db92 bcbd
00000260: 32f0 823d 6b98 b83d 7c25 59bb 2d68 c9bd
00000270: f65f 173d 65e5 be3d cd15 a7bd 4f3f c33c
00000280: 9d0d bb3d e7bd a63d 1cd8 e03c 82af 5abd
00000290: 1122 a7bd f942 febc 18b0 d7bd dff3 7bbc
000002a0: e5d9 ddbc 715a bb3d bf05 833d 8587 d3bd
000002b0: 7a88 8ebc af04 163d 8f1c 85bd ced3 d4bd
000002c0: 17f7 613d 3a0a 663d 72af 2cbd ab2b 6a3d
000002d0: 65cc c2bc 02e6 b7bd 0893 083d 0268 fcbd
000002e0: 02eb d3bd 60f0 343d 84f8 9f3c 1a50 963d
000002f0: 3129 99bd 9eef 623c 86cc ef3d a10d a43d
00000300: e1fe ea3d 9395 64bd a240 993d e076 893c
00000310: 892a d6bd f039 16bd 4bd1 d43c 8fb2 e93d
00000320: dfd5 d6bd 573b f2bd 94dd 83bd fd25 023e
00000330: 3175 e3bd 3be1 f23d 78b1 f7bb 4b54 48bd
00000340: ae84 3c3d 9659 c4bc e714 e93d d251 c8bd
00000350: 0264 ebbd 760e e93c c2ae a03d d7ef e3bc
00000360: f091 f43d 5715 e3bd 784f e3bd 3897 8f3a
00000370: 3976 f43d 390a 0c3d 445a 1f3d e43f abbd
00000380: d0e9 043d bab3 873d 604a d23d 9e4d 73bd
00000390: d9a3 393d 0889 2e3d 9541 01be 748f 33bb
000003a0: d3bf a43d 961e cc3d 576f bbbd 1c85 c2bd
000003b0: 8990 b63d 90e2 1c3d eebf f9bd 610b 50bd
000003c0: 9e1f 7abc c3dc b9bd 936e a43d 8f00 05bd
000003d0: 0ecc b7bd 3e6e f0bd 1560 48bd b00b cf3d
000003e0: a33c 51bb 7907 a53d 78ff cb3d 5c22 9dbd
000003f0: 804f 94bd 4e7b 053d bd6b 363d 9bab a0bd

bias f4 [256]
0.09904525 0.025486017 0.07976725 -0.010386954 -0.10310018 -0.036647163 -0.094343446 0.11996838
-0.021054655 -0.05917042 0.053624395 0.07078951 0.04945313 0.009369933 -0.09296731 0.06038671
-0.091672584 0.00836402 -0.036079388 -0.07955843 -0.0764233 -0.103690505 0.073209986 -0.055343974
0.02142863 -0.07711023 -0.06497516 0.0771772 0.0051566646 0.07524903 -0.025595032 0.07260441
0.06443027 -0.12572607 -0.047558818 -0.05315124 0.08757127 -0.1231155 -0.04193 -0.03429637
-0.083558865 0.044463087 0.09571395 -0.055081386 0.08738374 0.057544675 0.04235563 -0.047314946
0.02110957 -0.091329254 0.00984227 -0.065256394 -0.08774967 -0.12099667 -0.05503173 0.019810833
-0.06223219 0.0905131 0.018830976 -0.085071 -0.009696124 0.010260839 -0.10898487 -0.023188483
-0.07927987 -0.046023853 0.044282902 -0.04320276 0.038354803 -0.054264493 -0.09100822 0.11690232
-0.06628542 0.0449531 0.10429058 0.026386289 -0.06488611 -0.1287023 -0.05780735 -0.026897816
0.100610234 -0.0899092 -0.07942248 -0.07788983 0.104781434 0.110150576 -0.030825945 0.090690084
-0.10133676 -0.122325316 0.12258985 -0.007837538 -0.096429855 0.07896274 0.067717545 -0.09965054
0.090361014 0.09855292 -0.048183575 0.053872623 -0.10932346 0.04305393 0.06544003 -0.122158185
0.05867441 -0.11173423 -0.03474358 -0.022286626 0.10305221 0.048941173 0.0047014398 -0.0963169
-0.0023848738 -0.015187334 0.03278387 -0.03672538 -0.034072 -0.11852248 -0.034181174 -0.034964442
0.039332274 0.052300755 -0.058232754 -0.09072697 0.08758195 -0.12662846 0.09630592 0.009723784
0.07602816 -0.12093302 0.02287374 -0.081543975 -0.10622225 0.023423666 -0.1017632 0.1097454
-0.030466592 0.077446386 -0.02847433 -0.10095894 0.06308017 -0.02511238 0.070410304 -0.01690172
-0.07787453 -0.055675495 -0.024362823 -0.06415909 0.008949249 0.010091563 -0.03299706 -0.07037859
0.08433807 -0.044580456 -0.042372145 -0.07965205 -0.056719467 0.06544669 0.11170034 0.007164024
0.07437948 -0.013893108 -0.045068566 0.10713388 0.012714316 -0.0067158397 0.093507454 0.070363976
-0.021417048 -0.00049163407 -0.0547332 0.0017703293 -0.12460408 0.08461092 0.12186322 -0.055889
-0.03304307 -0.061152823 -0.112787805 -0.060507096 -0.10747579 -0.115719564 -0.0063814213 0.047970586
0.08686783 0.09450117 0.0010823702 0.037783295 0.052315734 0.004646027 0.065009385 -0.0438667
-0.013205074 -0.047995016 0.10094637 0.012366244 0.04866433 0.06684551 0.10392576 0.069513865
-0.040398385 0.005643592 -0.113664985 -0.063715205 -0.045934763 0.008254053 0.080467165 0.027612958
-0.030065114 -0.09535806 0.09943685 -0.018808344 -0.08779412 0.0712614 -0.018065488 0.07758675
0.07521754 0.062251512 -0.08782601 -0.015898967 -0.07635542 -0.077988856 0.09426732 -0.023942444
-0.0791981 -0.12495602 -0.0052489974 -0.09182655 -0.015957905 0.093391284 -0.014898633 0.012744155
0.038730465 -0.06672212 -0.019372199 -0.0048072413 0.057830922 0.07078728 -0.0023219406 -0.07428291
-0.013562949 -0.08403115 0.11356879 0.08821216 -0.06971759 0.08626407 0.024620192 -0.04779011
0.07035399 -0.05939087 -0.11765507 0.031078257 -0.09052912 0.04641091 0.0035283742 0.09347106
00000000: 3cd8 ca3d 0dc8 d03c 035d a33d 0b2e 2abc
00000010: 3026 d3bd 561b 16bd 2337 c1bd fbb1 f53d
00000020: d07a acbc af5c 72bd 41a5 5b3d 17fa 903d
00000030: 5e8f 4a3d 5984 193c a565 bebd 0e58 773d
00000040: d6be bbbd 3e09 093c fbc7 13bd 88ef a2bd
00000050: d283 9cbd b05b d4bd 1eef 953d 5db0 62bd
00000060: 188b af3c f8eb 9dbd b211 85bd 140f 9e3d
00000070: 3df9 a83b 2a1c 9a3d acac d1bc 9fb1 943d
00000080: 04f4 833d 56be 00be 09cd 42bd 1db5 59bd
00000090: 9158 b33d fb23 fcbd cbbe 2bbd 5a7a 0cbd
000000a0: e920 abbd ed1e 363d ad05 c43d 059d 61bd
000000b0: 3ff6 b23d f7b3 6b3d 197d 2d3d 51cd 41bd
000000c0: faed ac3c d50a bbbd 7941 213c 25a5 85bd
000000d0: 19b6 b3bd 1acd f7bd f468 61bd 544a a23c
000000e0: 2ee7 7ebd ef5e b93d 6b43 9a3c b439 aebd
000000f0: 7edc 1ebc 141d 283c 7633 dfbd c6f5 bdbc
00000100: 7c5d a2bd 8283 3cbd fd61 353d 61f5 30bd
00000110: ed19 1d3d 7244 5ebd 8562 babd 7c6a ef3d
00000120: a6c0 87bd be20 383d 4d96 d53d 0f28 d83c
00000130: 02e3 84bd 89ca 03be 66c7 6cbd cf58 dcbc
00000140: bd0c ce3d 5122 b8bd 41a8 a2bd b484 9fbd
00000150: a697 d63d a096 e13d b186 fcbc b9bb b93d
00000160: a689 cfbd b285 fabd 6310 fb3d 0469 00bc
00000170: 047d c5bd 38b7 a13d 7faf 8a3d 9515 ccbd
00000180: 320f b93d 1dd6 c93d 245c 45bd 8aa9 5c3d
00000190: fae4 dfbd 5159 303d 6c05 863d 122e fabd
000001a0: 9454 703d ead4 e4bd 494f 0ebd 7192 b6bc
000001b0: 090d d33d 8a76 483d 890e 9a3b cb41 c5bd
000001c0: 8b4b 1cbb 4cd4 78bc 6148 063d 5a6d 16bd
000001d0: 158f 0bbd eabb f2bd 8f01 0cbd e036 0fbd
000001e0: e11a 213d 5139 563d 7885 6ebd 10cf b9bd
000001f0: 2a5e b33d e4aa 01be 0a3c c53d 8250 1f3c
00000200: a7b4 9b3d bbab f7bd b661 bb3c 8700 a7bd
00000210: 0d8b d9bd fde2 bf3c 3969 d0bd 32c2 e03d
00000220: 1395 f9bc 369c 9e3d 0043 e9bc 90c3 cebd
00000230: 2d30 813d 7ab8 cdbc 4733 903d 7a75 8abc
00000240: ae7c 9fbd fd0b 64bd 8b94 c7bc d765 83bd
00000250: df9f 123c 1557 253c ed27 07bd a622 90bd
00000260: 70b9 ac3d ff99 36bd 6a8e 2dbd 9d20 a3bd
00000270: ac52 68bd ea08 863d 26c3 e43d 30c0 ea3b
00000280: 4554 983d eb9f 63bc d199 38bd 0269 db3d
00000290: b54f 503c 8c10 dcbb d680 bf3d fd1a 903d
000002a0: ce72 afbc 01e1 00ba ec2f 60bd 650a e83a
000002b0: 6d30 ffbd 7d48 ad3d 6d93 f93d ddeb 64bd
000002c0: 2c58 07bd 627b 7abd 4bfd e6bd 4ad6 77bd
000002d0: 441c dcbd 61fe ecbd 3e1b d1bb ce7c 443d
000002e0: c3e7 b13d d489 c13d 51de 8d3a a8c2 1a3d
000002f0: 0649 563d b33d 983b a423 853d 92ad 33bd
00000300: 185a 58bc 6c96 44bd f8bc ce3d c99b 4a3c
00000310: 4054 473d 4ce6 883d 07d7 d43d 495d 8e3d
00000320: c778 25bd e2ed b83b 30c9 e8bd 1e7d 82bd
00000330: 1726 3cbd 023c 073c f8cb a43d 9234 e23c
00000340: 1d4b f6bc 164b c3bd 8ca5 cb3d f513 9abc
00000350: 67cd b3bd 7ff1 913d 13fe 93bc cde5 9e3d
00000360: a70b 9a3d 71fb 7e3d 20de b3bd 8d3e 82bc
00000370: 3b60 9cbd 9fb8 9fbd 3a0f c13d f222 c4bc
00000380: 9d32 a2bd f1e8 ffbd c8ff abbb 8f0f bcbd
00000390: 27ba 82bc ee43 bf3d 6519 74bc dccc 503c
000003a0: d6a3 1e3d 9ba5 88bd 72b2 9ebc 1086 9dbb
000003b0: 1ee0 6c3d ecf8 903d b32b 18bb a321 98bd
000003c0: 2237 5ebc 8618 acbd c196 e83d 94a8 b43d
000003d0: 19c8 8ebd 37ab b03d 49b0 c93c 90bf 43bd
000003e0: c115 903d d743 73bd 24f5 f0bd d497 fe3c
000003f0: 5567 b9bd 5e19 3e3d 4c3c 673b c16d bf3d

weight f4 [64, 256]
-0.02159968 0.070953906 -0.057706527 -0.062047694 0.008583341 -0.020364776 -0.053341106 0.0056269024
0.016658368 -0.023724686 -0.0068582767 0.0029052948 -0.006334437 0.0337887 -0.049314637 -0.0228123
-0.0051956624 -0.053723276 0.06612899 0.03561327 -0.0026462292 0.07027722 0.04221458 0.029558267
0.06988503 0.0015457432 -0.04554834 -0.03677456 0.0031566662 0.016859263 0.023436513 0.014212754
0.048778646 0.03654998 -0.018231232 0.019164765 0.012713225 0.043859337 -0.056468576 0.031018835
0.052492388 -0.050432175 -0.047766156 -0.016459893 -0.06564554 0.03328922 -0.054465227 -0.012314274
0.007905441 -0.048661627 -0.024381712 -0.05496045 0.00019420881 0.053541422 0.032463085 -0.03041704
0.04200739 -0.0015991385 -0.04709443 0.053317294 -0.012563226 -0.0039418438 -0.05115954 -0.061651494
-0.047650274 -0.0012892224 -0.041695718 0.05081447 -0.03713498 0.040910576 0.007413304 -0.040321108
0.05108989 0.00023364485 -0.02368124 0.041496407 0.067330234 -0.013845371 -0.015755473 -0.026362184
-0.047056314 -0.05956242 0.048212837 -0.016951034 -0.06874954 -0.04917191 -0.05431506 -0.0039705145
0.01945445 -0.00020768103 0.039507072 -0.041430194 -0.060652867 0.041476186 0.029437346 0.024019802
0.035195287 0.05494653 -0.031121204 0.02315492 0.00090136385 -0.025399739 0.010226724 -0.02569828
0.061770573 0.0124169495 -0.04193182 0.06032429 0.06163414 -0.019776601 0.053849343 0.07213227
-0.03194407 0.031343628 0.051832244 0.043333188 0.03579991 0.033605758 -0.058835268 -0.03557182
0.049756557 -0.03731334 0.022465046 0.02174997 0.011005989 -0.046981387 -0.03457107 -0.03602314
0.040577624 -0.051910378 -0.015696662 0.048079852 0.03404378 0.03309888 -0.024218986 0.04940779
0.024117233 -0.03835628 -0.030559849 0.04761468 0.046452846 0.017549016 -0.05127994 -0.0062774746
0.046671454 0.00897281 0.00055290974 0.0051614176 -0.044095706 -0.033380035 0.06319176 0.0082786735
-0.013798487 -0.051450744 0.062047236 -0.011759676 -3.8433504e-05 -0.046810728 0.042862907 -0.053491063
-0.030774543 -0.039074954 0.030576207 -0.027945397 0.03159881 0.04387351 -0.0071066893 0.020442108
0.050277714 0.02526869 0.0032624882 0.05998819 -0.035185076 0.030203415 0.031349577 -0.01571186
0.0017005054 -0.03778452 0.031238189 0.009231867 0.059241112 -0.026008235 -0.05872942 0.044872083
0.021374814 -0.026184944 -0.045472406 -0.0023326543 -0.039326265 -0.022758681 -0.05542167 -0.026345864
0.0065587386 0.027685726 -0.03673534 0.018624045 -0.041099936 0.020742118 0.026565775 0.011982302
-0.018323138 -0.043375634 -0.021168228 0.028318096 -0.04516759 0.032709945 0.044358302 0.0014004412
-0.009531039 -0.019062586 -0.016216408 -0.03956991 -0.033293016 0.010616371 0.041536823 -0.024156991
0.04654464 -0.044149242 -0.026606156 -0.058954995 -0.02058262 0.023349456 0.038529426 -0.041166894
-0.044075195 0.026736023 0.010682066 -0.027468551 0.028630797 0.020265859 0.009412195 -0.036366142
0.0054027475 -0.0048696646 -0.026857808 -0.043857187 0.019062517 -0.0031205073 0.06064157 0.054181427
-0.030741079 0.032347657 0.008808439 0.041759674 -0.05138327 0.059968032 0.025792137 0.031254683
0.019896233 0.036909245 -0.014425323 0.01912612 -0.00547185 0.026814597 -0.028876798 0.0032791689
00000000: d0f1 b0bc 4850 913d ae5d 6cbd b925 7ebd
00000010: 24a1 0c3c 08d4 a6bc 347c 5abd e161 b83b
00000020: 2177 883c 465a c2bc 65bb e0bb c266 3e3b
00000030: 1c91 cfbb 0566 0a3d 25fe 49bd dce0 babc
00000040: 6040 aabb f00c 5cbd a36e 873d 38df 113d
00000050: 5c6c 2dbb 81ed 8f3d 32e9 2c3d 2e24 f23c
00000060: e21f 8f3d 899a ca3a e590 3abd eca0 16bd
00000070: 12e0 4e3b 701c 8a3c eefd bf3c 9cdc 683c
00000080: 1ecc 473d 6fb5 153d aa59 95bc 6dff 9c3c
00000090: 214b 503c d9a5 333d 984b 67bd 361b fe3c
000000a0: 4202 573d f891 4ebd 72a6 43bd e6d6 86bc
000000b0: 2b71 86bd 475a 083d ee16 5fbd cfc1 49bc
000000c0: d385 013c 6a51 47bd 28bc c7bc 351e 61bd
000000d0: 88a4 4b39 404e 5b3d 03f8 043d 282d f9bc
000000e0: f10f 2c3d 2f9a d1ba 17e6 40bd 3c63 5a3d
000000f0: fdd5 4dbc 952a 81bb aa8c 51bd 4786 7cbd
00000100: ef2c 43bd 20fb a8ba 21c9 2abd d522 503d
00000110: d91a 18bd d991 273d 4deb f23b bf27 25bd
00000120: a243 513d 90fe 7439 29ff c1bc 23f8 293d
00000130: 6fe4 893d b2d7 62bc 9f11 81bc 82f5 d7bc
00000140: 1fbe 40bd b9f7 73bd d37a 453d e5dc 8abc
00000150: 8fcc 8cbd 7c68 49bd 7879 5ebd 171b 82bb
00000160: f05e 9f3c f4c4 59b9 2bd2 213d b5b2 29bd
00000170: 246f 78bd efe2 293d 9726 f13c 2dc5 c43c
00000180: ef28 103d 9d0f 613d e5f1 febc 63af bd3c
00000190: 8149 6c3a 1d13 d0bc fd8d 273c 3385 d2bc
000001a0: 2403 7d3d 7670 4b3c b3c0 2bbd 9a16 773d
000001b0: 1474 7c3d 8a02 a2bc 2191 5c3d 15ba 933d
000001c0: c9d7 02bd 2d62 003d 0c4e 543d 247e 313d
000001d0: eda2 123d 31a6 093d 40fd 70bd c2b3 11bd
000001e0: 88cd 4b3d dfd5 18bd 9e08 b83c fe2c b23c
000001f0: 7752 343c 8e6f 40bd 659a 0dbd 008d 13bd
00000200: b934 263d fa9f 54bd 4996 80bc 61ef 443d
00000210: 7e71 0b3d b192 073d e566 c6bc d35f 4a3d
00000220: 8191 c53c 7a1b 1dbd a658 fabc 9c07 433d
00000230: 5745 3e3d f4c2 8f3c ea0a 52bd 46b3 cdbb
00000240: 912a 3f3d b102 133c 25f1 103a 1c21 a93b
00000250: b39d 34bd 81b9 08bd ae6a 813d 46a3 073c
00000260: 0d13 62bc 04be 52bd 3e25 7e3d a8ab 40bc
00000270: a933 21b8 9bbc 3fbd 0491 2f3d 7219 5bbd
00000280: e51a fcbc 0f0d 20bd f47a fa3c bfed e4bc
00000290: c16d 013d b6b4 333d 3bdf e8bb 3576 a73c
000002a0: 01f0 4d3d 4900 cf3c 78cf 553b 2db6 753d
000002b0: 3a1e 10bd 276d f73c 6a68 003d 29b6 80bc
000002c0: 7ee3 de3a f1c3 1abd 3be7 ff3c 4241 173c
000002d0: cfa6 723d 390f d5bc 438e 70bd cacb 373d
000002e0: 3c1a af3c cf81 d6bc 4641 3abd 72df 18bb
000002f0: 9414 21bd 6a70 babc d501 63bd 48d3 d7bc
00000300: b0ea d63b 2dcd e23c cc77 16bd 7491 983c
00000310: 6858 28bd 60eb a93c 78a0 d93c 6b51 443c
00000320: 681a 96bc a6aa 31bd fe68 adbc 5afb e73c
00000330: a701 39bd ddfa 053d 0db1 353d 028f b73a
00000340: 1328 1cbc 2429 9cbc 46d8 84bc 0f14 22bd
00000350: 425e 08bd 4af0 2d3c 8422 2a3d e2e4 c5bc
00000360: 98a5 3e3d d6d5 34bd 27f5 d9bc cb7a 71bd
00000370: e29c a8bc 5c47 bf3c 08d1 1d3d 9e9e 28bd
00000380: 3188 34bd 8105 db3c d503 2f3c ba05 e1bc
00000390: 228b ea3c 9604 a63c 9b35 1a3c aaf4 14bd
000003a0: 8809 b13b b591 9fbb e804 dcbc 98a3 33bd
000003b0: ff28 9c3c 6d81 4cbb 4b63 783d 58ed 5d3d
000003c0: b7d4 fbbc fa7e 043d 4551 103c 310c 2b3d
000003d0: 4477 52bd 0aa1 753d 084a d33c e904 003d
000003e0: 6dfd a23c 262e 173d 3158 6cbc 61ae 9c3c
000003f0: 344d b3bb 49aa db3c 098f ecbc 53e7 563b

bias f4 [64]
0.05725529 -0.013618699 -0.037989374 -0.014041143 -0.029974768 -0.05344608 0.000698854 -0.059911694
0.0010645142 -0.030194635 -0.013060738 0.024208238 -0.02289477 0.020088175 -0.045799647 -0.054715652
-0.03988416 0.015922014 -0.043866355 -0.013240913 0.021742988 -0.023389494 -0.017248195 0.0468592
-0.03736475 0.062254462 0.050625596 -0.025235102 -0.02143559 0.046730164 -0.009513082 -0.039557576
0.032228235 -0.008763172 0.028569356 -0.046876125 -0.041795652 -0.0468444 -0.015853973 -0.032753102
-0.0014311781 0.016088028 0.038835935 -0.016132528 -0.050632793 0.009468837 -0.017033398 0.010881885
0.06512922 0.05500547 -0.060738914 0.029021224 -0.014454469 0.040093806 0.024345193 0.011012773
-0.025747934 -0.025633913 -0.012445333 0.040585183 0.024030797 -0.024718795 0.022679595 0.010086692
00000000: 8684 6a3d f720 5fbc bf9a 1bbd d20c 66bc
00000010: a58d f5bc 47ea 5abd 4c33 373a f765 75bd
00000020: 2b87 8b3a bd5a f7bc b5fc 55bc 5b50 c63c
00000030: d08d bbbc f58f a43c 6998 3bbd 851d 60bd
00000040: 935d 23bd e26e 823c 35ad 33bd 6af0 58bc
00000050: 5a1e b23c 539b bfbc 164c 8dbc 6fef 3f3d
00000060: c80b 19bd 89fe 7e3d c95c 4f3d d8b9 cebc
00000070: b199 afbc 2168 3f3d c2dc 1bbc 2007 22bd
00000080: c101 043d 6893 0fbc 480a ea3c 2e01 40bd
00000090: eb31 2bbd eadf 3fbd 31e0 81bc 1e28 06bd
000000a0: 5e96 bbba 0acb 833c 6e12 1f3d 5d28 84bc
000000b0: 5564 4fbd 2e23 1b3c a089 8bbc ef49 323c
000000c0: 7862 853d 6a4d 613d 5ec9 78bd ebbd ed3c
000000d0: 70d2 6cbc 6739 243d 926f c73c eb6e 343c
000000e0: 55ed d2bc 36fe d1bc 83e7 4bbc a63c 263d
000000f0: 3cdc c43c 127f cabc 8fca b93c a742 253c
