ak_workspace/result_data/baseline_results/DG_Glut/mch_genebody/imbal_model_2.pt (torch, 828614 bytes, 53 tensors)

cls_embedding f4 [1, 1, 64]
00000000: 0cdf d3bf a1d7 b13f 11f0 93be 39a9 4440
00000010: 483c 58bf 6c81 4fbf 55b3 17bf c93a 8f3f
00000020: 4be1 ccbf 355a c2bd 907a acbf 0384 cf3e
00000030: ee12 8fbf 28d6 b3be 5720 f53e 7941 1e3e
00000040: c440 12be c28b 973e 1b48 fabe 815c 7f3f
00000050: a70c 0cbf 58a3 f33e 8f70 f4be 0ae9 8fbf
00000060: d031 fc3e f1e5 2e3f 681b b3bc 243e 71bf
00000070: d724 0140 7e9c 043d 8b7c 883d 6ce0 9b3f
00000080: b0fb 42bf c562 19be ac20 c53e 2dff 833f
00000090: e69b 35be 0353 613d c575 9d3c 60f7 d5be
000000a0: 7d88 a0bb ee91 6ebf c85d b53e 1cd1 b3bf
000000b0: 9300 a2bf 4972 4fbe 8ff9 8a3f bc07 333e
000000c0: 7995 94be 371a 51bf 2856 cf3f 11b4 b5bf
000000d0: 8d96 1cbe 7cc6 623f 1a32 f7bf 0993 b93e
000000e0: 1138 2b3f a622 63ba e47f 18bf 2758 8b3f
000000f0: f4de d4bd b281 3c3e d134 0b40 7f61 ea3d
-1.6552444 1.389393 -0.28894094 3.0728285 -0.8446698 -0.8105686 -0.59258014 1.1189815
-1.6006254 -0.09489862 -1.3474903 0.40530404 -1.1177652 -0.35124326 0.47876236 0.15454663
-0.14282519 0.29598814 -0.48883137 0.99750525 -0.54706806 0.4758556 -0.47742125 -1.1242993
0.49256754 0.6831961 -0.021863654 -0.94235444 2.0178735 0.032375805 0.0666438 1.2177863
-0.76165295 -0.14979084 0.3850149 1.0312248 -0.17735252 0.055010807 0.019221196 -0.41790295
-0.004899083 -0.9319142 0.35423112 -1.404819 -1.2656425 -0.2025844 1.0857409 0.17483419
-0.2902029 -0.81680626 1.6198168 -1.4195577 -0.15291806 0.88584113 -1.9312165 0.3624499
0.66882426 -0.0008664526 -0.59570146 1.0886277 -0.103940874 0.1840885 2.1750987 0.11444377

weight f4 [64, 12]
00000000: b325 923e 3a21 7c3e f7e5 843e 28e1 433e
00000010: c1d9 463e a28c 913e cf2c 813d 75c8 07be
00000020: 4e23 0fbe db72 4dbe 0177 263e 2e53 333e
00000030: ab7b 58bd be45 87bd 221f e83d 8d63 42be
00000040: d2fd 1c3e 7633 503e c082 4a3d c6e6 1ebc
00000050: 025f 8ebe b421 da3d 6a02 f73d 9796 ec3d
00000060: f3e9 7abe d25f fcbd 6822 fc3d 07e6 8abe
00000070: 79f9 8bbe 854c 60be 329e 8d3e 5235 1cbd
00000080: 5da5 0bbe 7fb4 00be 9cc0 93bd c834 f8bd
00000090: a5a8 8a3e c342 83be 9459 88be 0731 4cbe
000000a0: 4c86 563e 0e39 81be c929 92be 315b f3bd
000000b0: c9d0 72be 5b33 6fbe 12f0 ea3c be75 b6bd
000000c0: 84e1 6fbe 152e 2ebd 912f 9c3d 64ec 5b3e
000000d0: 193e aabc 1b2b 37be 6aaa 2c3e 350a 3e3d
000000e0: 3649 833c 203c 743e f46f 793e fe30 2d3e
000000f0: f018 293e 3c2c 423e 16d4 293d 7c2b 213d
00000100: 3f29 653e c741 cabd 7c12 c9bd 1e80 20be
00000110: fe5d 7fbe 262b 313e 37de 8dbe ad5d c9bd
00000120: 185a 4c3e 7857 783e a222 0abe 3b4d 5b3e
00000130: 60b3 22be 5603 03be 8ed9 2fbe 490e 5c3c
00000140: 5206 3fbe b5d1 f03c 091e b0bd c49d a1bc
00000150: 6a0d 9dbc 754c 3fbe b78b debd cabb 243e
00000160: d04e a5bd 3efd 6cbe 7d1a 48be e387 963d
00000170: 1ec1 8a3e c88d 6ebe 06af fb3c fd82 253e
00000180: b415 4abe 6d07 cdbd 72ee c53d c2a3 7dbe
00000190: 752b 2c3e 5926 41be 1e10 003e 19ec fcbc
000001a0: 0b3c 943e df54 92bd acce 893e f9ed 3ebc
000001b0: fb45 623e ac76 973e 5171 62bd a70a 043e
000001c0: 5606 753e 48a7 80be 40e0 5d3e 62b3 2c3d
000001d0: 25c6 71be fc7d 10be 9ee0 9abd a2cf 72be
000001e0: 9950 fc3c d0b7 6c3e 9411 cebd 8a11 33be
000001f0: a51a 433e 16b3 193e 1913 3bbe aca4 883d
00000200: 0d64 2abe 832d 283c 767c 1f3e 0514 5dbe
00000210: 7c08 71be 170c 13bc 7ebb c1bb f696 39be
00000220: 12bf 8bbe b15e 893d 2b23 9f3d b4d0 893e
00000230: 4ec5 61be 1c24 ebbd cf53 d03c fed6 89be
00000240: b3d9 e5bd f59f 87be 006d 5e3d 95c6 4c3e
00000250: 0a06 ab3d 9195 103c a6c3 5abe 9d21 813d
00000260: 7530 023a 91f8 633e c9d8 e3bd 76d5 c4bd
00000270: 3a7b 49bc 561b b83d 46ce c0bd 612d 3dbd
00000280: 9720 08bc 275b 87bd 9db8 55be ac22 d73d
00000290: b092 e23d 82f8 023e 89ac 54bd a6db 8dbd
000002a0: 09f5 f73d d6ae 33be edaa 27be 6410 bd3d
000002b0: 7304 90be 975e 893d f3b1 a03e a231 bebc
000002c0: 9464 aa3c b876 69bd 7f70 4f3e 91fe 44be
000002d0: c9ce fdbb 30e0 513e 6f55 c73d f4ff 60ba
000002e0: 2497 0ebe b86c 6e3e bf9b 7b3e aeb6 b23d
000002f0: 44a8 de3d 5b73 6a3e d0cb 5dbd 353c 593e
00000300: 1085 f7bd b033 653d 3bcd 7a3e 159f 6abd
00000310: 43ac 063e e262 843e ad08 5ebe 4094 3abe
00000320: 3c07 253d c259 b83c d3dd 3e3c 49b6 e6bc
00000330: fc19 2a3e c60b a73d 20c9 cfbd 23ee 0cbd
00000340: c8e8 023e 5761 6f3d a184 953e 6189 52be
00000350: 384a 5bbe bc8b 403e 51c4 3c3e 660d 08bd
00000360: ebdb 1abe 4e62 9cbc 3c98 d9bd 2cf6 27be
00000370: 08fd e7bb 31a5 613d 061a 803e bb54 2e3e
00000380: d474 2abe 9aab e9bd 1b5d 0d3e 2c08 853e
00000390: 88a5 ecbd 2696 993c d7aa 92bd 57ed 3ebe
000003a0: 33cf b53c 4ad9 01bd 7441 fe3c 4ccd 7b3d
000003b0: 525c 123e 5d6c 713e bba6 8fbe 78fc 353e
000003c0: 01ac 513e 11eb 84be 056f a83c 1c78 babb
000003d0: 98f6 acbc 2715 203e c14d 91be 2ba6 e73c
000003e0: 8a36 01be 8e2f 1f3d 0bd1 79be 5dc9 2abe
000003f0: a801 dcbd e22e 983d 527c 8c3e 3540 dfbd
0.28544387 0.2462205 0.259567 0.19128859 0.19419004 0.28427607 0.06307375 -0.13260062
-0.13978311 -0.20063345 0.16256334 0.175122 -0.052852314 -0.06605099 0.11334063 -0.18983288
0.153312 0.20332131 0.0494411 -0.009698575 -0.2780686 0.106509596 0.12061007 0.1155216
-0.24503307 -0.12322964 0.1231125 -0.27128622 -0.2733877 -0.2190419 0.27659756 -0.038136788
-0.136373 -0.12568854 -0.07214472 -0.12119442 0.2708179 -0.25636873 -0.26630843 -0.19940577
0.20949668 -0.25238842 -0.28547505 -0.11882628 -0.23712458 -0.23359434 0.028678928 -0.08909176
-0.23425871 -0.042524416 0.0762626 0.21476895 -0.020781564 -0.17887537 0.16861883 0.046396453
0.01602612 0.23851061 0.24359113 0.1691322 0.16513419 0.18962187 0.041462027 0.03934811
0.22379015 -0.09875827 -0.09817979 -0.15673873 -0.24938199 0.17301616 -0.277086 -0.0983232
0.19956243 0.24252117 -0.13489774 0.2141618 -0.15888739 -0.12794241 -0.17172834 0.01343114
-0.18654755 0.029396871 -0.08599479 -0.019728549 -0.019171435 -0.1868151 -0.10866492 0.16087261
-0.08071673 -0.23143479 -0.19541354 0.07350137 0.27100462 -0.23296273 0.030723106 0.1616325
-0.19734842 -0.10011182 0.096646205 -0.247695 0.16813453 -0.18862285 0.12506148 -0.030874299
0.2895206 -0.07145094 0.2691549 -0.011653417 0.22097008 0.29582727 -0.05528385 0.12894689
0.23928198 -0.25127625 0.21667576 0.04216326 -0.23610742 -0.14110559 -0.075623736 -0.23712018
0.03080015 0.23116994 -0.100619465 -0.1748716 0.19053133 0.15009722 -0.18269004 0.06672034
-0.16639729 0.010264757 0.15574822 -0.21589668 -0.23538393 -0.00897505 -0.0059122434 -0.18123993
-0.27294213 0.06707514 0.0777038 0.2691704 -0.22047922 -0.11481497 0.025430588 -0.2692184
-0.112231635 -0.26489225 0.05430317 0.19997628 0.08350761 0.008824722 -0.21363696 0.06305239
0.0004966327 0.2226279 -0.11125333 -0.09611027 -0.012297446 0.08989589 -0.094143435 -0.046185855
-0.008308551 -0.06609183 -0.20871206 0.1050466 0.11063135 0.1279011 -0.051922355 -0.0692666
0.121072836 -0.17547163 -0.16373797 0.09231642 -0.28128394 0.06707495 0.31385764 -0.023217026
0.020799913 -0.056997985 0.20257758 -0.19237734 -0.007745598 0.20495677 0.09733092 -0.0008583062
-0.13924843 0.2328366 0.24571131 0.0872625 0.10871938 0.22895567 -0.05414945 0.21214373
-0.120859265 0.055957496 0.24492352 -0.05728062 0.1315165 0.25856692 -0.21682997 -0.18220615
0.040290102 0.022503737 0.011649567 -0.028163092 0.16611475 0.081565425 -0.101457834 -0.034406792
0.12784111 0.05844244 0.2920275 -0.20560218 -0.21415031 0.18803304 0.18434264 -0.033215903
-0.15122955 -0.019089844 -0.106247395 -0.16402501 -0.007079724 0.05508918 0.25019854 0.1702451
-0.16646129 -0.114096835 0.13805048 0.25982797 -0.1155501 0.018748354 -0.07161491 -0.18645225
0.022193527 -0.031701364 0.03103707 0.061475083 0.1429303 0.23576494 -0.28056893 0.1777209
0.2047577 -0.2596059 0.02056075 -0.0056905877 -0.021113679 0.15633069 -0.28379634 0.028277477
-0.12618461 0.03886371 -0.2439615 -0.16678376 -0.107425034 0.07430817 0.274386 -0.109009184

bias f4 [64]
00000000: cff6 f9bd bd87 39be 9e93 0a3e 63de 0dbe
00000010: a316 84bd f062 6fbe a6b1 3d3e f8d8 8a3e
00000020: f0c6 44be 5633 313e 34d2 913e 6176 37be
00000030: 77c0 be3c 2f51 84bd e1f7 6bbe 0d16 29bd
00000040: 6934 8a3e ce50 8dbc 586f 04be 8098 ddbc
00000050: 7295 9b3d 2ba6 0abd 005e 45bd 8965 913d
00000060: 905e 553e 3ede f43d 0a93 d33c 97de 7cbe
00000070: 464c 8e3e 61f8 31be 92cf 9fbd 45f9 18be
00000080: 12a4 693e 1fe5 a5bc e0cb 8c3e 96e1 d9bd
00000090: dabe 033e a4b9 46be 2eb7 943e e2ee 05bd
000000a0: f94b bdbc 71ae 883e 1cf7 82be fdee 0f3b
000000b0: c5fd 38bd a617 83be 67b0 c0bd bfc9 493e
000000c0: 385a 833e 0abe c2bd a1d3 d53d 18d1 473d
000000d0: 3bb4 f4bd ae34 503c 6fa8 a0bd de84 133d
000000e0: 2060 e03d 701e 76be c473 8c3e 418d 64be
000000f0: 7a5a 29be dd7c cdbd 4320 4bbe 7323 e43d
-0.12205278 -0.18118186 0.13532874 -0.13854365 -0.0644963 -0.23377585 0.18524799 0.2711866
-0.19216514 0.1730474 0.28480685 -0.17916252 0.023285134 -0.06460797 -0.23043777 -0.041280795
0.2699311 -0.017250445 -0.129331 -0.027050257 0.07596864 -0.033849876 -0.04818535 0.070994444
0.20836854 0.11956452 0.02582695 -0.24694286 0.27792567 -0.17379905 -0.07803263 -0.14938839
0.22816494 -0.020250855 0.27499294 -0.1063873 0.12865773 -0.19406754 0.29046005 -0.03269852
-0.023107516 0.26695588 -0.25579154 0.0021962516 -0.04516389 -0.2560398 -0.09408646 0.19705866
0.2565477 -0.09508903 0.10440756 0.04878339 -0.11948439 0.012707872 -0.07844626 0.036015384
0.109558344 -0.24035048 0.27432072 -0.22319509 -0.1653842 -0.100335814 -0.19836526 0.11139574

in_proj_weight f4 [192, 64]
00000000: 8a77 01be 95ba c4bd 05ba 96bd 48e2 273d
00000010: dfe3 c43d 0390 cabd 2e86 fd3c aaa3 7ebb
00000020: 46a0 c0bc 5687 273d 7624 b93d 76ae bf3c
00000030: b2d0 653d c1e7 92ba 73b0 e3bd 8865 833c
00000040: b19b a0bd 288e e6bb 4740 653d ea48 983d
00000050: 5ca8 a93d 5da8 24bd 5511 523d ad2e 613d
00000060: 455d 16bd dfad b73a 6330 cc3c a6fc ccbd
00000070: 00c7 a93d 1da6 babd 67d4 063e 15c4 953d
00000080: fe02 e03c efcb 99bd 81cb e73d afdc 07be
00000090: 671b b6bd 150f fabd b552 133d 409a babd
000000a0: 1273 9ab6 248d dc3d 429d 7fbd 7cfc 083d
000000b0: aff2 46bd cca5 e8bd 2eae e53d 481b 81bc
000000c0: 1913 7dbd a343 6f3d c916 36bd b24b 913d
000000d0: e3bf 15be 0a99 d63d 2d78 19be 42c3 6c3b
000000e0: d953 2f3d 0980 bc3d 937e 913d 0cf2 db3a
000000f0: 97c8 37bd 43a7 d5bd 2b06 073e f2e5 17be
00000100: aeb2 0c3e 0bca c53b e05b f03d 67f5 e3bc
00000110: 5ef3 d7bc 83fa 1a3e c081 d33d 19e4 13bd
00000120: 96b3 553c 00fe 7fbd dc09 a33c 1a5b 883d
00000130: 6f93 073e 88c7 0b3e 542a b03d b3d6 a9bc
00000140: 34f8 b1bd 26d2 f73d f76a eebd 182c 04bd
00000150: 3bc3 dc3d 8f9f 00be d12f d53d 4cd6 66bd
00000160: 127a fa3a 3c48 c03c 2f36 fc3c 4d73 de3d
00000170: 0fbd f0bd d753 e5bc 21fb 56ba ee88 7bbd
00000180: 0743 fd3d aa00 893d 3b4b 443c 285b 12be
00000190: 8a3b 363d c81d 0d3e 6870 903d 8331 9bbd
000001a0: 04c0 7bbd cb81 d3bc bf21 43bd 3259 973c
000001b0: 3d2b 233d 16fb 113e 290f 1dbe 739e a8bd
000001c0: 6fc3 0bbe 3886 0cbe 125f e6bd 59e1 3a3e
000001d0: 65fd 003d bf83 8b3d b607 883d 281b 783d
000001e0: 978a 8e3d b2f6 e1bd 2a62 8bbd 7efd f83d
000001f0: fb3d 8f3d 6e7c e73d a758 dc3d 846f 9a3d
00000200: 5cda 13be 3d27 bebd 4705 003e 7c51 b2bd
00000210: 4226 31bd 4f78 22bd 3bea 4138 e10f 3dbd
00000220: 50b5 283d d28e 01bc 57b9 29bd 170e 153e
00000230: 07df 90bd 2fdf d6b8 0ef5 133e 5c1d 87bb
00000240: a4f6 39bd ffbf 01be 0873 b03c 1acd 03bd
00000250: 42ba 7f3d d7a9 0d3e 77fe 773c 88e1 ed3d
00000260: a9e0 14be 460d 04be d2d3 ad3d 72b8 463d
00000270: e604 03be 9ecf 713d 9d8b 1b3c 7293 17be
00000280: 9c78 bfbd 6e0b 6f3d 2055 093d fc19 1bbe
00000290: 214f dc3d 1f92 c43c 7312 95bd 6d8a dc3d
000002a0: 3789 823d 6f59 bbbc 605b 94bd c66d aebd
000002b0: d9ca 023e 4332 07be 1945 de3d 6340 b73d
000002c0: f6e0 adbd 69b1 6f3d 4c28 43bc 4af7 c9bb
000002d0: 7911 01be de3d 703d 13a0 a53d 0b33 363d
000002e0: f3b2 e1bd f04d ed3d fa8e 84bd a54d cfbd
000002f0: 8def 0fbe 45ba 14be 89ca 2f3c 3652 8a3d
00000300: d3a8 923d a9d6 d1bd e0a1 14be dd68 123e
00000310: 6457 a53d d41f 8fbd a413 2ebe dddb cb3d
00000320: 0bc6 583d 99b8 3e3d 3ec6 5ebc 5ff8 09be
00000330: 077f 3cbe ccf6 e6bc 9a3f e13c 8dce 033e
00000340: ea1e 02be 09f6 f8bc 2450 9a3c a3b1 153e
00000350: 03a2 d63c 8fae 94bd c0bd e9bd a24d 3fbc
00000360: 225c c6bd 89e1 2d3b 1ad1 0ebe 3fdf 9a38
00000370: 4337 8bbb 787d a7bb dfa6 b9bd f1a5 c73d
00000380: bb17 ecbc 53c2 cfbc f637 86bd affc ee3c
00000390: f2e7 0fbe f9c8 fbbd d4ec ab3c 8d92 a23d
000003a0: 5e00 193d 2e45 9a3d 884a 0a3e 5323 1cbc
000003b0: 189c 04be e89f f6bd f66f aa3b 9be7 04be
000003c0: a6b0 da3d 774a ee3d 718b c9bd cf48 0dbe
000003d0: f64a c63d 1f33 ffbd 83da 57bb 2d72 c0bd
000003e0: f807 bfbd 07ff 81bd 98e9 08bc 720d 8cbd
000003f0: 7d0d 83bd 1677 52bd aa6c ab3d 0ed8 993d
-0.12643257 -0.096059 -0.07359699 0.040987283 0.096137755 -0.09890749 0.03094777 -0.0038854876
-0.023513924 0.04090055 0.090401575 0.02339862 0.05610723 -0.0011207984 -0.111176394 0.016039625
-0.07842196 -0.0070359893 0.055969503 0.07435782 0.08284065 -0.040199626 0.05128606 0.054976154
-0.036710043 0.001401361 0.024925416 -0.10009126 0.08289909 -0.09113715 0.13166963 0.0731279
0.027345177 -0.075096 0.11318112 -0.13267778 -0.08891945 -0.12209908 0.035967547 -0.09111452
-4.6029536e-06 0.10769108 -0.062405832 0.033443913 -0.048571285 -0.11359748 0.11214863 -0.015760079
-0.06178579 0.058414113 -0.044455323 0.07094516 -0.1462398 0.10478409 -0.1498725 0.0036127125
0.042804573 0.09204108 0.0710422 0.001678051 -0.04486903 -0.10432293 0.13185947 -0.14833811
0.13740036 0.0060360483 0.11736274 -0.027826978 -0.026361164 0.15134625 0.10327482 -0.036106203
0.013043305 -0.062498093 0.019902162 0.06658001 0.13239835 0.13650334 0.086018234 -0.02073226
-0.08689919 0.121006295 -0.11641496 -0.032268614 0.10779425 -0.12560867 0.10409511 -0.056356713
0.0019109866 0.023471944 0.030787556 0.10861836 -0.1175481 -0.02799408 -0.0008200873 -0.061409883
0.123663 0.0668958 0.011980827 -0.14292586 0.044490375 0.13780892 0.0705269 -0.07577803
-0.061462417 -0.025818726 -0.047639605 0.018475149 0.039836157 0.14255938 -0.15337814 -0.08233347
-0.13648771 -0.13723075 -0.11248602 0.18250026 0.031491656 0.06812238 0.06642096 0.060572773
0.06960028 -0.110333815 -0.06805833 0.12157725 0.06994244 0.1130303 0.107590966 0.07540801
-0.14438766 -0.09284828 0.12502013 -0.08706948 -0.043249376 -0.039665516 4.623293e-05 -0.04615772
0.041188538 -0.007907586 -0.04143652 0.14556156 -0.07073789 -0.000102458864 0.1444895 -0.004123373
-0.04540123 -0.12670897 0.021539226 -0.032178022 0.06243349 0.1383432 0.015136353 0.11615282
-0.14538826 -0.12895688 0.08487667 0.048515745 -0.12794837 0.05903589 0.009493736 -0.1480234
-0.09349176 0.05836051 0.033528447 -0.15146631 0.1075728 0.023995457 -0.072789095 0.1076859
0.06373828 -0.022869794 -0.07243991 -0.08517031 0.12772693 -0.13202767 0.10853023 0.08947828
-0.084901735 0.0585188 -0.011911463 -0.0061635124 -0.12604322 0.05865275 0.08087172 0.044482272
-0.1102046 0.11587131 -0.06472583 -0.101222314 -0.14056225 -0.14524181 0.0107294405 0.06753962
0.07161107 -0.10246021 -0.14514875 0.14297815 0.08073309 -0.069884926 -0.1699968 0.09954045
0.052923243 0.046562765 -0.013597069 -0.13473652 -0.18407832 -0.028193854 0.027496148 0.12871762
-0.12707105 -0.030390756 0.018837042 0.14618544 0.0262003 -0.07259857 -0.11413145 -0.011676224
-0.09685542 0.0026532135 -0.13946953 7.384875e-05 -0.004248531 -0.0051113926 -0.09065031 0.09748448
-0.02881991 -0.025361216 -0.065536425 0.029173223 -0.14053324 -0.12294192 0.020986952 0.079381086
0.037353866 0.07532726 0.13504994 -0.009529906 -0.1295017 -0.120422184 0.005201335 -0.12978975
0.10678224 0.11635297 -0.098410495 -0.13797306 0.096822664 -0.124609224 -0.003293664 -0.09396777
-0.09327692 -0.06347471 -0.008356474 -0.06838502 -0.06399057 -0.0513831 0.083703354 0.07511912

in_proj_bias f4 [192]
00000000: e600 4b3b fa85 aebc 9f26 9fbc e276 f83c
00000010: 62d0 623c d5f6 a8bc 97c9 9cbc 9a96 643c
00000020: 2505 e93b bab9 1bbc b646 013c 1bf3 a4bb
00000030: 8b92 323b 66de d2bc b861 1339 c245 de3b
00000040: 7bd4 a63c 5c16 4d3c 7beb acbc aef3 1ebc
00000050: 53f4 c53b 3e18 0fbc 043a b4bb 2c94 3b3c
00000060: b86d 0c3c 1d6e c13a 5359 123c 338b 353c
00000070: 9895 463c 3bf9 8b3c 0050 4abc 5ba3 b83b
00000080: a732 3e3b 5a0d ad3b 4c67 aa3b c6fe 3aba
00000090: cd23 123c 20c6 dd3b 9f30 003d 3b0f dbb9
000000a0: 1b2c 6f3c 10e7 78bc f538 743c 08b4 e239
000000b0: d0bf d639 13a4 fb3b c8fc 3f3c 59dd 1c3b
000000c0: 00f1 b63c 3431 40bd 55b4 ce3c 1cc3 a5bc
000000d0: db94 9c3c d64e 2abd af6b 1c3d 24d5 b43c
000000e0: 8430 c33b e29d 11bc 8837 293c 8917 07bc
000000f0: c839 a93b eb2e 99bb 24b4 f5bb d41e e23b
00000100: 2a81 5c36 c245 8337 fb4b 05b8 606e 43b9
00000110: ce26 e3b8 a01a 1439 0cd8 b738 b318 3cb9
00000120: c19c 7c39 1820 2439 8242 6f37 6b93 d6b9
00000130: 66d9 0b3a 7b57 3d39 c316 80b7 ca82 4239
00000140: b7bf 5db7 5677 6338 37a6 b0b8 765f 38b9
00000150: a58f d3b9 ba04 8e37 cde1 6fb8 1e70 4e38
00000160: ce0d 55b9 0667 f737 b895 9938 54b4 51b9
00000170: 6f94 ea37 8d80 13b7 6126 0bb9 ff80 e6b9
00000180: 2c40 f3b9 15f5 87ba 963f 6539 a48f 89b8
00000190: c0d9 a8b9 80e2 49ba 793f 5aba 185c 39b8
000001a0: 747f 0c3a ed02 04b9 57ab b639 4633 f938
000001b0: 0405 0039 dfe1 0c38 02f1 023a 7c26 0938
000001c0: 0a9c 2138 ae5a d3b8 06ce 8b38 13b8 8cb7
000001d0: f0b4 22b9 81b0 8339 6dd2 2c39 b97d 5a38
000001e0: efc5 d738 1132 dcb9 14b3 a238 dd97 5939
000001f0: 2f4f 2136 fa26 dcb8 4779 0139 e760 1038
00000200: 16dd dfbb c76c 21bc d7c9 653b 7bab 90ba
00000210: 2ce3 a13b 08bc f03b 8f14 fe3a 00e7 853b
00000220: cb96 17bc 67cf efbb 1b24 083c ff83 8d3b
00000230: 42c7 8c3c 6f14 493c 6ad4 acbb 5b32 6cbb
00000240: 2aa9 793b b14a 09bb 29a0 e03b 8482 b03b
00000250: 325d fa3b 3b14 9ebb 0bb2 f1ba 256d 8f3b
00000260: e485 92bb 4324 df3b b6fa ae3a 4244 ce3b
00000270: dee1 9abb 37c3 953b 9b83 08ba c849 ec3b
00000280: 9c9e 4b3c 31a1 e9bb 97c4 0ebb f400 5dbc
00000290: 2ee6 6f3a fd9c 083c c95d 7dba 9440 20ba
000002a0: 7320 1c3c fe34 c639 5758 353c 6711 bbb8
000002b0: d620 f638 9f78 09bc d5e3 49bc e548 fe3b
000002c0: d5d2 55bb 7d8f 80ba 0c44 033b 4415 513b
000002d0: 26bc 5abc 3f5f 893b e9ee 52bb 52e3 d73b
000002e0: ca76 453b 3a28 8e3b 1370 45bb 1973 bf3b
000002f0: 4e4c 063c cdda 663b e3c4 223b 4e04 8d3b
0.0030975877 -0.02130412 -0.019427596 0.030330125 0.013843628 -0.020625511 -0.019139094 0.013951922
0.007111209 -0.00950473 0.007890394 -0.0050338632 0.002724799 -0.025740813 0.00014055416 0.006783218
0.02036499 0.012517538 -0.02110838 -0.009701652 0.0060410886 -0.008733807 -0.00550008 0.011448901
0.008571081 0.0014757548 0.008932429 0.011080551 0.012120627 0.017086616 -0.012348175 0.005634708
0.002902189 0.0052811326 0.005200302 -0.0007133301 0.008919668 0.006768003 0.03129637 -0.00041782283
0.014597918 -0.015191808 0.014906158 0.00043240213 0.00040960172 0.0076794713 0.011717983 0.0023935644
0.022331715 -0.046921924 0.025232473 -0.020234637 0.019113949 -0.04157909 0.038188633 0.02207429
0.0059567112 -0.00888774 0.010328181 -0.008245357 0.0051643588 -0.0046747825 -0.007498281 0.0069006477
3.2857738e-06 1.56489e-05 -3.1780433e-05 -0.00018637767 -0.000108314314 0.00014124298 8.766362e-05 -0.00017938278
0.00024090988 0.00015652215 1.4260995e-05 -0.00040927096 0.0005334824 0.00018057034 -1.5269388e-05 0.00018550004
-1.3217264e-05 5.4232158e-05 -8.423294e-05 -0.0001758317 -0.0004035208 1.692992e-05 -5.7192334e-05 4.9218645e-05
-0.00020318406 2.9492669e-05 7.323496e-05 -0.0001999897 2.7964094e-05 -8.791813e-06 -0.0001327037 -0.00043965128
-0.00046396384 -0.0010372723 0.0002186283 -6.559424e-05 -0.00032205693 -0.00077012926 -0.0008325498 -4.4193206e-05
0.0005359568 -0.00012589591 0.00034841403 0.00011882796 0.000122089 3.358896e-05 0.00049950194 3.2699187e-05
3.8530714e-05 -0.000100781544 6.666411e-05 -1.6775017e-05 -0.00015516928 0.00025117773 0.00016481588 5.209234e-05
0.00010288867 -0.00041998972 7.758118e-05 0.00020751306 2.403696e-06 -0.000104976774 0.00012347578 3.4422523e-05
-0.0068317754 -0.009852595 0.0035062933 -0.0011037433 0.004940411 0.007346634 0.0019384789 0.0040863752
-0.00925226 -0.0073184255 0.008309389 0.0043187137 0.017184857 0.012272938 -0.005274345 -0.0036040756
0.0038095214 -0.002094906 0.00685503 0.0053866524 0.0076405043 -0.004824189 -0.0018439902 0.0043770247
-0.0044715274 0.0068097427 0.0013349864 0.006294758 -0.0047266325 0.0045703906 -0.0005207599 0.007210944
0.012427952 -0.007129811 -0.0021784657 -0.013488997 0.0009151426 0.00833821 -0.0009665159 -0.00061131385
0.009529221 0.00037804985 0.011068425 -8.920096e-05 0.0001173631 -0.008390575 -0.012322386 0.0077601545
-0.0032626886 -0.0009808388 0.0020029573 0.0031903544 -0.013350522 0.0041922624 -0.0032185859 0.006588378
0.0030130618 0.0043382915 -0.0030126616 0.005842578 0.008196903 0.003522563 0.0024836592 0.0043034917

weight f4 [64, 64]
00000000: 4b36 483c 3ed2 dcbd 7fc4 8cbb 9bd4 a1bd
00000010: d71b bdbd ec38 a53d 4f3e 213c fa78 933d
00000020: ab6b b7bd 700f a0bd ced9 0d3d 5e1a a0bd
00000030: e6e1 ee3d b979 493d 8c3e 3b3c 86c0 d4bd
00000040: df8f b8bd dab7 17bd 9b44 543c 3640 eebd
00000050: e9c0 4dbd c9ea d83d 8c6a be3d c412 c0bd
00000060: ccb1 a9bd 3d7e 733d 86cf 57bd 022a e0bd
00000070: 61d4 f8bd 6367 aa3d 7b52 b5bc f03d c2bd
00000080: 3b05 e13d b473 cc3b 0016 203d 0237 94bd
00000090: 6bed 98bd dd91 e63d 48d0 cdbd 358d 753d
000000a0: 62da b93d 1d9c 9e3d a407 4bbd fd82 3dbd
000000b0: 8f6e 803d c239 bb3d ec6a b6bb f61d d8bd
000000c0: d2b0 5cbc b54c c1bd ec08 b43b a247 02be
000000d0: 9857 b13d 9ac1 ac3c ed8e 6b3d 19ec d83d
000000e0: f7d7 d23d e382 86bd 40a9 0b3d 1790 5dbd
000000f0: a828 6ebd b245 e73b 4373 dcbd 9259 c6bd
00000100: baa5 4fba c055 eb3d 0f02 cfbc 4b6d 96bd
00000110: 575d a83d 9152 583c aeb4 a23c d9da d0bc
00000120: 9805 563d 1a23 c73c f02d 6dbd bc8f 4d3c
00000130: 5b6e 39bd 9b1b 9b3d f7e2 da3d 74a6 b83b
00000140: f9df cdbd bc42 4b3d 4857 0fbd 345c aa3c
00000150: d897 49bc 27c8 ba3d d8e8 c43d 2f71 adbd
00000160: 153e 1c3c 51a6 ffbc 3f73 bebd 4dd8 3d3c
00000170: babf 54bd 23aa d23d 7e94 33bd e9d6 423d
00000180: 0d57 81bd c9e0 963c 215b cfbd a530 4e39
00000190: 09f8 a73d 74c2 e33d 2d9e 383d b549 073e
000001a0: 70e5 dbba 7c80 003b 7bea be3d da2c 0c3d
000001b0: 9503 88bd e337 f9bd 5b2a 343c c543 f53d
000001c0: d00c af3d cadb b03d fb3b 0c3d 3f2f 533d
000001d0: 08b1 dd3d 8281 c1bd 1c69 463d 0586 44bd
000001e0: 8ece 64bd f28f 90bd d77c dd3d 6917 d83d
000001f0: c936 97ba b4ad 02be 75f0 fabd 8df9 9dbd
00000200: 8731 e7bc ca2d 1c3d 383a 883c fe9d b2bd
00000210: be45 c13d c517 39bd 6ab7 95bc 827b 87bd
00000220: efe4 abbd 6d51 dabd 5bb4 bfbd c995 35bd
00000230: 1820 c23d 7e7c bb3d a013 13be b3be edbc
00000240: b575 82bd b75b 423d f86f 973d 5176 893d
00000250: 854e 44bc ade9 f53d 09cb 733d 0d5c e33c
00000260: 6b4b a1bd 193b a6bd db51 bb3c 15b9 c43d
00000270: 638f b0bd d57c 433d e42a cdbd a772 313d
00000280: ac4a 9cbd b774 c23d 955c c9bd a86b 993d
00000290: c369 bbbd d262 a43d 207c a3bd 08f4 dc3d
000002a0: 5436 303c c5fe 873d bcb5 263c 9711 2c3d
000002b0: e020 7abc 6d45 453d 4538 e4bd da21 e8bd
000002c0: f8b5 23bd c01e f3bd 995e acbd 82dc ffbd
000002d0: 2023 9abd a0f6 833d 98fd d2bc 80b3 d7bc
000002e0: 707f 9abd 24c9 31bd d658 c33b b532 c83d
000002f0: 5fe8 04be eb5e 9fbd d849 66bb 5c5e cb3d
00000300: a3e2 de3d 29f2 2abd cdd5 f73d daed b83d
00000310: 5983 85bd 0b05 bd3d c351 f13c e662 0ebc
00000320: d823 dabd e8d3 1c3d 2362 ebbd 8c3f 013d
00000330: 11d4 41bd 7143 8b3c 2038 0d3e 62b1 5fbd
00000340: e123 ea3d 327a e23d e915 863b e7a7 063e
00000350: edb5 ad3d 12c5 a5bd 1971 97bd 546b 9c3c
00000360: d246 1a3d 27b5 7f3b c7c9 4fbd 4da6 903d
00000370: 8c01 25bd f672 f73c 83a2 68bd d422 97bd
00000380: d2e8 c53d 3e01 e2bb a2b3 213d 4774 edbd
00000390: 0848 ddbd 805b 95bd 47b0 ec3c c867 583d
000003a0: 09e8 2ebb 6faa 6d3d cc97 97bc f8a6 9e3d
000003b0: 6daa cabd 43a7 a5bd 8b43 4fbd 8137 8f3d
000003c0: 6f71 2d3d 3cd1 d53d f6f6 adbd ca50 243d
000003d0: cd3c 2cbc 9ed8 e93d 1c6a 1cbe a53b 9a3d
000003e0: 12fb b73d 1429 a23d ea4c 893c 2c73 c9bc
000003f0: 6383 8ebd 9097 313c dca4 f53d 75bb 80bd
0.012219976 -0.10782288 -0.004295885 -0.079018794 -0.09233826 0.080674976 0.009841516 0.07200809
-0.08956083 -0.078154445 0.034631543 -0.07817529 0.116641805 0.04918835 0.011428487 -0.103882834
-0.09011816 -0.03704057 0.01295581 -0.11633341 -0.0502328 0.10591657 0.09297666 -0.09378579
-0.08285865 0.059446562 -0.052688144 -0.10945512 -0.12149883 0.08320501 -0.022134056 -0.0948447
0.10987326 0.006239379 0.03908348 -0.072370544 -0.07467159 0.1125829 -0.10049492 0.05994912
0.09074856 0.0774462 -0.049567834 -0.0462675 0.062710874 0.09141876 -0.0055669453 -0.105525896
-0.013469892 -0.09438459 0.0054942276 -0.12722638 0.08659285 0.02108841 0.05750935 0.10591907
0.10295098 -0.065679334 0.034096956 -0.054092493 -0.05814424 0.007057869 -0.10764172 -0.09685053
-0.00079211185 0.11490965 -0.025269536 -0.07345065 0.08220928 0.013203279 0.019861545 -0.02549498
0.05225143 0.02430873 -0.057905138 0.012546476 -0.04527126 0.07573625 0.10687821 0.005635077
-0.10052485 0.04962419 -0.034995347 0.020795919 -0.012304269 0.09120207 0.09614724 -0.08468854
0.009536286 -0.031207236 -0.09299325 0.011587215 -0.051940657 0.10286357 -0.043842785 0.047568236
-0.06315432 0.018417733 -0.10124803 0.00019663812 0.08201606 0.11121073 0.045072723 0.13211711
-0.0016776752 0.0019607833 0.09322067 0.03422246 -0.06641308 -0.12168863 0.010996426 0.11975817
0.08547366 0.086356714 0.03423689 0.05155873 0.10824782 -0.0944853 0.048440084 -0.047979373
-0.05586105 -0.070587054 0.10814827 0.1055134 -0.0011536713 -0.12761575 -0.12252895 -0.07713614
-0.028221859 0.038129605 0.016629323 -0.08721541 0.094371304 -0.045188684 -0.018275935 -0.06615354
-0.08393275 -0.10660062 -0.09360572 -0.0443323 0.09478778 0.091546044 -0.14362955 -0.029021597
-0.06370107 0.047450747 0.07394403 0.0671202 -0.011981611 0.12007461 0.0595198 0.027753854
-0.07875713 -0.08116741 0.02286618 0.09605614 -0.08621099 0.04772647 -0.10017946 0.04332223
-0.0763143 0.09494918 -0.09832112 0.07491237 -0.09151032 0.08026661 -0.07982659 0.10788733
0.01075514 0.0664039 0.010175165 0.042008962 -0.015266627 0.048161913 -0.11143545 -0.11334582
-0.03996846 -0.118710995 -0.084164806 -0.124932304 -0.07526231 0.06443524 -0.025755689 -0.02633071
-0.07543838 -0.043404713 0.005961518 0.097752966 -0.12979268 -0.07781776 -0.003513923 0.09930107
0.10883071 -0.04173485 0.12101326 0.090297416 -0.06519193 0.092294775 0.029457932 -0.008690571
-0.10651368 0.038288027 -0.114933275 0.031554744 -0.047321383 0.016999932 0.13790941 -0.054612525
0.114326246 0.11058463 0.0040919674 0.13149987 0.08481965 -0.08094229 -0.073946185 0.019094147
0.037665196 0.0039017887 -0.05072954 0.07062969 -0.04028468 0.030206185 -0.05679561 -0.0737969
0.096635476 -0.0068971207 0.03947795 -0.11594444 -0.108047545 -0.07292843 0.02889265 0.05283335
-0.0026688597 0.058023866 -0.018505 0.077466905 -0.098957874 -0.08088543 -0.050601523 0.069930084
0.042344507 0.10440299 -0.0849437 0.04011611 -0.010512543 0.114182696 -0.15274853 0.075309075
0.08983435 0.07917991 0.016760308 -0.024591051 -0.06958654 0.010839358 0.11994335 -0.062857546

bias f4 [64]
00000000: 9ddb 8fbb 6a80 96bb 82b6 87ba 3441 583b
00000010: 3b07 ca3a d979 c53b 22a1 913b 12c5 45bb
00000020: 4131 c7ba d2cb 8dbb 6ff9 78b9 549b af3b
00000030: 7423 203a a5ba 56ba 3a3f 113b 6b35 72bb
00000040: a15a dc3b 977e 59bb 0a93 533b 4cc8 05bc
00000050: 9f38 7f3b ff32 9b3a c86b b6bb 3b2c 843a
00000060: eafc f43b 0c90 033b e787 aa3b 08b7 87bb
00000070: fa9f aabb a0d8 053c 78b6 133b c361 18bb
00000080: ed3c 823b 63a9 18bb 10ea ba3b 5c1c 37bc
00000090: 7246 b6ba 6a84 003c 121f 8c3c 9b02 073b
000000a0: 5aaf 12bc 1774 94bb 80e8 b139 68ef 18bb
000000b0: 1385 1e3a 1219 a93b b5bc ca3b 432d 06bb
000000c0: cbff cc3a 6fda b43b 755f 07bb dfd8 713b
000000d0: d5db 36bb 9908 10ba f774 303c b781 75bc
000000e0: e838 16bc 176d 4138 a472 4ab9 08da 3b3c
000000f0: dd16 b9ba 54d2 d4bb 8414 ecbb 3af8 783b
-0.0043901936 -0.004592945 -0.0010354074 0.0032997848 0.0015413532 0.0060264883 0.0044442574 -0.0030177278
-0.0015197174 -0.004327276 -0.00023744044 0.0053590927 0.00061087986 -0.00081912644 0.002216293 -0.003695811
0.006724671 -0.0033187026 0.0032283687 -0.00816543 0.003894366 0.001184076 -0.0055670477 0.0010083982
0.007476439 0.0020074872 0.005204189 -0.004141692 -0.005207059 0.008169323 0.002253918 -0.002325163
0.003974548 -0.0023294322 0.005704172 -0.011176195 -0.0013906492 0.00784407 0.01710466 0.0020600918
-0.00895294 -0.0045304406 0.00033933297 -0.0023336057 0.0006047051 0.0051604593 0.0061870464 -0.0020473755
0.0015640197 0.0055192034 -0.0020656262 0.0036902947 -0.0027902026 -0.0005494445 0.010770074 -0.01498454
-0.009168841 4.6116384e-05 -0.00019306928 0.011465557 -0.0014121194 -0.0064947996 -0.007204594 0.0037989751

weight f4 [256, 64]
00000000: ebe2 b0bd 6376 c53d 7fe6 e03d fcb4 90bd
00000010: 73b8 b63d 213d 5bbd 1c5b 03be 9f39 d93d
00000020: 426a 62bd 1531 df3d d237 ab3d fa62 673c
00000030: d1ad f6bd 122b f13d d73e 1e3b e422 02bd
00000040: bb40 a1bd 0050 e93c 577a abbd 5410 02be
00000050: 6fd4 9a3d feb3 b2bd 1673 093e 85e3 5a3d
00000060: 5a05 99bd c132 b5bd a6f0 80bd b69c 0b3d
00000070: 72b1 e23d 88b8 b1bd bd04 ba3d ec0f 04be
00000080: 63ef 0a3e 8f90 48bd e4cb 043d cd41 5a3c
00000090: 339f cc3d bba9 f13c 2b9b cf3d d5a6 b03d
000000a0: 228b b83d bb88 d23c ecda 93bd 5f11 4fbd
000000b0: 8e1e 803b e999 c33d 52b1 c93d 840d febd
000000c0: e947 af3d 37d1 883d dc10 833d 0494 cbbd
000000d0: 0dcd 7f3d 82d4 4dbc db04 103d bd28 bdbd
000000e0: 1f72 fd3c ca2a 34bd 4847 9f3d 8f08 983c
000000f0: f9ed 013d ba4a cabd 8629 92bc e771 03bd
00000100: c66c 49bd ea7e c8bc c0c3 fbbd f78c de3c
00000110: cf20 243d c244 0e3d a154 f83d ffc2 85bd
00000120: 0e81 10bd ed6c d4bd a661 75bd a015 95bd
00000130: 3359 c03d b0a2 21bb 86b7 803d 022d 95bd
00000140: 61b7 b83d aeca 91bd 8963 e8bd c30f bebd
00000150: f1d6 c4bc bab5 6abd 277d 7a3d fe23 be3d
00000160: 6b85 c73d bd17 c63d b3a9 6abc 4f2e 01be
00000170: de58 7f3b b968 8bbb c890 c43d 36c7 c83c
00000180: fec3 9c3b 77bb 12bd f20c e1bd 63fc 2f3d
00000190: a730 abbd 6659 53bd 74e5 fe3d 3899 74ba
000001a0: bcfa 1e3d a302 b33d 5239 83bc b41c b53d
000001b0: 3d44 f33d 43b7 aebd d520 c63d 7f80 043d
000001c0: 0865 86bd d007 d7bd b653 d8bd 3cbe f53c
000001d0: 8ebf 9dbd 96ba a73d ddc5 6e3d 9bc6 15bd
000001e0: c0e6 8d3d 4757 b5bd fc2c d63d eae3 833d
000001f0: 19cd 0d3e 1b8b 7cbd 04ce 333d 569f f43d
00000200: b601 e2bd cc5c 09be 3f28 8f3d 9843 b6bd
00000210: 7a26 98bd 7c9f 113b 99a2 a63d 0635 edbd
00000220: 74af c93d b53f b13c 9677 843d 0793 e0bd
00000230: fdd1 fdbd 20c0 643c a31f 10bc bede 07bd
00000240: 16e9 6abb 53ca af3d 94fa 343d 1519 dbbd
00000250: d74d f2bc d40a 74bd 9dbf 2c3c 74d5 51bd
00000260: da66 dcbd c7bc 883d 286f 933c 2c83 73bd
00000270: 17e9 6ebd 530f fe3c 5e43 ea3d 9604 c0bc
00000280: 6056 e8bd 929e 40bd 474c f9bc 48c1 2d3d
00000290: bf55 d7bd e1da da3d eb6f b4bc 8379 2f3d
000002a0: 0a26 663c 97fe 123d e54c d1bd cf5d cabd
000002b0: 1a83 efbd 4854 e3bd dfce 703c 386a 73bd
000002c0: 0528 693d ee1c 94bd 0558 d93d 44c9 193d
000002d0: 3f6b b23d 47b2 edba dfb5 84bd adec 42bc
000002e0: b978 e13c 8d88 f5bd 63ab d23c a8b9 d9bb
000002f0: a641 3a3d 3204 e03d 29d9 c8bd d84d e13c
00000300: ff7c 57bd fc57 c3bd c830 64bc 691e a5bd
00000310: 1de3 0b3d 3b10 9abd a7e2 18bd 7bcc f3bd
00000320: a28b 593d 90c1 113c d84d be3d 09da e83d
00000330: 7b20 c1bc 10d8 103e 2e4b acbd fd92 ce3d
00000340: 7a7a 6e3c a4f6 773c f099 b53d 07f6 403d
00000350: df29 013d ec3b 9b3c 0751 243c cb19 0b3e
00000360: 49ea b0bd 74d3 24bd d117 aa3c 392a c83d
00000370: 3874 a5bd 9be0 d83d fd22 d8bc 5ff6 0e3d
00000380: 05e5 bebd 8ea7 bcbc ccbe d6bc ac0c b33d
00000390: 893b 6fbd 7888 ac3b c15a 8abd 8130 a53d
000003a0: 2cc3 e73d 0b72 9abb d41a 6e3c 4995 593d
000003b0: dce0 003d 5bb0 973d 950c a93d 25da cf3d
000003c0: 9e15 89bd f323 d9bd d967 873d ba7e 5bbd
000003d0: 713c 823d 0003 adbd 9383 2f3c d53f ab3c
000003e0: ce7d df3d 3ed2 fe3c 889c edbd 3c9e 8dbd
000003f0: e6d3 f5bc cea4 9a3d 434b b5ba be24 d6ba
-0.08637031 0.09641721 0.10981464 -0.0706577 0.089219 -0.053525094 -0.12827724 0.106066935
-0.055277117 0.108980335 0.08360256 0.014122719 -0.120448716 0.11775793 0.0024146342 -0.031771556
-0.078736745 0.02848053 -0.08372944 -0.12701541 0.0756005 -0.08725737 0.13422808 0.053439636
-0.07471724 -0.08847571 -0.062959 0.034084998 0.11069001 -0.08677775 0.09082935 -0.12896699
0.13567881 -0.048965987 0.032421008 0.013321352 0.09991302 0.02949988 0.10137018 0.08625571
0.090109125 0.025699964 -0.072194904 -0.050553676 0.0039098924 0.095508404 0.09848274 -0.12404922
0.08558638 0.066805296 0.063997 -0.09940341 0.06245141 -0.012562873 0.03516088 -0.09236286
0.030938206 -0.04398612 0.07777268 0.018558769 0.03172109 -0.09877534 -0.017842066 -0.032091048
-0.049176 -0.02447458 -0.12293196 0.027166827 0.04007035 0.03473354 0.12125517 -0.06531333
-0.035279326 -0.103723384 -0.059907578 -0.07279515 0.093920134 -0.002466362 0.06285004 -0.07283975
0.09019352 -0.07118736 -0.1134711 -0.0928035 -0.024028273 -0.057302214 0.06115451 0.09284209
0.09742244 0.096724965 -0.014322686 -0.12615322 0.003896288 -0.0042544273 0.09597927 0.024509054
0.0047841063 -0.03582331 -0.10988797 0.042965304 -0.08358889 -0.05159893 0.124461085 -0.00093306927
0.038813338 0.08740737 -0.016018543 0.08843365 0.1187825 -0.08531048 0.09674231 0.032349106
-0.06562239 -0.10499537 -0.105628416 0.029997937 -0.07702552 0.08189885 0.058294166 -0.036566358
0.06928778 -0.088545375 0.10457799 0.064399555 0.1384777 -0.0616561 0.043897644 0.119444534
-0.110354826 -0.13414305 0.06990098 -0.08899611 -0.07429214 0.0022220304 0.08136482 -0.11582379
0.09847918 0.021636823 0.06468122 -0.10965543 -0.12393568 0.013961822 -0.008796605 -0.033171408
-0.0035844496 0.08583512 0.044184282 -0.106981434 -0.029578133 -0.05958064 0.010543731 -0.051228955
-0.10761805 0.066766314 0.01799734 -0.059451267 -0.05832776 0.031013167 0.114386305 -0.023439687
-0.113446 -0.047026224 -0.03043188 0.042420655 -0.10514402 0.10686279 -0.022026023 0.042840492
0.014047155 0.035887327 -0.102197446 -0.09881174 -0.116949275 -0.1110006 0.014697759 -0.05942747
0.05692293 -0.072320804 0.106124915 0.037545457 0.08711862 -0.0018134796 -0.06480002 -0.011897248
0.027523385 -0.119889356 0.02571649 -0.0066444464 0.045472763 0.109383 -0.09807045 0.02750294
-0.05260944 -0.09538266 -0.013927646 -0.08062441 0.03415214 -0.07522627 -0.037325528 -0.11904236
0.05311168 0.008896247 0.09292191 0.11369712 -0.023575058 0.14144921 -0.08412777 0.100866295
0.014555568 0.015134487 0.08867252 0.04710963 0.031534072 0.018949471 0.010029084 0.13584058
-0.08638436 -0.04024072 0.02076331 0.09773678 -0.080788076 0.10589715 -0.026383871 0.034902927
-0.09321026 -0.023029115 -0.026214026 0.08742651 -0.058406387 0.005265292 -0.06755591 0.08065892
0.11316523 -0.004713302 0.0145327635 0.053120885 0.031464443 0.07406684 0.08254353 0.1014903
-0.06693576 -0.1060256 0.06611604 -0.053587653 0.063591845 -0.08447838 0.010712522 0.02090446
0.10912667 0.03110611 -0.116021216 -0.069149464 -0.030008268 0.07550965 -0.0013831634 -0.0016337854

bias f4 [256]
00000000: d3c3 e4bd 4f87 d1bd 6572 423b b87b 5d3c
00000010: 927c b3bd 0037 843d fc65 803d 4def ddbd
00000020: 5ffd 90bd fe6a e93d bbbe 08bd 2469 d3bb
00000030: 9729 6a3c e784 c23d f54e a2bd fb52 273b
00000040: c917 febd ede0 f9bd d660 403c 3127 02bd
00000050: 193f 2ebd bc66 cabc 43ab 913c 1a93 83bc
00000060: fdf2 d9bc 4226 6abd f7d2 22bd 6dc4 f8bd
00000070: ead7 c2bc a468 a13d 5872 5bbd b0e3 cabd
00000080: 25cd e7bc a56e c2bc b061 063d 53e6 94bc
00000090: 181c fb3d 6088 fcbb 0b7f 01be c21c a63d
000000a0: 267d a73d 2786 093d 1de2 b5bd f9b0 e33d
000000b0: 6a53 e5bd a2c9 eebc a55f a5bd 33f6 883d
000000c0: 0a07 fbbd 412b e7bc 7696 233d 895f af3d
000000d0: 2e18 693d ee6a 86bd 0150 ba3d 33e7 823d
000000e0: 3657 903d f715 fe3d 1c76 b5bd 760b 923d
000000f0: ca98 aebd 902f ca3d 96d8 54bd 9fa2 cc3d
00000100: a8cf b3bd 694e 853d 3fee 1ebc 1df8 c8bd
00000110: c066 4b3d 1d3b e43d 38b7 3b3c 9a78 313d
00000120: 0cee dbbd c95b 083d eebc 90bc a98b 1e3d
00000130: fbf8 443d e614 9a3d f935 fbbd 3c47 e73c
00000140: cf5a e23d df2b c3bb ea69 2cbc 17b3 23bd
00000150: f78b d1bc d954 b13d 4cba 9d3d ba4d ba3d
00000160: 824f 19bd 8733 1f3d c9ce 493d 6127 02bd
00000170: ca1e 9fbd bd2a 973d 7912 ddbd 4778 7f3d
00000180: c4d9 21bd e5db 7ebd 7f6c 913b cc09 2bbd
00000190: 92e4 343d 7199 b53d a1da c8bc 00af d3bc
000001a0: bad8 31ba 04eb 8c3d f84d 8b3d e803 2e3d
000001b0: 945f 143d 356d 253d 1db4 f43d 189b 633d
000001c0: cfcc a6bd 483c 3b3c 1724 77bc 1062 f7bd
000001d0: 1fd5 93bd d904 213d 40c8 ef3c 64ff 06be
000001e0: 8149 c0bd cd34 a4bc d9c2 473c 415c 81bd
000001f0: a6aa 8eba f781 c0bd 15d4 81bd bfe2 613d
00000200: 8445 a53d 06a3 133d 713d c0bd 9bd2 a1bc
00000210: 0e89 1dbd 2194 703d c4ab da3d 2d5f 743d
00000220: d970 23bd 2635 783a 8b14 6e3c 558d e9bd
00000230: 6c90 e93d 5a03 24bd 95a0 b1ba 93f3 a13d
00000240: 168f 04be 84ac a4bd cc4a 61bc 9d58 a93d
00000250: 56ae 94bd 29c2 df3d 2dd8 80bd cbb4 98ba
00000260: 3c2e b2bc 3678 debd aa35 5a3c 1d74 7a3d
00000270: defc f8bd da80 833d dae9 5e3c fbf7 89bd
00000280: 88cf 52bc 48f7 223d 6e93 c83c edc1 f73c
00000290: 4eaf ca3d d339 a23d 6f4e dfbd d86b cfbd
000002a0: 2eb3 33bc 55a9 c6bb 0ea4 0dbe f82e b2bb
000002b0: 1f0b 2ebc 2614 6d3d 916b 283c e23c a4bd
000002c0: e027 bdbd ea03 d3bd 1778 f23c 39a9 643d
000002d0: 8f76 b33c 002b 8b3d 4671 72bd 10c2 373c
000002e0: 9b03 bdbd 7b71 6d3d 2ac0 cabd eb44 963d
000002f0: 9fbe 6c3d 70b8 4b3d a512 433c 865d 09bc
00000300: 2fb9 ddbd 41db 00be ad24 57bd 3f9a ebbc
00000310: 2e58 9fbd e75d 93bc 0305 8cbd cdb6 313d
00000320: e41e a2bd 2490 9a3d 7348 8dbd a698 903c
00000330: 0897 76bc ff6e 8a3d c8b3 c3bd a173 75bd
00000340: 46a5 963d 9a1d b4bd e048 07bd ae4e ae3d
00000350: 16b2 f83c ab74 bcbd d2d8 35bc c83b da3c
00000360: 88a1 833d dfa4 d4bd 0d3e 373d b232 09be
00000370: 0eb9 043c 21c4 a3bc 5b8d 8d3d 6d84 4c3d
00000380: 395a 623d 1371 e1bd b6fe b5bd f734 013d
00000390: dc3f ac3d e710 c43d fb0d 013c e2cf 2c3d
000003a0: da36 59bd df77 4c3d 7f56 f4bd 2218 7cbd
000003b0: a9a1 59bd 55be 4b3d a2f8 fabd 009a 343d
000003c0: cc1f a1bc 800d c7bd 7616 293d 5d52 19bd
000003d0: 67e4 42bc 0195 923d 0525 02bd 3dc4 37bd
000003e0: fbb5 5ebc 34e6 913d 391a 873d e508 da3d
000003f0: b8cf 07bc 6eed c0bc 80fa 123d 84b0 33bb
-0.11170163 -0.10230886 0.0029670235 0.013518266 -0.08763994 0.06455803 0.06269452 -0.108366586
-0.07079577 0.1139736 -0.03338502 -0.0064517427 0.014292142 0.09498005 -0.07925216 0.0025531638
-0.124068804 -0.12201104 0.0117418375 -0.031775657 -0.042540643 -0.02470719 0.01778186 -0.016061354
-0.026605124 -0.05716539 -0.039751973 -0.1214684 -0.023784596 0.07881287 -0.053575844 -0.09906709
-0.028296063 -0.0237344 0.032808006 -0.018176233 0.12261218 -0.007706687 -0.1264612 0.08110954
0.08178167 0.033575203 -0.08881018 0.11117739 -0.111975506 -0.02914888 -0.08074883 0.06687584
-0.12257202 -0.028218867 0.039938413 0.08563144 0.056907825 -0.06563364 0.09097291 0.06391754
0.07047884 0.12406533 -0.08860418 0.07131092 -0.08525236 0.09872353 -0.051964365 0.09991955
-0.08779842 0.06509096 -0.009700357 -0.09812949 0.049658537 0.111440875 0.011457257 0.043327905
-0.10738763 0.03329066 -0.017668214 0.03870741 0.04808901 0.07523517 -0.12266154 0.02823221
0.110524766 -0.0059561576 -0.010523299 -0.039965715 -0.025579436 0.086587615 0.07701549 0.090968564
-0.03742934 0.0388675 0.04926947 -0.031775836 -0.077695444 0.073811986 -0.10794539 0.062370565
-0.039514318 -0.062221427 0.0044379826 -0.04175739 0.044163294 0.08867157 -0.024518313 -0.025840282
-0.0006784309 0.06880763 0.06801981 0.042484194 0.036223963 0.04038735 0.119484164 0.05556783
-0.08144533 0.011427946 -0.015084288 -0.12079251 -0.07218384 0.039311264 0.029270291 -0.13183361
-0.0938902 -0.020044709 0.012192451 -0.06316424 -0.0010884597 -0.09399789 -0.063392796 0.055147883
0.080699 0.036044143 -0.09386719 -0.019753745 -0.038460784 0.058735017 0.10677293 0.05966108
-0.03990254 0.0009468369 0.014531265 -0.1140391 0.114044994 -0.04004226 -0.0013551885 0.07907786
-0.12945208 -0.08040717 -0.013750743 0.08268855 -0.072598144 0.10925705 -0.06291232 -0.001165056
-0.021750562 -0.10862772 0.013318459 0.06114589 -0.121576056 0.06421061 0.013605559 -0.06736752
-0.012866862 0.039786607 0.024484362 0.030243838 0.09896718 0.07921185 -0.10903632 -0.101279914
-0.010968013 -0.0060626664 -0.13832113 -0.005437728 -0.010622769 0.057880543 0.010279552 -0.08019425
-0.09236121 -0.10303481 0.029598279 0.055825446 0.02190712 0.06795311 -0.059190057 0.011215702
-0.09229203 0.05796955 -0.09899934 0.07337364 0.057798978 0.04973644 0.011906301 -0.008384114
-0.108263366 -0.12583639 -0.05252521 -0.028760074 -0.07780491 -0.017989112 -0.068368934 0.043387223
-0.07916048 0.07547024 -0.06898584 0.017650913 -0.015050657 0.06759452 -0.09555775 -0.059924725
0.07355742 -0.087947085 -0.033028483 0.08511101 0.030358355 -0.0920194 -0.011099057 0.026639834
0.06427294 -0.10383009 0.04473691 -0.13398245 0.008100761 -0.019990982 0.06911727 0.04993098
0.055261824 -0.11007895 -0.08886473 0.03154465 0.08410618 0.09573536 0.007876868 0.04219044
-0.053030826 0.049919005 -0.1193056 -0.061546452 -0.053132687 0.04974206 -0.12254454 0.04409218
-0.019668482 -0.09719372 0.041281186 -0.037432063 -0.011895276 0.071573265 -0.031773586 -0.04486488
-0.013593192 0.07123986 0.065967984 0.10646228 -0.00828927 -0.023550715 0.035883427 -0.0027418444

weight f4 [64, 256]
00000000: 6d36 693b 9c10 2e3d 9e98 6e3d 1700 633d
00000010: c319 66bd 7948 34bd 66ab 5d3d 552f 71bd
00000020: 88dd 423d d2c5 4bbd 58c0 58bc c03e f9bc
00000030: ca44 85bc 7db7 b93b 7032 4f3d d985 8dbd
00000040: 9b93 433d 5a0a 76bd 2c61 5ebd 1be5 4dbd
00000050: e955 463d 6b5f 003d 4579 e03c 3c53 2abd
00000060: e4f3 3a3d 9536 cc38 03a7 aebc 851d 133c
00000070: 2ecc 09bc dd6a 08bd 5950 41bd 16ec 92bc
00000080: 78a8 623d 9435 153d da54 81bd 7487 f53c
00000090: eada 02bd 6930 febc 4435 8cbc 1332 b3bc
000000a0: 9007 f3bb 8d8d 7dbb d0a1 fd3c 388b 85bc
000000b0: 5b3e 1c3d adb1 07bd 4118 6d3d 80f7 69bd
000000c0: accf 483c 4d00 e93c ea45 823d 1042 54bd
000000d0: 64ef f1bc e5ee bc3c 98f8 763a 186b 02bd
000000e0: 4ba5 a23c 4b3c 94bd b12c 533d 2ca7 643d
000000f0: 7bcd 603d 762b a8bc a9ce dd3c 183e 42bd
00000100: b4cd 613c 8935 62bd fddb 5ebd e329 7dbc
00000110: c7c0 b33c 2c5d 6b3d 9905 f7bc dafc 48bd
00000120: b0a9 8abd 8ee8 43bd 86a1 3b3d a55b 833d
00000130: 7313 83bc 9798 973c 1597 10bd 39dc 63bc
00000140: 89af b93c 0110 8ebc edea 2c3d cdd6 3f3d
00000150: 2591 05bd 677d 03bc 502a 223d 3981 523c
00000160: 8114 893c a0da 62ba bd91 f7bb 0fd4 67bd
00000170: e6d8 3e3d b727 5bbd 7630 183d 81c0 6b3d
00000180: 73e2 973c c1f6 773d b4c1 24bd a856 0abd
00000190: 7201 4bbd bc7c 45bd 2d1f 5cbd 8111 2dbd
000001a0: 6094 dbbc 5078 453d 8e87 033c 75ce 43bd
000001b0: 6ff3 cf3c e14d 44b9 6890 0ebc 7654 003d
000001c0: 7520 413d a79d 84bc cb00 5b3c cf9c 54bd
000001d0: 385b 66bc c580 a5bc 7c8d e9bc 7160 203d
000001e0: f7cd 833c d9bb ce39 14b9 85bc 02f1 3abd
000001f0: 40c0 b93b 3508 42bd d504 a0bd ad7e a1bc
00000200: 6e7d a5bb 95ba 35bc 18b8 943c 51c1 ae3c
00000210: e36a 0f3c 965f 25bd 365f cfbc 9afd 86bd
00000220: a3a9 26bc a56f 2bbd c70a 763d 31d1 9a3a
00000230: e3dd e4bc bb45 c83b 5789 c7ba adb6 a53c
00000240: 8a73 733d 6e29 b3bb 2b8f bfba 0bac bf3c
00000250: 1513 4abd 56ad c0bc e23a 6ebd c518 8a3d
00000260: b736 4ebd c16d 92bd b6a8 4dbd c616 33bd
00000270: 09df 6e3d 433c 54bd 7e1c bd3b 992d 48bd
00000280: 8d5c 5cbd 17d7 e4ba e91f 2cbd 34a0 d7bc
00000290: 2461 423d 0b2a a1bc 76cc 46bd 5dc0 9abd
000002a0: a2b8 923d 88eb 2d3c b4c2 f43c 751a c0bc
000002b0: 19d9 17bc 4399 fabc 363c d5bc c578 5cbc
000002c0: 4006 133d 2345 64bc 49de 80bd be0a ff3c
000002d0: 41ca 81bd 8715 d3bc 0e23 88bb 9acd 61bd
000002e0: 4f3b 573d 2868 daba ee3f f23c 729f 09bd
000002f0: f553 ba3c 0691 c93c 71ba a33c 5267 eabc
00000300: 2828 143d fa57 acbc 58f8 b93c 56f2 0bbd
00000310: 7dda 6d3d 2970 6d3c df55 7dbc 856f 09bd
00000320: 37df 1a3d ce59 bebb 9ca0 333c c4df 443d
00000330: 77f6 69bc 3d02 b5bb 7a46 0d3c 0446 bd3a
00000340: d270 40bd 36d5 e63c 7dbb 033d b0b0 463d
00000350: 7ddc 903b b672 4ebd 16e9 6c3d 55cb eabc
00000360: de09 3ebd 46cc 483d 1ba7 14bd b509 4b3d
00000370: 6d60 00bd fd29 1d3c 73da 40bd 1c01 a83c
00000380: 9784 d5bb 8e84 7fbd b20b b63c 1a76 e6bc
00000390: 5faf 543d 70aa 5a3c dac2 53bd 9642 a1bc
000003a0: ab87 7abd 6967 bcbc f2a4 98bc 0c99 823b
000003b0: cb4f 3d3d ffb3 04bd 3f64 3c3d e4ac b0bc
000003c0: bd89 aa3b faea d03c fc9e 2d3c a187 e0bc
000003d0: db67 cf3c 675c 4dbd 3452 b23a 0994 ba3a
000003e0: a5c1 1e3c f7a3 5f3c 91d9 493d 103d 953c
000003f0: c5f8 203d 4c91 81bd 6f94 803d c569 02bd
0.0035585419 0.04249631 0.058251016 0.055420008 -0.056176912 -0.044014428 0.054118536 -0.05888303
0.04757455 -0.049749203 -0.013229452 -0.03042543 -0.016268153 0.0056676255 0.05058521 -0.06910295
0.04774819 -0.060068466 -0.05429189 -0.05026732 0.048421774 0.031340998 0.027401576 -0.041583285
0.04564275 9.737645e-05 -0.021319872 0.008979206 -0.008410497 -0.033305038 -0.047195766 -0.01793484
0.055336446 0.03642805 -0.06315012 0.029971816 -0.031947054 -0.031028943 -0.017115243 -0.021874463
-0.007416673 -0.0038689107 0.030960947 -0.016301736 0.038145404 -0.03312843 0.05788446 -0.0571208
0.012256544 0.028442526 0.06360991 -0.051820815 -0.029533096 0.023063133 0.00094211986 -0.031840414
0.019854208 -0.072380625 0.051556293 0.05582349 0.05488346 -0.020528536 0.027076082 -0.0474225
0.013781954 -0.055226836 -0.054409016 -0.015451881 0.02194251 0.057461902 -0.030154036 -0.049069263
-0.067706466 -0.047829203 0.045808338 0.06413964 -0.016000485 0.018505378 -0.035300333 -0.013907486
0.02266671 -0.017341616 0.04221623 0.04683571 -0.032609124 -0.008025504 0.039591134 0.012848192
0.01673341 -0.00086537935 -0.007555215 -0.05659872 0.04659357 -0.053504672 0.03715559 0.057556633
0.018540597 0.060538057 -0.040223792 -0.033774048 -0.049561925 -0.04821466 -0.05374067 -0.04225302
-0.02680415 0.048210442 0.008027924 -0.047804315 0.025384633 -0.00018721029 -0.008701421 0.03133055
0.047150094 -0.016188456 0.013366888 -0.051907357 -0.014059834 -0.020203004 -0.028509848 0.039154474
0.016089423 0.0003943134 -0.016323604 -0.04564 0.00566867 -0.047371108 -0.07813422 -0.019713724
-0.005050353 -0.011091848 0.018154189 0.021332415 0.008753511 -0.04037436 -0.025313955 -0.065913394
-0.0101722805 -0.04185452 0.06006887 0.0011811611 -0.027937835 0.006111828 -0.0015223426 0.020228708
0.05943636 -0.0054675853 -0.0014614811 0.023397466 -0.049334604 -0.023520153 -0.058161624 0.06743006
-0.05034515 -0.0714984 -0.050209723 -0.04372289 0.05831817 -0.051815283 0.005771219 -0.04887161
-0.0537992 -0.0017459121 -0.04202262 -0.026321508 0.04745592 -0.019673368 -0.048534833 -0.07556222
0.07164122 0.010615237 0.029877998 -0.023450116 -0.009268069 -0.030590659 -0.026029687 -0.013456528
0.035894632 -0.013932499 -0.062923975 0.031133052 -0.06337405 -0.025767101 -0.0041545695 -0.055127718
0.052546795 -0.0016663121 0.0295715 -0.033599325 0.022745112 0.024605285 0.019986363 -0.02861372
0.03617111 -0.021038044 0.022701427 -0.034166656 0.058069695 0.014492073 -0.015462368 -0.03355362
0.03781053 -0.0058090454 0.010963585 0.048064962 -0.014279953 -0.0055239485 0.00862276 0.0014440422
-0.046982594 0.028177839 0.032161225 0.048508346 0.0044208155 -0.050402366 0.057839476 -0.02866141
-0.04639613 0.049022935 -0.036292177 0.049569804 -0.03134196 0.00959253 -0.04708333 0.020508341
-0.00651605 -0.062382273 0.022222374 -0.028132487 0.05192506 0.0133462995 -0.051699497 -0.019685071
-0.06116454 -0.022998529 -0.01863334 0.0039855298 0.046218675 -0.03239822 0.04599404 -0.021566816
0.005204408 0.02550267 0.010596987 -0.027408423 0.025318077 -0.05013695 0.0013604821 0.0014234792
0.009689723 0.013649932 0.049279753 0.018217593 0.039299745 -0.06326541 0.062783115 -0.03183915

bias f4 [64]
00000000: 318d 46bd 15ce 77bd 2581 2dbd 2f53 be3c
00000010: b63e 1dbc 1a17 2c3d a1c4 ac3c 438a e43c
00000020: 30b4 e1bc 34a0 27bd 4b41 19bd 5224 3abd
00000030: 4fa6 b63c 3db9 72bd c9c9 903c 2238 853c
00000040: 3285 0a3d bad5 08bd 33ee efbb dd79 85bd
00000050: cb4d 96bc 5f86 973b df82 873d 52a5 8cba
00000060: f329 693d 7974 0d3c ab78 2d3d 0493 83bd
00000070: 35e7 2fbd cff8 0dbc 5f90 d53c 4a76 4bbc
00000080: 5e5e 643d 2dc1 a33c b27c 413c 3f98 fabc
00000090: 796d 9b3c 3603 fa3c 4498 823d ba04 073d
000000a0: bb40 603c c56f 6d3d b153 43bd 6c72 34bd
000000b0: 2f6d 383d 0f20 0e3d 6dde c13c 129b 453d
000000c0: 2a05 703d 6871 3f3c 5d55 9dbc 21e0 18bd
000000d0: ea5c 3c3d 5b37 013c 95c7 d33c f611 7b3d
000000e0: 4ff5 0d3d 5f11 4bbd a664 063d dd5b 71bd
000000f0: f3ed 85bd 7fe6 a0bc e7f7 073d 8daf 95bb
-0.048474494 -0.06049927 -0.04235949 0.023233024 -0.009597471 0.04201422 0.021089854 0.02789796
-0.02755174 -0.040924266 -0.037415784 -0.045444794 0.022296099 -0.05925869 0.017674344 0.016262118
0.03381843 -0.03340695 -0.0073220967 -0.06517384 -0.018347641 0.0046241726 0.066167586 -0.0010730422
0.05692477 0.008633726 0.042351406 -0.064245254 -0.042945106 -0.008665278 0.026069818 -0.012418339
0.055754058 0.019989574 0.011809515 -0.030590175 0.018973099 0.03051911 0.063766986 0.032963492
0.013687308 0.05796792 -0.047687236 -0.044054434 0.045026 0.034698542 0.023665631 0.04824359
0.058598675 0.011684753 -0.019205743 -0.03732312 0.045987047 0.007886733 0.025852004 0.061296426
0.034657773 -0.049577113 0.03281083 -0.0589255 -0.06539526 -0.01964116 0.033195402 -0.0045680464
