ak_workspace/result_data/baseline_results/DG_Glut/mch_genebody/imbal_model_1.pt (torch, 828614 bytes, 53 tensors)

cls_embedding f4 [1, 1, 64]
000000 31 45 e1 3f 73 91 4a 3f 97 2f 03 3f d2 e4 36 3f
       1.759924 0.7912819 0.5124449 0.714429
000010 e4 a5 d8 be b8 d3 45 3e 7f d2 53 bf 6c 76 c1 3f
       -0.42314065 0.19319046 -0.82743067 1.5114264
000020 82 a5 fa 3e 19 24 2c 3f 5c 38 04 3f 69 0f 00 3f
       0.48954397 0.6724258 0.516485 0.50023514
000030 79 60 80 bf 1a e9 56 3f a4 8c 64 bf 74 4b 98 be
       -1.0029441 0.83949435 -0.892771 -0.29745066
000040 fe 54 0c bf 07 f1 e3 be 3c 13 3a 3f f6 09 a8 bf
       -0.5481719 -0.44519827 0.726856 -1.312804
000050 1d 44 23 3f 0e db b4 3e b8 c6 82 bf 63 64 91 be
       0.6377581 0.35323375 -1.0216894 -0.283969
000060 19 a3 08 3e 92 38 89 bf e6 ce 19 3f 36 d3 9b bf
       0.13343467 -1.0720389 0.60081327 -1.2173831
000070 de 8c 33 be 17 18 95 bf e2 dc b3 bd 47 7c 50 3f
       -0.17534205 -1.1647977 -0.087823644 0.8143963
000080 69 54 31 3f c5 c7 61 bd 08 4a e6 3f 51 e0 00 bd
       0.69269425 -0.055122156 1.7991343 -0.031463925
000090 b2 29 20 3e 3a 9e c0 3e 8a e4 48 3f cc 36 f8 be
       0.15640905 0.37620717 0.7847372 -0.48479307
0000a0 ba 40 5d 3f ff 1b be 3f b9 3e 16 40 6c a5 0a bf
       0.8642689 1.4852294 2.3475783 -0.54158664
0000b0 97 13 ba be 92 4f 60 bf c0 07 f7 3f ce ed 53 be
       -0.3634307 -0.87621415 1.929924 -0.20696184
0000c0 39 0d ba be 25 b6 1d be 26 40 55 3e 63 5d ae be
       -0.36338213 -0.15401514 0.20825252 -0.34055623
0000d0 7e 17 01 40 bd 5d 7f be d5 88 19 be 90 8e b0 3f
       2.0170588 -0.24938102 -0.14993604 1.3793507
0000e0 9c 0f 94 3e 63 ba ea 3f b8 c9 7a bf d0 ca 9b bd
       0.2891816 1.8338131 -0.9796405 -0.07607043
0000f0 e0 2f 7c 3e 7f f5 be 3f 6b 67 86 3e 2b ac f0 3f
       0.24627638 1.491867 0.26250777 1.8802541

weight f4 [64, 12]
000000 27 f7 5b be 8a a8 8d be ed ae 1a 3e 6e a3 33 3e
       -0.21481 -0.27667648 0.15105791 0.17542812
000010 ed 18 7e 3e 78 9b c5 bb 43 f7 e6 bd 54 63 ba 3c
       0.24814196 -0.006030496 -0.1127763 0.022752441
000020 fe fe 88 3e eb 7a 71 3e 25 5a f7 3c f5 1e 62 be
       0.26757044 0.23582046 0.030194351 -0.22082122
000030 5a 66 8d 3e af 13 88 be c2 e2 ea 3d 4e 8c 5b be
       0.2761715 -0.26577517 0.11469032 -0.2144024
000040 31 db 15 be be 4f 41 be f6 27 62 3e 35 0f e6 3d
       -0.14634396 -0.18878075 0.22085556 0.11233369
000050 14 2e 8c be f0 12 46 be 04 00 88 be 07 79 45 3e
       -0.27378905 -0.19343162 -0.26562512 0.1928445
000060 7b 58 07 3d 89 7f 5a be c9 ca fe b9 b2 be 82 3e
       0.033043366 -0.21337713 -0.00048597742 0.25536114
000070 49 64 81 3e 45 1c ca bd 1b 42 49 be 94 cc 58 3d
       0.25271824 -0.09868673 -0.19654123 0.052929476
000080 0d c3 c9 bc 2d 6a de 3d cc 42 3b be 8a 18 93 bd
       -0.02462914 0.10860095 -0.182872 -0.07182415
000090 17 bb 62 3e 79 a6 89 be b5 85 03 3e fa af 52 3e
       0.22141682 -0.2688482 0.12843974 0.20574942
0000a0 06 6b e7 3c fa 49 65 3e e8 05 10 3e 77 e9 ed bd
       0.028249275 0.22391501 0.14064753 -0.116167955
0000b0 84 77 6b be f1 35 08 3e cd 11 76 be 4c 09 90 bd
       -0.2299481 0.13301827 -0.24030228 -0.07033023
0000c0 cd 6f 3c 3e 65 99 97 3e 69 f0 4c 3e 63 0a 24 be
       0.18402024 0.29609218 0.20013584 -0.16019587
0000d0 dd 67 65 3e f4 ef e5 3d 6c 4d 95 bd 25 02 3b 3e
       0.22402902 0.11227408 -0.07290158 0.18262537
0000e0 bd 22 86 3e b3 11 d3 bd 62 dc 3b be a3 37 92 3d
       0.26198378 -0.1030611 -0.18345788 0.07139518
0000f0 45 b4 d5 bd 69 6e 53 be 83 1e 22 be 21 e8 c3 bc
       -0.10434774 -0.20647587 -0.15831952 -0.023914399
000100 be 9b 7a 3e 7b 72 cd 3d 72 4f 24 ba 19 41 1b be
       0.24473473 0.10031601 -0.0006267942 -0.15161552
000110 f5 99 6b be 26 78 7e be 2a 8f 6c be 98 e8 0b be
       -0.23007949 -0.2485052 -0.23101488 -0.13662946
000120 14 47 f9 3d db 78 00 3e e4 bd 0c 3e cd a9 8a 3e
       0.1217176 0.12546103 0.13744313 0.27082673
000130 aa 4a 48 3e 83 12 5b 3e be 6d 1e bb fa 4f 86 be
       0.19559732 0.2139378 -0.0024174298 -0.26232892
000140 78 80 1c be 4b 24 52 3e 72 ac 95 be 79 2e 6a be
       -0.15283382 0.20521657 -0.29233128 -0.2286929
000150 31 90 e8 bc 83 1a 5c 3d 7c aa c6 3d 65 07 61 3e
       -0.028389068 0.05373622 0.09700486 0.21975477
000160 43 d0 9a bd 79 7e 32 be 97 d6 1d be d6 aa 90 3e
       -0.07559254 -0.17431058 -0.15413891 0.28255337
000170 bc 8c e2 bd a9 aa ae 3d 91 ee 7c bc 3a 2a 15 3e
       -0.11061999 0.085286446 -0.015437738 0.1456689
000180 29 68 44 3c fc 8b 3f 3e 87 1a 81 be bf bf 1d be
       0.011987724 0.18705744 -0.2521555 -0.15405177
000190 5f 89 87 3e 21 9a 64 bd c2 1c 77 3e a1 35 9f bd
       0.26471993 -0.05581105 0.24132064 -0.07773901
0001a0 52 94 7b 3e c4 ce 44 3e 9f 1f 18 be bc 0d 03 be
       0.24568298 0.192195 -0.14855812 -0.12798208
0001b0 3a 0f 2d 3d 2e d7 86 3e b9 c1 9b 3c 7d 5c ad bd
       0.04225085 0.26336044 0.019013273 -0.08464906
0001c0 34 57 26 3e 4f 12 52 3e 1d 19 f7 3d 52 f2 fd bd
       0.16244203 0.20514797 0.12065337 -0.123997346
0001d0 59 21 85 3e 4a cd 18 be ad 8b 2c 3e 5b d3 87 3e
       0.26002005 -0.14922062 0.16850157 0.2652844
0001e0 82 a6 ed 3d 90 3c 3c 3c 7d a4 1b be 45 d4 1e 3e
       0.116040245 0.011489049 -0.15199466 0.15510662
0001f0 be dd 14 3d 9f 9b 97 3d bb aa f2 3d b2 21 3e be
       0.036344282 0.07402729 0.118489705 -0.18567541
000200 79 84 8e 3e 66 a3 07 3d 68 94 30 be 91 15 09 3e
       0.27835444 0.033114813 -0.17244112 0.13387133
000210 05 67 0a 3e f3 a0 3e 3d 5c 14 8e 3e 2a 0f 90 3e
       0.13515861 0.046540212 0.27749908 0.2813657
000220 86 d6 2e 3d b9 8d 61 be 07 a5 90 be 79 44 83 be
       0.042685054 -0.22026719 -0.28250906 -0.25638178
000230 da de ad bd 95 47 99 3d e5 d9 70 bb 51 65 21 ba
       -0.08489771 0.07484356 -0.003675097 -0.000615676
000240 df 93 0e 3e c9 55 5d 3e 28 8d 19 3e f6 c8 86 be
       0.13923596 0.21614756 0.14995253 -0.26325196
000250 c4 c7 43 be ad 32 4d bc 24 a8 12 3c fa 40 59 3e
       -0.19119173 -0.012524289 0.008951221 0.21216193
000260 3d f7 f2 bb 95 37 ab 3c 67 c7 05 be 21 f6 72 be
       -0.007414727 0.020900527 -0.13064347 -0.23726703
000270 bb 95 3b 3e 90 6f 53 3e 97 d8 0e 3e e5 16 83 be
       0.18318836 0.20648026 0.1394981 -0.25603405
000280 7b cb ce 3d 34 33 17 3e 4c e2 70 be 9f 99 66 be
       0.100974046 0.14765626 -0.23523825 -0.2251954
000290 74 fc 1d be 39 5e e9 bd 1e f6 93 3e 89 7f 92 3e
       -0.15428334 -0.11394925 0.2889871 0.28612927
0002a0 3e f3 2b bd 5f 51 36 bd 04 c8 49 3e 16 d4 4e 3d
       -0.04198002 -0.044511195 0.19705206 0.05049523
0002b0 85 f5 56 3e 2d 0b 3f be 0e eb 88 3e 7f ee 74 3c
       0.20992096 -0.18656607 0.26741832 0.01494944
0002c0 68 43 4c 3e 6a 18 0c bd c9 81 0d 3e e2 54 c7 bd
       0.19947588 -0.03420297 0.1381904 -0.09732987
0002d0 a5 63 f6 3d f5 58 8a be 2a f6 14 be 20 07 0b bc
       0.120307244 -0.27020994 -0.14547029 -0.008485585
0002e0 6e 44 88 3e 1d 88 bc 3d 6a 5d dd bd c4 a7 52 bd
       0.26614708 0.09205649 -0.10808833 -0.051429525
0002f0 da 89 6b be 6c 0a 31 be 25 f6 15 be 00 26 4d 3d
       -0.23001805 -0.17289132 -0.14644678 0.050085068
000300 7b fa 10 be 6d b4 4e be d0 13 00 3d 82 3d c4 3d
       -0.1415805 -0.20186014 0.031268895 0.09582044
000310 9e ae b4 bd c6 de 84 3d 5f af 87 bd 6c 8f 0e 3e
       -0.08822368 0.06487803 -0.06625246 0.13921899
000320 d9 2c bb 3d 7c 59 55 3e 14 c1 82 bd c5 8e 7b bc
       0.091394134 0.20834917 -0.06384483 -0.015353863
000330 14 0b 33 3e c7 4f 8f be a1 f0 3a 3e a6 30 05 3d
       0.17484695 -0.27990553 0.18255855 0.032517098
000340 b6 44 e1 bc 1c 1c ed bc be cb 90 3e 56 c9 c4 bc
       -0.027498584 -0.028944068 0.28280443 -0.024021786
000350 7b c2 d0 3d cb b1 71 be ba fe 6a bd 6f 9a 9f bd
       0.10193344 -0.23602979 -0.057371832 -0.07793128
000360 57 de 86 bd da 12 32 3d f6 e1 d4 bd 8e 2d 54 3e
       -0.06585377 0.04347501 -0.10394661 0.20720503
000370 7a 9d 6f 3e fb 93 37 3d 4a 5d 9b be 60 99 e1 bd
       0.23399916 0.04481886 -0.3034461 -0.11015582
000380 fa a9 0c 3e 27 2a 2f 3e fe 4c 51 3d ca 58 33 3e
       0.13736716 0.17105924 0.051098816 0.17514339
000390 db 60 75 3e 58 d3 06 bc 21 79 2d be 67 13 41 3e
       0.23962729 -0.008229099 -0.16940738 0.18855058
0003a0 d4 62 f3 bd 32 ac 44 3e 73 0c ea 3d d6 46 89 3e
       -0.11884084 0.19206312 0.11428156 0.26811856
0003b0 84 04 87 be 26 24 2d 3e 21 f0 e0 bc f9 c7 81 3d
       -0.26370633 0.16908321 -0.027458252 0.0633697
0003c0 48 01 00 3e 7f 40 55 be d8 47 01 bd 9b d0 8b be
       0.12500489 -0.20825385 -0.031562656 -0.2730759
0003d0 8a 0e 17 3e 9f ef 9a 3d 01 a7 bf 3d 21 de 2f 3e
       0.1475164 0.07565235 0.09358025 0.17174579
0003e0 b9 e9 b8 3d b9 70 59 be 1d 83 6c be d9 fa 11 3e
       0.09028954 -0.21234407 -0.23096891 0.14255847
0003f0 58 80 67 be f9 5e 6c be 27 a2 62 3e 75 33 2c 3e
       -0.22607553 -0.23083104 0.22132169 0.16816504

bias f4 [64]
000000 2d fa 15 3e ca b5 8d 3e 9b 56 5e 3c 88 dc f1 bd
       0.14646216 0.27677757 0.013570453 -0.11809641
000010 41 2c 50 be b3 04 04 3d 88 95 80 3e e2 5f 70 be
       -0.20329382 0.032231044 0.25114083 -0.23474076
000020 1a 11 0a 3e 50 36 72 3e 27 70 40 3e 42 2f a7 bd
       0.13483086 0.23653531 0.18792783 -0.081633106
000030 fd 99 c4 bd 78 1d 38 be 3a 4b 2e be 4f bc 5b 3e
       -0.095996834 -0.17979991 -0.17020884 0.21458553
000040 57 4c 87 3d 3a ae 47 bd 5b ec 1d 3b 79 0b 27 bc
       0.066063575 -0.04875014 0.0024097178 -0.010195606
000050 a5 aa ff bd 7c a2 83 3d 10 84 19 be ea 60 a9 bd
       -0.1248372 0.06427476 -0.14991784 -0.08270438
000060 ed 80 fd 3d 46 d6 1f 3e d7 ec 83 bd 02 ee 2a 3e
       0.12378106 0.15609083 -0.06441658 0.16692355
000070 ad a7 8e be ac 30 17 3e 43 20 c8 bd d1 2c 7b 3e
       -0.278623 0.1476466 -0.097717784 0.24528815
000080 72 fc 3c 3e a9 a1 68 be c1 e3 21 3e 4c 46 c9 3d
       0.18455675 -0.22717918 0.15809537 0.09827861
000090 20 ba 7d 3e 56 ca 61 3d ad b8 bf 3d 0d 84 83 3e
       0.24778032 0.055124603 0.09361396 0.25686684
0000a0 a3 c7 cd 3d 80 f2 0e be b8 05 85 3e b2 51 80 3e
       0.10047843 -0.13959694 0.25980926 0.2506233
0000b0 86 72 26 be 85 f7 a1 bd f6 a6 d0 3d f5 d0 82 bd
       -0.16254625 -0.07908539 0.10188095 -0.06387512
0000c0 01 61 a5 3c 1a 8b 15 be c9 25 48 3e fc a7 65 3b
       0.020187857 -0.14603844 0.19545664 0.0035042753
0000d0 54 a8 16 3d 46 7d e5 bd f5 20 30 be fb 37 bf 3d
       0.036781624 -0.11205535 -0.17200072 0.09336849
0000e0 27 bb 46 bd b8 0d 41 3e d8 f3 40 bd be de 6b be
       -0.048518326 0.1885289 -0.047107548 -0.23034188
0000f0 36 67 20 3e 90 af dd bd ab 69 be 3d 40 ac c3 bd
       0.15664372 -0.108245015 0.09297498 -0.095543385

in_proj_weight f4 [192, 64]
000000 80 d6 fb bd 32 e6 f5 3c 01 32 13 3e 40 64 15 3e
       -0.12296772 0.030016992 0.14374544 0.14589024
000010 bf 44 c2 bd 2c 40 0d 3e 9f 09 27 3c cf 33 0b 3e
       -0.094857685 0.13794011 0.010195165 0.13593982
000020 e9 22 26 be b9 02 e4 3d cb 77 ad 3d 46 14 8f 3d
       -0.16224255 0.11133332 0.08470114 0.06986289
000030 aa 12 d5 bd 9c a4 e3 bd a7 64 18 3e 10 8a 21 3e
       -0.104039505 -0.11115381 0.14882146 0.15775323
000040 b2 02 fb 3c e2 b1 e9 3d 1c 27 c9 bd 47 8e ec 3d
       0.030640934 0.114108816 -0.09821913 0.11550575
000050 c0 ae 05 bd d0 96 f8 3d b3 e5 09 be 37 ae ed bd
       -0.032637358 0.1213814 -0.1346653 -0.116054945
000060 fc db 61 3d 7f 25 20 3d 0f 2c 05 be 30 6e e5 bd
       0.055141434 0.03909826 -0.13005088 -0.11202657
000070 d9 58 0b 3e 6d 8e ab 3c 9e 9f 7a 3d d1 f6 fc bd
       0.13608111 0.020941937 0.06118738 -0.12351764
000080 17 23 8b bd 8a 9e d0 bd 00 18 a7 bb 3d 73 7d bd
       -0.06793802 -0.10186489 -0.0050992966 -0.061877478
000090 32 55 a6 bd 61 ad 48 3c ab 8b 46 3d 89 0f 9a bd
       -0.081217185 0.012248368 0.04847304 -0.07522494
0000a0 b8 61 12 be 4c d9 f5 3d f2 31 ff bd a2 bb f2 3d
       -0.14295089 0.12004337 -0.12460698 0.11852194
0000b0 e4 00 24 3e ce ba 9c bd 66 d2 d3 3d 74 99 b7 3d
       0.16015965 -0.07652818 0.10342865 0.08964816
0000c0 fa 37 b4 b9 65 7b db 3d bf 75 4f bd 55 4f 30 3d
       -0.0003437398 0.10716895 -0.0506494 0.043044407
0000d0 b9 cd c4 3c 30 9b 9d bd 64 d2 47 3d 25 59 2c be
       0.024023877 -0.07695615 0.04878463 -0.16830881
0000e0 1b 8d 09 3e f0 cb ae bd 92 80 e2 bd 0c 4d 1d bb
       0.13432734 -0.08534992 -0.11059679 -0.0024002222
0000f0 26 62 cc bd 62 25 b3 3d 92 17 4a bd 61 8d bc bd
       -0.09979658 0.087473646 -0.049338885 -0.092066534
000100 05 88 33 bc 9d 90 3f bd b7 5f d1 3d 87 84 08 be
       -0.010957723 -0.046768773 0.10223334 -0.13331805
000110 cf 95 26 3e ad 3f 2a bd 7f be f0 3d f6 b0 01 bd
       0.16268085 -0.041564632 0.11755084 -0.031662904
000120 44 8e 8f bd 63 64 02 be 4f 0f 20 3d 27 17 dc bd
       -0.07009557 -0.12733607 0.0390771 -0.107466035
000130 c1 50 8e bd e1 65 06 3d 2f 08 a4 3b 05 bf a0 bc
       -0.06948996 0.032812003 0.0050058584 -0.019622335
000140 2e b9 b2 bd 56 90 e5 bd b9 04 0f be 69 00 84 3d
       -0.087267265 -0.112091705 -0.13966645 0.06445391
000150 4d fd f6 bd f6 bc 7d bb 43 6d d9 3d 42 31 d7 bb
       -0.12060032 -0.0038717366 0.10616543 -0.0065671513
000160 f3 ca 8c 3c fd 91 dd 3d 46 b7 c9 3d e1 2e c3 bc
       0.017186617 0.10818861 0.0984941 -0.023826065
000170 2c 33 05 be 78 99 0c 3e aa ab 04 bd a9 9b 47 3d
       -0.13007802 0.13730419 -0.032390274 0.048732433
000180 f9 a9 79 bd 53 38 d0 3d 22 43 8f bd 70 40 80 3d
       -0.060953114 0.10166993 -0.069952264 0.062622905
000190 b6 49 24 3c 89 46 b6 3c 2b 09 e8 3c 93 9a 01 3d
       0.01002734 0.02225043 0.028324684 0.031641554
0001a0 55 a4 8f bd 32 bd de bd 2e 94 3a 3d ce cb be 3d
       -0.07013766 -0.1087593 0.04555147 0.093162164
0001b0 8c c5 84 3b 1e 6f 86 3d 7b c7 90 bc 4e fd ab bd
       0.0040518697 0.06564163 -0.017673245 -0.083979234
0001c0 0e 4a 60 bd 6e 03 94 ba 17 d6 dd 3d 03 e2 f5 bd
       -0.054758124 -0.0011292526 0.1083185 -0.12005999
0001d0 df ef c4 3b 50 9b e1 bd d3 65 dc bc dc 8a 1d 3d
       0.00601004 -0.11015952 -0.026904022 0.038462505
0001e0 a7 e5 21 3d d6 a1 d8 bd fa 07 9e 3d 47 19 f8 bd
       0.039525654 -0.10577743 0.07716365 -0.12114196
0001f0 a2 d5 6a bd 80 73 a3 bd 1b f4 5c bd a3 8b 1d 3d
       -0.057332642 -0.07981014 -0.053943735 0.038463246
000200 c5 d1 ae bd 63 68 04 3e 5c 83 57 3d 06 5d b2 3d
       -0.08536104 0.12930445 0.05261551 0.08709149
000210 7b 4f 20 bd e0 48 40 bd 0e 76 b3 bd 2b 78 db bd
       -0.0391383 -0.0469445 -0.087627515 -0.107162796
000220 14 72 fa 3d 5d e0 9a bb 38 0d 51 3c 22 da d3 bb
       0.1222879 -0.004726453 0.012759499 -0.0064652124
000230 86 5a d8 bd a0 b7 0c bd 52 e8 f2 3d 9e e0 1b 3d
       -0.10564141 -0.034354806 0.11860718 0.03805601
000240 39 c7 b6 3d f9 54 f5 3d b6 cf ea bd d3 90 24 3d
       0.089247175 0.11979098 -0.11465399 0.040177178
000250 09 7e b0 bb 63 28 35 3c b5 37 21 be 90 11 1f 3e
       -0.0053861183 0.011056992 -0.15743907 0.15534043
000260 a8 bf d6 bd 30 27 ea 3d 0a 94 bd bc 5b ec a1 bd
       -0.10485774 0.11433256 -0.02314188 -0.07906409
000270 f8 b0 25 be 52 18 07 3e 02 2e bf bd 0c 79 c6 bc
       -0.1618079 0.13192871 -0.09334947 -0.024227642
000280 41 d0 83 3d bc 9a 17 be 9e df 1b 3e e1 19 04 3e
       0.06436206 -0.1480512 0.15222022 0.12900497
000290 e0 05 9a 3c a9 8d 31 bd 22 88 f1 3c 64 66 d6 bd
       0.01880163 -0.04334799 0.029483858 -0.10468748
0002a0 36 3c b0 3d 86 1f 4d 3c 08 f0 15 3e a8 35 36 3d
       0.08605234 0.012519723 0.14642346 0.044484764
0002b0 84 f0 ca bc 31 bd be bd 05 54 13 3e c5 43 ed 3d
       -0.02477289 -0.09313429 0.1438752 0.11585192
0002c0 44 77 1b be b5 50 d4 bd 9a 06 fd bd e2 83 f1 bd
       -0.15182215 -0.10366956 -0.12354775 -0.11792733
0002d0 f4 c6 58 3d 1f 2e 0d 3e 90 e3 03 3e a6 1d da bc
       0.05292411 0.13787125 0.12879777 -0.026625466
0002e0 57 6d 93 3d 59 63 b9 3c 51 7f a9 bd 08 2c 91 ba
       0.07198589 0.02263038 -0.08276237 -0.0011075744
0002f0 29 cb 99 3d d5 2a e4 3d 60 33 c4 3d d4 bf 1d 3d
       0.07509453 0.11140982 0.095801115 0.03851302
000300 e0 4b 3b 3c 4e dc ce bb 29 88 eb 3d 73 6a e3 bd
       0.011431664 -0.0063128835 0.1150058 -0.11104288
000310 41 07 a0 3d f6 77 d1 bd 79 81 70 bd 87 c2 f1 bd
       0.078138836 -0.10227959 -0.058717225 -0.11804681
000320 33 f9 f8 bd a6 57 03 be 3c 6d 24 3e a4 18 07 3d
       -0.12156906 -0.12826404 0.16057295 0.032982484
000330 04 a9 6d bd 8d 7a 70 3c 87 0f 00 3e 6e ca 06 3e
       -0.058022514 0.014677656 0.12505923 0.13163158
000340 04 8d 75 3c 84 28 1e 3e 4a 37 cd 3d cc fa 0c 3e
       0.014987234 0.15445143 0.10020311 0.13767546
000350 6f 48 10 3e da a8 5d 3c 1f 7e 7f 3d d6 58 8b 3d
       0.14090131 0.013529027 0.062376138 0.068040535
000360 f6 67 b7 3d e9 b6 ea 3d 1a 2d 01 3e 66 b4 15 3e
       0.08955376 0.114606686 0.12614861 0.14619598
000370 84 c8 45 bd 7c 0c bd bb c5 4b 32 be 40 08 e1 3d
       -0.04828693 -0.0057693105 -0.17411716 0.10987902
000380 f0 d3 e3 3d 1c 58 08 be 77 7e 80 3d 3d d8 ac bd
       0.11124408 -0.13314861 0.06274121 -0.08439682
000390 e6 bb 11 3d 67 31 b2 bd 68 ce 14 39 bd 17 e7 3d
       0.035579585 -0.08700829 0.00014191272 0.112838246
0003a0 31 32 32 3d 7a 0a 03 3e 7b be 09 be 19 c3 76 bd
       0.043504898 0.12796965 -0.13451569 -0.060244653
0003b0 08 1c dc bd 08 34 c7 3d 24 b9 c3 bd 96 1b cc 3d
       -0.10747534 0.09726721 -0.09556797 0.09966199
0003c0 5b e5 10 3e 35 44 a2 bd b8 46 e4 bd af d4 d3 3d
       0.14149992 -0.07923166 -0.11146301 0.103433006
0003d0 18 f7 09 be 7b 7b a0 bd 75 3c e4 3c 42 f3 03 3e
       -0.13473165 -0.07836052 0.02786086 0.12885764
0003e0 1a 32 6a 3d 55 6d 04 3e e9 50 0e be 4d 0c 67 3d
       0.057176687 0.12932332 -0.13898052 0.056408215
0003f0 e0 07 16 be c0 ec 0e bd dc 05 82 bc 5c c3 73 bd
       -0.14651442 -0.03489375 -0.015871935 -0.05951248

in_proj_bias f4 [192]
000000 ac 34 9e bc ce 98 06 3c fd c1 ca 3b df 54 3e 3c
       -0.019312225 0.008215142 0.006187676 0.0116169145
000010 53 98 62 b9 5c eb 26 bb b8 0b db bb 50 60 0b 3b
       -0.00021609785 -0.0025469875 -0.0066847466 0.0021267124
000020 67 d6 8b bc 48 90 78 bc e2 7d c7 3c 1a 04 14 3c
       -0.017070008 -0.015171118 0.024352018 0.009034181
000030 86 84 b4 3b b8 3f 51 3c 4e c5 77 bb 6b da d6 bb
       0.005508962 0.012771539 -0.0037806812 -0.006556799
000040 cd 10 33 3c 29 e9 00 3c 48 0c 3f bc 4b f2 06 bc
       0.010929299 0.00786809 -0.011660643 -0.008236478
000050 6c 6d bc 3c 66 83 2a bc df 79 a3 bb 47 00 64 bb
       0.023001395 -0.010407304 -0.0049888934 -0.0034790204
000060 62 1f 1a bc a9 a5 14 bc 17 40 37 ba e3 b3 3e 3c
       -0.009406896 -0.0090727 -0.0006990446 0.011639568
000070 e9 72 29 3b e8 9d 86 bb ed ed 1e 3a 3a dd 2f bb
       0.0025855845 -0.0041081794 0.00060626754 -0.0026834742
000080 79 b3 29 3b 61 5f 89 3b 1f 41 86 bb c6 09 05 3c
       0.0025894328 0.0041922783 -0.0040971185 0.008120006
000090 f5 a6 99 bb f8 a7 0c bd 75 09 3b bb a7 35 cc 3b
       -0.0046890923 -0.034339875 -0.0028539572 0.006231982
0000a0 e8 73 f0 3b 1b b3 4f 3c 9d dd 03 bc 7a 36 d3 3a
       0.007338036 0.012676979 -0.008048442 0.0016114258
0000b0 b7 d7 b6 bb 32 82 c3 bb 57 71 8b bc ba 7b dd bc
       -0.0055799144 -0.005966448 -0.017021818 -0.027036536
0000c0 04 3a b9 bc f3 11 f4 3c 86 ea 05 3d 36 8f 08 bd
       -0.022610672 0.029793715 0.032694362 -0.0333397
0000d0 26 09 01 3d 62 86 0f 3d d5 c0 73 bc 86 19 08 3d
       0.031502865 0.035040267 -0.014877518 0.033227466
0000e0 e2 2e 32 bc a1 89 06 bc bd d9 03 3c b7 e5 2d 3c
       -0.010875436 -0.008211524 0.008047518 0.01061385
0000f0 4f f5 c7 3b 9f c1 36 bc 02 18 12 bb 76 1c 4d bc
       0.006102241 -0.011154561 -0.0022292142 -0.012518993
000100 ba 87 dd b8 5f 75 af 39 1e 01 8f b9 bb 56 14 39
       -0.00010563382 0.0003346605 -0.00027275918 0.0001414669
000110 54 38 49 39 5c 74 fe 37 9f 5c 9a b8 6c 29 90 b8
       0.00019189838 3.0333344e-05 -7.360544e-05 -6.8741705e-05
000120 e5 c4 8a 39 f8 9c 39 ba 3d 52 42 3a 8e c9 76 b9
       0.0002646811 -0.000708058 0.0007412767 -0.00023535473
000130 f1 ef 18 b9 7b f3 c8 b8 04 79 d1 b9 75 71 ca 39
       -0.00014585235 -9.582095e-05 -0.0003995375 0.00038612974
000140 19 39 90 38 a8 8a d8 b5 bd bc 61 b9 23 11 8a b9
       6.87709e-05 -1.6133608e-06 -0.00021527983 -0.0002633418
000150 fe c4 29 b7 a1 b7 c3 b9 6d 3a b0 b8 3c 94 0a b8
       -1.0119051e-05 -0.00037330113 -8.4032166e-05 -3.3039818e-05
000160 91 30 81 b9 b2 06 f4 38 91 19 90 b7 8d 7c 37 39
       -0.00024640982 0.00011636074 -1.7178043e-05 0.00017498639
000170 76 e3 08 b8 90 6f 06 b7 56 a0 f3 38 55 49 92 b8
       -3.2636766e-05 -8.012998e-06 0.00011617008 -6.975482e-05
000180 41 75 e0 b9 32 08 6e b9 99 91 88 b8 fb 33 5e ba
       -0.0004281197 -0.00022700502 -6.512105e-05 -0.00084763736
000190 5b e1 1d 3a 1e 58 b9 3a 2b 4a 46 38 12 0c 08 b7
       0.0006022655 0.0014140641 4.7275953e-05 -8.109042e-06
0001a0 de 6a 88 b9 9e 40 9a b8 90 20 db 38 15 f2 56 37
       -0.00026019564 -7.355328e-05 0.00010448799 1.2811758e-05
0001b0 34 f9 98 b8 c6 c0 80 37 06 8e 61 b8 6d 51 32 38
       -7.2943425e-05 1.5348556e-05 -5.377645e-05 4.251434e-05
0001c0 d9 32 22 3a b5 c1 ff b9 a9 e2 97 b9 94 11 b3 39
       0.00061873865 -0.00048781713 -0.0002896984 0.00034154637
0001d0 03 e3 05 ba 12 0c b2 b9 72 ab 02 ba 1a 03 4a b9
       -0.0005107375 -0.000339598 -0.0004984654 -0.00019265377
0001e0 b0 23 b0 39 a0 e1 83 39 0d 7c 08 3a 87 e4 bb b8
       0.00033595925 0.0002515437 0.0005206473 -8.9594214e-05
0001f0 c4 b5 26 3a 64 cb 4b b9 ec 84 66 b9 b2 93 46 ba
       0.00063594826 -0.00019435358 -0.00021984027 -0.0007575109
000200 d2 03 a9 bb da 64 d8 ba 75 f7 0c 3b a0 ab 61 ba
       -0.005157926 -0.0016509548 0.00215098 -0.0008608643
000210 c0 67 67 3b 09 d9 a3 bb 8b 30 71 3c dd 94 bf bb
       0.0035309643 -0.005000238 0.014721046 -0.0058466033
000220 02 53 10 3c f7 45 17 3b fc 57 de bb 0c 4e d3 3b
       0.008808853 0.0023082474 -0.006785391 0.006448513
000230 8a 10 83 3a ff 5e 19 bc b5 85 df 3b 84 ba ae 3a
       0.0009999436 -0.009361028 0.006821359 0.0013330732
000240 1f 5c b9 3a 5f 50 1a bc d3 b2 04 3c 94 7e 87 3b
       0.0014141834 -0.009418576 0.008099276 0.0041349623
000250 8b 1b 12 bc 2d eb 96 bb 0a 03 ab 3b 94 9d 64 bb
       -0.0089177 -0.004605672 0.005218868 -0.0034883963
000260 b1 03 1c 3c 9a 16 2b 3c ad 13 01 bc 59 b5 84 bb
       0.0095223645 0.0104424 -0.007878226 -0.0040499386
000270 31 c1 79 bb f4 f4 73 3b 52 50 b7 3b ab 8a 24 ba
       -0.0038109536 0.003722486 0.0055942917 -0.00062767667
000280 d0 6d 08 3c db b0 ae ba 18 46 34 bc f1 32 86 3b
       0.008326963 -0.0013327854 -0.01100304 0.004095428
000290 16 82 95 3b 4f 1a 38 39 8a a0 a1 3b a8 04 03 bc
       0.0045626266 0.00017557408 0.004932468 -0.007996716
0002a0 1e e8 19 bc ae 1c b5 3b be 38 53 bb f8 45 b9 3b
       -0.00939372 0.0055271005 -0.0032229866 0.005654093
0002b0 64 7c f9 ba f3 37 2b 3b 3a 1e 9c bb ab e4 da bb
       -0.0019034264 0.0026125878 -0.0047643455 -0.0066800914
0002c0 9b 40 99 bb 68 51 85 3b 65 07 72 3b 8a c1 10 bb
       -0.004676891 0.0040685423 0.0036930677 -0.0022088015
0002d0 81 e9 e8 3a 78 ec e4 bb 93 ad f6 3b 78 c3 f5 3b
       0.0017769785 -0.006986197 0.007528016 0.0075001083
0002e0 23 3f 4c bc 29 08 d6 3b 88 af 26 3b dc 62 8a bb
       -0.012466225 0.0065317345 0.0025434215 -0.0042232107
0002f0 e9 a4 c5 bb 59 e6 49 bc 68 be 73 3a 8d 77 93 3b
       -0.0060316217 -0.012322986 0.0009298087 0.0045003355

weight f4 [64, 64]
000000 0a eb 86 3d e6 59 59 3c 4c 64 df 3d 07 6c 88 3c
       0.06587799 0.013266062 0.10907802 0.016653074
000010 0f f0 43 3c 5e 62 29 bd 2c 7f ba bd 5c 9a 58 3c
       0.01195909 -0.041353576 -0.09106287 0.013220396
000020 ff f4 1d 3d e8 71 ef 3d 78 d6 b8 3c 60 4e f2 3d
       0.038563725 0.11691648 0.022563204 0.11831355
000030 66 91 6a 3d d4 da ac 3c eb a7 a9 3d c3 d1 af bc
       0.05726757 0.02110044 0.08283981 -0.021462327
000040 f2 5f bc 3d bc 56 bc 3d e0 e7 01 3d 64 7b f2 bd
       0.091979876 0.09196231 0.031715274 -0.11839941
000050 80 75 e1 bd 32 10 d3 3d bf 13 ae 3c 43 76 b9 3b
       -0.110087395 0.103058234 0.02124965 0.00565985
000060 42 fa 27 bd 2d 9e 97 bd 11 ff 8f bd 0e d0 a6 bd
       -0.04101015 -0.074032165 -0.07031072 -0.08145152
000070 72 1b 62 3d cd 21 39 bb df 4a 8c 3d be 5c 9d 3c
       0.055201955 -0.0028248907 0.06850218 0.019209262
000080 03 22 52 3d fa b5 a4 bd 9e 59 aa 3d f7 03 89 3b
       0.051301967 -0.08042522 0.08317874 0.004181381
000090 ed ba fc bd 1a 0b b1 bd bf 66 ea bd d0 d2 3b bd
       -0.12340341 -0.086446956 -0.114453785 -0.045855343
0000a0 8f fa ca 3c eb b9 c7 3d 7e 45 22 3e 3c 09 d3 3d
       0.024777679 0.09752258 0.15846822 0.10304496
0000b0 dc 5f e0 bc d3 f3 14 3d d7 e9 ae 3d cd e5 fb bc
       -0.02738946 0.03636534 0.08540695 -0.030749226
0000c0 05 5e e4 3d 5c 6f d0 3d e3 b4 2b 3c 87 dc a6 3d
       0.11150745 0.1017749 0.0104801385 0.08147531
0000d0 67 f7 0f bd 02 9e ed bd 06 ad c9 bd 3d a7 06 3e
       -0.03514805 -0.11602403 -0.09847455 0.13149734
0000e0 b1 3e c6 bd 0e 08 c8 3d 6a 4a 7a 3d e3 08 28 bd
       -0.09679926 0.09767161 0.061106123 -0.0410241
0000f0 54 b7 f2 3c 91 15 8c bd bf 0e a6 bc 43 6f cd 3d
       0.029628433 -0.06840051 -0.020270703 0.10030987
000100 0c 2b bd bd 75 18 cc 3d 08 48 66 bd 28 65 48 3d
       -0.09236726 0.09965602 -0.056221038 0.048924595
000110 2e e6 ae bc 9b a2 4b 3d 8c 79 d0 bd fe 50 1f 3d
       -0.021349993 0.04971562 -0.10179433 0.0388956
000120 20 fc 97 3d c5 70 78 3d 7f 32 24 3c 1a c9 2f 3d
       0.07421136 0.06065442 0.010021805 0.042916395
000130 bf 28 b4 bd 80 4a fa 3d 5f 91 62 bd 36 97 d6 3d
       -0.08796834 0.12221241 -0.055314418 0.1047806
000140 49 75 50 bd 0a 33 5c bd b4 1e 76 bc 75 8a 05 3e
       -0.0508931 -0.053759612 -0.015021969 0.13041098
000150 2d 42 4d 3d 0b d5 3e 3d 8b a0 5b 3d 07 45 3b bd
       0.05011194 0.046589892 0.053619903 -0.045720126
000160 43 a0 6f ba b0 21 08 3d 1d 06 a9 3d 52 76 02 be
       -0.00091410073 0.033235252 0.08253119 -0.12740448
000170 f1 cc 0c bb 0e 7c 0e bd f6 a2 df bc 32 cc 89 bd
       -0.002148446 -0.034786277 -0.027299386 -0.067284
000180 21 1e f3 bd 33 5e ec 3d 43 92 03 3e 73 9e 98 3d
       -0.11870981 0.115414046 0.12848763 0.07452097
000190 b1 9c e7 3b 53 33 e9 bc a6 0f d4 bd 80 a7 b0 3c
       0.0070682396 -0.028466856 -0.10354547 0.021564245
0001a0 39 bc ba bd 82 4f d9 3d a6 a8 81 3d 56 86 92 bd
       -0.09117932 0.10610868 0.06330995 -0.07154529
0001b0 b4 eb bf bd 60 59 2c 3d 15 7d e2 3d 33 2d 97 3d
       -0.09371129 0.042077422 0.11059014 0.07381668
0001c0 ce 92 d6 bb 06 84 a5 bd 54 ea aa bd 0b 02 ed 3d
       -0.006548262 -0.08081822 -0.08345476 0.11572655
0001d0 7e 7a 57 3d e1 af 8f 3d ba b0 76 bd 0f e8 bf bc
       0.052607052 0.07015968 -0.060227133 -0.023426084
0001e0 2b c3 0e 3d 0f 6a a1 bc 3f 7b 25 bc 42 ec ae 3d
       0.034854095 -0.019703893 -0.010100185 0.08541156
0001f0 61 03 2e bd 7e e6 b7 3d 1e c2 0e bd 35 68 36 bd
       -0.04248369 0.0897951 -0.034853093 -0.044532973
000200 d6 d3 99 bc b2 32 ba bc fc 72 95 bd f4 3e c6 bc
       -0.018777769 -0.022729252 -0.07297322 -0.02419994
000210 f8 ed df bd 13 fd e9 bd 6b 62 8b 3d d5 74 8e 3d
       -0.10934061 -0.11425223 0.06805881 0.06955878
000220 10 03 fb bd 40 9b 82 bb e4 0f a6 3d 00 71 90 bc
       -0.122564435 -0.0039857924 0.081085 -0.017632008
000230 5e 74 30 bd d2 e7 cb bd a1 d9 aa 3d 17 0d ff bb
       -0.043079726 -0.099563256 0.08342291 -0.007783543
000240 d7 a0 59 3c a2 c3 79 bd a9 be 7b 3d bb 32 2d ba
       0.013282976 -0.060977586 0.061461125 -0.00066069857
000250 bc cc 67 3d 3e d1 e0 bc e6 0c b4 3d ce 3f c7 bd
       0.056591734 -0.027443524 0.08791523 -0.09728967
000260 87 56 57 bd fb 93 8b bd cc a2 35 bc f3 21 f9 bd
       -0.052572753 -0.068153344 -0.011086177 -0.121646784
000270 b7 20 01 be 9e 46 43 3d e1 d3 88 bd ca 75 9c 3c
       -0.12610136 0.047674768 -0.06681038 0.019099135
000280 fc 5b a9 3c ee 60 ea bd 35 7d 87 3b 6e 17 82 3d
       0.020673744 -0.11444269 0.004134799 0.06352125
000290 10 d7 45 bc ed 2d 76 bd d4 f8 ac bd 1f ab 98 bd
       -0.012075201 -0.060102392 -0.08445898 -0.07454514
0002a0 09 f7 57 3d 1a 05 86 bd ec 59 aa bc fa df 9b bd
       0.052725825 -0.06543942 -0.020794831 -0.076110795
0002b0 46 f0 74 3d 5e 04 b5 3d 57 e7 c8 bd 65 dd 42 bd
       0.059799455 0.088387236 -0.098097496 -0.04757442
0002c0 c9 51 90 bd 4e 30 b7 bd 27 3b ec 3d 36 ed da 3d
       -0.07046849 -0.0894476 0.1153472 0.10689776
0002d0 ff 15 df 3d 4d 82 29 bc ed 37 e9 bd 09 f2 37 bc
       0.10892867 -0.0103460075 -0.1138762 -0.011227139
0002e0 cf 53 26 bd 0c 01 d5 bd f0 28 2b 3d 96 a2 dc bd
       -0.04060727 -0.1040059 0.041787088 -0.10773198
0002f0 4a e9 3c bd 95 9e 85 3c 20 4b dc 3c 99 3d 22 3d
       -0.04612092 0.01631097 0.026891291 0.039609525
000300 fc f2 e6 3d f1 65 a6 bd 99 56 3c 3d 37 03 90 bd
       0.11276814 -0.081249125 0.045981023 -0.07031863
000310 59 18 d9 3d f6 a1 b0 3d eb e4 66 bc 2f 7c f9 bd
       0.10600347 0.086246416 -0.014092664 -0.12181889
000320 1e 34 a0 bd d3 eb 9e 3d b7 d1 fe bd ee 3a cb 3d
       -0.078224406 0.07759824 -0.12442344 0.09923349
000330 a9 4a e6 bd ee 30 b5 bd 4b 6a 36 3c 6f d0 30 bd
       -0.11244709 -0.08847223 0.011133741 -0.043167528
000340 6d 05 aa 3d 66 b2 74 bc d8 7c e1 3d 10 6b 8d 3d
       0.08301816 -0.014935112 0.1101014 0.06905186
000350 7d a8 2b 3d fd 8b e2 bc 08 6a 0f 3d 30 85 a2 3d
       0.04190873 -0.027654642 0.03501323 0.0793556
000360 cf 67 de bb a0 f5 e3 3c 84 7e 77 3d db ff 66 bb
       -0.0067872773 0.027827084 0.06042339 -0.0035247717
000370 69 73 4f bd 9b 6b 75 3d b4 62 12 3e 99 f5 0a bd
       -0.050647173 0.059917074 0.14295465 -0.033925626
000380 39 10 5c bd 8c 75 fc bc 77 a6 c3 3d e2 a4 a7 3d
       -0.05372641 -0.03081777 0.09553235 0.08185746
000390 d2 08 d5 bd 66 6d bf 3c 9f 20 df bd 53 e4 56 3d
       -0.10402073 0.023367595 -0.10894894 0.05246384
0003a0 07 85 6d bd 9d e6 ab 3d e2 c1 c1 bd 5f 0f 03 3e
       -0.057988193 0.08393595 -0.09460808 0.12798832
0003b0 25 ed 0d 3d 4b bf d6 3d 55 18 ef bd 45 24 01 3e
       0.034649987 0.10485705 -0.11674563 0.12611492
0003c0 da fe 22 bb 83 68 9d bd 0a 91 c2 3d d0 e8 ff 3c
       -0.0024871142 -0.0768595 0.0950032 0.031238943
0003d0 3b b2 a9 3d 24 a3 c8 bc 1a 51 c1 3d 03 e9 8b bd
       0.08285948 -0.024491854 0.09439297 -0.06831553
0003e0 c1 7e 8d 3d 11 b2 7b bd 01 95 cb bd b8 38 8b bb
       0.06908942 -0.061449114 -0.099405296 -0.0042487048
0003f0 71 35 c9 3d dd 3d 50 ba 74 be e1 3d 9c 05 d4 3d
       0.09824646 -0.00079437887 0.11022654 0.103526324

bias f4 [64]
000000 9e 2a 90 3b dc cb 42 b8 dc 13 09 3a 86 a0 11 bb
       0.0043996116 -4.6443063e-05 0.00052290945 -0.0022220924
000010 03 3d 97 bb fa 29 fa 3b 73 f3 91 bb c8 f4 70 3a
       -0.0046154275 0.0076343985 -0.0044540702 0.00091917487
000020 81 e0 46 bc e3 f2 90 ba 33 b2 64 ba b3 e8 2f 3c
       -0.012138487 -0.0011058714 -0.00087240635 0.010736632
000030 72 b5 cb bb 86 d0 64 bb 90 66 20 3a 20 13 50 bc
       -0.0062166983 -0.0034914329 0.00061187986 -0.012699872
000040 49 64 02 39 c1 41 e6 bb 02 b7 94 3a ce 98 b2 3a
       0.00012435125 -0.0070268814 0.0011346044 0.0013625862
000050 02 c6 41 3b 08 05 b7 3b 7b c0 ec 3b 36 c6 89 bb
       0.0029567485 0.0055853166 0.007225094 -0.004204537
000060 1e d0 c2 3b cb 7f 67 3c 7a 4a 4c 3b 3d aa cd ba
       0.0059452197 0.014129589 0.0031172321 -0.0015690994
000070 c8 b0 92 ba 08 93 7f 3b 4d 34 9e 3a 28 cc 77 3a
       -0.0011191601 0.003899755 0.001207003 0.0009452724
000080 09 f2 0e bc 8c 7d 80 3b 62 48 06 bc e3 c7 eb bb
       -0.008724698 0.0039212164 -0.008195968 -0.007195459
000090 d2 4a fb 3b 50 91 02 3c 92 fb e1 bb c4 90 7a bb
       0.0076688314 0.0079692155 -0.0068964446 -0.003823326
0000a0 41 fa 4a bc 24 94 51 bb 0a 3f 14 bb a6 5f de 37
       -0.012388767 -0.0031979168 -0.0022620582 2.6509002e-05
0000b0 77 64 bb 3a 41 88 28 3c 44 71 ed ba bd 98 2c bc
       0.0014296909 0.010286392 -0.0018115421 -0.0105344625
0000c0 6d 17 79 bb 76 36 95 3b 83 af 62 38 c7 b1 dd bb
       -0.0038008348 0.0045536114 5.4046057e-05 -0.0067655775
0000d0 14 3f 02 bb 1a 19 58 3c bd e6 8c 3b 96 11 37 b9
       -0.0019874023 0.013189578 0.004299967 -0.00017458791
0000e0 1f 46 b2 3a 5c c8 3f bc ad ca 25 3b 92 d4 39 3b
       0.001360122 -0.011705484 0.0025297806 0.0028355462
0000f0 19 0c 11 bc b2 80 01 bc 51 c9 c4 3b 90 04 81 3b
       -0.008852982 -0.0079042185 0.006005444 0.0039373115

weight f4 [256, 64]
000000 19 eb 1d 3d 52 da 91 bd 01 1b 9d bd f7 2c a0 3d
       0.038554285 -0.071217194 -0.07671166 0.07821076
000010 69 9a 9b bd ef 61 6e bd 18 d1 9b 3b 12 6f 78 3d
       -0.07597811 -0.058198866 0.0047551505 0.0606528
000020 83 a1 00 bc 23 79 c3 3d 46 16 98 ba 80 6c e0 3d
       -0.007851007 0.09544589 -0.0011603318 0.10958195
000030 f5 7d 2c bd 44 76 c9 bb 77 4e 3a 3d be 25 01 bc
       -0.04211231 -0.0061481316 0.045484986 -0.007882534
000040 fb fc 2b bc ca e4 4b 3c 59 9b fa bb cb 9c fd ba
       -0.010497327 0.012444684 -0.0076479134 -0.0019349096
000050 aa 81 3b bd ff 64 75 bd 2a fa df bd 77 3d 4a 3d
       -0.045777954 -0.05991077 -0.10936387 0.049375024
000060 b7 ef b5 3d 62 97 63 3d 97 d3 18 3d 3b e3 97 bd
       0.088836126 0.05556429 0.037311163 -0.07416388
000070 ae fc a1 3d 0f 70 03 bd d0 8b f6 bc c0 f1 01 3d
       0.07909523 -0.03208929 -0.030095965 0.03172469
000080 e7 90 fc 3b c9 a4 37 bc a1 47 b2 3d ce bf c1 bc
       0.0077077034 -0.011208721 0.087050684 -0.02365103
000090 ed 11 42 bd 67 42 a9 bd 88 fd 94 bd aa c5 08 bd
       -0.047380377 -0.08264618 -0.0727492 -0.033391632
0000a0 4c e8 7c bc 62 f1 d9 bd a8 82 7f bc 38 f8 fc bc
       -0.015436243 -0.10641743 -0.015595116 -0.030880079
0000b0 ff 3c 81 3d 6b 7b c2 3d 89 22 59 bd b8 42 9b 3d
       0.06310462 0.09496196 -0.05301145 0.07581085
0000c0 7a a3 c3 3c ff 50 ea 3d c4 4e e5 3d 25 09 04 be
       0.023881663 0.1144123 0.11196664 -0.12894113
0000d0 a4 d1 49 ba 8c 44 b2 3d 9c 8d 50 bd e6 3f c0 bc
       -0.00076987804 0.087044805 -0.0509163 -0.02346797
0000e0 2d 46 c7 bd 91 66 cc bd 0b 23 c5 3d a2 0e e7 bd
       -0.09730182 -0.099805005 0.096258245 -0.11282088
0000f0 9d 5e ca bd a3 24 82 bd 3e e2 f8 bd 11 f6 35 3d
       -0.09881327 -0.06354644 -0.12152527 0.04442412
000100 18 ec ba bd 26 16 50 bd ab 0a ef 3c 0d 09 78 bd
       -0.091270626 -0.050802372 0.029179892 -0.060555506
000110 04 e3 55 3d 62 06 d5 bd f4 da db 3d 7f 1a 35 bd
       0.052218452 -0.10401608 0.10735121 -0.04421472
000120 46 25 c4 bd 9a f7 7f 3c ce 9a 1e bd 40 16 44 3c
       -0.09577422 0.015622998 -0.038721852 0.011968195
000130 e2 2a 5f bc 7e b9 7e bd 2a de 34 3b 6f 19 03 3e
       -0.013621064 -0.062188618 0.002759824 0.12802671
000140 6c 49 1c bd 85 ff 96 3a c5 25 8b bd e3 60 e5 3d
       -0.038155958 0.0011520243 -0.06794313 0.1120012
000150 7a d2 07 3d d9 79 a4 3a 59 2d 09 bc 4b 9a c9 3d
       0.03315971 0.001254852 -0.008372628 0.09843882
000160 6a b8 f6 3d ba b9 13 3b 14 70 e3 bd 05 35 a1 bc
       0.12046893 0.0022541122 -0.111053616 -0.019678602
000170 5b 45 b6 bd 34 dc 79 3d 54 17 e0 b9 31 26 f1 3c
       -0.08899947 0.061001018 -0.0004274199 0.029437156
000180 b8 69 42 bb fd 4e dd bd 96 f4 00 3d 2d ee a4 3b
       -0.0029665064 -0.108060814 0.031483255 0.0050332756
000190 d7 d3 6e bd 3d 1a af 3d 37 8e a0 3d 4c ee f8 3d
       -0.058307495 0.085499264 0.07839625 0.121548265
0001a0 ce 57 bb 3d 9a 7c 27 3c cd a2 91 3d 9a cc eb bc
       0.09147607 0.010222578 0.0711113 -0.028784085
0001b0 84 7d 70 3c 37 01 59 3c 1a f0 34 3b 79 e2 15 bd
       0.014678363 0.013244919 0.0027608932 -0.036592934
0001c0 ab 78 83 bd 4a b4 e2 bd 4f b7 24 bd 90 65 e5 3d
       -0.064195 -0.11069544 -0.04021388 0.11201012
0001d0 7d 0c 87 3c 12 c4 a9 bc ab 2e 04 3e 93 f4 44 bd
       0.016485447 -0.020723376 0.12908427 -0.048084807
0001e0 4e fa 3a 3c 0a e8 92 bd d6 30 10 3c 49 08 40 bc
       0.011412216 -0.07173164 0.008800706 -0.011720725
0001f0 49 ac 2a bd a4 01 e1 3c 9a 5c e1 3c b4 88 d5 3d
       -0.04166821 0.027466603 0.027509976 0.10426465
000200 7e be dc 3c 8a 21 b3 bc fa 76 74 3d 7c 76 8c 3c
       0.026946303 -0.021866579 0.059683777 0.017146342
000210 0d 36 53 3c bd 03 ab bc 4d 2b 39 bd dd 2d 24 3d
       0.012891305 -0.020875806 -0.04520731 0.0400828
000220 02 ec 26 bb f7 3c e1 3c 96 ab 6e 3d f8 b5 84 3d
       -0.0025470261 0.02749489 0.058269106 0.0648002
000230 01 f6 95 3d 15 5e 89 bd a8 5b a1 bd 5f 3e e7 bd
       0.07322312 -0.06707398 -0.0787881 -0.11291193
000240 0d 56 da 3d 77 0b 8b bc 56 3d cd 3d f9 8f 01 be
       0.10660944 -0.01697324 0.100214645 -0.12652577
000250 89 bf 79 3d a1 37 9e bd 38 27 9d bd ba 0b a3 bc
       0.060973678 -0.07725454 -0.07673496 -0.019903053
000260 bc 06 05 bd 23 86 90 3d 71 47 b9 3d 7d c4 8b 3d
       -0.032477126 0.070568345 0.090468295 0.068245865
000270 f2 d6 ce 3b 12 a8 a7 bd 1c a2 b7 3d 6d 78 55 3d
       0.0063122446 -0.08186354 0.08966467 0.0521168
000280 b8 be 9b bc 26 18 3a bd b0 cf 07 3d d8 24 9a 3d
       -0.01901184 -0.045433186 0.03315705 0.07526559
000290 e7 4a 6a bc 1c 4f 91 bc 9d 49 bb bd 44 99 e6 bd
       -0.014300085 -0.017737918 -0.091449 -0.11259702
0002a0 da 2c b1 3d a3 0d da bd 86 9e c7 bc 37 fb 64 3c
       0.08651133 -0.10647132 -0.024367582 0.01397591
0002b0 4f 53 8b 3c 5b 7c 00 3e e3 c0 cf 3d 9b 05 54 3d
       0.017007498 0.12547438 0.10144212 0.05176316
0002c0 ef 93 00 3d ad f0 04 3e e6 13 70 bd 19 c8 9b bd
       0.03139108 0.12982436 -0.058612727 -0.07606525
0002d0 6e 9b d6 3d 06 d3 10 bc ea ae 9f 3d 57 f1 89 3d
       0.104788646 -0.008839374 0.07797034 0.06735485
0002e0 3d 6d 93 3a 8e 37 a5 3d 76 9a 09 bd e4 e7 d6 3d
       0.0011247766 0.08067237 -0.03359457 0.104934484
0002f0 d7 08 c5 3d 52 db dc bb 62 ce 59 bd 15 be a7 bd
       0.09620827 -0.006740012 -0.053175338 -0.08190552
000300 76 d0 f4 3c 91 a2 43 3d a2 38 63 bd da be 11 bd
       0.029884558 0.047762457 -0.05547393 -0.0355824
000310 1c 0f 47 3c 77 03 b9 bc 31 bf 5f bd d1 bf a9 bd
       0.012149598 -0.02258466 -0.054625694 -0.08288539
000320 5a 4b 00 be 3a 6f cc 3c b6 65 b9 3d 5f 5c e6 3a
       -0.12528744 0.02495538 0.09052603 0.0017575136
000330 af 42 52 3d d5 c5 8f 3a 85 6a d6 3d 0a 99 97 bd
       0.051333126 0.0010968993 0.10469536 -0.07402237
000340 2a 97 88 bd fa bd c3 bd f2 54 ca 3d 05 80 dd 3d
       -0.06669457 -0.095577195 0.09879483 0.108154334
000350 de 3a 00 3d 07 16 a8 bd 1c c2 eb 3d ec fc bc 3d
       0.03130614 -0.082073264 0.11511633 0.092279285
000360 1f e9 bb bc 11 70 86 bc 6f a5 af 3d c5 ba 9f bd
       -0.02293831 -0.01641086 0.08576476 -0.07799295
000370 79 df 6e bb 43 10 3c 3d e0 e5 a9 bd ab 86 dc bd
       -0.0036449118 0.045913946 -0.08295798 -0.107678734
000380 1a 27 b3 bd 61 3c 05 be a4 c3 46 3d 17 ae 3d 3d
       -0.087476924 -0.13011314 0.04852642 0.046308603
000390 dc 9c a6 3c d2 92 b9 bd 35 ea c8 3c 33 35 6b bd
       0.020338468 -0.09061207 0.024525741 -0.05742378
0003a0 9b e8 a4 bc 81 58 fc 3d 86 b2 e6 bd db 39 b4 bd
       -0.020130446 0.12321568 -0.112645194 -0.088000976
0003b0 ff b8 e0 bd f2 e1 eb 3d 49 22 30 bd 99 65 53 3c
       -0.10972785 0.11517705 -0.043001447 0.012902641
0003c0 0a bd d2 bd ed d7 97 3d 81 be ac bd 9e ba 45 bd
       -0.102899626 0.074142314 -0.08434773 -0.048273675
0003d0 5d 42 16 3e 1d fd f5 bd 15 78 ee bd 6e 9f 1f 39
       0.14673753 -0.12011168 -0.116439976 0.00015222814
0003e0 18 f2 96 3d 69 72 b0 bd 83 80 b2 bb 19 87 ef bc
       0.073703945 -0.08615572 -0.0054474487 -0.029239224
0003f0 1a df c1 bd 44 fb d5 bd a7 8f d0 3d be b5 4c bc
       -0.09466381 -0.10448316 0.101836495 -0.012494503

bias f4 [256]
000000 6c 79 cc bd 14 28 8e 3d 91 35 36 3c 63 8b 7f bd
       -0.09984097 0.06941238 0.01112117 -0.06238879
000010 11 5c 47 bd 44 8c a1 3c c3 cb f5 bb 90 29 bd bd
       -0.048671786 0.019720204 -0.007501097 -0.09236443
000020 56 01 d8 3d 68 d0 b1 bc d6 79 68 bd a8 d1 98 bd
       0.1054713 -0.021705821 -0.056756817 -0.07461864
000030 d1 a9 bb bc 6e 32 8d bd d7 c0 d6 3c f2 b7 b3 3d
       -0.022908123 -0.06894384 0.026215 0.08775319
000040 26 a9 ca 3d 03 9d 0e bc 84 36 16 3d cf ea 87 bc
       0.09895544 -0.008704427 0.036673084 -0.016591458
000050 a6 1f ab 3d a5 40 c7 b9 35 1d 18 bd a8 b0 4c 3d
       0.08355646 -0.00038004402 -0.03713723 0.04997316
000060 ca 7a a3 3d 47 8c 68 3d 48 09 33 3d 9e b6 b1 bd
       0.079824045 0.056774404 0.043710023 -0.086774096
000070 15 68 d9 3d c4 b6 bc bd 6d c9 ff bd 27 4a b5 bc
       0.10615555 -0.09214547 -0.12489591 -0.022130085
000080 20 1d 4c bc 6d 0d 76 3c c4 37 c5 bc f5 39 a4 3c
       -0.012458116 0.015017849 -0.024074443 0.020047167
000090 b6 48 d0 3d e7 cd 26 3c 22 26 0f be cd e7 97 3c
       0.101701185 0.010180927 -0.1397939 0.018543148
0000a0 bf 6a 4f bd 07 f8 03 be d6 46 cd bd 9c 8e 7a bd
       -0.05063891 -0.12887584 -0.100232765 -0.06117116
0000b0 9c 5e 88 3a bc 03 39 bd 5b ad 1e 3d 24 35 a9 3d
       0.0010404172 -0.045169577 0.038739543 0.08262089
0000c0 df 81 60 bd 0e 17 dc 3d 11 a1 28 3b 97 5b ec bd
       -0.054811355 0.10746585 0.0025730769 -0.11540907
0000d0 4f a6 e2 3d 42 c0 64 bd d4 64 fc 3c 96 09 99 3d
       0.11066877 -0.055847414 0.030809797 0.074725315
0000e0 ba e5 a0 bd eb 38 d0 bd 89 46 89 bd 6d 2f 2d 3d
       -0.07856317 -0.10167106 -0.06702907 0.042281557
0000f0 03 a2 9d 3c 8b 25 9d 3d fc 5a b3 3c 39 15 9a 3d
       0.019242292 0.076731764 0.02189397 0.07523579
000100 fd b8 ca 3b c5 1e 08 be 5a 8c e6 bd 6c 35 aa 3d
       0.006186603 -0.13292988 -0.11257239 0.08310971
000110 ee 68 d1 bd b8 b0 0a 3b c7 18 e9 bd be 5f 40 bc
       -0.10225092 0.0021162461 -0.11381679 -0.011741577
000120 70 75 3f bd ec 84 b5 bd 53 50 4e 3d 09 36 76 3d
       -0.046742857 -0.088632435 0.050369572 0.060110126
000130 7d 67 61 3d e7 7f 9c 3d 72 ad aa bc 7e dd 24 bd
       0.055030335 0.07641583 -0.020834658 -0.040250294
000140 6e 9d 6b 3d 34 89 0a be e9 a4 f2 3d 7b 04 8b 3d
       0.057523184 -0.13528901 0.1184786 0.06787964
000150 d0 b6 46 bd 17 09 a3 bd 79 fd ab 3b 53 79 d0 3d
       -0.048514187 -0.07960718 0.005248722 0.10179391
000160 a1 8e 8d 3d d0 13 3f bc 43 ce 9c 3d 40 d4 89 bd
       0.0691197 -0.0116624385 0.07656529 -0.067299366
000170 77 4d b8 bd 4d 24 d9 3d 69 6f 84 bd 74 53 a3 3d
       -0.0899915 0.10602627 -0.06466562 0.07974902
000180 05 36 8d bd b1 2e 5d bd aa f0 b3 3d 85 73 df bd
       -0.06895069 -0.053999607 0.087861374 -0.109107055
000190 e1 cd a4 bd b5 c1 cc bd 1a 82 44 bd a8 ef 64 3c
       -0.08047081 -0.09997884 -0.047975637 0.013973154
0001a0 94 16 d8 bc 17 ec 88 3d c2 ef 00 3c d6 44 6b bc
       -0.026377954 0.066856556 0.007869663 -0.0143596735
0001b0 11 ac e3 bd 40 51 14 3d eb 58 bc 3d 03 19 70 bd
       -0.111168034 0.0362103 0.09196647 -0.058617603
0001c0 f8 f3 7b 3d 38 91 9f bc bd ec 8f bd c4 e9 8b bd
       0.061511964 -0.019478425 -0.07027576 -0.06831697
0001d0 77 e3 78 bb c2 04 e0 bd 79 90 4f bd d5 0e 2c 3b
       -0.0037977376 -0.109384075 -0.05067489 0.0026253958
0001e0 b9 d4 f0 3b 4e 04 f1 bd 4c c9 d4 bb e6 36 bd 3d
       0.0073495773 -0.11768399 -0.006493723 0.09238987
0001f0 11 80 f9 b9 8d cd bb 3d c3 12 c5 bd 62 07 31 bd
       -0.00047588398 0.09170065 -0.09622719 -0.04321993
000200 78 7f 81 bd ed b4 21 bd 02 dc aa bd 2e 9d f3 3c
       -0.06323141 -0.039479185 -0.083427444 0.029738035
000210 f2 e0 10 bc 90 eb d0 3c 3e e8 f5 bc 25 79 1a 3c
       -0.008842694 0.02550295 -0.030017968 0.009428297
000220 99 8a 8a 3d 7f 4b ff bc 41 eb 31 bb cc ca d9 3b
       0.06764717 -0.031163929 -0.002714828 0.0066464897
000230 15 f1 c3 3d 57 52 f1 bd 31 a6 cd bd 14 3a 1c bd
       0.09567467 -0.11783283 -0.10041464 -0.038141325
000240 8c 2a ac bd a5 d3 e9 3d 0c d4 2d bd 28 1c a3 3d
       -0.08406553 0.11417321 -0.04243855 0.07964355
000250 57 af c1 bd 94 ee fb bb 6c 99 dc bd 0c a4 d9 3c
       -0.094572715 -0.007688353 -0.107714504 0.026567481
000260 1e 0a 76 3d 7a b0 75 3c 45 78 7a 3d a8 5e b9 bd
       0.060068242 0.014995689 0.061149854 -0.09051257
000270 ab eb cb bd e1 27 b3 3c 4e cb 2c bd 9e 84 c1 3d
       -0.099570595 0.021869602 -0.042186074 0.09449123
000280 2a cc 17 bd c7 b6 82 3d 03 38 91 bd de bd 83 3c
       -0.03705994 0.06382518 -0.070907615 0.016081747
000290 be d8 08 bd 45 03 25 bd f1 d5 3f 3d 01 99 28 bc
       -0.033409826 -0.04028632 0.04683489 -0.010290385
0002a0 d6 d9 89 bd ef 0c e6 3c b7 16 c2 bd 0b a8 7b bd
       -0.06731002 0.02808234 -0.09476989 -0.061439555
0002b0 e5 ec 35 3d 84 f0 94 bd 57 b6 dc 3d 33 f0 61 bd
       0.044415373 -0.07272437 0.10776966 -0.055160712
0002c0 2d 2f e8 3d 79 08 b8 bc e2 87 9d bd 62 87 78 3d
       0.11337123 -0.022464978 -0.07691933 0.060675986
0002d0 d7 a4 33 bd 5f 23 4a 3c b7 75 3e bd 8d 17 b6 bd
       -0.043858375 0.012337535 -0.04649898 -0.08891211
0002e0 ef 20 47 3d c7 97 a9 3d f9 6f 46 3d d9 0b 52 3d
       0.048615392 0.08280902 0.04844663 0.05128083
0002f0 b4 34 cc 3d 8b 22 b6 bd dc 46 42 bd 8b 63 cd bd
       0.0997099 -0.08893307 -0.047430858 -0.10028752
000300 46 69 1e 3c 92 b3 33 bd 99 50 7a 3c a2 43 32 3d
       0.009668654 -0.043872423 0.015278005 0.04352153
000310 24 e3 0c bd cd 12 d1 3c b1 e1 99 3c c5 6e b0 3c
       -0.034396306 0.02552166 0.018784376 0.021537194
000320 20 91 a3 bd 12 68 e0 3d 38 75 57 bd c3 5b 7b 3d
       -0.07986665 0.1095735 -0.052602023 0.061366808
000330 f3 3c 04 be 80 22 e8 3d 3a 10 ad 3d fa b4 96 bd
       -0.12913875 0.11334705 0.084503606 -0.07358737
000340 68 aa 0f ba 21 a2 be bd 0f d1 59 bc 52 b1 3e bd
       -0.00054804096 -0.093082674 -0.013294472 -0.046555825
000350 a3 bc ba 3c 50 25 85 3d 5c 06 83 3d c7 4c 3b 3d
       0.022795027 0.065012574 0.06397697 0.045727517
000360 49 95 96 3d 88 2b 0e bd 0c 2f c2 3d 03 55 d5 bd
       0.07352693 -0.034709483 0.0948163 -0.10416605
000370 cd 67 ab bd 54 49 f8 3c 24 a4 ca 3b 71 4f 39 bd
       -0.08369408 0.030308403 0.006184118 -0.045241777
000380 53 1f f3 3d 98 1c db 3b 09 1c 85 bd a3 d4 01 bd
       0.11871209 0.0066867582 -0.06499488 -0.031696927
000390 a0 fe b0 bd 13 f2 c5 3d f3 07 21 3d 73 32 b5 bd
       -0.08642316 0.096653126 0.03931422 -0.08847513
0003a0 9e d7 06 3d 04 57 2c bd 7f 1d f3 3d ad e9 ab bd
       0.032920472 -0.042075172 0.1187086 -0.083941795
0003b0 41 42 fe bc 81 0c 3c 3c 00 42 b9 bc 5b 93 b0 bd
       -0.031037452 0.011477591 -0.022614479 -0.08621856
0003c0 16 96 cf bd 4b f1 7d bd 64 44 b7 3c a3 cc 44 3d
       -0.101360485 -0.061997693 0.022371478 0.04804672
0003d0 cf 91 ad 3c 49 3b ec bc 07 90 f4 3b 15 db d9 bd
       0.021187691 -0.028836863 0.0074634585 -0.1063749
0003e0 ad 62 46 bd 90 30 dd 3c 0c be 44 3d 68 5f a1 bd
       -0.04843395 0.027000695 0.048032805 -0.078795254
0003f0 0c bf 2b bd bb ac a1 bc f5 b6 bf 3c 0a d1 bf 3d
       -0.041930243 -0.019735685 0.02340267 0.09366043
