ak_workspace/result_data/baseline_results/DG_Glut/atac/imbal_model_0.pt (torch, 828358 bytes, 53 tensors)

cls_embedding f4 [1, 1, 64]
0	0xbeaa7514	-0.3329245
1	0xbfadeb55	-1.3587443
2	0x3fd060ce	1.6279542
3	0xbeeb7be0	-0.45992947
4	0x3f52c086	0.8232502
5	0xbf6df42e	-0.92950714
6	0x3edfdbe7	0.4372246
7	0xbecbc698	-0.39799953
8	0x3f92475a	1.1428025
9	0x3fba9291	1.4575979
10	0xbea7669a	-0.32695466
11	0xbe0cdd43	-0.1375628
12	0x3f887bf8	1.0662832
13	0xbe7ee338	-0.24891365
14	0xbf35221e	-0.70755184
15	0xbfc0c976	-1.5061481
16	0x3ed47e97	0.4150283
17	0xbe9471fa	-0.28993207
18	0xbea3cfa1	-0.31994346
19	0x3f403a27	0.75088733
20	0xbfb13172	-1.3843215
21	0x3eb0e755	0.34551492
22	0xbda86b3e	-0.0822358
23	0xbeb59a4d	-0.35469285
24	0x3f6497fb	0.89294404
25	0x3f105694	0.5638211
26	0xbf92358c	-1.1422591
27	0xbeaa650f	-0.33280227
28	0x3f08a388	0.5337453
29	0x3ee1ac22	0.4407664
30	0x3f98e272	1.1944106
31	0x3f01347d	0.50470716
32	0xbe2cfe71	-0.16893937
33	0xbfafe389	-1.3741313
34	0x3fd7d52a	1.6861928
35	0x3ffd5385	1.9791113
36	0x3fa78013	1.308596
37	0xc02000f7	-2.500059
38	0x3f27d59e	0.6556033
39	0x3e082bde	0.13297984
40	0x3f05ce56	0.5226797
41	0xc02d438a	-2.7072473
42	0x3feb6330	1.8389645
43	0x3ed1e8b0	0.4099784
44	0x3efa8aab	0.4893392
45	0x4003ab92	2.0573468
46	0xbf7365ca	-0.9507719
47	0xbf1de061	-0.616705
48	0x3ea213a2	0.31655604
49	0x3efbe2e7	0.4919655
50	0xbd4f41d6	-0.050599895
51	0x3f96bbe5	1.1776091
52	0xbed5fe22	-0.4179545
53	0xbf706682	-0.93906415
54	0x3ddcdb05	0.10783962
55	0x3fd6a924	1.6770368
56	0x3e78a3e4	0.2428127
57	0x3f983a15	1.1892725
58	0xbd5836c2	-0.052786596
59	0x3f8d3097	1.1030453
60	0xbfe2bf77	-1.771468
61	0x3f9a516b	1.2056097
62	0xbfc9df8a	-1.5771344
63	0xbf80268b	-1.0011762

weight f4 [64, 11]
0	0x3dcbe9d8	0.099567115
1	0x3a08f96e	0.0005225156
2	0x3e8bf8b8	0.27338195
3	0x3e6c2a8e	0.23063108
4	0xbe531387	-0.20612918
5	0x3e074b9c	0.13212436
6	0xbd8f8fcf	-0.07009851
7	0xbd2eb985	-0.042657394
8	0x3e4a3009	0.19744886
9	0xbe0848f2	-0.13309076
10	0xbe517987	-0.20456515
11	0xbe0dbf3e	-0.13842484
12	0xbd1fe74e	-0.03903895
13	0xbe2834b2	-0.16426352
14	0x3e19fca5	0.15037782
15	0xbe905d30	-0.28196096
16	0x3c89b96b	0.016812047
17	0x3e367bbc	0.17820638
18	0xbdd95d8d	-0.106135465
19	0x3e95e6e7	0.29277727
20	0x3e5f9f47	0.21838103
21	0xbe83510b	-0.25647768
22	0x3c7197bc	0.014745649
23	0xbd4c19da	-0.04982934
24	0xbe81019e	-0.25196546
25	0x3e7f0f3b	0.24908154
26	0x3e1ba420	0.15199327
27	0xbe93f3d1	-0.28896955
28	0xbd1921ff	-0.037385937
29	0x3dd20382	0.10254575
30	0x3e9f2a9d	0.310872
31	0xbd48f1c1	-0.04905868
32	0xbd47dd65	-0.048795123
33	0x3e7d4dc2	0.24736694
34	0xbdb103c4	-0.08643296
35	0xbe340311	-0.17579295
36	0x3e83e3bc	0.25759685
37	0x3e9758e7	0.29560015
38	0x3ce45063	0.027870363
39	0xbe8afdbc	-0.2714671
40	0x3e35dc26	0.17759761
41	0xbd89caca	-0.06728132
42	0x3e871673	0.26384315
43	0x3e91d721	0.28484443
44	0x3e5bd5ca	0.21468273
45	0xbd955809	-0.07292182
46	0xbe238b4e	-0.1597111
47	0xbe944a5f	-0.2896299
48	0x3cd0145e	0.025400337
49	0xbe1b595a	-0.15170804
50	0x3d8b8776	0.068129465
51	0xbd9b5c4a	-0.07585962
52	0x3d50d3a5	0.05098309
53	0x3d26cb95	0.040721495
54	0xbe21cb2b	-0.15800159
55	0xbe9c7ba9	-0.30563095
56	0xbdbd8eaa	-0.09255727
57	0xbe81d3c2	-0.2535687
58	0xbe86e26a	-0.26344615
59	0xbe14bfdd	-0.14526315
60	0xbe8e88ea	-0.27838832
61	0x3d852252	0.06500687
62	0xbdb59575	-0.08866397
63	0x3e995d44	0.2995397
64	0x3de7f981	0.11326886
65	0x3d38f776	0.045157872
66	0x3e3c046e	0.18361065
67	0xbe4b1055	-0.19830449
68	0xbd94cc10	-0.07265484
69	0x3b8ce446	0.0042996733
70	0x3d74e06f	0.05978435
71	0x3e5aedb3	0.21379738
72	0xbe67daaf	-0.22642015
73	0x3d0f3465	0.034962077
74	0xbe6e9bd7	-0.23301636
75	0xbe843b1f	-0.25826356
76	0x3e213924	0.15744454
77	0xbe80f39e	-0.25185865
78	0xbd0b71c6	-0.03404405
79	0xbd74c06f	-0.05975383
80	0xbe54e1c6	-0.2078925
81	0x3e1ec1dd	0.1550364
82	0x3e928983	0.28620538
83	0x3e282582	0.16420558
84	0xbe8b8440	-0.27249336
85	0x3e1688da	0.14700642
86	0xbe0bce39	-0.13652886
87	0x3e76a31e	0.24085662
88	0x3dedd475	0.116127886
89	0xbe9cfc90	-0.3066144
90	0xbe710d7c	-0.235403
91	0x3e7e1ea3	0.24816374
92	0x3e6eb7dc	0.23312324
93	0x3e3f15d9	0.18660678
94	0x3d6482e1	0.05578888
95	0x3e1733c3	0.1476584
96	0xbe6f239a	-0.23353425
97	0xbe840f24	-0.257928
98	0xbe98cdc6	-0.29844493
99	0xbb0b744e	-0.002127904
100	0xbe2e9eb8	-0.17052734
101	0x3e75a11d	0.23987241
102	0xbdc50d11	-0.09621633
103	0x3e887ba7	0.2665684
104	0x3de48e61	0.11159969
105	0x3e8fb82a	0.28070194
106	0xbe7c5cd4	-0.24644786
107	0xbe2b6639	-0.16738214
108	0xbe85ac85	-0.26108184
109	0xbe386edc	-0.1801104
110	0xbc676a14	-0.014124412
111	0xbc170e51	-0.009219722
112	0x3dfaa2c1	0.12238074
113	0x3e932783	0.28741083
114	0xbe7fd5dc	-0.24983925
115	0xbceab40d	-0.028650308
116	0xbc5f58d8	-0.013632022
117	0x3e8dbfeb	0.27685484
118	0xbe8d3f34	-0.27587283
119	0x3e9c7bd4	0.30563223
120	0xbe9ee4a4	-0.31033814
121	0xbe746f24	-0.23870522
122	0x3e7a8418	0.24464452
123	0xbe1bd6cc	-0.15218657
124	0xbe82f1b4	-0.2557503
125	0x3dd387d7	0.10328644
126	0x3df37590	0.11887658
127	0xbde0e58e	-0.10981284
128	0xbe958f51	-0.29210904
129	0xbdb8bad7	-0.09020012
130	0xbda9efc0	-0.08297682
131	0xbd9ab2d4	-0.0755364
132	0x3d70f89b	0.05883084
133	0x3de6cedd	0.11269925
134	0xbdbef2e1	-0.09323669
135	0xbe3fc782	-0.1872845
136	0xbd2c85ec	-0.042119905
137	0xbc30e15d	-0.010795918
138	0x3e36fafb	0.17869179
139	0xbbd80fe9	-0.0065936935
140	0xbd9c866c	-0.076428264
141	0x3dc8070d	0.0976697
142	0xbd8790ce	-0.06619416
143	0xbe0ece05	-0.13945778
144	0x3db499fe	0.08818434
145	0xbe5f9095	-0.21832497
146	0x3e6782f9	0.22608556
147	0xbd09fd61	-0.033688907
148	0x3e890811	0.26763967
149	0xbe904a99	-0.28181913
150	0x3d98dbc6	0.074637935
151	0x3e093a5e	0.13401172
152	0x3e6dbc9b	0.23216479
153	0xbe29d934	-0.16586763
154	0xbd6ca54c	-0.057774827
155	0xbe5e2b99	-0.21696319
156	0xbc50f232	-0.012753056
157	0xbe8f6049	-0.28003147
158	0x3d033ce3	0.032040488
159	0x3d9e5a95	0.07732121
160	0xbddbff0b	-0.10742005
161	0xbe2bc41a	-0.16774026
162	0x3e9d3678	0.3070562
163	0x3e105103	0.14093404
164	0xbb816f32	-0.003950023
165	0x3e95aa3b	0.29231438
166	0x3e4df91d	0.2011456
167	0xbe170f07	-0.14751826
168	0xbd53cd63	-0.051709544
169	0xbe884cb4	-0.2662102
170	0xbd44ee68	-0.048078924
171	0xbe8a081f	-0.2695932
172	0xbe6de753	-0.23232774
173	0x3d8dee2e	0.06930195
174	0xbe233050	-0.15936399
175	0xbde70b1e	-0.11281417
176	0x3e046f11	0.12932993
177	0x3e806b16	0.250817
178	0xbe5c4ec8	-0.21514428
179	0x3e4ec182	0.20191005
180	0xbe508d08	-0.20366299
181	0x3e26c223	0.16284995
182	0x3d49dbc8	0.049281865
183	0x3e816a8e	0.25276607
184	0x3e9f1519	0.31070784
185	0x3e1eb970	0.15500426
186	0xbe9c2920	-0.30500126
187	0xbc789049	-0.015171119
188	0x3e84b15c	0.25916564
189	0xbd54e3b1	-0.051974956
190	0x3d463080	0.048386097
191	0xbd22d771	-0.039756242
192	0xbe354f10	-0.17705941
193	0x3d5fe26a	0.054659285
194	0x3c93f88b	0.01806285
195	0x3e954b26	0.29158896
196	0x3e905d7a	0.28196317
197	0xbd90ab7b	-0.07063957
198	0x3e0b3ae6	0.13596687
199	0xbe48d717	-0.196133
200	0x3cb47545	0.022028575
201	0x3e79ba43	0.2438746
202	0x3e3fa0a2	0.1871362
203	0x3d67714d	0.056504536
204	0xbe41d8bd	-0.18930335
205	0x3bbf7b33	0.005843544
206	0xbe1c9c4f	-0.15294002
207	0xbe5c8fd2	-0.21539238
208	0xbe5421a6	-0.20715961
209	0xbe736c08	-0.2377168
210	0x3e2d3dc8	0.16918099
211	0x3e7e498d	0.24832745
212	0xbe222958	-0.15836084
213	0x3c8a35be	0.01687133
214	0xbe7fb6e2	-0.24972108
215	0x3e660126	0.22461376
216	0xbe3822f5	-0.17982085
217	0xbe8a7e68	-0.27049565
218	0x3e804bae	0.2505774
219	0xbe22dcd5	-0.15904553
220	0x3e58cb14	0.21171218
221	0xbe309cbb	-0.17247288
222	0x3e4d2c08	0.20036328
223	0xbe9686c7	-0.29399702
224	0x3e45108b	0.19244592
225	0x3dd096ab	0.10184988
226	0xbd871c5d	-0.06597207
227	0x3e85e08a	0.26147872
228	0xbd811e97	-0.06304663
229	0x3db9cef8	0.09072679
230	0x3dc82a85	0.09773735
231	0x3e320c44	0.17387491
232	0x3e76f2a6	0.24116
233	0x3e989474	0.2980076
234	0x3da29e4a	0.079403475
235	0xbe68aeb9	-0.22722901
236	0xbdfed567	-0.12443047
237	0x3e44d4ea	0.19221845
238	0x3e5a3cd6	0.2131227
239	0xbc8a3971	-0.016873093
240	0xbe726f2b	-0.2367522
241	0x3dcaf0a1	0.099091776
242	0x3e7c6a14	0.2464984
243	0xbe0f9d40	-0.1402483
244	0x3b63ccf9	0.0034759624
245	0xbdc1c88b	-0.09462079
246	0xbe3f60ca	-0.18689266
247	0xbd8837c9	-0.06651265
248	0x3db0b47b	0.08628174
249	0x3cdaf963	0.026730245
250	0x3d67414b	0.056458753
251	0x3dac64ba	0.084176496
252	0xbe77b708	-0.24190915
253	0x3e03937a	0.12849227
254	0xbd82696d	-0.063677646
255	0x3d9c5843	0.07634022

bias f4 [64]
0	0x3d8ad330	0.06778562
1	0xbe382a40	-0.17984867
2	0x3e168e78	0.14702785
3	0xbe8a30ac	-0.2699026
4	0x3ddb6e56	0.10714404
5	0x3de36e82	0.11105062
6	0xbe371336	-0.17878422
7	0x3e3677bd	0.17819114
8	0x3e2d9f1f	0.16955231
9	0xbdf3fd38	-0.11913532
10	0xbdae8ce5	-0.08522967
11	0xbdc0db4c	-0.094168276
12	0x3e0596d6	0.1304582
13	0xbe9447a9	-0.28960922
14	0x3e984608	0.2974093
15	0x3e95e635	0.29277197
16	0x3e210c54	0.15727359
17	0xbe0db932	-0.13840178
18	0xbe0ceceb	-0.13762252
19	0xbe1708dd	-0.14749475
20	0x3e2dbfec	0.16967744
21	0xbe3d1f99	-0.18469085
22	0xbd9cb57a	-0.076518014
23	0xbdbc170f	-0.091840856
24	0xbca1eca5	-0.019766161
25	0x3e51bfc8	0.20483315
26	0x3cbfcbd4	0.023412623
27	0x3df30665	0.11866454
28	0x3e53656f	0.20644163
29	0xbe3da3aa	-0.18519464
30	0x3d0ba863	0.034096133
31	0xbe692d2e	-0.22771141
32	0x3e32cab4	0.17460138
33	0x3e914af0	0.28377485
34	0x3db50d94	0.088404804
35	0x3e271fc5	0.16320713
36	0xbe22409c	-0.15844959
37	0x3d0f90ce	0.035050206
38	0x3e60ed1b	0.21965449
39	0x3e3a5973	0.18198185
40	0xbe98306b	-0.2972444
41	0x3e73fd9a	0.2382721
42	0xbdcd7226	-0.10031538
43	0xbdf62721	-0.12019182
44	0xbcd7d245	-0.026345382
45	0x3db11196	0.086459324
46	0xbd6694aa	-0.05629412
47	0x3e35ea3a	0.17765132
48	0x3db79662	0.0896423
49	0x3e4496e8	0.19198191
50	0xbdfe8a81	-0.12428761
51	0x3c98b3e7	0.018640472
52	0xbe4e2ea8	-0.20134985
53	0xbd6665b1	-0.056249324
54	0xbe1dde22	-0.15416768
55	0x3c778811	0.015108124
56	0xbc0cdf7b	-0.008598204
57	0xbe9021e6	-0.28150862
58	0x3ddd7d84	0.10814956
59	0xbbca3cd8	-0.006171804
60	0xbe798b26	-0.24369487
61	0xbe818fa3	-0.253049
62	0x3e23b0bc	0.15985388
63	0x3dae9b6f	0.0852574

in_proj_weight f4 [192, 64]
0	0x3c993886	0.01870371
1	0x3e0333ee	0.12812778
2	0xbe220ed5	-0.1582597
3	0xbe1d527e	-0.153635
4	0x3da0e7b3	0.07856693
5	0xbdacc619	-0.08436222
6	0x3dd78679	0.105236955
7	0x3e18824f	0.14893459
8	0x3d7455e1	0.059652213
9	0x3e171129	0.1475264
10	0xbdb85e7f	-0.09002399
11	0x3e015dd7	0.12633453
12	0x3da6daca	0.081471995
13	0xbdf31b8f	-0.11870491
14	0xbd68dab1	-0.056849185
15	0xbcd68a66	-0.02618904
16	0xbd15c97f	-0.036569115
17	0x3d64636e	0.055758886
18	0xbe02f303	-0.12788014
19	0x3dc32572	0.095286265
20	0xbd60a8d9	-0.054848526
21	0x3d519cf9	0.05117509
22	0x3ce805cf	0.028323082
23	0x3bf9b376	0.0076202704
24	0x3da60f45	0.08108381
25	0xbe2bc1eb	-0.16773193
26	0x3d636d78	0.05552432
27	0xbdc6f43e	-0.09714554
28	0xbdc20025	-0.09472684
29	0x3dcd8f8e	0.100371465
30	0x3db9ca54	0.09071794
31	0xbba4ce80	-0.0050294995
32	0x3df177c7	0.11790424
33	0xbc319ad1	-0.010840134
34	0x3df67eff	0.12035941
35	0x3e18e5a5	0.14931352
36	0x3e021b9c	0.12705845
37	0x3dba9c98	0.09111899
38	0xbd9f29a0	-0.07771611
39	0xbb87ae78	-0.0041406713
40	0x3d8c96b9	0.068646856
41	0x3d9d1be4	0.07671335
42	0x3de90872	0.11378564
43	0x3ae79149	0.00176672
44	0x3ace1450	0.0015722606
45	0x3c9e7763	0.019344037
46	0x3d2ba45e	0.0419048
47	0x3e014c70	0.12626815
48	0xbe02f453	-0.12788515
49	0x3dc8d7e8	0.09806806
50	0xbde02f6f	-0.10946547
51	0x3cfc21db	0.030777862
52	0x3df49a34	0.119434744
53	0xbdfd4e41	-0.123684414
54	0x3df5e4a7	0.120065026
55	0xbdcbce5a	-0.09951468
56	0xbd77d812	-0.060508795
57	0x3cc44ecf	0.02396336
58	0x3e105db8	0.14098251
59	0xbd596b99	-0.05308113
60	0x3e016b75	0.12638648
61	0x3db26ccb	0.08712157
62	0x3e068680	0.13137245
63	0x3dd97939	0.106188245
64	0x3ddc11c5	0.10745577
65	0x3deaa8ab	0.11457952
66	0xbe1777b0	-0.14791751
67	0x3cf8f329	0.030389385
68	0x3a20e479	0.00061375607
69	0x3d1c09b2	0.038095184
70	0x3d5bfe9b	0.053709608
71	0x3cd36ad7	0.025807781
72	0xbd07b559	-0.03313193
73	0x3d68e14a	0.056855477
74	0xbca3d5db	-0.019999435
75	0x3c89cad9	0.016820358
76	0x37a361d4	1.9476669e-05
77	0x3c904a09	0.017613428
78	0x3d762465	0.060093302
79	0xbd2562e3	-0.04037751
80	0xbdc399e1	-0.095508344
81	0x3da20547	0.07911163
82	0x3de671ae	0.112521514
83	0x3e0e76b1	0.13912465
84	0x3d143a22	0.036188252
85	0x3dd81df5	0.10552589
86	0x3e12ba96	0.1432899
87	0xbda1c9dc	-0.0789983
88	0xbe1525c8	-0.14565194
89	0xbdcb868d	-0.09937773
90	0xbd80bd75	-0.06286136
91	0x3da0edfc	0.07857892
92	0x3df0eb70	0.11763656
93	0x3d122208	0.035676986
94	0x3dadbde5	0.08483485
95	0xbdd1e282	-0.10248281
96	0xbe204a41	-0.15653326
97	0x3e041b5f	0.12901066
98	0xbd173db4	-0.03692408
99	0x3e385ce5	0.18004186
100	0x3d1d54ce	0.038410954
101	0x3dd5484b	0.104141794
102	0x3dd5a4d1	0.10431827
103	0x3d256267	0.040377047
104	0xbd9c67fe	-0.076370224
105	0x3b6bbd50	0.0035970993
106	0xbc4c2824	-0.012460742
107	0x3df46366	0.11933021
108	0xbdec9522	-0.11551882
109	0xbca06fa1	-0.019584479
110	0xbe1cd023	-0.15313773
111	0x3c8ba6d0	0.017047316
112	0xbde907f7	-0.11378472
113	0x3d3a68ea	0.04551021
114	0x3e07bbff	0.13255309
115	0x3dff4483	0.124642394
116	0x3d9b7203	0.075901054
117	0x3ba34a37	0.0049832123
118	0xbcb57405	-0.022150049
119	0x3e207413	0.15669279
120	0xbd5ad86c	-0.053429052
121	0xbd94cddd	-0.07265828
122	0x3c825881	0.015911343
123	0x3df5ed9c	0.12008211
124	0x3d00fb60	0.03148973
125	0xbcd191f0	-0.025582284
126	0xbd8a2feb	-0.06747421
127	0x3dde410c	0.108522505
128	0xbdc35132	-0.09536971
129	0x3df808ae	0.121110305
130	0xbdcf7477	-0.10129636
131	0xbe144e91	-0.14483096
132	0xbca142b1	-0.019685121
133	0x3da478b3	0.08030834
134	0x3c266339	0.010155492
135	0xbdc5f1c7	-0.09665256
136	0x3dabc95f	0.08388018
137	0xbe0f1873	-0.1397417
138	0xbc5a8261	-0.013336749
139	0xbe0573a5	-0.13032396
140	0xbcd1ddab	-0.025618395
141	0xbe0030fc	-0.12518686
142	0xbd0beb50	-0.03415996
143	0x3da344a1	0.07972074
144	0x3dd0a452	0.101875916
145	0x3ccdec8d	0.02513721
146	0xbc9a71ff	-0.018853186
147	0xbe0a01ff	-0.13477324
148	0x3d35d914	0.044396475
149	0x3d17e7a8	0.03708616
150	0xbe016315	-0.12635453
151	0xbdaa9241	-0.08328677
152	0xbd01f0e2	-0.031723864
153	0xbdf51316	-0.11966531
154	0xbdb7ffe0	-0.08984351
155	0x3d022f90	0.03178364
156	0xbc75cf6a	-0.015003065
157	0xbc055fea	-0.0081405435
158	0x3d9be322	0.076116815
159	0x3e1e7504	0.15474325
160	0xbd30c683	-0.043158066
161	0x3d6a873c	0.057257876
162	0x3d959109	0.07303054
163	0x3c623d71	0.013808594
164	0xbd7c1f9c	-0.061553583
165	0x3e29833b	0.16553967
166	0xbe1a0ec8	-0.15044701
167	0x3d95c768	0.07313424
168	0x3e07f90d	0.13278599
169	0x3dc98d34	0.098413855
170	0x3df5f31e	0.120092615
171	0x3d99b151	0.075045235
172	0xbde36435	-0.11103097
173	0xbe02d83c	-0.127778
174	0x3c2f770d	0.010709536
175	0x3db2c8ae	0.08729683
176	0x3d503ec0	0.050841093
177	0x3dd51173	0.10403719
178	0xbdc33551	-0.09531654
179	0xbdc1fbe9	-0.09471876
180	0xbcd16b7c	-0.025563948
181	0xbdf376e6	-0.118879125
182	0xbd970eb2	-0.0737585
183	0x3d45577b	0.04817913
184	0x3c8056e3	0.01566643
185	0x3e13ab0f	0.14420722
186	0x3e14e093	0.14538793
187	0xbe26cd2c	-0.16289204
188	0x3d54f107	0.051987674
189	0x3be3aa08	0.0069477595
190	0x3c6f46a4	0.014604244
191	0x3d88f1d0	0.06686747
192	0x3b31e2fe	0.0027143355
193	0x3dc46522	0.09589602
194	0x3d09f0a1	0.033676747
195	0xbdc85d39	-0.09783406
196	0xbd46fe93	-0.048582625
197	0xbd73a6fa	-0.059485413
198	0xbe10cc72	-0.1414049
199	0xbdd8f2ce	-0.10593186
200	0x3df904db	0.12159129
201	0xbd00d017	-0.03144845
202	0xbdfac80d	-0.12245188
203	0xbe0b701d	-0.13616987
204	0x3e1b2c3a	0.1515359
205	0xbddb1ba4	-0.106986314
206	0x3de9f64d	0.11423931
207	0x3d8302d7	0.06397026
208	0xbdfd0070	-0.12353599
209	0x3e1c7dbf	0.15282343
210	0x3ca645df	0.020296989
211	0xbd863d74	-0.0655469
212	0x3dec3917	0.115343265
213	0x3dc1975b	0.09452697
214	0x3c1ea540	0.009682953
215	0x3df74f27	0.12075644
216	0xbe11600d	-0.14196797
217	0x3dfe22f1	0.12409008
218	0xbe1605bb	-0.14650624
219	0xbde5dc85	-0.112237014
220	0x3a7e9dde	0.0009712855
221	0xbcf325e2	-0.02968115
222	0x3d615540	0.05501294
223	0xbe24b33b	-0.16083996
224	0x3d8ed8ad	0.069749214
225	0xbd78d383	-0.06074859
226	0x3df6cd04	0.120508224
227	0xbb17c696	-0.0023159138
228	0x3d479d2c	0.048733875
229	0xbdae4181	-0.08508588
230	0xbcfd2fb3	-0.030906534
231	0xbc47c02d	-0.012191814
232	0x3df05167	0.11734276
233	0xbd62e914	-0.055398062
234	0x3e1490b4	0.14508325
235	0xbe2b1bf6	-0.16709885
236	0xbca4697b	-0.020069828
237	0xbda777cd	-0.08177147
238	0xbe0a8c47	-0.13530074
239	0x3dd25600	0.102703094
240	0x3e1274d2	0.14302376
241	0xbd95c7b5	-0.07313482
242	0x3d8ebe9c	0.069699496
243	0xbdea5659	-0.11442251
244	0xbc4a6081	-0.01235211
245	0x3e1f7095	0.1557029
246	0xbc085505	-0.0083210515
247	0xbe106170	-0.1409967
248	0xbd95112c	-0.07278666
249	0x3d9d296a	0.07673915
250	0xbdca59f4	-0.098804384
251	0x3d13320f	0.03593641
252	0xbc9eba82	-0.019376043
253	0xbd4b45a0	-0.049626946
254	0x3b603cf6	0.0034216023
255	0xbe0607cd	-0.13088913

in_proj_bias f4 [192]
0	0xbc16404c	-0.009170603
1	0xbca58118	-0.020203158
2	0xbb92cb24	-0.0044797827
3	0x3be849ac	0.0070888605
4	0xbb02e7d8	-0.0019974615
5	0x3b733f8c	0.0037116734
6	0xba034317	-0.00050072506
7	0xbce936ba	-0.028468478
8	0x3c920375	0.017823914
9	0x3a32272a	0.0006795997
10	0xbbd19a85	-0.006396594
11	0x3bbb863c	0.005722789
12	0x3b01bff6	0.0019798256
13	0xbb177985	-0.0023113203
14	0xbb385eda	-0.0028132708
15	0xbba046bd	-0.004891245
16	0xbac31521	-0.0014883616
17	0xba9ff854	-0.0012204745
18	0xbba4c6d9	-0.0050285873
19	0x3ba9e865	0.0051851743
20	0x3b34c13d	0.0027581
21	0x3b24b2da	0.0025131018
22	0x3a9703e8	0.001152155
23	0x3cdc0aea	0.026860673
24	0x3c2aea7f	0.010431885
25	0x3b640c4e	0.0034797373
26	0x3c3b2b8c	0.011423957
27	0xbc1d953c	-0.0096181
28	0xbc3b96c5	-0.0114495205
29	0x3bcd0eb3	0.006257856
30	0xbb674733	-0.003529024
31	0xbc30450c	-0.01075865
32	0xbc3d79b8	-0.011564665
33	0xbc2caaeb	-0.010538797
34	0x3bfff9e8	0.0078117736
35	0x3c51214a	0.012764284
36	0xbc00a3e3	-0.007851574
37	0xbc0f19aa	-0.008734146
38	0xbbc116a6	-0.0058925925
39	0xbaa0d1df	-0.0012269578
40	0x3cd8b4aa	0.026453335
41	0x3c40a6ae	0.0117584895
42	0x3a179abc	0.000578325
43	0x3c4def57	0.01256927
44	0xbc05db39	-0.008169943
45	0x3c459f45	0.012061899
46	0x3b7046db	0.0036663327
47	0x3c55697a	0.013025636
48	0xbc36f563	-0.011166903
49	0x3d0b6514	0.034031942
50	0x3cca309f	0.024681387
51	0xbbb5fcc7	-0.005553815
52	0xbc886850	-0.016651303
53	0xbcc8784a	-0.02447142
54	0x3cc33355	0.023828188
55	0x3c9d7956	0.019222897
56	0x3bf49cd3	0.007464984
57	0x3b4ec2bb	0.0031549174
58	0x3ab899a0	0.001408387
59	0x3cb49a99	0.022046374
60	0xbc03d5f8	-0.00804662
61	0x3a45c36b	0.0007544073
62	0xbc0a5f23	-0.008445534
63	0xbb8b8fca	-0.0042590844
64	0x395b7562	0.00020929196
65	0x3974cb4e	0.0002334539
66	0x3909b9eb	0.00013134598
67	0xb9b30284	-0.00034143415
68	0x372bf6b1	1.0249832e-05
69	0xba0f3872	-0.0005463428
70	0x398cac1d	0.00026831115
71	0xb9bbf088	-0.0003584663
72	0x3a14d824	0.00056779594
73	0x39b4c09a	0.00034475775
74	0x394b94ae	0.00019414976
75	0xb8d28957	-0.00010039162
76	0x3a2ba0a6	0.0006547071
77	0x38cb7ce6	9.7030585e-05
78	0x3a59cf96	0.0008308826
79	0x39051609	0.00012692077
80	0xba0c0f49	-0.0005342854
81	0x3a0ac50c	0.00052936445
82	0x383948e0	4.4175307e-05
83	0xba8a9098	-0.0010571657
84	0x38565432	5.109999e-05
85	0xb9dfc4a5	-0.00042680386
86	0x38976bec	7.220343e-05
87	0xba37344b	-0.0006988688
88	0x3a3be5cf	0.0007167728
89	0xb8c4c3ee	-9.382503e-05
90	0x3922276e	0.00015464213
91	0xba083dc4	-0.0005197192
92	0xb95528b0	-0.0002032842
93	0x384eddb7	4.9320715e-05
94	0x3a9388b8	0.0011255955
95	0xb8273b1c	-3.9870953e-05
96	0xbb72533e	-0.0036975886
97	0xbc016dd1	-0.007899717
98	0x3c0f4c11	0.008746163
99	0xba87a5b2	-0.0010349064
100	0x39fe0983	0.00048453742
101	0x3ae75dd2	0.0017651862
102	0xba1178ec	-0.000554933
103	0x38b0ac62	8.424443e-05
104	0xba4b08d2	-0.000774515
105	0x3a2d3534	0.0006607354
106	0xb93098d0	-0.00016841595
107	0x39056630	0.00012721936
108	0x3873cf17	5.8128582e-05
109	0x3940ff23	0.00018405593
110	0xb8775ae9	-5.8974056e-05
111	0x39a76830	0.00031930348
112	0x3901cd21	0.00012378815
113	0x3a3efcc2	0.00072855887
114	0x37df7030	2.6635913e-05
115	0xba11551e	-0.00055439945
116	0x3a2ca688	0.00065860944
117	0xb9ba6ba6	-0.0003555689
118	0x3818468f	3.6305337e-05
119	0x381a04df	3.6720998e-05
120	0x3acc4e31	0.0015587268
121	0xba9405a4	-0.0011293185
122	0xbac6cf72	-0.0015168025
123	0xb96ed2b3	-0.0002277594
124	0x38212b05	3.8425456e-05
125	0x3af04947	0.0018332385
126	0xbbabaa3f	-0.005238801
127	0x3b4b95c0	0.00310646
128	0xbb4fb2d6	-0.0031692288
129	0x3c96cdf1	0.018408747
130	0x3b32d890	0.0027289726
131	0x39100167	0.00013733433
132	0x3c1a5113	0.009418744
133	0xbb8c4b07	-0.004281405
134	0x3c0bb0dc	0.008526053
135	0xba540966	-0.00080885587
136	0xbad7f874	-0.0016477243
137	0xbb766ce8	-0.0037601534
138	0xbc054c08	-0.008135803
139	0x3b5a78c2	0.0033336137
140	0x3a085bca	0.0005201666
141	0x3c00e10e	0.007866157
142	0x3c2187a9	0.009859004
143	0xbc02fda1	-0.00799504
144	0xbb015272	-0.001973298
145	0x3b550bf5	0.0032508348
146	0x3b3bba8c	0.0028645126
147	0xbb4d78fa	-0.0031352625
148	0xbbb74e58	-0.005594056
149	0xba9e38e6	-0.00120714
150	0x3b9094fa	0.0044122906
151	0x3b700903	0.0036626465
152	0xbb0c2788	-0.0021385867
153	0x3ac91100	0.0015340149
154	0xbc0dc78c	-0.008653533
155	0xbb85fc59	-0.00408892
156	0xbb63f50b	-0.0034783508
157	0xbb9c9d67	-0.004779506
158	0xb9648843	-0.00021794536
159	0x3c1e12a4	0.009647999
160	0x39a0d7ba	0.00030678307
161	0xbac10fbe	-0.0014729423
162	0x3ad837c5	0.0016496113
163	0x3b938a8d	0.0045026005
164	0x3b3f93a3	0.0029232285
165	0x3b9b8876	0.004746492
166	0x3ac36783	0.0014908168
167	0xbc3ef338	-0.011654668
168	0xbc0de527	-0.008660591
169	0x3b4fd8a9	0.0031714833
170	0xbb08e74c	-0.0020889817
171	0xbb2a576c	-0.002599205
172	0xbb74e3d0	-0.0037367232
173	0x3b29e18e	0.0025921795
174	0x3ac47887	0.0014989533
175	0x3929ae93	0.0001618213
176	0x3c57ea1a	0.013178373
177	0xbbc160e1	-0.0059014414
178	0xbbe3a095	-0.006946633
179	0xbaa1f855	-0.0012357334
180	0xb880d97b	-6.1440245e-05
181	0x3bb29e8d	0.0054510296
182	0x3ab20fec	0.0013585067
183	0x3a4bdfbf	0.0007777176
184	0x3b84afb7	0.004049267
185	0x3c088e00	0.008334637
186	0x3c1ac193	0.009445566
187	0xbb572b0a	-0.003283205
188	0x3aed0612	0.0018083474
189	0x3a66fc1e	0.0008811372
190	0x3cbad94a	0.02280869
191	0x3bc07055	0.005872766

weight f4 [64, 64]
0	0x3ca1fee1	0.019774856
1	0xbd107329	-0.035266075
2	0x3df25792	0.11833109
3	0x3c00e5fb	0.007867332
4	0x3dc9b2f9	0.098485895
5	0xbd024c8b	-0.03181128
6	0xbdb390e7	-0.08767872
7	0xbdabbc82	-0.083855644
8	0xbdee6fd6	-0.11642425
9	0xbd4d9e17	-0.050199594
10	0x3de89ff2	0.11358632
11	0x3c33a0f5	0.010963668
12	0x3dc5d332	0.09659423
13	0x3d9afefb	0.07568165
14	0xbdc48371	-0.09595383
15	0xbd91b021	-0.07113672
16	0x3d80750d	0.06272326
17	0xbc3303c6	-0.010926193
18	0x3d958acf	0.07301866
19	0xbdaeea39	-0.08540768
20	0xbd6eea75	-0.058329064
21	0x39c01c1f	0.00036642046
22	0x3d220031	0.039550964
23	0x3d3e33c2	0.04643608
24	0x3d9f4d7d	0.077784516
25	0x3b5691d9	0.003274074
26	0xbd93eee8	-0.07223302
27	0xbd6e7459	-0.058216427
28	0x3d66fa32	0.05639095
29	0xbd4efd2d	-0.050534416
30	0xbd80111a	-0.06253262
31	0x3dd8ae19	0.105800815
32	0x3d433d82	0.04766608
33	0x3d9ac6ab	0.07557424
34	0xbd23a8d0	-0.039955914
35	0xbdaf0d77	-0.0854749
36	0xbd1b577b	-0.037925225
37	0x3c295b06	0.010336643
38	0x3d5c17f3	0.053733777
39	0xbb4b0ad7	-0.0030981803
40	0xbc08415d	-0.008316365
41	0x3d10d568	0.03535977
42	0xbd404522	-0.04694093
43	0xbcd878fa	-0.026424874
44	0x3c005d11	0.007834689
45	0xbe0c4b8e	-0.13700697
46	0xbd7cc069	-0.061706934
47	0xbd8e77bb	-0.069564305
48	0x3bfd52c6	0.0077308146
49	0x3d623589	0.055226836
50	0xbdebbc01	-0.11510468
51	0xbd989184	-0.0744963
52	0xbcf0efa3	-0.029411143
53	0x3c1f383a	0.009717995
54	0x3d9a8d4f	0.07546484
55	0x3db639e4	0.088977605
56	0x3d3de6fb	0.04636286
57	0xbd1e7e0a	-0.03869442
58	0xbc7b1a9c	-0.015326168
59	0x3d161de6	0.036649607
60	0x3dea2cc6	0.11434321
61	0x3cb80f84	0.022468336
62	0x3c2b6c2b	0.010462801
63	0xbdcdad90	-0.1004287
64	0x3c35da5e	0.011099426
65	0x3d272aa9	0.04081217
66	0xbcb8e77b	-0.022571316
67	0xbd9ded3b	-0.07711264
68	0xbdb29180	-0.08719158
69	0xbd2f84e9	-0.042851362
70	0xbdb72f6a	-0.089445904
71	0xbd27637e	-0.040866368
72	0xbce99032	-0.02851114
73	0x3baf8c45	0.0053572976
74	0xbdf0488b	-0.117325865
75	0x3da892fe	0.082311615
76	0xbc81d255	-0.015847364
77	0xbdf7bd4b	-0.12096652
78	0xbdcea3db	-0.10089847
79	0x3d9d8bbe	0.07692669
80	0xbd473586	-0.04863503
81	0x3de17552	0.11008705
82	0xbd84b96b	-0.06480678
83	0xbdd6693b	-0.1046929
84	0xbd61998c	-0.055078074
85	0xbd926d7f	-0.07149791
86	0xbdddc6cf	-0.10828935
87	0x3dc9543a	0.09830518
88	0x3cedfb65	0.029050538
89	0xbd98330e	-0.07431613
90	0x3ba5dc19	0.005061638
91	0xbdd379a2	-0.10325934
92	0x3cd4215b	0.025894811
93	0x3d2514d3	0.040303063
94	0x3d9dcb2e	0.07704769
95	0xbbbfcaea	-0.0058530467
96	0x3d3fc8b2	0.046822257
97	0xbe0053b6	-0.12531933
98	0xbdc494f2	-0.095987216
99	0xbd713f6a	-0.058898367
100	0xbd9fa5e3	-0.07795312
101	0x3d905e51	0.070492394
102	0x3c11af43	0.008891883
103	0x3d18f306	0.03734114
104	0xbdd55f5c	-0.10418579
105	0xbbdd2661	-0.00674896
106	0xbe042d3b	-0.12907879
107	0xbdbbc3de	-0.09168218
108	0x3dc75573	0.09733095
109	0x3dacb7a9	0.08433468
110	0xbe06f3a1	-0.13178875
111	0xbde1c813	-0.11024489
112	0xbd8554c1	-0.06510306
113	0xbd00c9e2	-0.03144253
114	0x3df8c834	0.12147561
115	0xbd4af042	-0.049545534
116	0xbdba3ded	-0.09093843
117	0xbdcd064e	-0.10010968
118	0x3de69838	0.11259502
119	0x3d278af3	0.040903997
120	0x3c95484e	0.018222954
121	0xbde04645	-0.10950903
122	0xbd9aed83	-0.07564833
123	0x3cdd2dd0	0.026999384
124	0xbdde0922	-0.10841586
125	0x3dc94396	0.09827344
126	0xbb270a09	-0.002548816
127	0xbd32b711	-0.043631617
128	0xba9e1398	-0.0012060283
129	0xbdf51aaa	-0.119679764
130	0xbde2a89f	-0.11067318
131	0xbd3b2dba	-0.045697905
132	0xbd8cd921	-0.068773516
133	0xbdd7eac0	-0.10542822
134	0xbdcd7bc1	-0.1003337
135	0x3dd9c0ec	0.106325
136	0x3d2e8a6e	0.042612486
137	0xbdbe520d	-0.09292994
138	0xbdb0b9a7	-0.086291604
139	0xbd189dea	-0.037259974
140	0xbd916647	-0.07099586
141	0x3dc15ff9	0.094421335
142	0x3c9e2469	0.019304471
143	0x3b96c864	0.004601525
144	0xbd9a43b6	-0.07532446
145	0x3dfb964f	0.122845285
146	0xbdc39096	-0.09549062
147	0xbc954701	-0.018222334
148	0xbd12e5de	-0.03586375
149	0xbdfbd1d3	-0.1229588
150	0xbd6095ef	-0.054830488
151	0x3c60e8b4	0.013727356
152	0x3dad1d07	0.08452802
153	0xbc27814e	-0.0102237
154	0x3d43d744	0.047812715
155	0xbcacd38a	-0.021096963
156	0xbd3b7d83	-0.045773994
157	0xbd0fb6a7	-0.0350863
158	0x3d2ea69c	0.04263936
159	0xbd96af38	-0.07357639
160	0x3de16065	0.11004714
161	0xbd08a8b4	-0.033364013
162	0xbccb743d	-0.0248357
163	0x3d8653ac	0.06558928
164	0xbd854daf	-0.065089576
165	0xbdd93576	-0.106059
166	0x3daa0d72	0.08303346
167	0x3dcdfca2	0.100579515
168	0xbc368055	-0.011138995
169	0xbd7dedb0	-0.061994255
170	0xbdeb6a7a	-0.11494918
171	0xbb4f9f51	-0.0031680653
172	0x3d7911cb	0.060807984
173	0x3dd0735d	0.10178254
174	0xbd43609f	-0.047699567
175	0x3ddc8987	0.10768419
176	0x3d818df8	0.063259065
177	0x3dc99807	0.0984345
178	0xbd8c1103	-0.06839182
179	0x3e138291	0.14405276
180	0x3d64b20d	0.055833865
181	0x3d33105f	0.043716785
182	0x3d228da4	0.03968586
183	0x3dc9123c	0.09817931
184	0xbd590a28	-0.0529882
185	0xbd45a8d2	-0.048256703
186	0x3dc791e9	0.09744627
187	0x3dd6fb27	0.10497122
188	0xbd64a1e3	-0.05581845
189	0x3dfe0d7a	0.12404914
190	0xbd6c34a2	-0.057667382
191	0xbd87c8a3	-0.06630065
192	0x3e0049ba	0.12528124
193	0xbd1cf541	-0.03831983
194	0x3dca1b5d	0.098685004
195	0xbdc7a895	-0.09748951
196	0x3da3f097	0.08004873
197	0x3d940271	0.07227028
198	0x3d542d42	0.051800974
199	0x3dfc3394	0.12314525
200	0xbcc3d3a3	-0.023904627
201	0x3dae8b15	0.085226215
202	0x3d761c1f	0.060085412
203	0xbdc46fa1	-0.09591604
204	0xbda4f547	-0.080545954
205	0xbdee887a	-0.116471246
206	0x3d9c58b8	0.07634109
207	0xbda96a8f	-0.082722776
208	0x3cfe9b9b	0.031080058
209	0x3a7cbc95	0.0009641138
210	0xbd8c0882	-0.0683756
211	0xbcc12bf0	-0.023580521
212	0xb9c0e538	-0.00036791875
213	0x3d4840a8	0.048889786
214	0x3df898fc	0.121385545
215	0x3c095049	0.008380958
216	0xbb9547a9	-0.0045556617
217	0x3d5568f1	0.052102033
218	0xbdd0ddb7	-0.10198539
219	0xbd8ecae0	-0.06972289
220	0x3dbde233	0.0927166
221	0x3c526133	0.012840557
222	0x3df15fbc	0.11785838
223	0xbd3df9af	-0.046380695
224	0x3cb340a5	0.02188141
225	0x3df9f532	0.122049704
226	0xbcfed87f	-0.031109093
227	0x3d398b7b	0.045299035
228	0xbd900f4f	-0.0703417
229	0xbdf13635	-0.11777917
230	0x3c670618	0.014100574
231	0xbd61e876	-0.055153333
232	0xbd4ab889	-0.049492393
233	0x3cfda848	0.030964032
234	0x3d901eca	0.070371225
235	0x3c853d5b	0.016264608
236	0xbca118e1	-0.019665183
237	0xbdadd371	-0.08487595
238	0x3dda633c	0.10663459
239	0xbdab7c41	-0.08373309
240	0x3d23dfe4	0.04000844
241	0x3b893410	0.0041871145
242	0x3dd29419	0.10282154
243	0xbd8e12ed	-0.069372036
244	0xbd9999f4	-0.07500067
245	0x3cd946c0	0.026522994
246	0x3dcdf470	0.100563884
247	0xbd41c7d1	-0.0473097
248	0xbdbe0478	-0.09278196
249	0x3c53a413	0.012917536
250	0x3da3d0fc	0.07998845
251	0x3dc49395	0.095984615
252	0x3cda8ae2	0.026677553
253	0x3dac40f5	0.08410827
254	0x3dbca91d	0.09211943
255	0x3d1ae95a	0.037820198

bias f4 [64]
0	0x3c2a6834	0.0104008205
1	0x3a143774	0.0005654015
2	0xbb5c9489	-0.003365787
3	0xbb2bdb12	-0.0026223105
4	0x3bcaf505	0.0061937594
5	0x3b898d1b	0.0041977293
6	0x3c7e5ed2	0.015525537
7	0xbc53c4d5	-0.012925346
8	0x3af12000	0.0018396378
9	0xb8fb29ec	-0.00011976421
10	0x3bd4301b	0.006475461
11	0x3bdfd660	0.0068309754
12	0xbba10e65	-0.004915046
13	0x3b9645b9	0.0045859483
14	0x3b3c2de4	0.0028713876
15	0x3b67d81d	0.0035376616
16	0xbae8af58	-0.0017752452
17	0xbbe57d09	-0.0070034307
18	0x3af0a4ed	0.0018359699
19	0x3c6633c7	0.014050431
20	0xbc1ba342	-0.009499373
21	0xbb6ce470	-0.0036146902
22	0x3bc10a11	0.0058910926
23	0xbb197f9b	-0.0023422006
24	0xbaffffa6	-0.0019531145
25	0xbb0e859a	-0.0021747113
26	0x3beb9fab	0.0071906648
27	0xbb6cd920	-0.0036140159
28	0xbb78c5f5	-0.0037959788
29	0x3b7eb335	0.003886414
30	0x3b9b9b76	0.004748757
31	0x3b4bb0d6	0.0031080744
32	0x37aa0b23	2.0270765e-05
33	0xbc20a6dd	-0.009805408
34	0xbb0fb86a	-0.0021929988
35	0x3b73fe17	0.0037230307
36	0x3b3c94bc	0.0028775176
37	0x3b09d20c	0.0021029739
38	0xbb49c0ce	-0.0030785087
39	0xba8f32bc	-0.0010925154
40	0xbaabbe1c	-0.0013102922
41	0xbc591ff0	-0.013252243
42	0x3b1d25eb	0.00239789
43	0x3b86b6c0	0.004111141
44	0xbc19316b	-0.009350161
45	0xbb631a30	-0.003465306
46	0x3b8724b5	0.004124249
47	0xbbe28977	-0.0069133597
48	0xbb55d790	-0.0032629706
49	0xbb1321b4	-0.0022450509
50	0x3b83c330	0.004021071
51	0xbc30c08c	-0.010788094
52	0xbad3ade4	-0.0016149846
53	0x3a9ebccc	0.0012110709
54	0x3c123bce	0.008925391
55	0x3a476517	0.0007606311
56	0xbb0ced2c	-0.002150367
57	0x393b63a3	0.00017870827
58	0xbc53f615	-0.0129370885
59	0xbbe74a75	-0.0070584365
60	0x3b69da6b	0.0035683166
61	0x3b917e28	0.004440088
62	0x3bc39fff	0.0059700008
63	0xbb0b2a51	-0.002123494

weight f4 [256, 64]
0	0x3cc425dd	0.023943836
1	0xba992a06	-0.0011685498
2	0xbdafb48e	-0.0857936
3	0x3c5a0940	0.013307869
4	0xbbd9204d	-0.006626165
5	0x3d895c9e	0.067071185
6	0x3de1728b	0.110081755
7	0x3dc225cf	0.09479868
8	0xbda3e63e	-0.080028996
9	0x3d3c0e18	0.04591188
10	0xbb95f58d	-0.004576391
11	0xbd88d0ea	-0.06680472
12	0x3d39206a	0.045196928
13	0x3d806125	0.06268529
14	0x3d358455	0.044315655
15	0x3c8797c6	0.016551863
16	0xb9d1cbc9	-0.00040015418
17	0xbd467c6b	-0.048458498
18	0x3d066925	0.032815117
19	0xbda3612a	-0.07977517
20	0x3ded26f7	0.115796976
21	0xbc37d95d	-0.011221257
22	0xbd18a47c	-0.03726624
23	0xbb878052	-0.00413517
24	0xbddb1833	-0.10697975
25	0x3b993c92	0.00467641
26	0xbd138ccb	-0.036022943
27	0x3e13eb56	0.14445242
28	0xbcc15f6f	-0.023605077
29	0xbdcd535b	-0.100256644
30	0x3dfed2a8	0.12442523
31	0xbd2f2a73	-0.042765092
32	0xbdcca866	-0.09993057
33	0xbd400105	-0.046875972
34	0x3d18b321	0.037280206
35	0xbd8ea400	-0.06964874
36	0x3d2787f0	0.040901124
37	0x3c8ed02d	0.01743325
38	0xbd93b2f3	-0.07211866
39	0xbd3d3bfe	-0.04619979
40	0x3cf467f3	0.029834723
41	0x3da8bbfc	0.0823898
42	0xbdddf7bc	-0.10838267
43	0xbd3818b0	-0.04494542
44	0xbde33434	-0.11093941
45	0xbc6b62fb	-0.0143668605
46	0xbc453b78	-0.012038104
47	0xbdbf2da5	-0.09334878
48	0xbe01f4c1	-0.12691022
49	0x3df9f115	0.12204186
50	0x3de3c867	0.11122208
51	0x3ad97a1e	0.001659218
52	0x3dccc892	0.09999193
53	0x3d15b526	0.03654971
54	0xbdc32825	-0.09529141
55	0x3ddc55a4	0.10758522
56	0x3d5df12d	0.05418508
57	0xbd36941f	-0.044574853
58	0x3d1622e0	0.036654353
59	0xbd168ad1	-0.03675348
60	0x3d28d087	0.041214492
61	0xbda88ad8	-0.08229607
62	0x3dd8a6ec	0.10578713
63	0xbdb4b83b	-0.08824202
64	0xbde909e2	-0.11378838
65	0xbd5f2b3c	-0.05448459
66	0xbe0a357f	-0.1349697
67	0xbdd17a54	-0.1022841
68	0x3da4c56e	0.08045469
69	0x3e10f2a9	0.14155068
70	0xbdcd4218	-0.10022372
71	0x3de1440c	0.10999307
72	0x3d883107	0.06649976
73	0x3d3205c3	0.043462526
74	0xbda1c040	-0.07897997
75	0x3e00e105	0.12585838
76	0xbddb8a72	-0.10719766
77	0x3d3c8f61	0.046035174
78	0x3dda86e9	0.10670263
79	0x3dbfa88d	0.093583204
80	0xbdcff2e3	-0.10153749
81	0x3d620982	0.05518485
82	0xbd9f7504	-0.07785991
83	0xbd8f2c39	-0.06990857
84	0xbd53e806	-0.051734947
85	0x3ddb06c1	0.106946476
86	0x3dc3a0fb	0.09552189
87	0x3d1a4cb5	0.03767081
88	0xbd9bbb40	-0.076040745
89	0x3ca2b816	0.01986317
90	0xbd3cbd4d	-0.04607897
91	0x3dc366a0	0.095410585
92	0x3cfcc5da	0.030856062
93	0x3d0d5b8e	0.03451114
94	0x3dedce58	0.116116226
95	0x3cc41bb2	0.023938987
96	0x3d16fd6b	0.036862772
97	0x3d98aea6	0.074551865
98	0xbdd3c594	-0.103404194
99	0xbd6e8949	-0.058236394
100	0xbda3e588	-0.08002764
101	0xbdaa66e8	-0.08320409
102	0x3d71f65d	0.05907284
103	0x3cbc42b9	0.022981035
104	0xbdc41e58	-0.095761
105	0xbdc29b30	-0.09502256
106	0x3c74a57b	0.014932032
107	0xbda0106d	-0.07815633
108	0xbc2749ab	-0.010210435
109	0x3da66ae7	0.08125859
110	0xbdb57d58	-0.08861798
111	0x3d4e7e18	0.05041322
112	0xbdaa352b	-0.08310922
113	0x3da9eee6	0.082975194
114	0x3d80951d	0.06278441
115	0xbda96c1f	-0.082725756
116	0x3da331ae	0.0796846
117	0xbd684780	-0.056708813
118	0xbda5b8d7	-0.08091896
119	0xbcac9f9b	-0.0210722
120	0xbd01a80a	-0.031654395
121	0xbbf0e605	-0.007351639
122	0x3d30595e	0.043053977
123	0xbcb9801a	-0.022644091
124	0x3dbb4119	0.09143276
125	0xbd52d65c	-0.05147396
126	0x3c874f31	0.016517254
127	0xbc37b2a1	-0.011212022
128	0x3dc67ae0	0.09691405
129	0x3dc2f712	0.09519781
130	0xbc9c0909	-0.019047277
131	0xbda45580	-0.0802412
132	0x3d4c7cd4	0.049923733
133	0x3d3203a7	0.043460514
134	0xbd90dfe4	-0.07073954
135	0xbda31b69	-0.079642124
136	0xbdf9506e	-0.12173544
137	0x3dcd5833	0.10026588
138	0x3dfebae3	0.124379896
139	0x3a14ef41	0.00056814036
140	0xbce60c9d	-0.028082186
141	0x3d3fbd22	0.04681123
142	0xbcdec4a8	-0.027193382
143	0x3dda62b6	0.10663359
144	0x3d65c1d2	0.056093045
145	0xbd875fd8	-0.066100776
146	0xbd73bcca	-0.059506215
147	0xbd975766	-0.07389717
148	0x3dadab3a	0.084799245
149	0xbdd5b7a0	-0.10435414
150	0x3d6de874	0.058083013
151	0xbd8bcf0d	-0.06826601
152	0x3de1a14d	0.11017094
153	0xbbe0334d	-0.006842053
154	0xbc993c0d	-0.018705392
155	0xbba25b86	-0.004954758
156	0xbd2dbdef	-0.042417463
157	0x3d70c303	0.058779728
158	0xbbf896a7	-0.0075863185
159	0xbc9744a7	-0.018465353
160	0x3d9833aa	0.07431729
161	0x3cd6a252	0.026200447
162	0x3d683b75	0.056697328
163	0x3cd37a53	0.025815165
164	0xbaa57cbb	-0.0012625674
165	0xbdde42cb	-0.108525835
166	0xbdf4a419	-0.11945362
167	0xbd4673d0	-0.04845029
168	0xbad9f0c6	-0.0016627542
169	0x3d0d5286	0.03450253
170	0x3d9bced2	0.07607807
171	0xbd63939f	-0.055560704
172	0x3d86d34c	0.065832704
173	0xbd714074	-0.058899358
174	0xbd7ff192	-0.06248624
175	0xbded7ba9	-0.11595852
176	0x3dc0ec82	0.0942011
177	0x3b8ab133	0.0042325496
178	0x3e097de4	0.1342693
179	0xbdab3f62	-0.08361699
180	0x3d04b5eb	0.032400053
181	0x3d7dffd4	0.062011555
182	0x3d0fe50b	0.03513054
183	0xbdc3a5b8	-0.09553093
184	0x3d68f5a7	0.056874897
185	0xbdfcacbe	-0.123376355
186	0xbdcbcbb9	-0.099509664
187	0x3da48acb	0.08034285
188	0x3c7270f6	0.01479744
189	0x3dc75391	0.09732736
190	0xbd2d8d5a	-0.04237113
191	0xbd85891b	-0.065202914
192	0x3d1a9228	0.03773704
193	0x3dd3dd80	0.10344982
194	0xbe019253	-0.12653475
195	0x3d31620e	0.043306403
196	0xbd34a2bb	-0.044100504
197	0x3de7e8b9	0.11323685
198	0x3c9a4729	0.01883276
199	0xbdd8fd78	-0.1059522
200	0x3d6a014e	0.05713015
201	0xbcf070c7	-0.029350651
202	0x3d9d4f3d	0.07681129
203	0x3d9f10bd	0.077668644
204	0x3d4ce10b	0.050019305
205	0x3d953116	0.07284753
206	0x3d61e75b	0.05515228
207	0xbc3941c1	-0.011307181
208	0xbc819b60	-0.015821159
209	0x3b85b6e4	0.00408064
210	0xbc00ffde	-0.0078735035
211	0x3d8f6dc0	0.07003355
212	0xbd99b57b	-0.07505318
213	0x3df9e3a7	0.12201624
214	0x3d24c061	0.04022253
215	0x3d7dbef6	0.061949693
216	0x3d6e2690	0.058142245
217	0x3d2a241c	0.041538343
218	0x3cee6df4	0.029105164
219	0x3da92f6a	0.08260997
220	0xbdefbda0	-0.1170609
221	0xbdc1ade6	-0.094569966
222	0x3dc5f12a	0.09665139
223	0x3cd24b13	0.025670564
224	0xbdedfa44	-0.1162
225	0x3ddde47b	0.10834595
226	0xbe05f023	-0.13079886
227	0xbd2aa00f	-0.04165655
228	0x3cc85705	0.024455557
229	0xbcd4dd14	-0.025984325
230	0xbc8b852f	-0.01703128
231	0xbdeb4db5	-0.11489431
232	0xbcb2064c	-0.021731518
233	0x3d65485e	0.055977218
234	0xbdb1f3c2	-0.08689071
235	0x3dfa3ad4	0.12218252
236	0xbdbd6cfb	-0.09249302
237	0xb9cd3106	-0.00039137172
238	0x3cd892e4	0.02643723
239	0x3dd272bd	0.10275791
240	0x3dc7531e	0.0973265
241	0xbb74dd27	-0.0037363262
242	0x3d37a20b	0.04483227
243	0x3ca5773c	0.020198457
244	0xbd7b58f1	-0.061364118
245	0xbdae97d3	-0.08525052
246	0x3caea42d	0.02131852
247	0x3ce5d0df	0.028053699
248	0xbd5a0a8b	-0.05323271
249	0xbd938292	-0.07202639
250	0xbe06dd3c	-0.13170332
251	0x3d8b41be	0.06799649
252	0x3beb30b2	0.007177436
253	0xbdd75afa	-0.10515399
254	0x3e03d8d2	0.12875679
255	0xbdfe39e8	-0.124133885

bias f4 [256]
0	0xbd39f464	-0.045399085
1	0xbd24c15e	-0.04022347
2	0xbd5cbe9b	-0.053892713
3	0xbc10b8a3	-0.008833083
4	0x3dfed8e1	0.1244371
5	0xbcc3e061	-0.023910703
6	0xbd07f07c	-0.03318833
7	0x3dc60c42	0.09670307
8	0xbdcf130a	-0.10111053
9	0x3d2789c3	0.040902864
10	0x3c5bbe49	0.013412067
11	0xbbe4fbe1	-0.006988034
12	0xbdd0e591	-0.10200036
13	0xbccf52bf	-0.025308011
14	0xbdfc28c5	-0.12312464
15	0xbd2ade90	-0.04171616
16	0xbdb8b409	-0.09018714
17	0x3de51f97	0.11187666
18	0xba46fa72	-0.000759042
19	0x3dc297f1	0.09501637
20	0xbdc38bd4	-0.095481545
21	0xbe0256aa	-0.12728372
22	0x3da7b5fe	0.08189009
23	0x3d3fe1d9	0.046846244
24	0x3ca99927	0.020702912
25	0xbdb22c23	-0.08699825
26	0x3d212518	0.039342016
27	0xbde16d6d	-0.110071994
28	0x3b0492bf	0.002022907
29	0x3d4f9355	0.050677616
30	0x3d3d4c3c	0.04621528
31	0xbcba3a3b	-0.022732845
32	0xbddf133e	-0.10892342
33	0x3dc04bcf	0.09389459
34	0xbe06a307	-0.13148127
35	0xbd9af946	-0.075670764
36	0x3dd3f643	0.10349705
37	0xbe081a4a	-0.13291278
38	0xbd337f5e	-0.04382264
39	0x3dc0b0cb	0.094087206
40	0xbd2c32fc	-0.04204081
41	0x3c52ad55	0.012858708
42	0xbdd053f5	-0.101722635
43	0xbceb1120	-0.02869469
44	0x3d1cb9cf	0.03826314
45	0xbdef0168	-0.1167019
46	0xbd075794	-0.033042505
47	0x3d720c37	0.05909368
48	0xbd6299e9	-0.05532256
49	0x3d35602d	0.044281173
50	0x3c0f25dd	0.008737055
51	0x3d159ccc	0.036526486
52	0x3c1c04ee	0.00952266
53	0xbd3d7486	-0.046253704
54	0x3ca861af	0.020554392
55	0xbde015f8	-0.1094169
56	0xbdb14f7f	-0.08657741
57	0xbd124a55	-0.03571542
58	0x3d2b7abb	0.04186509
59	0x3d92c23d	0.07165954
60	0xbdcedd4b	-0.10100802
61	0xbde5606a	-0.1120003
62	0xbdad0d5d	-0.084498145
63	0x3cc38c11	0.0238705
64	0x3c455b89	0.012045749
65	0x3dace4f2	0.08442105
66	0xbdac9308	-0.084264815
67	0xbd959965	-0.07304648
68	0xbdeb7d11	-0.11498464
69	0xbcc25aa5	-0.023724863
70	0xbcb0a951	-0.021565111
71	0xbdbb35b4	-0.091411024
72	0x3dbeaa9d	0.09309886
73	0x3dceb480	0.100930214
74	0xbd5a09ca	-0.05323199
75	0xbdc810e9	-0.0976885
76	0xba40f765	-0.00073610834
77	0x3cc49ec6	0.02400149
78	0x3c62ae9d	0.013835576
79	0xbda6de10	-0.08147824
80	0x3c86c728	0.016452387
81	0x3c378742	0.011201682
82	0x3d0843b7	0.033267703
83	0x3d919e53	0.07110276
84	0x3cca0eca	0.024665255
85	0xbd1ffa6a	-0.039057173
86	0x3d0ad7ac	0.033897087
87	0x3cf1b725	0.029506275
88	0x3d0b773d	0.03404926
89	0x3d84c9f0	0.06483829
90	0x3bf41e13	0.007449874
91	0xbdee11dc	-0.116245
92	0xbded3712	-0.115827695
93	0xbdd583b1	-0.10425509
94	0xbd02e03d	-0.03195213
95	0xbd588a51	-0.052866284
96	0xbd13fbf4	-0.036128953
97	0x3d31a6f9	0.04337213
98	0x3c62afbe	0.0138358455
99	0xbcfe4e58	-0.031043217
100	0xbdb4615b	-0.088076316
101	0x3dad0bc2	0.08449508
102	0xbd3eda6b	-0.04659502
103	0x3d693bf9	0.05694196
104	0x3cef3fda	0.029205251
105	0xbcd8d050	-0.026466519
106	0x3d89de07	0.067318015
107	0x3d4e43dd	0.05035769
108	0x3da283c9	0.07935292
109	0xbbdc2c4f	-0.006719149
110	0x3d3c21df	0.04593074
111	0x3deab544	0.11460355
112	0x3dddcda7	0.10830241
113	0x3c1fca5d	0.009752837
114	0xbdd5b741	-0.104353435
115	0xbde65027	-0.112457566
116	0xbd1f95f7	-0.038961377
117	0xbd28d012	-0.041214056
118	0x3d5b087c	0.05347489
119	0xbd595fda	-0.053069927
120	0x3db1b06a	0.086762264
121	0xbdaed0cd	-0.08535919
122	0xbdb2c709	-0.08729369
123	0xbdd6af32	-0.104826346
124	0xbdf219fc	-0.118213624
125	0xbdd711bd	-0.1050143
126	0xbb7d128e	-0.0038615796
127	0xbd7d52e0	-0.061846614
128	0xbd50c683	-0.050970566
129	0x3cc7c252	0.024384651
130	0xbda2441d	-0.07923148
131	0xbdc27252	-0.09494461
132	0x3dacb48b	0.08432873
133	0x3db8635e	0.09003328
134	0x3dd78459	0.1052329
135	0xbd8a9ec8	-0.06768566
136	0x3dd70732	0.10499419
137	0x3dcea0c4	0.10089257
138	0xbde68ea4	-0.11257675
139	0xbdb80c9a	-0.089867786
140	0x3dce69d9	0.100787826
141	0x3dbd557e	0.09244822
142	0x3db65782	0.089034095
143	0x3c8d099d	0.017216498
144	0xbdd65e9b	-0.10467263
145	0x3ddd01a9	0.10791332
146	0xbda056e0	-0.0782907
147	0xbda475ae	-0.08030258
148	0xbdca728f	-0.098851316
149	0x3d6d13fd	0.05788039
150	0xbdba75ec	-0.09104523
151	0x3b57be58	0.003291985
152	0x3da7b3c8	0.081885874
153	0xbcc61916	-0.024181884
154	0xbdd282f1	-0.10278881
155	0x3d50d39a	0.05098305
156	0x3dcc2db0	0.09969652
157	0x3dad05cb	0.084483705
158	0x3da62004	0.08111575
159	0x3d1b5fe3	0.03793324
160	0xbc8865cb	-0.016650101
161	0xbe030345	-0.12794216
162	0x3dd55764	0.10417059
163	0xbe017dea	-0.12645689
164	0x3d88c7a9	0.06678707
165	0xbceb07f6	-0.02869032
166	0xbda2557d	-0.07926462
167	0xbdc7851a	-0.09742184
168	0x3db8b906	0.090196654
169	0xbd676451	-0.056492154
170	0xbcb2ca83	-0.02182508
171	0x3d8a227f	0.06744861
172	0xbd8117a0	-0.06303334
173	0xbcebf817	-0.028804822
174	0xbd01d196	-0.031694017
175	0xbdc3dc83	-0.09563544
176	0x3d47dc2a	0.04879395
177	0xbd8a2d56	-0.067469284
178	0x3ddb5332	0.107092276
179	0x3d0b71a3	0.03404392
180	0xbd14d47e	-0.03633546
181	0xbc03b419	-0.008038544
182	0x3cc8d7fd	0.024517054
183	0x3e004ad1	0.1252854
184	0xbd19022e	-0.037355594
185	0x3d90a08e	0.070618734
186	0xbd442e3b	-0.04789565
187	0x3d2a664f	0.041601475
188	0xbd906c01	-0.0705185
189	0xbdebcbc1	-0.11513472
190	0xbda88d60	-0.0823009
191	0xbce009dc	-0.027348451
192	0xbd511cd9	-0.051052902
193	0xbd5275d0	-0.051381886
194	0x3dad974d	0.08476124
195	0xba83a281	-0.0010042937
196	0x3d054057	0.032532062
197	0x3dc1c2a6	0.09460954
198	0x3da1c5fd	0.078990914
199	0x3dc15f5a	0.09442015
200	0xbbe30c87	-0.0069289836
201	0xbca4f7d1	-0.0201377
202	0x3d902cbd	0.07039783
203	0x3c8e1121	0.017342152
204	0xbc97dee1	-0.018538894
205	0xbdafcd10	-0.085840344
206	0xbdcc7a88	-0.099843085
207	0xbde9dcaf	-0.11419045
208	0xbd3fb14d	-0.046799947
209	0x3d5e2347	0.05423286
210	0xbd89c264	-0.0672653
211	0xbd192193	-0.037385534
212	0xbdfab880	-0.12242222
213	0x3dfaaa0e	0.122394666
214	0x3d2c9a14	0.042139128
215	0x3dcea6c0	0.10090399
216	0x3d0a95eb	0.03383438
217	0x3d5a891d	0.053353418
218	0x3b8626ec	0.0040939953
219	0xbd95e8b9	-0.07319779
220	0xbbf4f287	-0.0074752006
221	0xbc1c3a7a	-0.009535426
222	0xbc282331	-0.010262297
223	0xbe095064	-0.13409573
224	0x3df1132a	0.117712334
225	0x3d13f14c	0.03611879
226	0xbdb076b9	-0.086163945
227	0xbdb27765	-0.08714179
228	0x3d7242e1	0.059145812
229	0xbd9922fd	-0.074773766
230	0xbd55b2db	-0.052172523
231	0xbda07ad6	-0.07835929
232	0x3d9dae13	0.07699218
233	0x3d1a39d8	0.03765282
234	0x3dca4c5f	0.09877848
235	0xbd6671e5	-0.056260962
236	0x3ddcc6cd	0.10780106
237	0x3c00bc4d	0.007857394
238	0xbdaecc4d	-0.08535061
239	0x3dd53f7b	0.104124986
240	0xbcc53028	-0.024070814
241	0xbcf62238	-0.030045614
242	0xbd93522c	-0.071934074
243	0x3d99d26e	0.075108394
244	0xba20e0b8	-0.00061370013
245	0x3db365f4	0.087596804
246	0xbdd21887	-0.102585845
247	0x3d4c4430	0.049869716
248	0xbc4dee97	-0.012569091
249	0xbdf26262	-0.11835171
250	0xbdfa2e35	-0.122158445
251	0xbd0fffbe	-0.035156004
252	0x3d81596a	0.063158825
253	0xbd05ee3e	-0.03269791
254	0xbca69ad3	-0.020337498
255	0x3d87c085	0.06628517
