ak_workspace/result_data/baseline_results/DG_Glut/atac/imbal_model_3.pt (torch, 828358 bytes, 53 tensors)

cls_embedding f4 [1, 1, 64]
00000000: 6e21 8c3f 30ab a1bf b2a4 c7bf 9ec7 3340
00000010: 8be2 6dbe dd92 ae3d 735d b13f 092c 3bbf
00000020: 5615 abbe 6a9a 86bf f6b5 13bf c566 8ebf
00000030: 2a28 123e 39c5 113f b70a 673f e195 70be
00000040: 2795 c23e 0837 c8be e109 ee3f 8207 e33d
00000050: 0e64 d53e d75d 69bd 314c e63e ecef 4c3e
00000060: ad4a d43e 632b 81bf 9412 9fbe 5c66 f9bd
00000070: acf6 c5be bdae debe 238e 7a3f 6340 843f
00000080: f7fc 91bd 0426 7fbf fc96 0cbf 727e 4e3f
00000090: 82d3 32be 7feb f83e 0137 8dbf 6ce3 ef3e
000000a0: fbc6 41bf 49f0 8f3f 1bbf db3d 027c 4d3f
000000b0: 99c2 24bf a76a e0bf 3e0d c33f 2f36 99bf
000000c0: a9d6 1d3f 123d 593e 2f81 cf3f bd08 f2bf
000000d0: c676 4cbf 144c 2e40 375e dabe 2ba4 febe
000000e0: 868b 44be 8756 6ebd 3837 87bf 49ca 133f
000000f0: 6e67 acbf 6d6a ca3e d90f fabe 8dfb d13f
1.0947702 -1.2630367 -1.5597136 2.8090587 -0.2323095 0.08524106 1.3856643 -0.7311407
-0.33414716 -1.0515873 -0.57699525 -1.1125113 0.14273134 0.5694156 0.90250725 -0.23494674
0.3800442 -0.39104486 1.8596765 0.110854164 0.41677898 -0.05697426 0.44980004 0.20013398
0.41463223 -1.0091366 -0.3106886 -0.121777266 -0.38664758 -0.4349269 0.97873133 1.0332149
-0.07128327 -0.9966738 -0.54917884 0.8066169 -0.17463496 0.4861717 -1.1032411 0.46853197
-0.75694245 1.1245204 0.1072981 0.80267346 -0.6435943 -1.7532548 1.5238416 -1.196966
0.6165567 0.21214703 1.6211299 -1.8908917 -0.79868734 2.7233934 -0.42650005 -0.49734625
-0.19193849 -0.058187988 -1.0563726 0.5773054 -1.3469064 0.3953432 -0.48840216 1.6404892

weight f4 [64, 11]
00000000: 5ab8 3abe 172d 4b3e 2d54 2e3e a24a 613e
00000010: e167 19be ed1c 4a3e 0f8b 193d f439 42be
00000020: 04d3 9ebe b8f6 86be 419e 32be f482 11bd
00000030: c2a1 debd 4d26 573d 8d5c c93d 97f6 05be
00000040: e7fa 233d 2026 953e 4902 72be e482 ac3d
00000050: 6bab 703e 6d59 103d f710 3dbe 06d9 983d
00000060: a29f a93d b855 323e 6afd 4ebd 129b 2ebe
00000070: df0b f3bd 0390 4c3e 57b1 89be 34f8 4dbd
00000080: 2dc1 843e 8386 2c3e ad68 453e a83a a03d
00000090: faf4 d4bd 9408 0c3e c562 fb3d 4755 4abe
000000a0: a360 b7bd 5971 c1bc e61a 71be cb50 ca3d
000000b0: bb7b d53c f3a3 e03d 8cd2 53be 3353 dc3d
000000c0: 5b8a 3abe 77a7 033e c7c2 cd3d 5375 823e
000000d0: c738 98be 19a5 8a3e 994f 263e 1b80 b5bd
000000e0: 78c8 1cbe 0076 743e 283a 6b3e d310 80be
000000f0: 9076 0ebe f558 e1bd 6182 0c3b 1067 9d3e
00000100: 4cff 66be 8eb5 25bd 4f42 86be d354 15be
00000110: a587 84be d8c1 713e bb09 13bd b5f7 6ebe
00000120: 5013 51be ad41 b0bd 550d 573e 2107 433e
00000130: 2a23 3abd 6e1c 053e 7479 5dbe 2e0e 633d
00000140: 573a 803d a862 24bd 2c66 f4bd 8481 69be
00000150: 9086 df3d 27cb 783e 888c 603e 5b14 773e
00000160: 0ad4 8b3e 19bb 70be 3572 ba3b 938b f1bd
00000170: aee9 933d 42df 013c 4f3b a73d 5ff7 783e
00000180: 8e6b 76be 444b cb3d 33bf 363d 64e2 8c3e
00000190: a494 f5bd 241e 6b3e 1506 bcbc d97f 5a3e
000001a0: bb44 233e a372 323e e212 ae3d dbf4 95be
000001b0: cdc0 6bbe 49ff c23d ae2d 2c3e 7b39 783e
000001c0: 8250 f43d ac08 db3d ad10 b3bd 88f9 05be
000001d0: 1218 3ebd 7231 6dbe 7968 f73c 0c8a 83be
000001e0: 3935 fbbd 2c65 9bbb 0a67 94be e35a babd
000001f0: 22cb 6bbe 8e8b 91be 71a0 b03c c3c0 dabd
00000200: e5ac 3cbe 8920 46bc dd1c 583e 37f6 3fbe
00000210: 0a7b 8cbe 6b36 5ebe e39f 2c3e c3f0 613e
00000220: 4aea 8a3e 241f 943e 1b1f 953d aeb0 cfbd
00000230: de52 2dbe 9571 96be 90e1 373e a30f 8d3d
00000240: a86a 243e e2e5 273e d90d 943c 7af0 573e
00000250: da4d 8f3e 7751 36be 36b7 633e 4b41 90be
00000260: f2af 92be 1f3e 88bd 5742 a0bd 0419 893e
00000270: 748a 203e ef10 77be a78c cc3d ffe4 543e
00000280: 578c 1cbe 9ac2 63be d1b6 a5bd 37c5 663e
00000290: 9451 7abe e186 87be 324b 8dbe 097a 6dbe
000002a0: c251 7dbd 7425 76bd 2ee5 9a3e 8a4d 713c
000002b0: e0bc 5a3e c308 a7be df8b 973e 57aa 503e
000002c0: 6845 433e 54fb 873b 1073 123e 828a 1b3e
000002d0: de61 423e 4994 58be 92ee 563e 1d0a 423d
000002e0: ce08 283e 6040 8b3e 8868 6cbd 5f0d 3e3e
000002f0: b473 6ebc f22c 8ebe a159 67be 6502 90be
00000300: 72b9 46be ab04 2c3e 3303 85be 2a5f 3fbe
00000310: bf5b 863d aac3 953e 1791 023e 25ff 043e
00000320: c676 a13e a396 0fbd 377e 6dbe d675 1fbe
00000330: 9039 11be 9009 583e c261 a23d 9cc3 91bd
00000340: c178 123e 60ba 903e 0991 d3bd 9fb7 b3bd
00000350: c072 123e b46a 1bbe c84c 5f3e 2272 3e3e
00000360: ba07 713e b2a0 a1be d677 d9bb 963e e33d
00000370: a548 953d ea99 a13d 7987 633e 1f12 8cbe
00000380: 1754 d93d 2cce 753e 0af8 313e 1e1b 86be
00000390: 95e0 36be 67d7 f6bd e927 603d 2ec3 6bbe
000003a0: d672 19be 0278 90be 836c 39be 9511 473e
000003b0: e7f4 83be 4f33 37be 076c dfbb 6583 423d
000003c0: f05a 703d bb41 5fbe a2d7 7cbd 7ae3 173c
000003d0: 116f 823e c1ef 03ba d11f 92bd c00a 27be
000003e0: 4104 d3bd 0196 8abe cd52 9c3e 5f20 283e
000003f0: fa75 f43d 05af 8e3d e0d9 0b3e a24c 80be
-0.18234387 0.19841419 0.17024298 0.22001126 -0.14981033 0.19737597 0.037486132 -0.1896742
-0.31020367 -0.26360106 -0.17443182 -0.035525277 -0.108706966 0.05252676 0.09832106 -0.13082348
0.0400342 0.2913065 -0.23633684 0.08423403 0.23502891 0.035241533 -0.18463503 0.07463269
0.08282401 0.17415512 -0.050534643 -0.17051342 -0.118674986 0.19976811 -0.26893112 -0.050285533
0.2592863 0.16848187 0.19278212 0.07823688 -0.10398288 0.13675147 0.12274698 -0.19759093
-0.08953979 -0.023613619 -0.23545417 0.09878691 0.026059976 0.10968771 -0.20685786 0.107580565
-0.18216841 0.12856852 0.100469165 0.25480136 -0.29730818 0.27079085 0.16241302 -0.08862325
-0.15310848 0.23873138 0.22971404 -0.25012836 -0.13912416 -0.11003295 0.0021440017 0.30742693
-0.22558326 -0.040456347 -0.26222464 -0.14583139 -0.2588474 0.23609102 -0.03589795 -0.2333668
-0.20417523 -0.08606277 0.2100118 0.19045688 -0.04544369 0.12999126 -0.21628362 0.055433445
0.062611274 -0.04013315 -0.1193355 -0.22803313 0.10914338 0.24296246 0.21928608 0.24128859
0.2731021 -0.23508872 0.005689884 -0.117942 0.07222305 0.007926764 0.08165609 0.24313115
-0.24064466 0.09926465 0.044615936 0.27516472 -0.119912416 0.22960716 -0.022952119 0.21337833
0.15944187 0.17426543 0.08499695 -0.29288372 -0.23022766 0.09521348 0.168143 0.24240677
0.11929418 0.106950134 -0.08743415 -0.1308347 -0.046409674 -0.23163393 0.030201184 -0.2569126
-0.12266011 -0.0047422852 -0.28984863 -0.090993665 -0.23026708 -0.28426784 0.02156088 -0.10681298
-0.18425329 -0.012092718 0.2110476 -0.18746267 -0.2743762 -0.21700446 0.16857867 0.220645
0.27131873 0.28930008 0.072813235 -0.10141121 -0.16926143 -0.2938353 0.17957139 0.06887748
0.16056311 0.16396287 0.01807301 0.21087828 0.27989084 -0.17804514 0.22237858 -0.28174815
-0.2864986 -0.06652474 -0.07825153 0.26776898 0.15677816 -0.24127553 0.09987765 0.2079048
-0.1528791 -0.22242203 -0.0809151 0.22536169 -0.24445182 -0.26470092 -0.27596432 -0.23191084
-0.06184555 -0.06009431 0.30252975 0.014727959 0.21361113 -0.32623872 0.295989 0.2037748
0.19069445 0.0041498337 0.14301705 0.15189555 0.18982646 -0.21150316 0.20989445 0.047372926
0.16409609 0.27197552 -0.057716876 0.18559788 -0.014553953 -0.27768666 -0.22592784 -0.28126827
-0.1940668 0.16798656 -0.25979003 -0.18688646 0.06560468 0.29250842 0.1275066 0.12987955
0.3153593 -0.035055768 -0.23192678 -0.15572295 -0.14182115 0.21097398 0.07928802 -0.07117388
0.14303876 0.28267193 -0.10330398 -0.08775257 0.14301586 -0.15177423 0.21806633 0.18598226
0.23538104 -0.31567913 -0.0066366 0.11095922 0.072892465 0.07890685 0.22219647 -0.27357575
0.10611742 0.2400443 0.17379776 -0.26192564 -0.17859109 -0.120528035 0.05472556 -0.23023674
-0.14985213 -0.2821656 -0.181078 0.19440301 -0.25772783 -0.17890666 -0.006818298 0.04748859
0.058680475 -0.21802418 -0.06172908 0.009270543 0.25475362 -0.00050329795 -0.07134975 -0.16312695
-0.10303546 -0.2706757 0.30531922 0.16418599 0.11936565 0.06966976 0.13657331 -0.25058466

bias f4 [64]
00000000: 19d8 f13d b5ca 14be 7d4e 2bbe 2209 073e
00000010: 637d 873e b569 923e eae8 603e 26d7 93be
00000020: e627 95be 4161 13be ed2c 63be 5a73 77bd
00000030: 25d4 623e 5c16 623d 59c5 583e bfbd 89be
00000040: 63f2 9abe 0a20 3f3e f979 3c3e e195 27be
00000050: 1efe 90bd 2921 9dbd a64b 8abe 60fd 73bc
00000060: c1ea 37be 21a2 733e 995b 333b 8aac 2abe
00000070: 258d 3bbe 08a2 e4bc 611b 6dbe a5c4 2cbe
00000080: 29b7 123e f8d4 e33d b61a 123e d657 bb3d
00000090: 2cc1 883c 8d37 30bd 406d 5bbe 8f71 773e
000000a0: 74e4 733d 8969 583e 8dfb 7bbe 6d55 8cbe
000000b0: 92bd 25bd 7979 04be f5b6 c4bd 350a 0a3e
000000c0: 218b 753d 8418 8c3e 0c6f 2fbe ca25 813e
000000d0: ca0a 563e 1ed4 88be 01ea e33d 7f38 79be
000000e0: 0d31 1b3e 36f0 8a3e 4d59 ea3d b4f2 85be
000000f0: d6b7 263e 6e88 48be 8e96 913e 0fa1 8bbe
0.118087955 -0.14530452 -0.1672916 0.13187078 0.2646285 0.28596273 0.2196385 -0.28875083
-0.29132003 -0.14392568 -0.22185107 -0.060412742 0.22151239 0.055197105 0.21169032 -0.26902577
-0.3026305 0.18664566 0.18405904 -0.16365768 -0.07079719 -0.076723404 -0.2701084 -0.014891952
-0.17960645 0.23792316 0.002736783 -0.16667381 -0.18315561 -0.027909294 -0.23154975 -0.16871889
0.14327683 0.11124605 0.14268002 0.09147613 0.016693674 -0.043021727 -0.21428394 0.24164413
0.05954404 0.21134008 -0.24607678 -0.27408925 -0.04046399 -0.12936963 -0.09605209 0.13480456
0.059947137 0.27362454 -0.17132205 0.25224143 0.20902553 -0.26724333 0.11128617 -0.24337958
0.1515543 0.2713639 0.11442814 -0.2616173 0.16281065 -0.19583294 0.28435177 -0.27271315

in_proj_weight f4 [192, 64]
00000000: af70 c73d 1c51 cd3c 10f0 863d 188c 873d
00000010: f127 e7bd 3d3e b93d d80e 70bd 8192 c4bc
00000020: 4261 13bd 6d5d dd3d 76d5 9dbc 34ac ad3d
00000030: ff2e 00be c5ca a43d 1dea d8bc 7099 f93d
00000040: 5340 193e 6562 9f3d d696 153e c272 f03c
00000050: 6f8e 07be bc3e f33d a48d 8339 18f2 4c3c
00000060: ff78 f03d 21ac d5bc aed9 e03c f02f 9c3d
00000070: 8629 03be 04ef 66bc 568c 1d3e 59fa b6bd
00000080: cecf f1bd 151b ecbd 9f83 0b3e f8dd d33c
00000090: 95f5 d73d 5fab 333d 3d37 6c3c d95e f7bd
000000a0: d119 503c 743a e8bd 721f 813c 83d7 253d
000000b0: 6a9f 003e a8ea e5bd f324 1d3e 7b52 1a3e
000000c0: 9b2c ec3c d36a cabd 9aec 30bd a2c3 833d
000000d0: 8048 623c ad62 1dbe c0a2 6a3c 4a71 84bc
000000e0: 1534 173e 0180 0e3e 8c3d 0d3e d7d7 e5bd
000000f0: ca56 b0bd f627 07bd edd8 0a3e 1c0f c5bd
00000100: b2c6 9b3d 17a1 813d 41a9 ef3d f435 a23d
00000110: 7e65 d13d 7f08 11bd 8097 963d 952c debd
00000120: 4467 9a3c b38c d2bd 6fb2 b4bd 3888 13be
00000130: ae03 083e 1315 183e 5f5a f5bd 8a18 14bc
00000140: f292 ba3d 4e50 75bb ddf6 13be be1a df3d
00000150: 2a46 ec3d f3eb 8abc 7f71 6a3b d8d9 c83c
00000160: 67bf 943d 75b8 5f3c 1fd8 03bd 72f4 813c
00000170: 2b4a cb3b 77c7 f83d acc5 ce3d 1dff ec3d
00000180: 1eec 47bd ce80 cd3c bcde b3bd 2037 f6bd
00000190: e30d b53c 5749 dd3d b132 9cbd 7c7d 173d
000001a0: f3e6 04bd a629 353d 5c2f f0bb dee1 04be
000001b0: 3db0 e8bd 5797 ffbc 8541 aebd 760a b2bd
000001c0: 65c6 aabd bfe9 0dbe 5b13 d5bd b1f0 c8bd
000001d0: 3e39 a53d 0574 153e a71f 11be 760f e1bd
000001e0: ae90 27bc beee 44bd 30d9 ecbd 43f8 d03d
000001f0: b4fa f8bd 2a60 90bd 7c44 0bbe f089 55bd
00000200: ac5a c9bd 5edf abbd b169 8a3d 2159 9ebc
00000210: 3772 38bd 1944 113d a09e 18be 8ef6 babd
00000220: 04b6 0f3e cd85 bbbc b455 8fbd 3e40 ba3b
00000230: 1810 5dbd 1844 233d 8b84 07bc 4904 a53d
00000240: e430 0e3e c5b7 063d 6de9 203d 2d6d 2a3e
00000250: 12e8 cf3a bf7d 013e 8570 53bd 48b3 96bd
00000260: b83f c03d e47b 143e 701c 01bc 737c 1fbe
00000270: a030 2e3e 2d0e 2dbd 30ab 04be 827f 3d3e
00000280: 0fdc 22be 6967 aebd f072 b4bc 97a0 29be
00000290: 0b8f 8fbc 5bbc 3d3d 383d efbd 6cf0 083c
000002a0: 3809 643d 3425 c23c 0de3 fd3d fc5a 033e
000002b0: d44c 54bd 3625 45bc b093 05be 28d5 103e
000002c0: d5c0 4fbd 941e afbd 12d2 1bbe 03af 4e3d
000002d0: ae59 cd3d 6761 023e cd82 fdbc 5403 7f3d
000002e0: 2eef a1bd d8a7 123e e811 c2bd d160 b13d
000002f0: 79c8 583d aab6 adbd da40 56bc 0644 dc3d
00000300: 0ede bebd 4df8 a33d 5c8e aa3d 785f 503c
00000310: 6556 9ebc a0cf eebd a1ad 89bd 275c 19be
00000320: f06e ce3d 7398 d23d aa1d f43d e43e 86bc
00000330: 5088 0a3e 2bef 023d 2ae8 52bd aff1 4b3d
00000340: 1b48 3a3d 01ac 0cbe d9a6 19bd 4e40 243d
00000350: 643e 073d aaea 80bd 83af 95bd 122e c7bc
00000360: 472c 5ebd f750 db3d 9cfe 663d 3d85 7cbd
00000370: 0b87 bd3d 6dac cdbd 92b3 8bbc 5ff9 ddbc
00000380: 1448 063d 96c8 c3bd 9687 fbbd 04f0 453d
00000390: bc1e 08bc fa0a 12be f268 05be 42c2 123e
000003a0: f362 49bd 7b78 cbbd f74c ef3d cdf6 d33c
000003b0: cd08 e23d e275 a8bd 728c 113d d067 d63c
000003c0: 8425 94bd 6c6a 11bd ebec 75bd 64a6 f63d
000003d0: 239e a8bd 85c9 113e afc1 ec3c 9375 293d
000003e0: d8b5 c53d 1400 d5bb 0539 c53d 0848 afbd
000003f0: 8bf1 a0bd 636e eebd 1dbf 20bc 9472 32bd
0.097382896 0.02506309 0.06588757 0.06618518 -0.11286915 0.09045074 -0.058607906 -0.02399564
-0.035981424 0.10808835 -0.019266825 0.08480111 -0.12517928 0.08046488 -0.026478821 0.12187469
0.14965944 0.07782439 0.1460832 0.029351596 -0.13237928 0.118772 0.00025091798 0.0125088915
0.11741828 -0.026083054 0.027447548 0.07626331 -0.12808809 -0.014095072 0.15385565 -0.08934469
-0.11807214 -0.11528603 0.13624428 0.025862679 0.10544888 0.043864604 0.014417467 -0.12078638
0.012701468 -0.11339274 0.015762065 0.04048873 0.12560812 -0.11226398 0.15346126 0.15070526
0.028829863 -0.09883656 -0.04319439 0.064337984 0.013811231 -0.15369673 0.014321029 -0.016167302
0.14765961 0.13916017 0.1379301 -0.11222809 -0.08610304 -0.032997094 0.13559313 -0.096220225
0.076062575 0.063295536 0.117022045 0.07920447 0.10224436 -0.035408493 0.07353115 -0.10848347
0.018848069 -0.102807425 -0.08823096 -0.14407432 0.13282654 0.14851789 -0.119801275 -0.009039054
0.09110059 -0.0037431899 -0.1444964 0.108937725 0.1153682 -0.016958212 0.0035773215 0.024517938
0.072630696 0.013654818 -0.03218853 0.01586363 0.00620391 0.1214742 0.10096297 0.115720965
-0.048809163 0.025085833 -0.087827176 -0.12022233 0.022101348 0.10805004 -0.07626856 0.036984906
-0.032446813 0.044229172 -0.0073298644 -0.12976786 -0.1136174 -0.031200094 -0.085085906 -0.086934015
-0.08338622 -0.13858698 -0.104040824 -0.09811533 0.08067559 0.14595039 -0.1417223 -0.10989277
-0.010227365 -0.048079245 -0.11564863 0.10203602 -0.12157193 -0.07049592 -0.13600343 -0.0521335
-0.098317474 -0.08392213 0.0675844 -0.01932961 -0.0450308 0.035465334 -0.1490426 -0.09129058
0.14034277 -0.02289095 -0.069987684 0.005683928 -0.053970426 0.03985986 -0.008271347 0.08057458
0.13885838 0.0328901 0.039285112 0.1664321 0.0015862009 0.12645625 -0.05162098 -0.07358414
0.093871534 0.14500386 -0.007880315 -0.15574817 0.17010736 -0.042249847 -0.12955928 0.18505672
-0.15904258 -0.08515818 -0.022027463 -0.16565166 -0.017524263 0.046322208 -0.116815984 0.008358102
0.055672854 0.02369938 0.12396822 0.12827677 -0.05183108 -0.012032798 -0.1304462 0.14143813
-0.05072101 -0.08550754 -0.15216854 0.050459873 0.10026871 0.12732469 -0.03094616 0.062259033
-0.07906948 0.1432184 -0.094760716 0.086610444 0.05292556 -0.08482106 -0.013076985 0.10755162
-0.09319697 0.08006344 0.08327934 0.012718074 -0.019328305 -0.11660695 -0.0672257 -0.1497656
0.100797534 0.10282984 0.119197205 -0.01638741 0.13528562 0.03196637 -0.05149094 0.049791034
0.04547892 -0.1373749 -0.037512634 0.04010039 0.033018485 -0.062947586 -0.07308867 -0.02431396
-0.054241445 0.10708802 0.05639516 -0.061650503 0.09254273 -0.10042653 -0.0170534 -0.027096448
0.032783583 -0.09559743 -0.1228172 0.0483246 -0.008308109 -0.14262 -0.13028315 0.14331916
-0.04916663 -0.09935089 0.11684602 0.02587452 0.11036835 -0.08225609 0.03553433 0.026172549
-0.07233718 -0.035501882 -0.060040396 0.12043455 -0.08233287 0.1423703 0.02890095 0.041371893
0.096538246 -0.0065002535 0.09630016 -0.08558661 -0.07858571 -0.11642148 -0.00981119 -0.0435663

in_proj_bias f4 [192]
00000000: 8421 b43a a544 a23b b144 d93b c36a d93b
00000010: 4c92 cf3b 5228 88bb 9351 4dbc c4f8 c9bb
00000020: a8ee c9bb c67f 293c 7884 a03b 00eb 56bb
00000030: 9477 13bc b47e 0a3c 19e2 70bc 3f78 903b
00000040: 2803 613a 146f 01bd 9795 523c b20c 283d
00000050: 1883 1b3c 8263 453d ef25 34bd 02e1 033c
00000060: fcd1 c73b 6d8b b339 5982 0dbc 4e3a c8bc
00000070: d540 583d 9f3d 643a b148 c7ba 83c4 f0bc
00000080: d622 0cbc 0ca5 aabb c619 60bb 42c6 14bc
00000090: 0dac 96bc c6ea ab3b d6b4 8bbb 082f 0d3c
000000a0: 6a28 0b3c 54c3 b1bb 1113 f23b 13d2 21bc
000000b0: 8976 063c 9cf9 483c 0fa9 0d3c cd0f d93a
000000c0: ac0a 2a3b 183f dcbb 02ed 3a3c b0e2 d7bb
000000d0: 4115 12bc 0ba3 403c 1900 bb3b 3441 53bb
000000e0: 8c9d 45bc 3a1c 5f3b 81e7 7a3a 7ab4 87ba
000000f0: 4da2 2f3b 2b12 6fbc ff1b a03c cfab d7bb
00000100: 7624 35b8 3f1f 593a d1e3 043b aa9a 92ba
00000110: b7c9 d03a 9f73 893a a0b9 d0b9 699e a4ba
00000120: 2e90 1138 c031 2cb8 9295 0739 1776 43b8
00000130: 26b2 2ab9 f8e5 a1b9 b78d 8639 5b07 103a
00000140: 8a57 0239 1629 b839 af22 0439 e6be bcb7
00000150: 22e5 ebb8 0423 7e38 0f03 8236 1715 07b9
00000160: 8b25 5fb9 37c8 50ba 51f2 4b39 880a 003b
00000170: c89f 2ebb 3c53 6eba c945 28ba 5203 bd3a
00000180: 59b0 9e39 c00d 4c3a a318 fbb9 28be 853a
00000190: 2f99 49b9 ec9d f539 43b2 90b9 d9bf 073a
000001a0: 800b e938 cf3f a839 7bd5 d9b8 ca2c d537
000001b0: 1347 d337 15df 96b9 dc53 59ba a5f0 96b9
000001c0: 408d 80ba 00b5 e93a 27cb ac39 760c a9ba
000001d0: f5b3 80bb e509 81bb e149 18bb fe09 71b9
000001e0: 9445 1cba 3b40 48b7 1378 c0b8 b0f7 d7b9
000001f0: cf4a 7fb9 d9cc f9b7 89b5 0a3a fea5 e438
00000200: acba d637 bd86 1ebb e24a bc3b c6f8 c839
00000210: e4a2 89bc 7ed9 253c 5232 6c39 c816 7b3a
00000220: d39a 1b3c 63d7 013c 0c2f db3b 166f 24bb
00000230: 3bf4 16bc f9aa 8dbb b6d9 263c f5b8 c73a
00000240: 68fd 9cbb 362a b4b8 1c3d 19ba 3053 5fba
00000250: 6817 acba 307a 49bb 0123 343a 8690 54bb
00000260: f393 ec39 cc9f 673b db18 aa3b e619 e53b
00000270: 070b bdbb c17d 99ba de0a 5cbb 5a47 01bb
00000280: 5a71 b23a 35e5 eaba 8ad3 acba 21eb 8b3b
00000290: 69c0 093c 41cc 31bc dfa9 933c 2296 d0bb
000002a0: 3ae0 883a 9e69 9cbb 6168 01bb 7e3c 57bb
000002b0: 9eed 0bbc 6565 f73b 6f8b d83b a7d6 9a3c
000002c0: 38fe 013c 1d7e 8cba 48f0 b7bb 28eb 143c
000002d0: 69e7 73bb a147 b4bb 5d9a 913b 0fde deb9
000002e0: 8e61 dabb 5eb4 86bc e650 9ebb c782 273b
000002f0: 3f37 2ebb 79f4 043b 5c34 3f3a 9050 bb3b
0.0013742899 0.0049520307 0.006630503 0.0066350414 0.0063345786 -0.004155197 -0.012531656 -0.0061636884
-0.0061624832 0.010345405 0.004898604 -0.003279388 -0.009000678 0.00845306 -0.014702343 0.0044088657
0.0008583539 -0.031600073 0.012853048 0.041027732 0.009491704 0.0481906 -0.04398149 0.0080492515
0.00609803 0.0003424542 -0.008637034 -0.024441864 0.052796204 0.0008706692 -0.0015204159 -0.02939058
-0.008553227 -0.0052076634 -0.003419505 -0.0090804715 -0.018392587 0.005246493 -0.0042635007 0.00861717
0.008493522 -0.0054248963 0.007387527 -0.009876746 0.008206972 0.012266543 0.008646264 0.0016560495
0.0025946302 -0.0067213885 0.011409046 -0.0065883026 -0.0089162 0.0117576225 0.0057067988 -0.003223491
-0.012061488 0.0034043924 0.000957124 -0.0010353469 0.002679962 -0.014591734 0.0195446 -0.0065817605
-4.318772e-05 0.0008282549 0.002027739 -0.001118501 0.0015929256 0.0010486728 -0.00039811153 -0.0012559417
3.470497e-05 -4.105433e-05 0.00012930323 -4.6601603e-05 -0.00016278829 -0.00030879653 0.00025664057 0.000549426
0.00012430377 0.00035125826 0.00012601422 -2.250024e-05 -0.000112483525 6.059093e-05 3.874658e-06 -0.0001288246
-0.00021280923 -0.00079644046 0.00019449859 0.0019537527 -0.002664553 -0.00090913824 -0.000641909 0.0014420545
0.00030267498 0.00077840313 -0.00047892806 0.0010203766 -0.00019225919 0.00046847702 -0.00027598636 0.0005178429
0.00011112448 0.00032090998 -0.0001038713 2.5412435e-05 2.5186257e-05 -0.0002877644 -0.0008290389 -0.00028789524
-0.0009807721 0.0017830431 0.00032957757 -0.001289739 -0.0039277025 -0.003937947 -0.0023237395 -0.00022987273
-0.00059612957 -1.1935884e-05 -9.177639e-05 -0.00041192537 -0.00024346563 -2.9778503e-05 0.0005291333 0.00010902806
2.5597714e-05 -0.0024189197 0.0057462314 0.00038332323 -0.016801305 0.010122655 0.0002252546 0.0009578285
0.009497362 0.007924887 0.006688958 -0.0025090626 -0.0092135025 -0.00432336 0.010183742 0.0015237617
-0.0047909506 -8.590931e-05 -0.0005845593 -0.0008519171 -0.0013129534 -0.0030742995 0.0006871671 -0.0032434775
0.00045123658 0.003534305 0.0051909513 0.0069916127 -0.005769137 -0.0011710451 -0.0033575813 -0.0019726367
0.0013614104 -0.0017921092 -0.0013185602 0.004269973 0.008407691 -0.010851921 0.018025337 -0.0063655535
0.0010442801 -0.0047733327 -0.0019746053 -0.0032842453 -0.008540539 0.007549929 0.0066084187 0.018901182
0.007934146 -0.0010718737 -0.0056133606 0.009089269 -0.0037216789 -0.005501703 0.0044434504 -0.00042508586
-0.0066644615 -0.016443428 -0.004831421 0.0025560127 -0.0026583222 0.0020287319 0.0007293874 0.005716391

weight f4 [64, 64]
00000000: 901c cd3d 68a8 673d a91f 483d deea 78bd
00000010: 52b6 3a3d 268c e23d e1e0 b13d 89cb 7e3d
00000020: eccf e2bc af68 20bd 2e97 d33d d64d fbbc
00000030: 63a5 693d 1bfb a5bc 4093 da3c c9d8 e7bd
00000040: 1ca8 483d de63 233d c256 733d eafc 0f3d
00000050: fc15 a23d 40c4 e43c 7dfc 7c3b 1ced 973c
00000060: 76be c63d 1455 57bd 9451 413d ebf3 d7bc
00000070: 8451 61bd d76c 3dbd 1db8 11bb 4156 1cbd
00000080: 16f3 56bd 0bb0 c73d eebd bf3b 649d 3b3c
00000090: 6277 2fbd 9b11 c73d 0d19 b2bd f30c d83c
000000a0: 374e 6cbd e1c8 02bb 41b4 b73d 8d0a d23d
000000b0: 1571 723d dfe5 093c 926d d83d be91 cb3c
000000c0: fbea 883d 5afc 8bbd e4f9 5c3d a084 f0bc
000000d0: 6a33 823c 37ba c33c 1196 e83d 08d8 88bc
000000e0: 26cb 0b3e 70a4 c9bd 58fa a63d e412 a83c
000000f0: f6e7 9fbb 0d34 f03d d14b 993c e3ab c23d
00000100: 9555 313d c5b0 163e 2ec9 e9bd d2b9 07bc
00000110: bc3a 063e 8452 ab3d fa6a 1a3e 1ccf c03c
00000120: 75b9 d53d 552e 783d ebff 85bc fd53 e4bc
00000130: 16ea 16bd da5c d5bd 350b c8bd 386b 49bd
00000140: a0f3 f7bc 819b cdbd 5a9d 88bd f3ec 85bd
00000150: 89ea 91bd 527f adbd 6dc1 0ebd c55a 4dbd
00000160: 2c9d c93c 47b2 103d 94aa b9bd 8906 3dbd
00000170: d8c9 1ebd 2ef0 c4bc d395 b43d daa1 16bd
00000180: 35e9 35bd 7191 3cbc 5e51 31bb 5357 1f3b
00000190: e301 10bd 72a3 edbd fe66 113d b92d 4c3d
000001a0: 392f f83d c989 bcbd 135e efbd 8458 513d
000001b0: 64b4 b63d 3149 e5bd 427b a1bc 100a c73d
000001c0: 8ed9 75bd b3e6 76bd 38ad 983d 9c62 52bd
000001d0: d9fd e43c 5915 b43d 4977 853d ae66 1e3d
000001e0: 3c82 f5b8 193c 1c3d 4a04 6cbc e52e 023c
000001f0: d748 013e 852d aabd 3e32 93bd 9ce3 86bc
00000200: 0204 283d 0e65 783d 4953 c5bd 1e9f c03c
00000210: 7f10 90bc caa4 0bbc 24d4 d4bd 145a ce3c
00000220: 5102 dabd a187 043d e8d4 a53d 5ae4 cf3d
00000230: 4c82 eebd 9546 cbbd f458 563d eb3b db3d
00000240: bc47 45bc 21c2 bd3d bf28 513d 5103 033b
00000250: bc2c e2bd 488d 8fbc 3609 d63d 1f8f 38bd
00000260: c7ef 44bd cc15 973d 8e47 ba3d 97ba 6c3d
00000270: c0e3 e23d 3425 a0bd a094 fdbd fc97 c1bc
00000280: 8a63 5ebd d2a9 ae3d 9f9d c03d cae0 363d
00000290: 7f14 dabd f1ba e5bd af23 a83d 3851 6bbd
000002a0: 318f bf3c 04d6 62bd 10f3 71bd 2228 67bd
000002b0: 5308 103b 6d1e 58bb d248 5f3d aaf5 ec3d
000002c0: 6d51 0f3e c864 4cbd 5242 fd3c 2cf2 b7bd
000002d0: d3db 173c ddd6 8cbd 349b 653d 7f78 1bbd
000002e0: c4a1 4e3d de4d 8bbd fcf3 4ebd 14d1 a33d
000002f0: 4b9c 0e3d bf95 d73d d973 83bd 80f3 d63c
00000300: 04f7 293d 03de 4f3d 37b7 073d 9101 f2bb
00000310: a29d afbd df1e a4bd 098d 913d c884 413b
00000320: 84ab dbbd 44a5 273c 52f5 2bbc 135d bd3d
00000330: b68e e13d 910a 073c 9a29 d23d 8135 c43d
00000340: 6632 fabc 2def 963d 6cdd 66bd 8e46 dfbc
00000350: cf9c f1bd 58e6 05be a36a 6abc 0b25 573d
00000360: 9e99 55bd e9f0 863d b0e8 243d 93f9 f63c
00000370: c18f 9f3d 8ec8 1fbd c3f1 eabd 1021 cb3d
00000380: 7069 c7bc 7a2f eb3d 8d40 93bd 46c3 abbd
00000390: 5200 e5bd 8574 ea3d 9679 1d3d 0180 ee3d
000003a0: a6a1 85bc f8e5 ea3d b98a 553d 077e d8bd
000003b0: 5dab 3dbc 72cd 99bb de84 d3bc 8635 473d
000003c0: d179 75bd 0b5d fcbd 7fcd 8d3d 39ed 063c
000003d0: f013 f6bd bec8 dfbd c1ee 92bd b31c 9fbc
000003e0: 6fcf a83c 2d7e 05be 89c2 f83c c27c 6f3d
000003f0: 0152 89bd e9f2 05bd 140a d7bd b68c 58bd
0.100152135 0.05655709 0.04885832 -0.06077086 0.04558403 0.110618874 0.0868547 0.062205825
-0.027687036 -0.039162334 0.103315696 -0.030676764 0.05704249 -0.020261338 0.026681542 -0.11320645
0.048988447 0.039890163 0.05940891 0.035153307 0.079143494 0.02792561 0.0038602643 0.01854568
0.09704296 -0.05257137 0.04719694 -0.026361426 -0.05500938 -0.046246376 -0.0022234984 -0.038168196
-0.05247792 0.097503744 0.005851499 0.011451099 -0.04283846 0.09720155 -0.08696184 0.026373362
-0.05769178 -0.001995616 0.089699276 0.10255919 0.059189875 0.008416622 0.10567774 0.024849769
0.06685444 -0.068352416 0.05394925 -0.029360116 0.015893657 0.023892505 0.11356748 -0.016704574
0.13651714 -0.09845817 0.08153218 0.02051682 -0.004879947 0.11728678 0.01871291 0.09505441
0.043294508 0.1471587 -0.11415325 -0.008284049 0.13108343 0.08365348 0.15079871 0.023536257
0.10435764 0.06059106 -0.016357383 -0.02787208 -0.036844335 -0.10418101 -0.097677626 -0.049174517
-0.030267537 -0.10039426 -0.066706374 -0.06539335 -0.07124812 -0.0847155 -0.034852434 -0.050135393
0.024611078 0.03532627 -0.09065738 -0.04614881 -0.038766712 -0.024040308 0.08817639 -0.036775447
-0.044411857 -0.011509285 -0.0027056555 0.0024313524 -0.03515805 -0.1160344 0.03549861 0.049848292
0.12118382 -0.09205968 -0.11687865 0.051109806 0.089211255 -0.11195601 -0.019712094 0.09718716
-0.06002193 -0.060278606 0.07454914 -0.051363572 0.027953075 0.08793134 0.065168925 0.03867214
-0.000117067684 0.03814325 -0.0144053195 0.007945751 0.12625442 -0.083094634 -0.07187317 -0.016465954
0.041019447 0.06064325 -0.09635026 0.023513373 -0.017585991 -0.0085231755 -0.10392025 0.025189437
-0.10644973 0.03235591 0.08097249 0.101509765 -0.11645946 -0.09925572 0.052330926 0.10704788
-0.012041029 0.09265543 0.05106425 0.001999099 -0.11043689 -0.017523423 0.104509756 -0.045058366
-0.048080232 0.07377204 0.09095679 0.057795133 0.11078596 -0.07819596 -0.123818636 -0.023632042
-0.054294147 0.085284844 0.09405064 0.04464797 -0.106484406 -0.11217297 0.08209931 -0.057450503
0.023383709 -0.055379882 -0.059069693 -0.056434758 0.0021977618 -0.003297712 0.054512806 0.11570294
0.13995905 -0.0499008 0.030915413 -0.089817375 0.009268719 -0.068769194 0.056056216 -0.03795671
0.05044724 -0.06801961 -0.05052565 0.07998863 0.03481702 0.10526609 -0.064185806 0.026239157
0.041495338 0.050748836 0.03313371 -0.0073854406 -0.08574988 -0.08013701 0.071069784 0.0029528607
-0.107260734 0.0102322735 -0.010495501 0.09246268 0.11013548 0.008242265 0.10261841 0.095805176
-0.03054161 0.07369838 -0.056363508 -0.027255323 -0.11797487 -0.1307615 -0.014307651 0.05252556
-0.052148454 0.06588919 0.04026097 0.030148303 0.07791091 -0.039009623 -0.11471894 0.099184155
-0.024342269 0.11483665 -0.071900465 -0.08386855 -0.11181702 0.114480056 0.03844603 0.116455086
-0.016312432 0.11469644 0.05213425 -0.10570913 -0.011576501 -0.0046936804 -0.025820192 0.04863503
-0.059930626 -0.12322434 0.06923961 0.008235269 -0.120155215 -0.109269604 -0.07174445 -0.019422865
0.020606725 -0.13036413 0.0303662 0.058468588 -0.06705094 -0.03270236 -0.10499969 -0.052868567

bias f4 [64]
00000000: 3873 383b 8785 a33b 5fff 353b c740 cfbb
00000010: a18a 7dba 8667 8eba ba52 8dbb 3686 4cbb
00000020: 283e cebb 64bd fdba a871 053b b355 bd3b
00000030: bae8 d6ba a214 1ebc 038e 51bb 9a77 5cbb
00000040: 21f7 21bc 9fa1 b339 f091 19bc 72a9 69bc
00000050: 19c9 06bb c4c7 51ba e974 143b 7cd7 4b3a
00000060: 26e1 5b3b 68ed 533b db85 9c3b 490b f83a
00000070: 5113 123a a05b 3c3b 31cb d03b 3942 39ba
00000080: 711e 963b 20e2 08bc ef6d 293b c753 b93b
00000090: 98fc 3cbb c0f5 a2ba d267 693b 1f76 a5ba
000000a0: 17d1 f839 6951 593b 67ba a53a cca4 f83a
000000b0: 1b69 ee3b 71d8 183a 7f9b e43b 11e0 c3bb
000000c0: 6bd2 96bb 8a1d faba 16df 063b 0a4a 023a
000000d0: 45eb 833b fa94 41ba ac8f 94bb 2696 223c
000000e0: c33f d83a 84f0 ebba 113f 66bb cad6 2c3b
000000f0: 3f02 5bbc 74aa 633b 3ebe d9bb 7666 793b
0.0028144848 0.004990283 0.0027770621 -0.0063248607 -0.00096718414 -0.0010864593 -0.0043128403 -0.0031207926
-0.0062940307 -0.0019358811 0.0020361934 0.0057780384 -0.0016396262 -0.009648474 -0.0031975515 -0.0033640624
-0.00988558 0.00034261958 -0.009373173 -0.01426159 -0.002056664 -0.00080024847 0.0022652692 0.0007775945
0.0033550947 0.003233755 0.004776699 0.0018924262 0.00055723364 0.0028741136 0.0063718786 -0.0007067058
0.0045812656 -0.008354694 0.002585288 0.005655739 -0.002883708 -0.0012432858 0.003561486 -0.0012623704
0.0004745803 0.0033160097 0.0012644053 0.0018970012 0.007275713 0.0005830592 0.0069765444 -0.0059776385
-0.0046027205 -0.001908229 0.0020579747 0.0004970139 0.004025849 -0.0007384565 -0.0045337286 0.0099234935
0.0016498495 -0.0018000756 -0.0035132805 0.0026373141 -0.013367235 0.003473905 -0.006644993 0.0038055456

weight f4 [256, 64]
00000000: a7d1 1d3d 5a26 763d 4e97 b73d ffdf 20bd
00000010: 02af 80bd db7d 47bd 8d8c 24bd 1e76 4f3d
00000020: 86ac 80bd 2353 b83d abb4 863c 77b3 5e3d
00000030: 6863 b1bc 77d8 bf3c acab 4b3c ce41 e13d
00000040: 3e4e d43d 2c0a 00be f6b2 92bd ec0e 893d
00000050: 3bf6 bdbd 5aa2 4dbc 1d82 e9bc e9bf bc3d
00000060: 8402 9d3d 3b17 acbd 464a 84bd 250e 003e
00000070: 64df 01bd 0e0b f2bd db05 553d ff0f c8bd
00000080: da6c 793d d2a6 c9bd 9549 893d e84e ebbd
00000090: c8db 473c b694 363d 107a ec3d 84bf 9cbd
000000a0: b34b 8cbd 397f 76bd 1564 d5bd 6fcc ad3c
000000b0: da4d 0bbd 23b2 92bd 6510 d33d b73c c5bc
000000c0: d56b 5bbd 73c2 b43d 8571 92bd 4220 02be
000000d0: 4bb0 e9bd 597c 67bd 24d7 a23d f3cc 1d3c
000000e0: 4252 a03d 4fea bdbd febf e33d d30c 50bc
000000f0: 6cfc d3bd ff7e a63c f42f 183c 91e5 883d
00000100: 7990 fd3c 60d1 473d 369a b3bd 8183 583d
00000110: b707 823d dd0e c13d f3f6 263d 9f1b 49bd
00000120: b870 3d3d 5481 5c3d 2591 cf3d 3c2e e13d
00000130: 7475 fe3c dc97 a23d 040f abbd 0fe5 f03d
00000140: 7e2f d93d 41d7 adbd f88d 823d 4da1 573c
00000150: 75ea 163d c132 a53d 8cc4 d43d f612 c038
00000160: cf94 b83d 5a7e 883d 2246 b13d 0021 6a3d
00000170: e50e d2bd d5d3 2bbd e7fa bb3d 5278 95bd
00000180: 55ec 01be 719c 5ebc 079a cbbd 42b4 e8bd
00000190: 5b38 00be 3e3f 913d 8af7 ea3c d901 00be
000001a0: 044d a6bd d031 d63d fa8c f3bd 6359 683d
000001b0: ac9d c33c 2cb5 d4bd 2c53 2e3d 5cae 9abd
000001c0: ecb8 85bd a6df 94bd 17b6 7ebc 3ba9 8dbd
000001d0: 7302 edbc d985 3e3d 1508 573d 18b2 023c
000001e0: a747 05bd 5e18 1dbd 45a5 27bd d620 9fbc
000001f0: 80bc 083d c979 133d cec8 99bc c603 043c
00000200: 0158 ee3c a1cf e43c bf8f 52bb 0879 aa3b
00000210: 9cb8 9b3d e60c 92bc 1a82 19bb 489c b1bc
00000220: 04f4 da3d 0769 433d fdbe 313c cd9e e93c
00000230: a706 803d ee62 bfbd 4168 653c 2e8d 433d
00000240: 3517 003d 6fbb 113d cd1b 04bd cd6d 673b
00000250: 6c41 9d3d 978c 653b 0243 ed3d c802 033d
00000260: 7ba4 d5bc 46c6 393d 0b4a 7dbd 6802 01be
00000270: ea3a d0bd bf8e a43d 23b8 3d3d fac0 95bb
00000280: d076 7abd f1cf 8fbd a232 8b3d 74c1 e9bd
00000290: 7811 3cbd 65fc 98bc 37cb cabd bbbf c9bd
000002a0: 32ba a1bd d550 df3d c907 e53d 6398 afbd
000002b0: faff ecbc 2ea1 6dbd fc2d febd f567 dbbc
000002c0: 803d c43d 0688 4abd 0282 803d 1099 1dbd
000002d0: 1964 37bd 6a8f 44bb 9df7 d2bd 84d6 0cbd
000002e0: ec4e aebd ab04 333d daf4 adbd b12c 1fbd
000002f0: f588 ebbc 46a5 c73c 56a5 8b3d dbe4 ca3d
00000300: db05 7b3d 0403 993d 3947 f53d 4b91 c63a
00000310: 1978 a9bc 3aa6 a23d 0dc4 a3bc d83e 753d
00000320: 0668 f6bd 58de 9b3d 947b f33b c164 433c
00000330: a183 6b3d c6e0 06bd 4b86 c63d ada7 6bbd
00000340: 82f0 d5bd e645 ac3d d996 3b3d c57a d43c
00000350: d2d2 053d da9a f13d a113 a8bd 3b9c edbd
00000360: 4090 763d 7816 a43d 1979 b0bc 9e79 d2bd
00000370: a9d9 f6bd cfdd 05bc b528 ea3d b3d9 ec3d
00000380: bf93 0d3e 275c 04bd 357d ebbc bba7 ab3d
00000390: 2437 b43d 3ad9 cebc 952a c93c df52 773a
000003a0: ae4c ddbd 0889 133c ee49 2c3d 670f 2a3d
000003b0: ebeb 4bbd 0d01 fb3d 7bf3 20bd 1b2d 1e3d
000003c0: e26f ce3d 9b27 b8bd 7abc 4a3d 8537 efbb
000003d0: 46f3 b9bb 2888 d1bb d4d7 c73c 57cd bc3d
000003e0: 2913 633d 2563 dd3c 3385 e23d 26f7 e7bc
000003f0: 45c3 3c3d 16c6 74bc 43b5 463d 2e8c bfbd
0.03853002 0.06009517 0.08964406 -0.03927612 -0.0628338 -0.04870401 -0.040173102 0.050649755
-0.06282906 0.09000232 0.016443571 0.05437037 -0.021653846 0.023418648 0.0124310665 0.109988794
0.10366486 -0.1250388 -0.0716304 0.06692299 -0.0927548 -0.012550915 -0.028504426 0.092162915
0.076664954 -0.08402868 -0.06459479 0.12505396 -0.031707183 -0.11818515 0.052007537 -0.09768676
0.060894825 -0.098462716 0.06703488 -0.114896595 0.012198396 0.044575416 0.11546719 -0.07653716
-0.06850376 -0.060179923 -0.1041948 0.021215646 -0.034009792 -0.07162883 0.103058614 -0.024076803
-0.053569634 0.08826151 -0.071505584 -0.12707618 -0.11410578 -0.05651507 0.07951191 0.009631383
0.078281894 -0.092732064 0.11120604 -0.01269837 -0.1035088 0.020324228 0.009288777 0.06684411
0.030952679 0.04878366 -0.08769648 0.052859787 0.06349128 0.09426663 0.040762853 -0.049098607
0.046250075 0.053834274 0.10135106 0.10995147 0.031061865 0.07939121 -0.083524734 0.117624395
0.106047615 -0.08488322 0.06374735 0.013161016 0.03684469 0.08066321 0.10389051 9.158805e-05
0.09012758 0.06664725 0.08655955 0.057160378 -0.10256747 -0.041950066 0.09178715 -0.0729834
-0.1268781 -0.013587103 -0.09941488 -0.113625064 -0.12521498 0.070921406 0.028682489 -0.12500705
-0.08120158 0.1045872 -0.118921235 0.05672587 0.023878895 -0.10386118 0.042559788 -0.07552788
-0.06529412 -0.0726922 -0.015546343 -0.06917044 -0.028931832 0.046514366 0.052497942 0.007977031
-0.032539036 -0.038353316 -0.040929098 -0.019424837 0.033382893 0.036004815 -0.018772509 0.00805754
0.029094698 0.027931036 -0.0032129136 0.0052024163 0.07603571 -0.017828416 -0.0023423494 -0.021680966
0.106910735 0.047707584 0.010848758 0.028518105 0.06251269 -0.09345041 0.014001907 0.04774206
0.031272132 0.03557914 -0.032253075 0.003531325 0.07678494 0.0035026425 0.11585046 0.031985074
-0.026079407 0.045355104 -0.06183819 -0.12598574 -0.10167487 0.08035039 0.046318185 -0.0045701237
-0.061148465 -0.070220836 0.06796767 -0.114138514 -0.045915097 -0.018675039 -0.099020414 -0.09851023
-0.07896842 0.10904089 0.111831255 -0.08573987 -0.028930653 -0.05801504 -0.124111146 -0.026782969
0.09582043 -0.04944613 0.06274797 -0.03847605 -0.044773195 -0.0029992708 -0.10301135 -0.034384266
-0.08511147 0.043705624 -0.08493967 -0.03886098 -0.02875183 0.0243708 0.06818645 0.09906932
0.06128488 0.07471278 0.11976475 0.0015149502 -0.02068715 0.079418615 -0.019990945 0.059874386
-0.1203156 0.07610768 0.007430503 0.011925877 0.057498578 -0.032929204 0.09693583 -0.057532955
-0.10446264 0.084117696 0.045798156 0.025937447 0.032671757 0.11797114 -0.08206869 -0.11602064
0.06019616 0.08012098 -0.021542119 -0.10277103 -0.12053234 -0.008170559 0.114335455 0.1156496
0.13825892 -0.032314446 -0.028746227 0.083816014 0.0879958 -0.025250066 0.024556438 0.0009434651
-0.10805641 0.009004839 0.042062692 0.041518595 -0.049785536 0.1225606 -0.0392947 0.038617235
0.10079934 -0.08991929 0.04949615 -0.0073003196 -0.0056747524 -0.006394405 0.024394907 0.09218853
0.055438194 0.027024815 0.11060562 -0.028316092 0.04608466 -0.0149398055 0.04851271 -0.09352909

bias f4 [256]
00000000: 0f43 62bd 2bf3 1cbd 40ac e9bd 658c 133c
00000010: 687c e4bd 0969 123d 852e bc3c 636c 45bc
00000020: 073c c5bd 8a61 0d3d be3f a1bc f039 c93d
00000030: 6e8e c0bd eba7 45bc cb4a 583d 5ae7 263d
00000040: 4c79 e73d 38b4 dcbc acb8 0fbd 7ea6 97bd
00000050: ed43 2fbd d227 873d c778 a4bd 80cb c13d
00000060: e6f8 7cbc 9ce6 07bd 4d8c 97bd 6d24 833c
00000070: 8485 e9bc d6ae 0bbd 61e5 483c 4764 c23d
00000080: cea7 df3c 7979 263d 06b9 013c 9823 cfbd
00000090: 2e52 c03d c2e0 e9bd 8a45 d63d f456 b5bd
000000a0: adbb dcbc 496b 723d 7878 35bd 7504 e2bd
000000b0: 2b19 9c3d f37a 7abd a680 a9bd c2fa a9bd
000000c0: 6434 a83d 7955 08bd 7c5c 6d3d 927b 27bc
000000d0: d3e5 bbbc d1b9 b53d bc8d b93a 1105 903d
000000e0: 5462 c03c 9a1a 25bd 4613 01be 440f 53bd
000000f0: b012 aabd 6423 813d e1f4 7e3d ed0e 18bd
00000100: 6b8a 6d3d f97e 87bd 9cd8 d1bd 24c6 9d3c
00000110: e3d4 e0bd d55c a53d 780e d53d 69f7 aa3d
00000120: d5ab bbbd 0b46 67bd a70a b63d 161b a4bd
00000130: e674 a8bd 8a6d 87bd 42fa 443d a7a7 3ebd
00000140: f1c2 ccbd 0bf4 a83d f167 d3bd 82b6 023d
00000150: c06e c2ba 255d a4bd 6e0f e6bc 5824 963d
00000160: ca66 963d cc8e 03be 65da dcbd fc3d 243d
00000170: aab9 eebd ebc8 c8bc d6d1 31bc cc64 be3d
00000180: b8a1 2bbd c5bd 0bbd 28cd babd f3bd a73d
00000190: 652a ec3d 9c61 e63d 9efb a2bd f0ce cbbc
000001a0: 1b50 cb3d af50 253d b379 563d 03c6 02be
000001b0: 418f d53d 6972 723a 0b47 b3bd 84bd 71bd
000001c0: 487f b3bd c138 5cbc 7997 593d c375 07bd
000001d0: dda1 91bb 5e22 0abd a237 3e3d 9c57 573d
000001e0: e12f 663d 426b c8bd e403 ef3c 3c58 d2bd
000001f0: 79aa 8b3c 7bfa 84bd ab25 8c3d 1178 ebbd
00000200: 14a6 353d 2004 823c 075a 02bd 0fc1 7a3d
00000210: 4fb2 4cbb 63f9 5f3d fa62 37bc 52ba 06bd
00000220: fc88 2a3d ecf1 d73d f954 9a3d 0a0a 59bd
00000230: 408b 6abc 366c a2bc 321d fbbd b301 4a3d
00000240: 0b6f e0bd 624a 813d 7f3a 143d a2e8 cebd
00000250: 9614 473d c0d2 1e3d f317 ed3d 4034 03be
00000260: 0972 c83d 758f b8bd 4f52 113d 3ff3 bdbd
00000270: 7470 d0bd 3693 613d 6f00 a3bd d074 593d
00000280: 5c27 bfbd 4c25 adbd e12a a13c b7a0 c83d
00000290: f488 023b cf5e eabd f2c8 04be 5031 653d
000002a0: cc43 4fbd e673 ea3d 7f49 38bd 568a 36bd
000002b0: 93fe a5bd 8d64 c43c 70f5 443c a40c d4bd
000002c0: a491 0d3d 603d 653d 1da1 a93d c618 953d
000002d0: 1ea4 493d b933 4bbc 4f5f 8fbd c2cd 703a
000002e0: e6ed 20bd 9447 0fbd 824d bb3d 8e57 bdbd
000002f0: bfb0 6d3d d7d3 bfbd 62ca 9cbd e138 803d
00000300: af8d e3bc 4ec2 593d e98c cd3c b19d 41bd
00000310: f6a1 c2ba fadf 4e3d 5fba 06bd 1d36 a53d
00000320: 4fdc aabd 1812 2b3d 6f89 a93d b183 373c
00000330: bef0 c5bd 5d6c da3c 8370 73bd c207 fbbd
00000340: 85a9 bfbd 7427 1fbd c97a ee3b 5592 583c
00000350: 7f8a babd 0752 65bd 90d8 c0bd bdbf 01bd
00000360: b71d 0b3c c822 453d eeed c4bd b793 bf3c
00000370: 06a4 b43c fcf6 6c3d e717 11bc f2b4 c2bd
00000380: 0deb bfbc b971 af3d f7e7 cf3d 13d7 66bd
00000390: 41af 953c 196f 3a3d fdaa 8cbd 3d25 d83c
000003a0: fd9e e2bd e618 82bc 0b13 4abc 615b a93b
000003b0: eddf 8bbc 8463 8a3c 506d 9c3d 3398 b23d
000003c0: ecc6 4b3d 5f0d febc c9ce 9fbd c9b1 1939
000003d0: 4114 883c 92b1 b1bd 17ca 5cbd dc69 cdbd
000003e0: 119f 6ebd 4f89 973d fc2d 57bc 2dc0 b93d
000003f0: a5ff ef3d 54db a63c 8b38 aebd d0f3 cc3d
-0.055239733 -0.03831784 -0.11409807 0.009005641 -0.11156541 0.0357447 0.022971401 -0.012049767
-0.0963059 0.03451685 -0.019683715 0.09825504 -0.09402166 -0.012063961 0.052805703 0.040747978
0.113024324 -0.026941404 -0.035088226 -0.07404803 -0.04278939 0.06599392 -0.08030849 0.09462643
-0.015440201 -0.03317891 -0.07399807 0.01600858 -0.028506048 -0.034102283 0.012261719 0.09491783
0.027301695 0.04064319 0.007917648 -0.10114211 0.093906745 -0.11419822 0.10462482 -0.088544756
-0.02694496 0.059184346 -0.04430434 -0.11036006 0.07621988 -0.06115241 -0.08276491 -0.082997814
0.08213118 -0.033284638 0.057949528 -0.010222333 -0.022936737 0.08873332 0.001415662 0.07032216
0.023484387 -0.040308572 -0.12605008 -0.05152823 -0.083043456 0.06305578 0.062245253 -0.03712361
0.057993334 -0.06616015 -0.10246393 0.01925952 -0.10978105 0.08074347 0.1040315 0.08347971
-0.09163634 -0.056463283 0.088887505 -0.08012979 -0.082254216 -0.0661269 0.048090227 -0.046546604
-0.099981196 0.082496725 -0.103225596 0.031912334 -0.0014834031 -0.080255784 -0.02808353 0.07331151
0.07343824 -0.12847441 -0.10783843 0.040098175 -0.11656506 -0.024509868 -0.010853251 0.09296569
-0.041902274 -0.034116525 -0.09121162 0.08190527 0.115315236 0.11249086 -0.079581484 -0.024878949
0.09927388 0.04036015 0.052362155 -0.12770848 0.10427714 0.0009248616 -0.08753785 -0.059018627
-0.08764511 -0.013441266 0.05312297 -0.03307129 -0.0044443444 -0.03372418 0.046439774 0.052573785
0.056198005 -0.09786083 0.02917666 -0.102707356 0.017049061 -0.06493088 0.06843122 -0.1149751
0.044347838 0.015871108 -0.031824138 0.06121927 -0.003123421 0.054681193 -0.011193031 -0.032892533
0.041634545 0.1054419 0.075357385 -0.05298809 -0.014315426 -0.01982699 -0.12261428 0.049318027
-0.1095868 0.063130155 0.0361886 -0.10102965 0.048603617 0.038775206 0.115768336 -0.128129
0.097873755 -0.09011737 0.035478886 -0.09274911 -0.10177699 0.055072032 -0.07959067 0.053089917
-0.09333679 -0.084543794 0.019673767 0.09796279 0.0019918056 -0.114438646 -0.1296728 0.05595523
-0.050601766 0.11447887 -0.044991966 -0.04456552 -0.08105197 0.023973728 0.0120214075 -0.103539735
0.03456272 0.055966735 0.08282683 0.07280116 0.04922878 -0.012402468 -0.070006005 0.0009185934
-0.039289378 -0.03498037 0.09145643 -0.09245215 0.058029886 -0.09366577 -0.07655789 0.06260849
-0.027777521 0.05316382 0.025091605 -0.047269527 -0.0014849294 0.05050657 -0.03289258 0.08066962
-0.08342802 0.041765302 0.082781665 0.011200831 -0.096650586 0.026663 -0.05943347 -0.12257339
-0.09358505 -0.038855985 0.0072778207 0.013218482 -0.09108447 -0.05598643 -0.09416306 -0.031676996
0.008490971 0.048128873 -0.09615694 0.023385866 0.022050869 0.05785273 -0.008855796 -0.09507169
-0.02342751 0.08566613 0.10151666 -0.056357455 0.018272044 0.045516107 -0.06868551 0.026384944
-0.11065481 -0.015881013 -0.012333642 0.005168364 -0.01707455 0.016893156 0.07638037 0.08720436
0.049750254 -0.031012235 -0.07803113 0.00014657447 0.01661122 -0.08676447 -0.053903665 -0.10029957
-0.058257166 0.073992364 -0.013133522 0.09069858 0.11718682 0.020368256 -0.085068785 0.10007441

weight f4 [64, 256]
00000000: 4fc1 d2bc e585 ec3c bcb6 b23b def6 5abd
00000010: 7843 2abd 445b eb3c 01bf 03bd 1ec7 403d
00000020: 7567 8e3d 2330 353d 9d07 24bd 554a 843a
00000030: a010 39bb 4afa 17bc dd06 1f3d e5c0 21bc
00000040: 9c97 6f3d 6dbd 43bd 0b74 26bd 9a4d 643d
00000050: f284 543c 71a7 f03c e30a e33c 9f58 f03c
00000060: 9392 363d 1925 a93c b08c b63c 7dee 4b3d
00000070: 2136 483c f8ed fbbc 3d50 08bd d97c 393d
00000080: 7d9d 21bd 6987 d6bb e958 3c3c 9e03 443d
00000090: b469 753c e83f 10bb 2452 733d 0e81 783d
000000a0: cc4a 70bc 0bf1 453d 2281 4d3d 05ca 19bd
000000b0: de81 4abc d68e 153d d7b1 853d cfea a2bd
000000c0: 82b1 613d 67e4 eebc 06bc 46bd a6d8 b8bc
000000d0: abb4 793d 36a3 ef3b d5b0 f3bc 2874 5f3d
000000e0: 3e6d 41bd 61e9 e13b e45b 933c cbd4 80bc
000000f0: 0b23 90bc 1592 3c3d f10c 583b 7f10 683c
00000100: 69f2 623c 989c 27bc 78c8 74bd 5501 59bd
00000110: 1d11 e53c f5d3 593d 2d45 723d d875 a33b
00000120: 5788 60bc 0984 543d e741 61bd 6d51 cebc
00000130: 1aea 7dbb c594 0dbc e9b6 1fbc 8375 f1bc
00000140: a06e 193d 5775 603d ae46 b6bc ca79 62bd
00000150: d675 6d3d f047 03bd 5f6b 4a3d bb3e 313d
00000160: 56d8 9abb 3afc 1dbc 1754 013d 827f 15bd
00000170: 4901 513d 85ca 6f3d 3d11 5a3d 5b14 32bd
00000180: 9f2c 533d ea48 a63c 4f77 21bd 9515 e13c
00000190: a9e7 973c 835c 513d bbf1 353d 847f babb
000001a0: aaab 77bd 0c4d fdbc d2fa 883d 99b6 3abc
000001b0: 9d1c 303c e5b3 27bd 1b6f 24bd ae5d edba
000001c0: f3dc 1ebd 776d 4b3b 0bf0 13bd f263 fd3c
000001d0: c4ab 51bd 9abc 063d 8544 213d fc5d 0fbc
000001e0: 5d76 ddbc fd27 b8bc 37b8 d1bc 92e4 83bc
000001f0: 7c21 413c f17f 75bc c5b9 1abd e1cb 423c
00000200: 1493 803c 740d cdbc d0e2 1fbd 8e53 403d
00000210: 188d ac3c 98cc 4e3d 2fa3 d5bc e3b5 f6bb
00000220: 008d 14bd 26e1 2a3c 0409 593d e677 86bc
00000230: 88de 65ba a51f 81bc 1d5e 99bb c476 5dbc
00000240: c860 5b3b 8873 fbbc 551f f83c 472d 07bd
00000250: a0f9 033d 1f01 15bd 9fda c2bc a53c 703d
00000260: 0eae c5bc e239 693d aee7 18bd b9b7 48bd
00000270: 2ef7 5bbc 7471 8d3c 78b4 983c bbe8 a7bc
00000280: 82fe 5ebd 1c96 803d 5c8f 13bd a300 6d3d
00000290: bb62 82bc 910f 143d a4ff 033d 3da4 d4bc
000002a0: a40f a93b 79ab 2e3d e238 f73c 93dc 233d
000002b0: 88f4 dcbc 0ecd 6fbd e272 0ebd c553 7d3d
000002c0: e815 04ba e76b 8a3c 6b50 133d c369 7ebc
000002d0: fb3f 103d ab6e 7dbb 52b5 14bd 844c ad3c
000002e0: fb93 2dbd 96e3 a8bc cc48 233c e8a7 0abd
000002f0: e8e9 373d efb9 753d 141a 663c a2a2 363d
00000300: 9a6b fcb9 927a 03bc b150 80bc f1fb 213d
00000310: d912 c1bc 5bdd 243d 970b 6bbd 583e 043c
00000320: 1fa6 013d 106c 853b 4674 383d 928f ddbc
00000330: d58e 213d a646 0f3d f235 84bd 02f3 013d
00000340: 59d0 50bd 23c2 123d 4386 3bbd 91ee 1d3d
00000350: d32e 8dbd 9d80 56bd e40c 2b3d 69ae 5b3d
00000360: 33d8 83bc ba8e ba3c 5a89 133d 14ce 693d
00000370: e1bf 73bd 1f06 5bbb f59c 343d 8faa 7bbd
00000380: 94f5 58bb 3213 013c 7044 793d e621 46bc
00000390: e758 bbbd 49ea 443d 7873 abbc a4fc 12bd
000003a0: 1d8b 26bd e4ee 593d a388 53bd 42ca 2d3d
000003b0: e636 1a3c f551 d33b 5b7d 253d b835 37bd
000003c0: 686a e4bc 9dc2 a1bb 11a0 433b fabb 45bc
000003d0: 524e 06bd 75c6 14bd 7a19 26bd 93c7 403d
000003e0: 4ac8 373d 16b1 5cbc eacd a23b 646b 58bd
000003f0: 2574 2e3d 42ff d73b fad7 03bd 8c43 2d3d
-0.025726942 0.02887244 0.0054539125 -0.053458087 -0.04156825 0.028730042 -0.032164577 0.047064893
0.069533266 0.04423536 -0.040046323 0.0010092953 -0.002823867 -0.009275982 0.038824905 -0.00987265
0.058494195 -0.047788072 -0.04063801 0.05573807 0.01297115 0.029376717 0.027715152 0.029339133
0.044573378 0.020647572 0.022283882 0.049787987 0.012219937 -0.03075312 -0.033279646 0.04528508
-0.039456833 -0.006546904 0.011495807 0.047855012 0.014978815 -0.0022010747 0.059404507 0.06066995
-0.01466627 0.04832558 0.05017198 -0.037546176 -0.012360064 0.036513172 0.06528061 -0.079549424
0.055100925 -0.029161645 -0.048519157 -0.022564244 0.060963314 0.0073131574 -0.029747406 0.054554135
-0.047223322 0.006894276 0.017988153 -0.015726468 -0.017594835 0.046037752 0.0032966698 0.014164089
0.01385174 -0.010230206 -0.059761494 -0.052979786 0.027962262 0.053180654 0.059148002 0.0049884133
-0.013704381 0.05188373 -0.05499449 -0.025185311 -0.0038744272 -0.008641426 -0.009748199 -0.02947498
0.037459016 0.054799404 -0.0222505 -0.05529193 0.057973705 -0.032051027 0.049418803 0.043272715
-0.0047254963 -0.009642655 0.031574335 -0.036498554 0.051026616 0.058542747 0.053239096 -0.043476444
0.051556226 0.02029844 -0.039420422 0.027476111 0.018543081 0.051113617 0.044419985 -0.0056914706
-0.060466446 -0.030920528 0.06688465 -0.011396074 0.010749009 -0.040943045 -0.04014502 -0.0018109584
-0.038784932 0.0031040588 -0.036117595 0.030931447 -0.0511892 0.03289471 0.039371986 -0.008750435
-0.02703398 -0.022480005 -0.025600536 -0.016100202 0.011787768 -0.014984117 -0.03777482 0.011889429
0.015695132 -0.025030829 -0.039034665 0.046954684 0.021063372 0.050488085 -0.026078789 -0.007529007
-0.03626728 0.010429656 0.052987114 -0.016414594 -0.00087688165 -0.01576216 -0.0046804086 -0.013517085
0.0033474434 -0.030694738 0.030288378 -0.033002164 0.032220483 -0.036378022 -0.023785887 0.058651585
-0.024130847 0.056939967 -0.037330322 -0.049003337 -0.013425631 0.017266013 0.018640742 -0.020496717
-0.054441936 0.06278631 -0.03602539 0.057861935 -0.015916219 0.036147658 0.03222622 -0.025957221
0.005159335 0.042643998 0.030178491 0.040005278 -0.02697207 -0.058545165 -0.03477753 0.061847467
-0.00050386647 0.016897155 0.035965364 -0.015528145 0.035217267 -0.00386707 -0.036305733 0.02115465
-0.042377453 -0.020616334 0.009966087 -0.033851534 0.044900805 0.059991773 0.014044303 0.044588692
-0.00048145355 -0.0080248285 -0.015663477 0.03954691 -0.023568558 0.040250164 -0.0573841 0.0080715045
0.031652566 0.00407172 0.045032762 -0.027045999 0.039442856 0.034979485 -0.06455602 0.03172589
-0.050979946 0.035829674 -0.04578234 0.038557593 -0.06893697 -0.05236875 0.04176034 0.053633127
-0.016094303 0.022773135 0.03601966 0.057081297 -0.05950916 -0.0033420397 0.044095 -0.061441954
-0.003310536 0.007878112 0.060856283 -0.012093043 -0.09147816 0.048074994 -0.020929083 -0.035885468
-0.040660013 0.05320634 -0.05164398 0.042429216 0.009412503 0.006448979 0.04040275 -0.044728965
-0.02788277 -0.00493653 0.0029850046 -0.012068743 -0.032789536 -0.036322076 -0.04055164 0.04706533
0.044868745 -0.013469955 0.0049683945 -0.05283679 0.042591233 0.0065917084 -0.032188393 0.042300746

bias f4 [64]
00000000: 488b d9bc c862 2ebd 6afb 2b3d 9876 063d
00000010: 34e4 763d 3592 5d3d 5cc7 58bd ca47 fdbc
00000020: 870b adbb a527 28bd 7964 0dbd 830e e33b
00000030: 5132 853c 41ce d4bc 0d71 3a3d a9f1 2cbd
00000040: 2959 2dbb 20e9 513d dea9 9bbc 2ec8 8abc
00000050: 05d5 323d b2ba 50bd e1ee 373d c4e6 5abd
00000060: caff 43bd 0aca edbc fd5e 5b3d b14f c03b
00000070: 7c18 b23c 5cee 7b3c ef5f f93c 216e f2b8
00000080: 8ff4 6a3c 475b 633d 5c1a 2d3b 49ef 16bd
00000090: 50eb 713d 209c e5bc f911 c13b 081f 2f3d
000000a0: 6006 193c 24db 4f3d 4ee1 523d 9896 fb3b
000000b0: 6c2c 673d 69d7 0e3c 0958 83bb de92 153d
000000c0: 9945 dcbc 5a4b 9f3c 0f89 cbbc bcf3 bfbb
000000d0: a4d3 9e3b ac79 e03c 5235 2dbd 1831 a9bc
000000e0: f8d9 a73c edf7 a13b 7ace 70bd 71cc f73c
000000f0: 5d89 f53c 48f5 2ebd 2120 11bd d1e8 133d
-0.026555672 -0.042574674 0.041987814 0.032827944 0.060276225 0.054094512 -0.0529245 -0.03091802
-0.005280915 -0.041053433 -0.034519646 0.00692922 0.016259344 -0.025977256 0.04551797 -0.042222653
-0.0026450849 0.051247716 -0.019001897 -0.016941156 0.043660183 -0.050959297 0.044905547 -0.05344273
-0.04785136 -0.029027004 0.053557385 0.005868875 0.02174019 0.0153766535 0.030441253 -0.00011559972
0.014340534 0.05550697 0.0026413416 -0.036849294 0.059062302 -0.028028548 0.005892035 0.042754203
0.009339899 0.0507461 0.0514844 0.0076778643 0.05643885 0.00871835 -0.0040082973 0.036517017
-0.026888655 0.01944511 -0.024845628 -0.005857913 0.004847007 0.027401768 -0.04228718 -0.020653293
0.020489678 0.004942885 -0.05879066 0.030248852 0.029972726 -0.042714387 -0.03543103 0.036110703
