ml_output/CA1-ProS_Glut/atac/model_2.pth (torch, 474380 bytes, 48 tensors)

query f4 [1, 64]
-0.23372541 -0.5770168 0.38865712 1.270175 0.110731125 -1.7839394 -1.4835812 1.6209568
0.6450275 -0.33032745 -1.4862763 -0.39923525 0.08754694 0.26406124 -0.034806248 0.28745863
-0.8662645 -1.3661668 0.05110147 -0.1972529 0.24939615 -0.9508804 0.47826338 -0.67598283
0.14780118 -0.5299068 -0.43625146 -0.06588923 2.0881634 0.3287608 0.8447967 -0.17992881
0.4116146 0.62809134 -0.6073277 1.1386669 -0.44882074 1.4530746 0.92811894 0.78536564
1.2135458 0.9721974 -0.33881077 0.37299648 -0.7671393 1.7792547 0.6900795 -0.1469874
-0.7416682 0.45432407 0.24637477 -0.29774383 -0.19799307 -0.43132132 -1.8662834 -0.73070645
-1.2850056 0.844577 -1.0812813 2.3738387 1.0014299 -0.43480468 -1.0445039 -0.29148033
00000000: b755 6fbe 5fb7 13bf 11fe c63e 1895 a23f
00000010: 00c7 e23d 2058 e4bf fde5 bdbf 837b cf3f
00000020: 8620 253f ae20 a9be 4d3e bebf 9068 ccbe
00000030: cf4b b33d 0933 873e ff90 0ebd c72d 933e
00000040: 83c3 5dbf 8ede aebf c64f 513d aafc 49be
00000050: b461 7f3e e66c 73bf f0de f43e 360d 2dbf
00000060: 3159 173e f9a7 07bf 5a5c dfbe eff0 86bd
00000070: 78a4 0540 5653 a83e 9944 583f 423f 38be
00000080: 26bf d23e 98ca 203f d479 1bbf d6bf 913f
00000090: d5cb e5be 59fe b93f 3499 6d3f b90d 493f
000000a0: 7855 9b3f eee1 783f 9b78 adbe 65f9 be3e
000000b0: 3e63 44bf 9ebe e33f 0da9 303f dd83 16be
000000c0: f8dd 3dbf 2a9d e83e ab49 7c3e e171 98be
000000d0: b2be 4abe 26d6 dcbe 60e2 eebf 940f 3bbf
000000e0: 107b a4bf 3336 583f 6d67 8abf f9ec 1740
000000f0: db2e 803f b89e debe 4eb2 85bf e93c 95be

cls_embeddings.atac f4 [1, 1, 64]
-0.41986978 1.0742177 -0.5560624 0.9573901 -1.6175268 0.8414891 0.23603623 -1.2949878
0.7496308 1.0275145 0.6291425 -0.25061512 -1.0678571 1.8004173 -2.5405176 -1.7500663
-1.4980884 0.4688343 -1.4956676 0.07216064 0.24021913 0.6149522 -0.17047095 1.4087961
0.27861792 1.4134525 0.5446522 0.60386086 1.0005893 1.4906602 -1.0211207 0.2857045
2.270213 0.5959917 -0.5660832 0.69728005 -1.1266513 0.21553093 0.20674603 2.1769166
2.1036325 -1.020384 -0.031794515 0.7511653 1.4522024 -0.10235155 -0.3877408 -0.15630437
-0.5234629 -1.8594421 2.130472 0.2731912 1.5244818 1.0314033 -1.4624668 0.64770997
1.8410994 0.044214286 0.29138863 -1.4563599 0.48251325 0.8384704 0.17376232 -1.0511765
00000000: 2cf9 d6be f77f 893f 1b5a 0ebf 8517 753f
00000010: 1e0b cfbf d46b 573f 7bb3 713e 29c2 a5bf
00000020: cee7 3f3f 9885 833f 7c0f 213f a050 80be
00000030: 8baf 88bf 1374 e63f d797 22c0 2c02 e0bf
00000040: 5cc1 bfbf 0d0b f03e 0972 bfbf f5c8 933d
00000050: 01fc 753e 826d 1d3f f08f 2ebe 6e53 b43f
00000060: 02a7 8e3e 03ec b43f 546e 0b3f a096 1a3f
00000070: 4f13 803f f4cd be3f 15b4 82bf dc47 923e
00000080: 2b4b 1140 e992 183f d4ea 10bf f280 323f
00000090: 1c36 90bf 24b4 5c3e 3bb5 533e 9a52 0b40
000000a0: eaa1 0640 f19b 82bf f73a 02bd 5e4c 403f
000000b0: c5e1 b93f b09d d1bd f685 c6be 410e 20be
000000c0: aa01 06bf 3302 eebf a759 0840 b8df 8b3e
000000d0: 3822 c33f 0605 843f 1d32 bbbf 52d0 253f
000000e0: 25a9 eb3f 0a1a 353d e430 953e 006a babf
000000f0: fa0b f73e ffa5 563f c0ee 313e f48c 86bf

modality_embeddings.atac.weight f4 [64, 9]
0.2728918 -0.071881995 0.30052707 -0.1697668 -0.237181 -0.16715306 0.08990013 0.24334496
-0.029092522 -0.20878634 0.24733165 -0.122692436 0.06510703 0.2391797 0.14229389 -0.07499084
-0.22984815 -0.007814734 0.009031377 0.2388358 0.3101981 -0.13899069 -0.25805035 0.24010421
-0.17770052 0.122787304 0.074269146 0.12368601 0.010555389 0.053613197 0.24632427 -0.082567826
-0.05547051 0.08557753 -0.1902578 0.20692462 -0.21512455 0.14796147 -0.077725075 -0.1753281
0.038804423 0.14331867 -0.06058341 -0.13192414 -0.10543667 0.018213417 0.2664844 0.032419734
-0.28061244 0.18800347 0.029248398 0.0033397072 0.03447831 -0.17353155 -0.12388219 -0.16106746
0.08558474 -0.27821013 0.07761627 -0.22026134 0.12273194 0.15162781 -0.075788245 -0.1964957
-0.21071725 -0.30610204 -0.001682069 -0.34021685 0.18265727 0.047918487 0.17578948 0.118021764
-0.2609284 0.12242965 0.18370536 0.029013062 -0.16649397 0.19738273 0.1732827 -0.064836495
0.103476316 0.2367847 0.2828187 0.13747407 -0.081118174 -0.04137758 0.06601938 -0.13162541
0.103970736 0.027033826 -0.091338105 0.16495647 0.20714736 0.045732003 -0.23167525 0.2068236
-0.19267805 0.11101616 0.044772804 -0.1830524 0.0005462154 -0.037749443 -0.19433863 0.23845495
0.23193918 0.18711574 -0.016963283 -0.017811129 -0.15307495 -0.23894615 0.20886602 -0.29008308
0.062410034 -0.13749887 0.14046668 0.20062023 0.13728665 -0.18226507 0.10344484 -0.23822233
-0.20856114 -0.24619183 0.28091908 0.20576403 -0.23879816 0.06421776 0.06778247 -0.25109193
0.20059973 0.029512027 0.10316557 0.23848975 -0.025913663 -0.10976842 -0.20436525 0.23201217
0.06540238 0.1688266 -0.21254039 0.09359042 -0.13131264 0.21048307 0.00726544 -0.032539707
-0.25678793 0.041545425 -0.10679171 -0.15568687 0.018750217 0.0448243 -0.06318359 0.13403761
-0.14915518 0.05086618 -0.12075247 0.12039807 0.055096496 0.18031795 -0.19733259 -0.18546931
0.099949606 0.038785595 -0.22954291 -0.12087817 0.16904715 0.22553754 -0.20140241 -0.19134305
-0.2009817 0.3060026 -0.18211135 0.17916611 0.10295236 -0.035715055 -0.22926535 0.1383778
0.29143247 -0.05636813 -0.100462556 -0.03656576 -0.03881044 -0.067766994 -0.20455387 -0.050510302
0.16892827 -0.17222819 -0.036151484 0.19859095 0.014781572 0.27411523 0.06460853 -0.15982881
0.098509684 -0.2821311 0.046572734 -0.114025295 0.08143066 0.2604351 -0.20120524 0.19110523
-0.21325102 -0.26602656 0.21291322 -0.23226535 -0.021010306 0.23787506 -0.04874519 -0.021751031
-0.18557985 0.044474367 -0.07511199 -0.23680511 0.050254717 -0.008252041 0.19619893 0.14644545
0.21950147 -0.23355463 -0.02456559 0.20810966 -0.2511928 0.33229086 -0.20013086 -0.13302068
0.14259186 -0.004531999 -0.19996345 -0.15317398 -0.12844989 -0.14604989 -0.12710576 0.2891859
0.12834361 -0.23033923 0.012093753 -0.16462311 -0.030836988 0.032776926 -0.24402726 0.0767989
-0.22611529 0.116809905 0.09459293 0.1384187 0.15729608 -0.007926102 0.18370694 -0.32407537
0.14034012 0.22923757 0.03087159 0.079816274 -0.058279213 -0.02893539 0.14878616 -0.12933262
00000000: 79b8 8b3e de36 93bd afde 993e 59d7 2dbe
00000010: 93df 72be 2c2a 2bbe 8f1d b83d 6c2f 793e
00000020: 7153 eebc 16cc 55be 8244 7d3e 2c46 fbbd
00000030: d656 853d 86eb 743e 7db5 113e cc94 99bd
00000040: 505d 6bbe 5f09 00bc 57f8 133c 5f91 743e
00000050: 49d2 9e3e 9353 0ebe 2d1f 84be e1dd 753e
00000060: 20f7 35be e977 fb3d 6c1a 983d 174f fd3d
00000070: 83f0 2c3c 8399 5b3d 6e3c 7c3e 5219 a9bd
00000080: 0c35 63bd 4643 af3d f1d2 42be 0ce4 533e
00000090: 9c49 5cbe 3683 173e 532e 9fbd 3689 33be
000000a0: 63f1 1e3d 21c2 123e 4f26 78bd 1f17 07be
000000b0: 2eef d7bd 4e34 953c a570 883e 8eca 043d
000000c0: 6fac 8fbe fb83 403e 569a ef3c fdde 5a3b
000000d0: 2139 0d3d 41b2 31be f2b5 fdbd deee 24be
000000e0: 0d47 af3d 8f71 8ebe 47f5 9e3d 308c 61be
000000f0: e25a fb3d 5244 1b3e de36 9bbd 2b36 49be
00000100: 43c6 57be 68b9 9cbe df78 dcba e730 aebe
00000110: 820a 3b3e 2d46 443d 2802 343e 65b5 f13d
00000120: 6898 85be 65bc fa3d 421d 3c3e cdac ed3c
00000130: 657d 2abe b31e 4a3e 0571 313e ffc8 84bd
00000140: 64eb d33d b077 723e 9dcd 903e 01c6 0c3e
00000150: 4921 a6bd 8a7b 29bd 2b35 873d d0c8 06be
00000160: 9cee d43d 0b76 dd3c 790f bbbd 59ea 283e
00000170: 701e 543e 7b51 3b3d 473c 6dbe 91c9 533e
00000180: 654d 45be 715c e33d b063 373d 1772 3bbe
00000190: e52f 0f3a 299f 1abd b500 47be 892d 743e
000001a0: 7781 6d3e 459b 3f3e 95f6 8abc a5e8 91bc
000001b0: aebf 1cbe 4dae 74be f9e0 553e c585 94be
000001c0: aaa1 7f3d 81cc 0cbe 7fd6 0f3e 646f 4d3e
000001d0: df94 0c3e b2a3 3abe e3da d33d 8ef0 73be
000001e0: 0d91 55be b619 7cbe a0d4 8f3e ceb3 523e
000001f0: 8187 74be 9a84 833d 89d1 8a3d 1f8f 80be
00000200: 046a 4d3e 35c3 f13c 7848 d33d a836 743e
00000210: e448 d4bc 44ce e0bd 2045 51be 9994 6d3e
00000220: aff1 853d e1e0 2c3e 30a4 59be 56ac bf3d
00000230: d276 06be e088 573e ee12 ee3b 5b48 05bd
00000240: b579 83be 892b 2a3d 9db5 dabd 616c 1fbe
00000250: 0e9a 993c af99 373d 6666 81bd 2841 093e
00000260: 23bc 18be 0e59 503d 124d f7bd 4393 f63d
00000270: ddac 613d 45a5 383e 8e11 4abe abeb 3dbe
00000280: 61b2 cc3d a5dd 1e3d 4c0d 6bbe f98e f7bd
00000290: b21a 2d3e 50f3 663e 6f3c 4ebe 6fef 43be
000002a0: 26ce 4dbe 5fac 9c3e 667b 3abe 5277 373e
000002b0: b0d8 d23d f349 12bd 89c4 6abe e9b2 0d3e
000002c0: a336 953e 45e2 66bd 50bf cdbd fac5 15bd
000002d0: b2f7 1ebd 6cc9 8abd 9276 51be e4e3 4ebd
000002e0: 88fb 2c3e 965c 30be 9413 14bd 6d5b 4b3e
000002f0: 682e 723c d558 8c3e 7a51 843d 2aaa 23be
00000300: 72bf c93d 7d73 90be 0dc3 3e3d 1886 e9bd
00000310: 1ec5 a63d c057 853e bf08 4ebe 17b1 433e
00000320: 7a5e 5abe a234 88be ec05 5a3e f8d6 6dbe
00000330: ce1d acbc 8595 733e 09a9 47bd 382f b2bc
00000340: a508 3ebe c12a 363d 51d4 99bd 0a7d 72be
00000350: e4d7 4d3d 9233 07bc 5fe8 483e ccf5 153e
00000360: fec4 603e f228 6fbe c73d c9bc b31a 553e
00000370: 589c 80be 0722 aa3e 1bef 4cbe 9336 08be
00000380: 9a03 123e 2a81 94bb 38c3 4cbe a4d9 1cbe
00000390: 5e88 03be 1a8e 15be 0328 02be 2d10 943e
000003a0: 826c 033e 0cde 6bbe e024 463c f692 28be
000003b0: da9d fcbc 1941 063d 48e2 79be be48 9d3d
000003c0: c48a 67be 083a ef3d f0b9 c13d a2bd 0d3e
000003d0: 3912 213e 7bdc 01bc ac1d 3c3e 35ed a5be
000003e0: 52b5 0f3e 41bd 6a3e 6be6 fc3c b776 a33d
000003f0: 2fb6 6ebd e909 edbc 665b 183e c56f 04be

modality_embeddings.atac.bias f4 [64]
-0.025158452 0.019542735 0.0066568037 -0.055106495 0.074417904 0.03599495 0.034924112 -0.03660731
-0.08685923 0.022234585 0.022481762 -0.050252937 -0.02458476 -0.003967975 0.023487117 -0.038255274
0.033202544 0.07485593 0.015354845 0.034384523 -0.010078813 -0.014952355 0.037246227 -0.008245929
0.026707342 -0.004527639 0.019327654 -0.058961492 0.03090683 -0.071756184 0.020499216 -0.03328257
0.005944482 -0.083626166 -0.046256512 -0.017478418 0.035427913 0.023675267 0.044368885 -0.019672567
0.028383046 -0.011175659 -0.019780224 0.04452146 -0.02901285 -0.029655114 -0.08083678 0.06391459
0.007451343 -0.002220804 0.018550085 -0.0016050636 -0.017596582 -0.028474618 -0.045784768 -0.020684581
0.056946933 0.01704532 0.08145764 0.037234787 -0.082530394 -0.0063437093 0.04286963 0.032025106
00000000: 1919 cebc 1618 a03c 5121 da3b 59b7 61bd
00000010: 6a68 983d 716f 133d 960c 0f3d 8cf1 15bd
00000020: 41e3 b1bd 4e25 b63c ac2b b83c 06d6 4dbd
00000030: fb65 c9bc c905 82bb 0e68 c03c 90b1 1cbd
00000040: 64ff 073d 114e 993d e392 7b3c c9d6 0c3d
00000050: 9b21 25bc b9fa 74bc 808f 183d ef19 07bc
00000060: 5bc9 da3c 975c 94bb 0755 9e3c 9b81 71bd
00000070: 5230 fd3c e8f4 92bd f9ed a73c 4e53 08bd
00000080: eec9 c23b 3244 abbd 7877 3dbd e62e 8fbc
00000090: dc1c 113d a2f2 c13c 26bc 353d 5d28 a1bc
000000a0: 9083 e83c 1c1a 37bc 230a a2bc 225c 363d
000000b0: 5bac edbc 48ef f2bc c18d a5bd a7e5 823d
000000c0: 652a f43b e98a 11bb 59f6 973c ff60 d2ba
000000d0: b526 90bc 9a43 e9bc cf88 3bbd b672 a9bc
000000e0: 3041 693d a0a2 8b3c 43d3 a63d 8183 183d
000000f0: b205 a9bd e4de cfbb 1198 2f3d c22c 033d

modality_transformers.atac.layers.0.self_attn.in_proj_weight f4 [192, 64]
-0.016785624 -0.09294525 -0.13931094 0.11575991 0.096230306 0.0039155474 -0.0050800485 -0.07859501
-0.134832 0.06088624 0.08028685 0.020099653 0.0010388017 -0.11088453 0.0026411293 0.025342198
0.04281172 -0.078005485 -0.08658597 0.11498057 0.13382499 0.10761434 0.15291323 -0.073315494
0.007106872 0.058163125 0.09881096 0.034653388 0.115242824 0.08333738 0.013264762 0.116148554
-0.13115388 0.0734241 0.05080679 0.07492683 0.15533026 -0.014606211 0.08707968 0.026450679
0.031342156 -0.028196428 -0.111816436 -0.09840747 0.025582539 0.15543425 0.011889525 0.028079072
0.15169051 -0.028070856 0.023866663 0.08586501 0.00375548 -0.14903156 0.11454405 0.032791737
-0.052507084 0.08187175 -0.0051852996 0.016964093 -0.002851596 -0.04496496 0.006201408 0.032630622
0.048576493 -0.121693544 0.0121161025 0.022020862 -0.115997724 -0.10709612 0.13441107 0.038278818
-0.0670998 -0.053758387 -0.112901844 -0.03882034 0.07612587 0.05137242 0.11584951 -0.15951198
-0.13870351 -0.05859793 -0.118659526 -0.041773006 -0.003832505 0.08970885 0.11902665 -0.06466927
-0.10594288 0.050356176 -0.113897644 0.11828996 0.07628569 -0.04550377 -0.0008176686 0.09174732
0.052377798 0.05727032 0.11113361 -0.03296481 -0.12233012 -0.09915607 -0.040550996 -0.12374961
-0.06082139 0.06239661 0.0209188 -0.1350593 0.044503115 0.16998424 0.09888317 -0.115949005
-0.047901213 -0.005331802 -0.11298299 -0.025820524 0.08809029 0.14385785 -0.14899898 -0.06530832
-0.115323335 0.1195899 -0.11915536 -0.1559486 0.010436891 0.10660222 0.0004592437 0.06657557
-0.15532947 0.0506173 -0.1322783 0.07250723 -0.11743117 -0.05378416 -0.116947904 0.0875911
0.00981159 -0.06345192 0.012556553 -0.026122052 0.049071085 -0.011193897 0.016953165 0.1326741
0.049905613 0.12637497 -0.109470285 -0.071068265 -0.08702333 -0.09608296 0.022976292 -0.1384286
0.057534523 -0.0013022153 -0.08732319 0.011454124 -0.12340067 0.03296678 -0.0033344922 0.2134047
0.052638996 0.00034004083 -0.12107512 -0.099979125 0.050233394 -0.09428549 -0.074090146 0.1497711
0.049382642 0.013906725 0.055688933 0.11933246 -0.03863793 -0.040100686 0.015319891 -0.05741468
0.13892491 0.06900215 0.0953534 -0.060992252 0.09992453 -0.10606619 -0.1205461 0.09763532
-0.0056626173 0.068603985 -0.018305575 0.14779048 -0.18314745 -0.07750468 -0.038152095 -0.031089887
-0.10246197 -0.102596976 0.048814967 -0.06313873 0.090416275 0.001523098 -0.090876 0.066247076
0.06773813 0.19886741 -0.02884638 -0.07402616 0.09475845 -0.0779304 -0.13517138 -0.060199857
-0.0001256742 0.09922095 -0.06586702 0.11257524 -0.022741579 -0.09369654 0.0746873 -0.07406884
0.119720794 -0.051633414 0.016863864 0.1491375 0.06463786 0.01263129 0.030680375 -0.16542241
-0.13363673 -0.02997222 -0.10867108 -0.11805574 -0.012004257 0.15398805 -0.07159794 -0.11576455
-0.01852042 -0.12690416 0.007034308 0.12664445 0.18649548 -0.10755609 0.09972055 0.07980447
0.07640268 0.09560428 -0.052277055 -0.011332709 -0.028145552 0.20909752 0.044006657 0.13335016
-0.07575411 -0.013170057 -0.015520796 -0.09434521 0.194753 0.1464501 0.02190946 -0.16053736
00000000: 0182 89bc 145a bebd 87a7 0ebe 8813 ed3d
00000010: 6514 c53d fe4d 803b 8976 a6bb 6cf6 a0bd
00000020: 6611 0abe da63 793d 6f6d a43d 07a8 a43c
00000030: 6728 883a 6e17 e3bd cc16 2d3b 719a cf3c
00000040: 585b 2f3d 57c1 9fbd fc53 b1bd ef7a eb3d
00000050: 6b09 093e e864 dc3d 4995 1c3e 6f26 96bd
00000060: c3e0 e83b 753c 6e3d 675d ca3d b6f0 0d3d
00000070: 6e04 ec3d caac aa3d 7254 593c 4bdf ed3d
00000080: 344d 06be 605f 963d c81a 503d 3d73 993d
00000090: e50e 1f3e e44e 6fbc d556 b23d 18af d83c
000000a0: a260 003d 32fc e6bc 0400 e5bd db89 c9bd
000000b0: 7992 d13c 282a 1f3e 48cc 423c 1506 e63c
000000c0: c254 1b3e daf4 e5bc 0584 c33c ffd9 af3d
000000d0: 801e 763b bb9b 18be 1296 ea3d a150 063d
000000e0: ab11 57bd 60ac a73d 72e9 a9bb 48f8 8a3c
000000f0: d8e1 3abb 2e2d 38bd 2e35 cb3b b0a7 053d
00000100: 25f8 463d 773a f9bd 9e82 463c 1865 b43c
00000110: 3790 edbd 3655 dbbd 0ea3 093e 40ca 1c3d
00000120: 9f6b 89bd c131 5cbd 1539 e7bd 1402 1fbd
00000130: e1e7 9b3d e36b 523d 8242 ed3d 1c57 23be
00000140: 4b08 0ebe 6204 70bd c403 f3bd 2c1a 2bbd
00000150: c42a 7bbb 46b9 b73d 3fc4 f33d 5271 84bd
00000160: 95f8 d8bd 4742 4e3d 2b43 e9bd 0242 f23d
00000170: ac3b 9c3d 2962 3abd d058 56ba 05e6 bb3d
00000180: 1a8a 563d 4894 6a3d 059a e33d 1c06 07bd
00000190: 3788 fabd 5612 cbbd cd18 26bd 6f70 fdbd
000001a0: da1f 79bd 9693 7f3d e75d ab3c fc4c 0abe
000001b0: e648 363d 5910 2e3e 4283 ca3d ac76 edbd
000001c0: 1034 44bd 66b6 aebb a063 e7bd 9085 d3bc
000001d0: af68 b43d 794f 133e 3093 18be 5ec0 85bd
000001e0: a42e ecbd 8deb f43d ba07 f4bd fdb0 1fbe
000001f0: 7eff 2a3c 4452 da3d a5c6 f039 c658 883d
00000200: b00e 1fbe 1654 4f3d f673 07be ac7e 943d
00000210: c17f f0bd c84c 5cbd 6282 efbd f662 b33d
00000220: cbc0 203c 15f3 81bd 00ba 4d3c eafd d5bc
00000230: c3fe 483d 9b66 37bc 5de1 8a3c b8db 073e
00000240: d469 4c3d 7168 013e f531 e0bd 3d8c 91bd
00000250: 4a39 b2bd 25c7 c4bd c738 bc3c 3ac0 0dbe
00000260: 52a9 6b3d 18af aaba 80d6 b2bd 14aa 3b3c
00000270: 7eb9 fcbd 2d08 073d 7f87 5abb c386 5a3e
00000280: fd9b 573d 8247 b239 3cf6 f7bd dbc1 ccbd
00000290: 88c1 4d3d c018 c1bd 93bc 97bd 985d 193e
000002a0: 7445 4a3d 08d9 633c 141a 643d 9464 f43d
000002b0: ce42 1ebd 9e40 24bd 4800 7b3c a82b 6bbd
000002c0: 5542 0e3e 0051 8d3d a548 c33d 03d3 79bd
000002d0: 3ba5 cc3d 3b39 d9bd e0e0 f6bd 07f5 c73d
000002e0: 7a8d b9bb 3f80 8c3d 93f5 95bc 6356 173e
000002f0: 018b 3bbe c6ba 9ebd 5f45 1cbd 38b0 febc
00000300: 95d7 d1bd 5d1e d2bd 34f2 473d e14e 81bd
00000310: 2b2c b93d b0a2 c73a 321d babd 8cac 873d
00000320: 4aba 8a3d e6a3 4b3e 3e4f ecbc 079b 97bd
00000330: b810 c23d f999 9fbd 5e6a 0abe 2094 76bd
00000340: 69c7 03b9 5a34 cb3d 4ae5 86bd d98d e63d
00000350: 8c4c babc f9e3 bfbd a8f5 983d 67b1 97bd
00000360: 2d30 f53d 8f7d 53bd 1626 8a3c 80b7 183e
00000370: db60 843d 78f3 4e3c 6955 fb3c 7e64 29be
00000380: 11d8 08be 4d88 f5bc f18e debd 35c7 f1bd
00000390: 81ad 44bc 0baf 1d3e f1a1 92bd f715 edbd
000003a0: 23b8 97bc 2af3 01be 0d80 e63b 15af 013e
000003b0: acf8 3e3e 5e46 dcbd 4a3a cc3d 8770 a33d
000003c0: 0279 9c3d 2dcc c33d 7720 56bd d4ac 39bc
000003d0: 8091 e6bc a91d 563e 5340 343d f28c 083e
000003e0: f924 9bbd 39c7 57bc f04a 7ebc 1038 c1bd
000003f0: 556d 473e 04f7 153e 787b b33c e863 24be

modality_transformers.atac.layers.0.self_attn.in_proj_bias f4 [192]
-0.013715026 0.018176207 0.0019097177 0.027893448 -0.003935203 0.018997725 0.011673888 0.031408805
-0.016413134 -0.014430792 0.002259144 -0.0072996398 -0.0005179468 0.0028607051 0.0022731614 0.019877048
0.018416362 0.029586228 -0.012647324 -0.006939843 0.029542768 0.0057219695 -0.011585947 0.02109995
0.025191613 -0.025521608 0.0018174888 0.008437164 0.015871465 -0.0046371985 0.0068681105 0.0078707095
-0.036278937 0.00955888 -0.01817064 0.00445779 0.012962709 -0.01267594 -0.05866402 0.018701212
-0.0073605482 -0.0013441389 -0.014423613 0.03207665 0.010612687 0.008804579 -0.011566992 0.016490834
-0.02788344 0.009448829 0.0044457414 0.043057688 0.009124993 0.019749269 -0.022346577 0.00045225595
0.055790707 0.018664354 0.0035354279 -0.03572124 0.0061016185 -0.02630543 0.020094436 -0.015600522
-0.0052152094 -0.0057304148 -0.014108743 0.0104626445 -0.003899461 -0.0037320124 -0.011102837 0.0016178037
-0.0026403584 -0.00015953765 0.0016985429 -0.0008471771 -0.0048426306 0.0046324446 -0.007628887 -0.0006650453
-0.0015088674 0.0027383778 0.007839112 0.0011576473 0.0011100711 0.0015759458 -0.002958522 -0.0029121246
0.0016915734 -0.00058811164 0.00047447236 0.002031247 0.0039993953 0.005962278 -0.0054054456 -0.005126945
-0.0033067514 -0.003097797 -0.0024838091 -0.00067453814 -0.0024479995 -0.0026324065 0.0023124695 0.0022524814
0.00040187803 -0.0115259 -0.0017641069 0.0034143245 -0.0068402886 0.0015599006 0.005885735 0.0033332135
-0.00039987414 -0.004026265 0.0049936543 0.0027422437 -0.0026658454 0.0016488156 -0.00024384067 0.006379195
-0.008706664 -0.0013168438 0.00067876064 -0.00048952777 -0.004748869 0.0029043877 -0.0043466818 0.0023672327
0.009860337 0.014224726 -0.0020604127 -0.006579553 0.0052112825 -0.0046879393 0.0010030395 0.003322153
0.012215415 -0.024360593 -0.0023328322 0.004536421 -0.008150948 0.0061321105 0.0043554744 0.0054030395
-0.0060701985 0.013880305 -0.0014971048 0.0038438642 -0.0013471309 0.0019474034 -0.025598804 -0.029124536
0.0050757234 -0.004133985 -0.01553017 -0.03453399 0.0074971216 -0.008707819 0.009509626 0.02193133
-0.0058844676 0.0030537983 0.002029574 0.00070990424 -0.0020767362 -0.020798545 0.022708053 -0.0030496428
0.0068082954 0.007549734 -0.005392715 0.0033119926 0.0045852554 -0.0060516763 0.012926187 0.005012577
0.00821187 0.017225357 -0.0021299692 0.004390101 -0.016654592 -0.011012725 -0.009116497 -0.002905407
0.0075947433 0.01122617 -0.0050153327 -0.005476546 -0.0051795915 -0.008517087 0.009140281 -0.00512071
00000000: fdb4 60bc 45e6 943c 7e4f fa3a cd80 e43c
00000010: e0f2 80bb 1ea1 9b3c d643 3f3c 85a6 003d
00000020: d674 86bc 216f 6cbc 260e 143b d131 efbb
00000030: d2c6 07ba ab7a 3b3b 52f9 143b 31d5 a23c
00000040: e9dd 963c d15e f23c b936 4fbc 9f67 e3bb
00000050: ad03 f23c 5c7f bb3b fcd2 3dbc cdd9 ac3c
00000060: a45e ce3c b112 d1bc ce38 ee3a 083c 0a3c
00000070: e004 823c a4f3 97bb e30d e13b 26f4 003c
00000080: 3999 14bd d99c 1c3c 98da 94bc a712 923b
00000090: 8b61 543c bfae 4fbc af49 70bd 4933 993c
000000a0: c130 f1bb d12d b0ba 0551 6cbc ce62 033d
000000b0: d6e0 2d3c 1541 103c 7b83 3dbc c917 873c
000000c0: d06b e4bc 43cf 1a3c 95ad 913b 425d 303d
000000d0: ff80 153c 38c9 a13c 2b10 b7bc c41c ed39
000000e0: cc84 643d fde5 983c a3b2 673b 6f50 12bd
000000f0: 16f0 c73b 7c7e d7bc 169d a43c 5599 7fbc
00000100: 59e4 aabb 34c6 bbbb 5b28 67bc 836b 2b3c
00000110: 198e 7fbb c794 74bb ace8 35bc 7c0c d43a
00000120: dd09 2dbb 9049 27b9 a4a1 de3a 1815 5eba
00000130: eeae 9ebb c3cb 973b befb f9bb 6f56 2eba
00000140: 30c5 c5ba 5b76 333b 9e6f 003c 33bc 973a
00000150: ce7f 913a f78f ce3a c3e3 41bb 58d9 3ebb
00000160: c9b7 dd3a 812b 1aba 9ac2 f839 ab1e 053b
00000170: 5c0d 833b 375f c33b 2a20 b1bb efff a7bb
00000180: 15b6 58bb 6904 4bbb 67c7 22bb 7dd3 30ba
00000190: 9e6e 20bb 7484 2cbb cd8c 173b 5e9e 133b
000001a0: 28b3 d239 21d7 3cbc 9b39 e7ba dcc2 5f3b
000001b0: 8024 e0bb 9475 cc3a 20dd c03b 0b72 5a3b
000001c0: 33a6 d1b9 c2ee 83bb cfa1 a33b 37b7 333b
000001d0: 77b5 2ebb 121d d83a 7baf 7fb9 9108 d13b
000001e0: 65a6 0ebc f299 acba dbee 313a a753 00ba
000001f0: 679c 9bbb 8a57 3e3b 9c6e 8ebb 9323 1b3b
00000200: 408d 213c d30e 693c fd07 07bb 4a99 d7bb
00000210: 68c3 aa3b 499d 99bb 6c78 833a 7ab8 593b
00000220: 2a23 483c de8f c7bc 6ee2 18bb 42a6 943b
00000230: 8e8b 05bc dfef c83b 5eb8 8e3b fb0b b13b
00000240: 84e8 c6bb 386a 633c 803a c4ba 57e9 7b3b
00000250: 3692 b0ba 0440 ff3a 95b4 d1bc 9496 eebc
00000260: 4152 a63b 6176 87bb 4172 7ebc 8373 0dbd
00000270: 6aaa f53b 3dab 0ebc 43ce 1b3c 55a9 b33c
00000280: 7ed2 c0bb 3c22 483b 9a02 053b de18 3a3a
00000290: da19 08bb b661 aabc 3d06 ba3c 84dc 47bb
000002a0: 1f18 df3b c263 f73b 5fb5 b0bb 040e 593b
000002b0: e93f 963b 244d c6bb 5cc8 533c 8b40 a43b
000002c0: 148b 063c 311c 8d3c f496 0bbb d6da 8f3b
000002d0: 366f 88bc b76e 34bc 5c5d 15bc a468 3ebb
000002e0: 53dd f83b f8ed 373c a957 a4bb 9974 b3bb
000002f0: 90b9 a9bb 418b 0bbc 1ec1 153c a1cb a7bb

modality_transformers.atac.layers.0.self_attn.out_proj.weight f4 [64, 64]
-0.15017658 -0.12449399 -0.034755584 -0.06982914 -0.08670524 0.2120433 0.13791448 0.025176978
-0.05399767 -0.011070532 -0.22070906 0.016129976 -0.18505612 -0.11732014 -0.042604633 -0.011180799
-0.10427816 -0.2093405 -0.12115282 -0.0031601368 -0.13057415 0.14797302 -0.00032510806 -0.04132601
-0.01584228 0.25021705 -0.19467089 0.2018811 -0.15322988 -0.12299603 0.09290614 0.105506346
-0.17738105 0.023264607 0.13316977 -0.16126452 0.20909049 -0.12355792 0.19701123 0.03416461
0.065842755 -0.028626593 0.2027419 0.060083043 0.15831098 0.18783554 0.084612444 -0.12842163
0.11684226 -0.0484702 -0.051025685 -0.020485237 -0.098255076 -0.09750358 0.08074435 0.012022614
-0.10129408 0.20276031 0.039491918 -0.019665955 -0.0052794935 -0.15021127 -0.0621428 0.20485777
-0.1481153 -0.10759885 -0.07814185 0.14548476 0.18771528 0.08611277 -0.21857183 -0.054233734
0.037882157 0.00013191481 0.13696532 0.18903251 -0.17251171 0.15439905 -0.0540013 0.13151704
0.15019383 0.11727646 -0.18890792 -0.09034214 -0.1392716 -0.026505299 0.014863042 -0.15790671
0.18848674 -0.016819762 0.10272121 -0.119152546 -0.15338854 -0.061506547 0.007922993 0.067895845
-0.046211764 0.054958113 -0.16126741 0.045777712 -0.08424948 -0.004632887 0.21520697 0.062232543
0.06330551 0.11124103 0.20281458 -0.025424495 -0.0013497462 0.22150286 0.052041244 -0.16327207
0.120866515 -0.1541084 0.06676144 -0.015903058 -0.0876606 -0.19050488 -0.05508219 0.2013278
-0.056894097 -0.23618448 -0.078501046 -0.18290359 0.11789707 -0.19250166 -0.1325746 0.12305286
0.048184436 -0.162236 -0.044270936 -0.099203065 0.14752565 0.15173739 0.18990037 -0.11003343
0.16207923 0.15023562 -0.16705613 -0.0853057 0.024513928 0.11397111 0.06785665 -0.1856655
0.011027389 0.14398865 0.04432823 0.090884894 -0.15949772 0.16650473 -0.06175161 0.11957974
0.0054783537 -0.12540837 0.14982723 -0.20127133 -0.044455174 -0.107294045 -0.023800448 0.08992598
-0.045125317 -0.17972392 0.032680344 -0.10547671 0.16128504 -0.038317665 0.104888834 -0.019225026
-0.056137655 0.05640744 0.009406188 -0.08286714 0.15627822 0.06384993 -0.16418782 -0.047405936
-0.012548153 -0.14486952 0.061442528 0.0042542494 0.22097692 -0.07739878 0.07454252 0.029554307
0.04331158 -0.13101766 -0.21320097 0.052742027 0.03921558 -0.0014891963 0.07906109 0.015884168
0.12678654 0.0014860383 -0.23069312 0.20080428 0.07119276 0.18054183 -0.20858927 0.20557405
0.16936174 -0.16013663 -0.09485635 -0.13987653 0.1509253 -0.20899014 0.18620257 -0.2532535
-0.14593875 0.17242189 -0.10363465 0.16048324 -0.16618082 0.12158012 -0.09472005 -0.0033289518
-0.20331772 0.03302917 -0.019884063 -0.16396998 -0.15702476 0.10332733 -0.085046135 0.09734934
-0.19842641 0.09923071 -0.09116254 -0.11677916 -0.011344813 0.04940888 0.25144076 -0.012469508
-0.1850276 -0.10741657 0.024751445 0.06847397 0.12219029 0.14467067 -0.014530262 -0.19707903
-0.010412858 0.21229853 0.03732736 -0.14259036 -0.057265535 0.14240587 0.1853813 0.15288636
-0.009919745 -0.040972333 0.14476764 0.1506295 -0.109696716 -0.069911316 0.08116551 -0.21109727
00000000: e4c7 19be b4f6 febd df5b 0ebd 9502 8fbd
00000010: 8492 b1bd e121 593e 7439 0d3e f33f ce3c
00000020: a92c 5dbd 2d61 35bc 8e01 62be 0323 843c
00000030: 5a7f 3dbe 8b45 f0bd 3282 2ebd ac2f 37bc
00000040: ca8f d5bd 5b5d 56be f81e f8bd 4c1a 4fbb
00000050: 3bb5 05be 3d86 173e 4473 aab9 7645 29bd
00000060: abc7 81bc 731c 803e ce57 47be ebb9 4e3e
00000070: 4be8 1cbe 58e5 fbbd 9345 be3d b613 d83d
00000080: 61a3 35be 6b95 be3c a85d 083e 8722 25be
00000090: d11b 563e ef0b fdbd 50bd 493e 31f0 0b3d
000000a0: 91d8 863d 5182 eabc 939b 4f3e a319 763d
000000b0: 461c 223e f657 403e 4a49 ad3d f680 03be
000000c0: ff4a ef3d b088 46bd 4f00 51bd a8d0 a7bc
000000d0: f539 c9bd f5af c7bd 4b5d a53d 7ffa 443c
000000e0: 4573 cfbd 66a0 4f3e 47c2 213d 7f1a a1bc
000000f0: 9aff acbb fcd0 19be 7389 7ebd 3cc6 513e
00000100: 8aab 17be c95c dcbd d608 a0bd f5f9 143e
00000110: 6f38 403e e45b b03d 4bd1 5fbe 3124 5ebd
00000120: 522a 1b3d 9d52 0a39 a340 0c3e bd91 413e
00000130: e9a6 30be c91a 1e3e 7830 5dbd 67ac 063e
00000140: 69cc 193e a42e f03d 1471 41be 4d05 b9bd
00000150: 379d 0ebe a421 d9bc 1e84 733c 4cb2 21be
00000160: ab02 413e 99c9 89bc 7f5f d23d 4006 f4bd
00000170: e311 1dbe 4aee 7bbd 71cf 013c fa0c 8b3d
00000180: 8c48 3dbd c21b 613d 4923 25be 6981 3b3d
00000190: fe8a acbd 79cf 97bb 375f 5c3e 8de7 7e3d
000001a0: 52a6 813d 56d2 e33d a0ae 4f3e 0847 d0bc
000001b0: f8e9 b0ba a5d1 623e 3329 553d cb30 27be
000001c0: dd88 f73d 98ce 1dbe 39ba 883d 2147 82bc
000001d0: 6787 b3bd b613 43be dd9d 61bd e028 4e3e
000001e0: c909 69bd 58da 71be 28c5 a0bd 144b 3bbe
000001f0: 0574 f13d 281f 45be a3c1 07be 2303 fc3d
00000200: 0b5d 453d 3221 26be 7155 35bd fa2a cbbd
00000210: f710 173e 0c61 1b3e 3e75 423e 3559 e1bd
00000220: 19f8 253e 5ed7 193e c310 2bbe c1b4 aebd
00000230: 6fd1 c83c af69 e93d 6df8 8a3d 191f 3ebe
00000240: 39ac 343c c371 133e 8591 353d dc21 ba3d
00000250: 5f53 23be 3780 2a3e 42ef 7cbd 39e6 f43d
00000260: c383 b33b 0d6b 00be 4f6c 193e 121a 4ebe
00000270: a116 36bd fbbc dbbd 28f9 c2bc 1d2b b83d
00000280: 53d5 38bd 8c09 38be d3db 053d 2c04 d8bd
00000290: e827 253e fcf2 1cbd f5cf d63d cd7d 9dbc
000002a0: 99f0 65bd 7d0b 673d 691c 1a3c 3fb6 a9bd
000002b0: 6607 203e c1c3 823d da20 28be ba2c 42bd
000002c0: c596 4dbc ad58 14be 29ab 7b3d 3b67 8b3b
000002d0: c647 623e 4083 9ebd c0a9 983d e01b f23c
000002e0: 7c67 313d 7e29 06be 5b51 5abe 0608 583d
000002f0: 84a0 203d 2331 c3ba c8ea a13d 841f 823c
00000300: 55d4 013e 2cc7 c23a d13a 6cbe a39f 4d3e
00000310: 82cd 913d f5df 383e 6d98 55be 0182 523e
00000320: 2a6d 2d3e dbfa 23be 0c44 c2bd cb3b 0fbe
00000330: 298c 1a3e 8301 56be e3ab 3e3e 71aa 81be
00000340: f870 15be 5d8f 303e 673e d4bd b855 243e
00000350: 4e2b 2abe fffe f83d 96fc c1bd 8b2a 5abb
00000360: 8532 50be 9849 073d e7e3 a2bc bfe7 27be
00000370: 19cb 20be 479d d33d ab2c aebd 175f c73d
00000380: 4b30 4bbe 7839 cb3d 6db3 babd ea29 efbd
00000390: 98df 39bc f760 4a3d d8bc 803e e84c 4cbc
000003a0: e077 3dbe 38fd dbbd 8bc3 ca3c 153c 8c3d
000003b0: e73e fa3d 8c24 143e 5610 6ebc 16cf 49be
000003c0: b19a 2abc c964 593e 93e4 183d 3503 12be
000003d0: 448f 6abd d8d2 113e 98d4 3d3e 3e8e 1c3e
000003e0: 6d86 22bc 9bd2 27bd f83d 143e 9f3e 1a3e
000003f0: aca8 e0bd aa2d 8fbd 1a3a a63d e229 58be

modality_transformers.atac.layers.0.self_attn.out_proj.bias f4 [64]
-0.004172183 0.0055356943 -0.00828031 0.014239971 -0.0057842964 -0.012425843 0.009069264 -0.013353495
-0.02225683 0.01890896 0.0027067456 -0.0008605345 0.0053397566 0.0017213613 0.0058815456 0.011761165
-0.00215293 0.0075853434 0.014262562 -0.0029320666 -0.0016679814 0.010156809 -0.0026396478 -0.017298616
0.0051106843 -0.0027366031 -0.013855751 -0.012900314 0.00082150794 -0.028425014 -0.004265502 0.00025043727
0.01244694 -0.0003485294 0.0148031125 -0.0063505652 0.013915434 -0.009061355 -0.0067381705 0.011637888
-0.009265674 0.017671395 -0.001579597 -0.008813421 -0.005067648 -0.02510492 0.010438611 0.003265254
-0.011007811 0.0048968294 -0.01181061 0.014172778 -0.004581226 0.0063419947 0.002738816 -0.017205985
-0.011828824 0.006537778 -0.0075477823 -0.00030283915 0.00931793 0.007554133 0.0036800366 -0.00094465225
00000000: cfb6 88bb c564 b53b 23aa 07bc c44e 693c
00000010: 328a bdbb c395 4bbc 4097 143c 9ec8 5abc
00000020: f553 b6bc f7e6 9a3c a863 313b 7e95 61ba
00000030: 20f9 ae3b 4d9f e13a fbb9 c03b e7b1 403c
00000040: 2c18 0dbb 798e f83b 85ad 693c ea27 40bb
00000050: 2ba0 daba bf68 263c f1fd 2cbb d4b5 8dbc
00000060: 8777 a73b 9558 33bb 3b03 63bc d75b 53bc
00000070: 775a 573a 93db e8bc a0c5 8bbb 1f4d 8339
00000080: 40ee 4b3c d3ba b6b9 c188 723c 6718 d0bb
00000090: 8ffd 633c 1476 14bc dfcb dcbb d7ac 3e3c
000000a0: 0ecf 17bc 9ac3 903c 7b0a cfba 2b66 10bc
000000b0: 830e a6bb d5a8 cdbc b506 2b3c dffd 553b
000000c0: 1b5a 34bc 9575 a03b 4a81 41bc f134 683c
000000d0: 1c1e 96bb 82d0 cf3b b57d 333b 91f3 8cbc
000000e0: afcd 41bc db3a d63b 6353 f7bb 62c6 9eb9
000000f0: 3baa 183c a988 f73b c52c 713b 8aa2 77ba

modality_transformers.atac.layers.0.linear1.weight f4 [256, 64]
-0.1025365 -0.05753963 0.108014755 -0.16331431 -0.10267314 -0.020229021 -0.0011660323 0.05155315
0.09576163 -0.021386756 -0.00973272 0.04283231 -0.0075083496 0.026271554 0.06006685 -0.11243575
0.039537497 0.12980972 0.13564895 0.042879116 -0.026067676 -0.06207918 0.06451869 -0.1446665
-0.13970749 -0.07875997 -0.04740072 -0.049149986 0.012603975 -0.054084476 -0.117780104 0.034799885
0.05556485 0.069384314 -0.05358837 0.090551585 0.095609866 0.008093887 0.008898301 -0.037620217
-0.07736184 0.026979052 -0.12176764 0.0026476842 -0.026238343 -0.062905096 -0.045959506 -0.003213092
-0.018576194 0.10041886 0.042162463 0.10803867 0.02525011 0.0044763237 0.18756302 -0.009350826
-0.115802936 -0.119148746 -0.15235081 -0.013112758 -0.06329812 -0.032162026 0.11333599 -0.06895915
0.08727175 -0.07312856 0.03160027 -0.10785262 0.052430276 0.068006754 0.07637441 0.09373344
0.11861789 0.123749316 -0.05274582 0.011366462 0.08728997 0.07162514 -0.01854137 -0.14316657
0.083143316 -0.061059885 0.08924059 0.11324816 0.084602565 -0.04955936 0.025858043 -0.14241959
-0.018849315 -0.03852291 -0.028938072 0.05187067 -0.072515935 0.041621365 -0.0040684417 -0.14229555
-0.07432501 0.048632447 -0.09607972 -0.11736324 -0.03296623 0.016623667 0.04959228 0.12422428
0.01895098 0.06592819 0.09313863 -0.09000098 -0.033475563 -0.0851023 -0.06101617 -0.06686801
-0.03148614 0.025859637 0.12309226 -0.061264705 -0.10133133 -0.066012844 0.06895595 -0.02853008
-0.15908347 -0.1397624 0.021907704 0.062925555 -0.09431165 0.0030132325 0.112481914 -0.00063343765
0.07505949 0.03835055 -0.01833029 0.107002705 0.026775863 -0.06962232 0.051139884 -0.0079013305
-0.07214617 0.09054695 0.010524479 0.06298629 -0.023079222 -0.012620497 0.112594925 0.06976012
-0.059084736 -0.123577036 -0.08532414 0.045594584 0.026457086 0.10581011 0.10619231 0.008252836
0.06966382 0.124767706 0.032534465 -0.0028298923 0.027292762 0.12011568 0.101201005 -0.11012091
0.09608792 0.049037784 0.032388173 -0.13242646 -0.10030586 -0.08127566 0.057210963 -0.017952397
-0.10806031 0.12799156 0.14356843 0.07843795 -0.100659326 -0.112675056 0.03235511 -0.104834005
0.06303538 -0.07185609 0.12736766 -0.10002781 -0.08321576 -0.05342124 -0.05300234 -0.027034855
0.024206426 0.04331609 0.13939473 -0.083905995 0.0043763244 0.06822369 0.035143547 -0.025056954
0.019643331 -0.02919885 0.064899385 0.12886852 0.07319455 -0.07104704 0.07517715 0.039344642
-0.029913358 -0.08775649 -0.11122525 -0.0011344949 -0.020383071 0.07626254 -0.11546113 0.04850901
-0.02006734 0.13554293 0.039354566 -0.070911065 0.053706694 0.026299596 -0.04968906 0.05598883
-0.105760574 -0.03694943 -0.057840202 -0.039224252 0.08463064 -0.09354891 -0.06772518 -0.14910051
-0.1304684 0.0800661 0.07973532 -0.010447218 0.125091 0.1256028 0.04545885 0.123401575
-0.031198572 -0.05154957 0.07446645 0.06715401 -0.084704 -0.03227175 -0.0057129543 0.011973012
0.104849026 -0.087421484 -0.04054304 -0.0130388625 0.10332347 0.003591933 0.08948291 -0.084165536
-0.033865742 0.018196149 -0.051010266 0.0308597 0.06452008 -0.013407119 0.07258482 0.13290304
00000000: a8fe d1bd adae 6bbd d736 dd3d de3b 27be
00000010: 4c46 d2bd 55b7 a5bc 8dd5 98ba 6529 533d
00000020: ac1e c43d 4733 afbc fd75 1fbc ef70 2f3d
00000030: 9a08 f6bb 7137 d73c a808 763d b744 e6bd
00000040: 12f2 213d d7ec 043e 8fe7 0a3e 03a2 2f3d
00000050: e18b d5bc bd46 7ebd 6022 843d 7423 14be
00000060: 7b0f 0fbe e84c a1bd 4227 42bd 7f51 49bd
00000070: e780 4e3c af87 5dbd b236 f1bd 538a 0e3d
00000080: f897 633d 5d19 8e3d 7b7f 5bbd 1c73 b93d
00000090: 1bcf c33d 399c 043c 2eca 113c a817 1abd
000000a0: e26f 9ebd 2c03 dd3c 5061 f9bd c584 2d3b
000000b0: cbf1 d6bc 63d4 80bd 0940 3cbd bd92 52bb
000000c0: 1a2d 98bc 67a8 cd3d 8cb2 2c3d 6143 dd3d
000000d0: 52d9 ce3c 20ae 923b 8510 403e 3534 19bc
000000e0: 172a edbd 4204 f4bd da01 1cbe e5d6 56bc
000000f0: 72a2 81bd 54bc 03bd b31c e83d 743a 8dbd
00000100: 88bb b23d 6dc4 95bd 496f 013d d6e1 dcbd
00000110: 21c1 563d 2047 8b3d 306a 9c3d 51f7 bf3d
00000120: f0ed f23d 4870 fd3d 000c 58bd 663a 3a3c
00000130: 15c5 b23d 34b0 923d 12e4 97bc 429a 12be
00000140: 0b47 aa3d ee19 7abd c5c3 b63d a7ee e73d
00000150: 1c44 ad3d c1fe 4abd 3fd4 d33c 71d6 11be
00000160: e169 9abc 33ca 1dbd 890f edbc 5776 543d
00000170: 3c83 94bd 2a7b 2a3d 9050 85bb edb5 11be
00000180: b637 98bd d132 473d 72c5 c4bd 235c f0bd
00000190: 9907 07bd 5b2e 883c 4621 4b3d 4d69 fe3d
000001a0: 163f 9b3c 5c05 873d 77bf be3d 6f52 b8bd
000001b0: ac1d 09bd 1d4a aebd 17ec 79bd 18f2 88bd
000001c0: 9cf7 00bd 97d7 d33c cb17 fc3d b3f0 7abd
000001d0: cd86 cfbd be31 87bd c738 8d3d eab7 e9bc
000001e0: c7e6 22be e01d 0fbe c977 b33c 1ddf 803d
000001f0: 7726 c1bd a779 453b eb5c e63d 480d 26ba
00000200: cab8 993d 7715 1d3d 6829 96bc 3c24 db3d
00000210: 0e59 db3c 2696 8ebd 0e78 513d 9574 01bc
00000220: 5fc1 93bd ae70 b93d dd6e 2c3c f5fe 803d
00000230: a310 bdbc 33c6 4ebc 2b98 e63d 65de 8e3d
00000240: d602 72bd f515 fdbd 6cbe aebd 63c1 3a3d
00000250: 88bc d83c f9b2 d83d 5b7b d93d e736 073c
00000260: e8ab 8e3d 3686 ff3d dc42 053d b775 39bb
00000270: 1295 df3c 36ff f53d 7942 cf3d 1287 e1bd
00000280: bec9 c43d d8db 483d 76a9 043d cd9a 07be
00000290: 296d cdbd da73 a6bd 0b56 6a3d e810 93bc
000002a0: b94e ddbd 3810 033e 9a03 133e 13a4 a03d
000002b0: 7a26 cebd 2ec2 e6bd cb86 043d 36b3 d6bd
000002c0: b118 813d 4929 93bd ab6c 023e 61db ccbd
000002d0: 066d aabd 3bd0 5abd fb18 59bd 3378 ddbc
000002e0: 8e4c c63c 366c 313d 7ebd 0e3e e8d6 abbd
000002f0: 4567 8f3b ddb8 8b3d aef2 0f3d 3e44 cdbc
00000300: 0deb a03c 6d32 efbc f8e9 843d 1cf6 033e
00000310: 06e7 953d 1c81 91bd 7af6 993d d927 213d
00000320: dc0c f5bc adb9 b3bd 10ca e3bd 55b3 94ba
00000330: 66fa a6bc 892f 9c3d e376 ecbd 62b1 463d
00000340: 4364 a4bc c4cb 0a3e 4132 213d d239 91bd
00000350: 8dfb 5b3d 4072 d73c c186 4bbd 8b54 653d
00000360: 0099 d8bd 4958 17bd d9e9 6cbd 9ca9 20bd
00000370: d452 ad3d 9296 bfbd 80b3 8abd cead 18be
00000380: 8299 05be b2f9 a33d 454c a33d cf2a 2bbc
00000390: db17 003e 059e 003e 0f33 3a3d f7b9 fc3d
000003a0: 2694 ffbc a425 53bd de81 983d 0b88 893d
000003b0: 4a79 adbd 622f 04bd bc33 bbbb 742a 443c
000003c0: 16bb d63d 090a b3bd 7510 26bd f4a0 55bc
000003d0: 419b d33d a366 6b3b d142 b73d fb5e acbd
000003e0: ceb6 0abd 1710 953c 24f0 50bd 7bcd fc3c
000003f0: 1b23 843d 88a9 5bbc 5aa7 943d bc17 083e

modality_transformers.atac.layers.0.linear1.bias f4 [256]
-0.047084816 -0.016250376 -0.0033274782 -0.018156705 0.016460882 -0.0027737245 -0.026604442 0.021077327
0.012992012 0.0032290893 0.0031267607 -0.020508632 0.0039740345 -0.008634648 -0.007135168 -0.014404055
-0.014877078 -0.012246444 -0.014977491 -0.00677048 -0.0039596204 0.0004206105 0.0052335444 -0.0019592063
-0.0035462459 0.0055725654 -0.0006655232 -0.006169261 -0.0058743893 -0.011698444 -0.00653302 -0.02343609
0.008043718 -0.009664731 0.011772329 0.0017280126 0.0072500966 0.011309194 0.0031427098 0.005090854
0.004719399 -0.0018079006 0.013488751 -0.034033153 -0.0080771865 -0.011284322 -0.008087715 -0.02158872
0.0113776745 -0.018706294 -0.0021564984 -0.014862786 -0.011759977 -0.01243355 0.005477108 -0.018062446
0.022142317 -0.0067906384 -0.019019237 0.0016144321 -0.0027173164 -0.007460579 0.020504132 -0.021573387
0.015206967 -0.025184562 0.006414632 -0.005164566 0.0065931696 0.0043891123 -0.008118197 0.021932855
-0.100231834 0.0011852462 -0.0026265546 -0.012968666 -0.0013045074 -0.036033265 -0.0039992835 -0.02434156
-0.005000158 0.0020128153 0.0029852656 0.0017983624 -0.012483559 0.011148903 0.03362006 0.003565975
-0.0029448662 0.00242582 -0.008302674 -0.0035392581 -0.0078109573 -0.0004207299 -0.014003249 0.0031973138
0.009192354 -0.009041613 -0.012534045 -0.007503877 -0.019671375 0.002119275 -0.016972674 0.01401415
0.0047923066 -0.010825438 -0.0051954156 -0.03711867 0.002229779 -0.021873817 0.004302747 -0.018573603
-0.002760293 0.007967634 -0.018099803 -0.0064628744 -0.020510394 -0.05415017 -0.0090538245 -0.007916429
-0.044561367 0.018597031 0.026552547 -0.016714346 0.006685627 0.016507301 -0.04418144 -0.013528179
0.004595032 0.0029564297 -0.03592144 -0.011865676 -0.013774305 -0.0156221 -0.0015268965 0.0024015126
-0.02232266 -0.12736031 -0.0045356206 0.11010077 -0.0050198934 -0.016006894 -0.0070740026 -0.008735334
-0.017873505 -0.0031706076 -0.016516607 -0.003936048 -0.015102034 0.007692357 0.0037272477 -0.0005140372
-0.0071500745 -0.0023284033 -0.00089944067 -0.031723272 0.008695518 -0.016632395 -0.0023879528 -0.024193525
-0.020779934 0.010114635 -0.008778733 -0.011427237 -0.0020128086 -0.026133042 -0.009691302 -0.008662482
-0.006640276 -0.00196819 0.012754874 0.012678023 0.00046760472 -0.003696979 0.0121268965 0.009657643
-0.025744855 0.0010150351 -0.0072575733 -0.0065366304 0.003829203 0.029293401 -0.028931478 -0.015435337
-0.021325039 -0.0037250658 0.012169669 -0.005866697 -0.01786213 -0.011811401 0.00921543 -0.002252089
0.026803954 0.007440824 -0.00093654514 0.0038542093 0.0036226742 -0.0062412205 0.004919308 -0.025599387
0.016276168 0.0055608237 -0.009894302 -0.021800134 -0.014646044 0.0027876042 -0.01631971 -0.0073064486
-0.0017004336 -0.009106422 -0.001192857 -0.011195768 -0.01019073 -0.0055274884 -0.045491535 -0.0066020526
-0.02013316 -0.00029867643 -0.009872569 -0.010515336 -0.008110079 -0.010438587 -0.021270879 -0.05649302
-0.010283048 0.019820178 0.006041754 0.014551807 0.050710496 -0.017541094 0.0012135258 -0.015203886
0.007711839 -0.008061051 -0.012342659 -0.012982502 0.0010613032 0.010928438 -0.016878948 0.0049593034
-0.0079838205 -0.034062594 0.0275719 -0.003954324 -0.0098152645 -0.005679034 -0.002529503 -0.02389633
-4.7851892e-05 -0.013242412 -0.025722045 0.00676853 -0.019596998 -0.011423621 -0.018862335 0.0066756946
00000000: 02dc 40bd 821f 85bc d211 5abb 5fbd 94bc
00000010: f9d8 863c 60c7 35bb 8ff1 d9bc 5caa ac3c
00000020: 73dc 543c 219f 533b 57ea 4c3b b801 a8bc
00000030: 9e38 823b 5778 0dbc 21ce e9bb fcfe 6bbc
00000040: fdbe 73bc 4fa5 48bc 2764 75bc e7da ddbb
00000050: b4bf 81bb 6385 dc39 277e ab3b 0766 00bb
00000060: 2268 68bb 119a b63b 8276 2eba 8327 cabb
00000070: f37d c0bb d5aa 3fbc f212 d6bb 0bfd bfbc
00000080: ccc9 033c d258 1ebc bae0 403c 7b7e e23a
00000090: 3892 ed3b 334a 393c ecf5 4d3b 2ed1 a63b
000000a0: 30a5 9a3b 14f7 ecba ecff 5c3c 5966 0bbd
000000b0: 2d56 04bc e0e1 38bc 5682 04bc d4da b0bc
000000c0: 6d69 3a3c f13d 99bc 0a54 0dbb 0b83 73bc
000000d0: ebac 40bc 17b6 4bbc 5079 b33b b2f7 93bc
000000e0: ce63 b53c 0184 debb 3bce 9bbc 5a9b d33a
000000f0: 0115 32bb df77 f4bb 48f8 a73c acba b0bc
00000100: a426 793c db4f cebc d531 d23b 853b a9bb
00000110: 840b d83b 8bd2 8f3b 3002 05bc 88ac b33c
00000120: 5946 cdbd 435a 9b3a 4622 2cbb 877a 54bc
00000130: 01fc aaba 9e97 13bd 6c0c 83bb f467 c7bc
00000140: 5ed8 a3bb 70e9 033b 72a4 433b 07b7 eb3a
00000150: d787 4cbc e3a9 363c 30b5 093d 22b3 693b
00000160: a8fe 40bb 82fa 1e3b f007 08bc e6f2 67bb
00000170: 0ff3 ffbb 6995 dcb9 e26d 65bc 068a 513b
00000180: 879b 163c 4623 14bc 985b 4dbc 15e3 f5bb
00000190: dd25 a1bc 89e3 0a3b 470a 8bbc 9b9b 653c
000001a0: c808 9d3b 2e5d 31bc 4e3e aabb bf09 18bd
000001b0: 7c21 123b b830 b3bc 0ffe 8c3b ab27 98bc
000001c0: 08e6 34bb ae8a 023c 0a46 94bc 85c6 d3bb
000001d0: 6a05 a8bc 92cc 5dbd 7e56 14bc e9b3 01bc
000001e0: fb85 36bd cd58 983c ba84 d93c 86ec 88bc
000001f0: 1b13 db3b 523a 873c 99f7 34bd 4ca5 5dbc
00000200: ec91 963b a9c0 413b 5c22 13bd 4168 42bc
00000210: 9fad 61bc d6f3 7fbc 2522 c8ba b262 1d3b
00000220: 03de b6bc be6a 02be 8b9f 94bb 837c e13d
00000230: eb7d a4bb e420 83bc 09cd e7bb a51e 0fbc
00000240: 756b 92bc f8c9 4fbb d64d 87bc f7f9 80bb
00000250: 866e 77bc 2b10 fc3b d744 743b 74c0 06ba
00000260: 2c4b eabb 2098 18bb 71c8 6bba 43f0 01bd
00000270: a577 0e3c a940 88bc 337f 1cbb 8031 c6bc
00000280: ae3a aabc dbb7 253c add4 0fbc 4e39 3bbc
00000290: 53e9 03bb f614 d6bc 44c8 1ebc 15ed 0dbc
000002a0: ac96 d9bb c0fc 00bb d2f9 503c 7cb7 4f3c
000002b0: d828 f539 0449 72bb e4af 463c 173b 1e3c
000002c0: e0e6 d2bc ed0a 853a f0d0 edbb 3b31 d6bb
000002d0: 5ef3 7a3b b7f8 ef3c b501 edbc 7fe4 7cbc
000002e0: d9b1 aebc 3c20 74bb 4b63 473c 6c3d c0bb
000002f0: 9a53 92bc 9b84 41bc 51fc 163c c997 13bb
00000300: f793 db3c 28d2 f33b 7b82 75ba e796 7c3b
00000310: 636a 6d3b 2783 ccbb 2532 a13b ceb5 d1bc
00000320: 9955 853c 9237 b63b b61b 22bc 3296 b2bc
00000330: f6f5 6fbc 3db0 363b eab0 85bc ef6a efbb
00000340: 15e1 deba 1a33 15bc a459 9cba 746e 37bc
00000350: 05f7 26bc ef1f b5bb 5555 3abd 0856 d8bb
00000360: 4cee a4bc ac97 9cb9 8ec0 21bc 8448 2cbc
00000370: 23e0 04bc 9b06 2bbc 4440 aebc 3a65 67bd
00000380: 3b7a 28bc ed5d a23c e8f9 c53b b46a 6e3c
00000390: cfb5 4f3d 57b2 8fbc 2b0f 9f3a b819 79bc
000003a0: 98b3 fc3b 8012 04bc dd38 4abc 8fb4 54bc
000003b0: 6d1b 8b3a 310d 333c b845 8abc a781 a23b
000003c0: 92ce 02bc 3885 0bbd 77de e13c 4693 81bb
000003d0: 34d0 20bc 3117 babb 05c6 25bb 3cc2 c3bc
000003e0: 94b4 48b8 b4f6 58bc 0ab7 d2bc 8bca dd3b
000003f0: e289 a0bc 242a 3bbc 2f85 9abc c9bf da3b

modality_transformers.atac.layers.0.linear2.weight f4 [64, 256]
-0.012909777 -0.050399154 0.016533533 0.06867093 0.015086439 0.04117281 0.11870948 -0.07769632
-0.04785286 0.057430744 -0.052707702 0.122628674 0.04220354 0.09406724 0.13000819 0.04002109
-0.13787015 0.09086883 0.098475896 -0.07098864 -0.06557632 0.05179234 0.0477595 -0.081519656
-0.11405928 -0.05604572 0.11869491 0.08708488 -0.01713248 -0.071267605 -0.025110308 -0.03276117
-0.014817902 -0.017277725 -0.10714517 0.06573137 0.021044899 -0.009538762 0.13606 0.11802217
0.007857518 0.097518474 -0.12836897 -0.09695731 0.12937483 0.029003082 -0.06933273 -0.0018226104
0.065170534 0.03308107 0.006112999 -0.1513265 0.014082559 -0.06130621 0.1128662 -0.02900115
-0.048190985 -0.016289568 -0.009622567 0.1191925 0.12760153 -0.045517795 0.041568715 0.019502401
0.16069703 0.08258158 0.0960881 -0.06839044 -0.08474848 -0.047891766 0.044796128 -0.106299326
-0.07541667 -0.021307832 0.104947895 -0.10398262 -0.08619395 0.12653942 -0.0502614 -0.0096868295
-0.07794025 -0.008800303 -0.0891279 0.032105956 -0.10389426 -0.116531424 0.030566927 -0.14402977
-0.0791836 -0.06427125 0.090547934 0.08049199 0.08326543 -0.0753634 -0.01746518 -0.08627329
-0.07325859 0.022046497 0.033286694 0.011967228 -0.021341177 0.07940655 -0.020071784 -0.10403239
0.0077011026 0.105464906 0.023688087 -0.14131147 -0.058318958 0.060538284 0.0022622964 -0.05328019
-0.06654934 -0.05250509 0.0009815557 -0.0390579 -0.11156028 0.12785146 -0.034969702 0.023254737
-0.08137898 -0.04551539 0.00225964 -0.10382365 0.13495998 0.072241135 -0.0031721557 0.0665183
-0.026301576 -0.101644196 0.034416106 0.10565633 -0.10874799 -0.059688315 0.09485414 0.08693346
0.06849609 -0.031931378 0.12127607 0.09413219 0.06154288 -0.14041045 0.061549358 0.1056488
0.017988935 0.0895726 -0.1170477 -0.048025236 -0.12530343 0.00042198665 -0.10733908 0.076150484
0.09525205 0.061706565 -0.10073333 0.032214098 0.09598603 0.026987804 0.024041174 0.09110019
0.066901386 0.13047905 -0.019903537 0.103258766 -0.032423384 -0.05155532 -0.07153289 -0.08123741
0.0018497963 -0.0685878 0.10863088 0.07285636 0.1200429 0.03276915 -0.03687095 0.13349901
0.10450327 0.009277612 0.03805859 -0.034534607 -0.107567124 0.08935301 0.011908968 -0.00084497663
-0.1437348 -0.07000906 -0.05933356 -0.07155143 -0.11713811 -0.001989026 0.1387875 0.14153314
-0.17805961 -0.07387407 -0.029828968 -0.077091336 0.06320458 0.10122205 0.0035891158 -0.020401245
0.11803742 -0.08963344 0.08439684 -0.105619185 0.09930466 -0.02788777 0.092927195 0.025655812
0.09996584 -0.11428931 0.019840525 -0.10113687 0.102120146 0.07560667 0.1429889 0.0746004
0.10890191 -0.04957835 0.09412161 0.040549435 0.0023448118 -0.0648379 -0.023687629 0.1202225
0.063346505 0.10125074 -0.10147525 0.05617868 -0.20912132 -0.12546258 -0.05031207 0.1524248
0.006526008 0.022912117 -0.052898526 0.0838348 0.01397686 -0.021705665 0.012685418 -0.07167125
0.007122161 -0.05184884 -0.08179624 -0.0022021176 0.12266048 0.017518906 0.101260155 -0.036621124
-0.048654307 -0.11066098 -0.053600773 -0.029945916 0.07910592 -0.14452597 0.07144445 0.07813226
00000000: 8883 53bc 586f 4ebd 5571 873c 58a3 8c3d
00000010: 1d2d 773c d2a4 283d f51d f33d 401f 9fbd
00000020: 5c01 44bd 803c 6b3d 08e4 57bd be24 fb3d
00000030: 9fdd 2c3d 53a6 c03d de20 053e 28ed 233d
00000040: d52d 0dbe 7019 ba3d bbad c93d 7e62 91bd
00000050: e14c 86bd 3424 543d 779f 433d c7f3 a6bd
00000060: e997 e9bd 3290 65bd 5116 f33d 8f59 b23d
00000070: 6a59 8cbc c0f4 91bd 22b4 cdbc 9430 06bd
00000080: c9c6 72bc 048a 8dbc ed6e dbbd 2b9e 863d
00000090: 5a66 ac3c 7848 1cbc 5053 0b3e 9cb5 f13d
000000a0: d2bc 003c c4b7 c73d 2873 03be 8e91 c6bd
000000b0: d67a 043e df97 ed3c 51fe 8dbd a8e4 eeba
000000c0: 2178 853d 0480 073d 8d4f c83b 56f5 1abe
000000d0: 89ba 663c 381c 7bbd 6526 e73d d293 edbc
000000e0: e963 45bd b371 85bc f9a7 1dbc 331b f43d
000000f0: faa9 023e de70 3abd f543 2a3d 80c3 9f3c
00000100: c38d 243e 8820 a93d d6c9 c43d 4910 8cbd
00000110: 9c90 adbd 282a 44bd 257c 373d 76b3 d9bd
00000120: 0e74 9abd c38d aebc ecee d63d d7f4 d4bd
00000130: 7486 b0bd 8d93 013e e6de 4dbd 82b5 1ebc
00000140: 239f 9fbd 252f 10bc b088 b6bd 8981 033d
00000150: 84c6 d4bd 07a8 eebd 7e67 fa3c 8a7c 13be
00000160: 032b a2bd a5a0 83bd 3271 b93d fcd8 a43d
00000170: 1187 aa3d 2058 9abd 2313 8fbc 0db0 b0bd
00000180: 9a08 96bd db9a b43c a157 083d 3112 443c
00000190: b1d3 aebc e79f a23d 956d a4bc ef0e d5bd
000001a0: 8859 fc3b fcfd d73d 850d c23c f4b3 10be
000001b0: dcdf 6ebd fef6 773d 0943 143b 543c 5abd
000001c0: 054b 88bd 940f 57bd 8ba7 803a 2dfb 1fbd
000001d0: b779 e4bd 7eeb 023e 643c 0fbd b880 be3c
000001e0: 06aa a6bd 586e 3abd 7816 143b 7ea1 d4bd
000001f0: f332 0a3e 29f3 933d f1e3 4fbb bf3a 883d
00000200: 6776 d7bc d52a d0bd e7f7 0c3d 5962 d83d
00000210: 44b7 debd bc7b 74bd e342 c23d 2b0a b23d
00000220: ae47 8c3d 7aca 02bd 975f f83d 61c8 c03d
00000230: 6314 7c3d c2c7 0fbe 2e1b 7c3d 665e d83d
00000240: 885d 933c d771 b73d b4b6 efbd 1cb6 44bd
00000250: 8b4f 00be 173e dd39 97d4 dbbd c9f4 9b3d
00000260: 8213 c33d 06c0 7c3d 474d cebd eef2 033d
00000270: 5394 c43d 8715 dd3c fff1 c43c bd92 ba3d
00000280: 9803 893d 4d9c 053e be0c a3bc 5579 d33d
00000290: 62ce 04bd ac2b 53bd d67f 92bd cd5f a6bd
000002a0: dd74 f23a c377 8cbd de79 de3d b735 953d
000002b0: 0dd9 f53d f238 063d fe05 17bd f7b3 083e
000002c0: cf05 d63d 2001 183c 53e3 1b3d 2974 0dbd
000002d0: 274c dcbd b6fe b63d d51d 433c 6c81 5dba
000002e0: 372f 13be e960 8fbd bf07 73bd 8e89 92bd
000002f0: 1be6 efbd 525a 02bb 4f1e 0e3e 10ee 103e
00000300: 4255 36be 4a4b 97bd e15b f4bc 10e2 9dbd
00000310: 6771 813d 824d cf3d 5f37 6b3b 8320 a7bc
00000320: 9abd f13d bd91 b7bd 40d8 ac3d df4e d8bd
00000330: 3e60 cb3d e574 e4bc 9d50 be3d 232c d23c
00000340: e4ba cc3d 8410 eabd 9988 a23c d920 cfbd
00000350: 5e24 d13d abd7 9a3d af6b 123e 18c8 983d
00000360: f707 df3d ab12 4bbd d5c2 c03d 2a17 263d
00000370: 6aab 193b bcc9 84bd 8f0c c2bc 3737 f63d
00000380: d0bb 813d 8c5c cf3d 42d2 cfbd 9e1b 663d
00000390: e623 56be 4379 00be 0714 4ebd 3f15 1c3e
000003a0: 1fd8 d53b 31b2 bb3c 20ac 58bd 94b1 ab3d
000003b0: 33ff 643c 14d0 b1bc 80d6 4f3c 60c8 92bd
000003c0: 0461 e93b 735f 54bd c984 a7bd 6751 10bb
000003d0: 6b35 fb3d cf83 8f3c 7c61 cf3d 0800 16bd
000003e0: bd49 47bd 39a2 e2bd 7c8c 5bbd 2351 f5bc
000003f0: 4902 a23d 9efe 13be 7851 923d ce03 a03d
