ml_output/CA1-ProS_Glut/atac/model_4.pth (torch, 474380 bytes, 48 tensors)

query f4 [1, 64]
00000000: 2ecd fdbe 7af2 babe ea88 82bf b5c3 113f
00000010: 8f80 583f 9d12 79bf f6d2 243f dae0 fdbd
00000020: 25b0 09bf 5936 52be 0252 043e 78ab 713f
00000030: 2c83 a83e 0f5a de3e 5983 233f 53cc 13bf
00000040: 7c64 d53f 55d2 aebf 2a4f bf3f c7f2 c9bf
00000050: 1c09 a4bf b204 1e3f 4300 0cbf 1359 503e
00000060: 0672 ebbe d9e9 3c3f 3f51 8fbf 5836 8d3e
00000070: d820 073f d32a d9be 4e6f 17be ee08 88bf
00000080: e9ac 953f 15aa 45bf 9d4a 70bf 8bcc 03be
00000090: 0a0b f23f 84ec b03d b3d8 d43f 23bd aa3f
000000a0: cb97 473f 98a8 b5bf 971c 1cbd da7d 893f
000000b0: 2307 26bf caa3 9b3e 6219 34bf dcdf cebf
000000c0: 9052 babf c929 843f 0626 19bf 248a 503f
000000d0: b538 e53e 8aae 813f be09 9b3e 3b2c ae3f
000000e0: 89dc 20bf 21d3 b5be 7063 1040 3db0 23bf
000000f0: 27ab c7bf 1535 b13e bd82 40be 87ce d4bf
-0.49570602 -0.3651312 -1.0198033 0.5693925 0.84571165 -0.97294027 0.643844 -0.12396403
-0.537844 -0.20528544 0.12921908 0.94402266 0.32912576 0.43428084 0.63872296 -0.5773365
1.667129 -1.3657938 1.4946034 -1.5777215 -1.281528 0.61725914 -0.546879 0.20346479
-0.4598543 0.73794323 -1.1196669 0.27580523 0.5278449 -0.42415485 -0.14788553 -1.0627725
1.1693393 -0.7721265 -0.9386385 -0.12870996 1.8909619 0.08638862 1.6628631 1.333897
0.7796599 -1.4192076 -0.038113203 1.0741532 -0.6485464 0.303984 -0.7035123 -1.6162066
-1.4556446 1.0325252 -0.59823644 0.81460786 0.44769827 1.013139 0.3028087 1.3607248
-0.6283651 -0.3551264 2.2560692 -0.63940793 -1.5599107 0.3461081 -0.18799873 -1.6625527

cls_embeddings.atac f4 [1, 1, 64]
00000000: b82f 043f 9c9a 643f 6b9e d5bf e04a a23f
00000010: a751 9abf 580e b53f 8376 953f 712a 913f
00000020: 7108 cb3f df0a 09c0 89c3 f83f 8d67 9dbe
00000030: 16f5 553e e15e 7fbf 9300 98be 9608 22c0
00000040: a0f1 29bf 9069 15bf 9eac 8b3d d62b 54bf
00000050: ca8d 6cbf bf17 46be 38d1 283f 61ab 003f
00000060: 0f3d 6e3e 8023 3fbe d175 483f ff53 4cbf
00000070: 3614 3bbf 247b 9fbf fafa 8a3e 086d 453e
00000080: a3cb 7c3f f5c7 acbc 4a0d df3f 1746 523e
00000090: d68d 0740 98df d6be 45ad eabd fea7 1140
000000a0: 1455 89bf 2511 b63f 2488 adbf 11f4 453e
000000b0: 6c54 11be 5146 823f ff80 3d3d 291c 433f
000000c0: 3740 773f 1f31 d8bf 1a1b 3fbf 9acc a33c
000000d0: e2d4 f13f 235b 043f 36b4 4b3f 686b 423f
000000e0: 2816 07bf e797 783f bbbf b3bf e6d4 61bd
000000f0: fad0 3f3f f5fc 5a3f 8a1a 89bf d7a4 f9be
0.51635313 0.89298415 -1.668897 1.26791 -1.2056168 1.4145002 1.1676792 1.1341077
1.5861951 -2.1412885 1.9434673 -0.30743065 0.20894274 -0.9975415 -0.29687938 -2.531774
-0.66384315 -0.583642 0.068200335 -0.8287939 -0.9240385 -0.19344996 0.6594424 0.50261503
0.2326548 -0.18665886 0.78304774 -0.7981567 -0.73077714 -1.2459455 0.27144605 0.19279873
0.98748225 -0.02109144 1.742593 0.2053455 2.118032 -0.41967463 -0.1145883 2.2758784
-1.0729089 1.4223982 -1.3557172 0.19331385 -0.1419236 1.0177709 0.0462656 0.76214844
0.9658236 -1.688999 -0.7465073 0.019995023 1.8893092 0.51701564 0.79571855 0.7594514
-0.5276818 0.97106785 -1.4042886 -0.055134676 0.7492825 0.8554223 -1.0711224 -0.48758575

modality_embeddings.atac.weight f4 [64, 9]
00000000: d0cd 9d3d cde1 5bbe d663 f3bc 662a 413d
00000010: 0c77 1b3e e0b6 a03e b3db 643d 8870 53be
00000020: 53b8 ebbd 5ea8 173e 8192 09be 7f99 40be
00000030: 9f05 3d3d 6ac5 8e3e f428 82be c294 4c3e
00000040: a19d 0bbe 22d1 cbbd c22b cabc 4f6c 153c
00000050: 7dee 0f3e bb82 5abc b172 e93d 8327 67be
00000060: e45a 2fbe f80d 7d3e 8234 acbd af8a 933e
00000070: dd93 4d3e ecc7 2f3d ccfb 9f3d c2d9 1fbe
00000080: 1319 22ba 49bf 59bd f1db 833e 0469 29be
00000090: 943f 433e 5b60 eebc 9f67 d13d c7b7 323d
000000a0: 9ff1 723e 4e11 99bd f9fa 78be af64 903e
000000b0: 7a0e fabd b8df f23d f148 273c 979e 33be
000000c0: 299a 143e 2807 c53c 188b 5b3d ffc5 743e
000000d0: fa58 00be fe87 32bd 1a64 753b a173 baba
000000e0: e332 a33c ce46 b13d f698 113e 9b99 313d
000000f0: 0efd 7f3e 9e1f 5fbe 9953 4abe 1a3d 6f3e
00000100: c0bc 6b3c b0a2 3b3e aa34 e3bd 1832 d5bd
00000110: b020 873e 3ac7 70be 28a1 523d ad55 13be
00000120: f7a3 b4bd c9a5 b1bd 3266 4e3e e785 0f3e
00000130: 9234 6f3e d9db 633d 12c4 a1bd 1553 913d
00000140: 18df d73d ae3f 38be 288e c63c 999c 9c3d
00000150: 41eb a6be cdb0 173e fb19 3a3e 8d0c bd3d
00000160: 369f 4d3e b655 b73c 6ed9 9fbe ef3f 4abe
00000170: 91fe 84bd ebcb e13d f98e 9e3c a1f8 2ebd
00000180: 1c3b bf3d e5f8 1d3e 62b2 113e c572 183e
00000190: 6e23 6e3e e315 75be f9fe 9bbe 2090 4b3e
000001a0: 2223 013d 3b19 7a3e 0833 94be c02e 703e
000001b0: 6009 eabd bf82 4ebe 34ff 5c3e fe31 e4bd
000001c0: 6af8 193e 4906 9cbd 8721 e33d ac78 76be
000001d0: 1744 823e edb5 4e3e 1e4c 44be ce28 213d
000001e0: 02a0 d1bd db51 8bbe 7b7d d6bd 51d9 e53c
000001f0: 728e 9e3d 2bf1 7e3e f7be e9bd c957 503e
00000200: 4fc6 2fbe 481c debd 8299 03be 2b17 0dbe
00000210: abe1 a3bd 64b6 a8bd b4a4 aa3e 9ef3 fabb
00000220: 74f3 b0bd b28e a43e 7ab6 403d 5daf 5cbe
00000230: da2e 3dbe 0033 873e 4aa1 4c3e 1e75 a1bd
00000240: aa14 3abe ec04 67bc c9ae 83be 9109 563e
00000250: 4789 6a3d fc3d 08bc d881 36be 0382 d13c
00000260: 5721 793e e9ef 62be e7fe ea3d 1ea1 6bbe
00000270: c0c3 953e 4b0a c83d 46e9 373e ec05 9f3d
00000280: c2e9 483d 7ad5 44be b7ca 85be c905 0b3e
00000290: d49c a2be b7a4 d13d ff81 903e 3a1b d1bd
000002a0: e8fa 7abe 7e2c 923e ca7f 6abe 43d2 bfbb
000002b0: ce86 0f3e 4652 3d3e 77a2 343e 2d01 613e
000002c0: b115 86be 6b3c 923e 8a69 69be 0d98 ec3d
000002d0: f75f 56bd 66c3 2c3e cbf1 63be 8ba4 b03d
000002e0: 4027 283e 55c7 0c3e 5744 55be 52cb 903d
000002f0: c9b9 29be c57e 72bd c077 75be a429 3cbc
00000300: a1a5 b6bd cdbc 7f3e a3b6 0cbd f84f 77be
00000310: e9fa dc3d a79d c13d 701c f83d 2acf 093e
00000320: 7f43 933e cbda 283e 0d7a 61be 2471 bbbd
00000330: c26d 5cbd feb8 283e 0429 3bbe 3703 87be
00000340: 2866 50be 9817 973d 544a f83d 897a a3be
00000350: 09f9 993e 23f2 743d 589f c63d a5ca 8a3d
00000360: cc89 773d 74c0 653e 9c0e 05be 1ae4 90be
00000370: 4a79 203e 476a 733d b72d 643e 48d7 683c
00000380: 4863 f2bd 537f 193e 6c38 66be 2ef9 75bd
00000390: b392 5dbe e790 613e 2d35 00be b5d8 a13d
000003a0: 4d46 d4bc 1205 ff3c 2c12 823d cdd9 c3bd
000003b0: 8b27 00be d78f ff3d 6740 973e 6145 e7bc
000003c0: ae8f 96be b95d 673e 6dc6 4bbe 3190 93bd
000003d0: 5c2d 6a3c c785 b13c 7bf1 8c3e 9dde 8ebe
000003e0: b57a c2bd 4b19 503e fdff 1bbd 6909 403c
000003f0: ce84 373e 9e73 643e 1d3e 033e 2771 23be
0.07705271 -0.21472855 -0.029710691 0.047159575 0.15182132 0.31389523 0.055873584 -0.20648396
-0.115097664 0.1481032 -0.13434793 -0.18808554 0.04614794 0.2788499 -0.2542187 0.19978622
-0.1363435 -0.09951998 -0.024679068 0.009120061 0.1405582 -0.013336833 0.11398829 -0.22573666
-0.17124516 0.2471236 -0.084084526 0.28816745 0.20075937 0.04291527 0.07811698 -0.15610412
-0.0006183546 -0.05316094 0.2575374 -0.16543967 0.19067222 -0.02909868 0.10224842 0.043632295
0.23724984 -0.07474004 -0.24314488 0.28201815 -0.122097924 0.11859077 0.010210262 -0.17540966
0.14511932 0.024051264 0.053599447 0.23903655 -0.12533942 -0.043586724 0.0037443698 -0.0014225134
0.019921726 0.08656083 0.14218506 0.04335938 0.24998876 -0.21789405 -0.19758452 0.23363152
0.014388263 0.18323779 -0.11094029 -0.10409945 0.26392126 -0.23513499 0.05142322 -0.14388151
-0.08820336 -0.08674199 0.20156172 0.14015923 0.23359898 0.055629585 -0.078987256 0.07095925
0.10540599 -0.17993042 0.024237707 0.07647056 -0.3260136 0.14813538 0.18173973 0.092309095
0.20080265 0.022379737 -0.31220573 -0.19750951 -0.06493867 0.110252224 0.019355284 -0.04271758
0.09337446 0.15426977 0.14228204 0.14887531 0.23255703 -0.2393413 -0.30467966 0.19879198
0.031527646 0.24423687 -0.28945184 0.23455334 -0.114275694 -0.20167063 0.21581727 -0.11142348
0.15036169 -0.07618386 0.11090379 -0.2406947 0.25442573 0.20186587 -0.19169661 0.039345555
-0.10235597 -0.27210888 -0.10473152 0.028057726 0.07742013 0.24896686 -0.11413377 0.20345987
-0.17165492 -0.10845238 -0.12851527 -0.13778369 -0.08002027 -0.08237913 0.33328784 -0.007658436
-0.08640185 0.32140118 0.047049023 -0.21551271 -0.18474904 0.26406097 0.19983402 -0.078836665
-0.18171945 -0.014100295 -0.25719288 0.20902087 0.057259824 -0.0083155595 -0.17822969 0.02557469
0.24329124 -0.22161831 0.114744 -0.2301068 0.29250908 0.09767588 0.1796008 0.077648014
0.049051054 -0.1922206 -0.26131222 0.13576426 -0.31760275 0.10236495 0.2822418 -0.10210271
-0.24509776 0.2854957 -0.2290031 -0.0058539226 0.14016268 0.18488416 0.176401 0.21973105
-0.26188424 0.2856172 -0.22794166 0.11552439 -0.052337613 0.16871414 -0.22260205 0.08625134
0.16421223 0.13747914 -0.20826851 0.0707003 -0.16574778 -0.059202928 -0.23971462 -0.011484537
-0.0891831 0.24974366 -0.034353863 -0.241516 0.10790045 0.09453898 0.12114799 0.13457933
0.28762433 0.16489713 -0.22019215 -0.09152439 -0.05381561 0.16476819 -0.18277365 -0.2636964
-0.2035147 0.07377547 0.12123552 -0.31929424 0.3007281 0.059801232 0.09698361 0.067769326
0.060434148 0.22436696 -0.12993854 -0.28299028 0.15671268 0.059427526 0.22283064 0.014211483
-0.11835343 0.14989977 -0.2248246 -0.06005209 -0.21637993 0.22027932 -0.12520285 0.07902662
-0.025912428 0.031130347 0.06351122 -0.095630266 -0.12515084 0.12478607 0.29541323 -0.028231325
-0.29406494 0.22594346 -0.19899912 -0.07205237 0.014293041 0.021670235 0.27527985 -0.27904215
-0.09496061 0.20322149 -0.038085926 0.011720994 0.17921755 0.2230973 0.12816663 -0.15961133

modality_embeddings.atac.bias f4 [64]
00000000: a92e 5c3c 2556 503c 72ba d83c 43ff 48bb
00000010: f26f 9d3d 6db4 66bd 4c01 6cbc 6518 903d
00000020: 9297 403c 223b 96bd 966a 14bd 6ac6 103c
00000030: a3b8 ddba c709 10bd 66b7 823d 6504 b8bd
00000040: 551c 57bd c12f a7bd 39ab b23d 7d23 b2bd
00000050: 76e2 afb8 b9a1 bc3d f9f3 fd3b 7ee7 e4bd
00000060: b869 2cbd 2ed3 7a3d 48ff b43d 6208 a7bd
00000070: 62ce 58bd 8728 c43c 950c c4bd 67f8 b03d
00000080: 5f69 84bd d3ff 9bbc 5d37 13bd a386 a23c
00000090: 8746 80bd 91f8 993c df37 c43b 629a 1c3d
000000a0: 7f08 383c b453 393d 6979 72bd df8b 063d
000000b0: ffdb 92bd bae1 9f3d 002c 8c3d 5f7a 3c3d
000000c0: ebcc 123d d329 16bd 7919 613c f169 8ebc
000000d0: 1725 3fbd 90b2 b73d e3d5 283d f221 3bbb
000000e0: f7c8 fa3b 88a0 8b3d 8c3e 2e3d 2bfa 1a3d
000000f0: 23db 9bbd 752a 46bd 25d5 403c 2840 3abc
0.013438859 0.012715851 0.026456092 -0.0030669726 0.076873675 -0.05632441 -0.014404606 0.07035903
0.011754887 -0.073354974 -0.03623446 0.008836368 -0.0016915988 -0.035165574 0.06382637 -0.08985213
-0.052517254 -0.08163405 0.087240644 -0.08698175 -8.386832e-05 0.09210534 0.007750031 -0.11176966
-0.04209301 0.061236553 0.088377535 -0.08155896 -0.052931197 0.023945106 -0.09572712 0.08641129
-0.064654104 -0.019042885 -0.03594147 0.01983959 -0.06263452 0.018795284 0.0059881057 0.03823317
0.011232494 0.04524584 -0.059197817 0.032848235 -0.07170867 0.07806726 0.0684433 0.04601514
0.035839956 -0.03666098 0.013738983 -0.017384501 -0.04666623 0.08969605 0.041219603 -0.0028554169
0.0076533514 0.06817728 0.042540118 0.037836235 -0.076101564 -0.048380334 0.011769568 -0.011367835

modality_transformers.atac.layers.0.self_attn.in_proj_weight f4 [192, 64]
00000000: b758 eebb 2151 27be ea2e 0dbd 7ba6 893c
00000010: b7ab 723c fa96 12be 920a d1bd bdd5 f1bc
00000020: 456c 12be 25b5 1ebd 9886 833d 4de9 8cbd
00000030: d71d bfbd 49f0 883c 88a9 693d fef7 8b3d
00000040: ef26 08bd faa5 7f3d bf4c 22bd 011d d0bd
00000050: 45d3 a43d 0e4f 143e 4dca 043d d668 b13d
00000060: ab89 bebd f73e a53d 0b19 18be d537 c83d
00000070: 24a9 273e 1fc9 08bd 7619 a3bd 3a2e 3fbe
00000080: a508 01be ad57 6fbd 1bcd c6bd 298e 553a
00000090: d441 143d 593f a0bd c30c 25be 64f4 4b3d
000000a0: 9798 9b3d 728d d43c f106 3a3e 0f77 76bd
000000b0: 04b4 2ebc 578a f7bc 15a9 39bd 9541 023e
000000c0: 788e 8ebd 2a8f 113e 57ee 353e 9882 19be
000000d0: 2ee2 ad3d 847c 96bd 28b5 46be b05b b0bd
000000e0: 5301 10be 2a69 a33c f1ed 453c 4ee6 81bd
000000f0: c166 e9bd faba e838 3729 c1bb 4d04 bd3d
00000100: f476 ffbd 97a8 4bbd 558c 163e 4ebb dfbb
00000110: ab6c eabd af66 1ebc c9c6 06bc 77f1 95bd
00000120: 6848 843d 3ff5 0bbd 5b82 99bd 051c 39bc
00000130: 45b4 1cbe b6d6 1bbd a4b3 fb3d 9b21 d03c
00000140: 2a53 5b3d af57 1a3e 0631 c33a 9b60 ba3d
00000150: a7d8 55bd 3d93 89bd 9804 bd3d 69ad 80bb
00000160: ddfe 79bd 8f3b 5bbb 5693 773c 9558 5abd
00000170: d85d 273e 2850 80bd 57f2 c03c 7b5c 19be
00000180: be54 5e3d c6a6 fb3b 2d7d 1fbd e32c 08be
00000190: 6b7b 87bd 6fa3 873c 8f30 ab3d 35fe 1dbe
000001a0: 6781 3dbc 6b77 ce3d cb02 5d3d a5b8 f9bd
000001b0: 39a2 b23d 5ad4 25be 52eb 0c3d f8a7 ae3c
000001c0: 71c3 b13d b538 08bd 2307 913d 486b 9a3d
000001d0: 8aee d6bd 4e31 1cbd 9a43 6cbd 4ee5 e63d
000001e0: 0b8d 903a 1e5e aebd 6c2e 9ebc a7cf 22be
000001f0: 1e30 37bd aeaf 8a3a 62a0 8e3d 3e47 28be
00000200: da25 63bc 839f a23d 6723 b1bd 714b c9bd
00000210: 4fa8 233d 1d82 2a3e 5aa4 a93d 8f6c 75bd
00000220: 22dc dcbd 07db c4bd 680b 9ebd 42a7 03be
00000230: 35f2 02be 7c42 35be 3800 603d 93f9 253d
00000240: a654 b8bd 6a08 d6bc 4fc1 a23c 9c75 c0bd
00000250: ba15 dcbd 1e3a 8d3b 9474 39bd 8208 f93d
00000260: 9537 b5bd fd46 22be 1cee 7c3d 2eb7 31be
00000270: 6bee b2bd 0800 cb3d e7f0 46bd 6032 2f3e
00000280: 0aeb 953d e09b 003e a912 833d edb6 debd
00000290: 22a4 a0bc bae1 a23d 19b0 95bd 97fe c4bd
000002a0: d927 323d 8580 0ebd 3500 8fbb ac76 debd
000002b0: 6a36 f63d 7561 a03d 468f df3d b06d 273c
000002c0: c52f 16bc 9ebc 72bd 2c91 143c b5aa 133d
000002d0: 5986 c13d 0f96 db3d 535c 53bc 7570 9f3c
000002e0: e98a 60bd baed 9dbd 9fa1 2ebd 6348 1a3b
000002f0: 50f2 ad3d ad1a 83bc e553 843d 38f0 0b3e
00000300: 173f bfbd 0559 6d3c 233d b23d a44f bd3b
00000310: d478 a7bd 39d7 353d 714a ba3d 1138 29be
00000320: 43bc 343d 1f50 f0bd 7df0 0b3e bcf8 10be
00000330: f9e2 55be fee0 72bd 9a28 663c 90eb 163e
00000340: 46b0 1bbe 5aa2 acbd 49d3 78bc 3ee4 983d
00000350: 0a0c cdbd dc0b 84be 6def cabd 984d 853e
00000360: e94b 453e f88e 2e3e 359e 61bc 6914 f0ba
00000370: 1e45 da3d 63db b93b 70ba 153e 2483 abbe
00000380: 9a54 5f3e 10f5 2c3d a138 4f3d ff24 f43c
00000390: e4ca 413e e9bf c6be 0602 2ebe 79af f5ba
000003a0: 62b6 363c 0f17 103d 41c9 8cbd 1dda 32bd
000003b0: 95cc 873e ef27 b43b f785 48be b70b df3d
000003c0: c48f 19bd 95c6 063e f054 1dbe 1c24 04be
000003d0: d644 b63d 1c35 40be 0f1a 103c f329 6cbd
000003e0: 0f60 63be abb0 8f3b afb6 adbd 3522 7ebd
000003f0: 972c a83e 04b9 9e3e c7b9 e33d 3799 e73c
-0.007273759 -0.16339542 -0.03446857 0.016803017 0.014811448 -0.14315405 -0.10207094 -0.029520864
-0.14299114 -0.03874697 0.06422156 -0.06880436 -0.093318634 0.01671614 0.057046443 0.0683441
-0.033240255 0.062414147 -0.039623972 -0.10161782 0.08048109 0.14483282 0.03241949 0.08662574
-0.09303602 0.0806865 -0.14853303 0.09776274 0.16373116 -0.03339493 -0.07963841 -0.18669978
-0.12600954 -0.058433224 -0.097070895 0.00081464887 0.03619559 -0.078245826 -0.1611815 0.049793616
0.075974636 0.025946353 0.1816671 -0.060172137 -0.010663036 -0.030217333 -0.045327265 0.1272033
-0.069607675 0.14214769 0.177667 -0.14991224 0.08490406 -0.07347968 -0.19405043 -0.08611238
-0.14063005 0.019947607 0.012080655 -0.06342755 -0.11396552 0.00011097449 -0.005894806 0.09229336
-0.124738604 -0.049721327 0.1470197 -0.0068277484 -0.11446508 -0.009668036 -0.008226105 -0.073214464
0.06459123 -0.03416943 -0.074955665 -0.011298184 -0.15303142 -0.03804656 0.12290123 0.02540665
0.05354611 0.15072511 0.001489193 0.09100457 -0.05220857 -0.067175366 0.09229392 -0.003926922
-0.061034072 -0.0033452248 0.015110811 -0.053307135 0.16344392 -0.062652886 0.023553057 -0.14976685
0.054280035 0.007679793 -0.038937736 -0.13298373 -0.06615337 0.016557423 0.08358871 -0.15429004
-0.011566496 0.10081371 0.05395774 -0.12193421 0.08722348 -0.16194287 0.034404106 0.021320328
0.086798556 -0.033257205 0.07081439 0.075399935 -0.104947165 -0.038132958 -0.057681657 0.11274205
0.0011028362 -0.08514045 -0.019309245 -0.15899526 -0.044723623 0.0010580921 0.06964184 -0.16433427
-0.013864005 0.07940581 -0.086493306 -0.098288424 0.039955433 0.16651197 0.08283301 -0.059917983
-0.107841745 -0.09612089 -0.07717019 -0.12856773 -0.12787707 -0.17701143 0.05468771 0.040521216
-0.090005204 -0.026127059 0.019867567 -0.09397432 -0.107463315 0.0043099066 -0.045277193 0.12159826
-0.08848492 -0.15847392 0.061750516 -0.17355034 -0.08736881 0.09912115 -0.048569586 0.1710906
0.07320221 0.12559462 0.064000435 -0.10874734 -0.019609515 0.0795321 -0.073089786 -0.09618872
0.043495033 -0.034790535 -0.0043640384 -0.108624786 0.120220974 0.078310885 0.10915999 0.010219023
-0.009166663 -0.05926191 0.009067815 0.03605147 0.09449453 0.10721981 -0.01290043 0.019462803
-0.054819975 -0.07711358 -0.042634603 0.002354168 0.08493483 -0.016003931 0.06461314 0.13665855
-0.09338205 0.014486556 0.08703067 0.005777316 -0.08177343 0.044394705 0.0909623 -0.16525294
0.044124853 -0.11734032 0.13665958 -0.14157385 -0.20887364 -0.0592966 0.014047766 0.14738297
-0.15203962 -0.084294036 -0.015187093 0.07465409 -0.10012062 -0.25790298 -0.09908948 0.26035762
0.19267239 0.17046726 -0.01377063 -0.001831663 0.10657714 0.005671905 0.14621902 -0.3349849
0.21809617 0.042225897 0.050591115 0.029802797 0.18925053 -0.3881829 -0.1699296 -0.0018744312
0.011151882 0.03517824 -0.06874324 -0.04366504 0.2652327 0.0054979245 -0.19582354 0.10890906
-0.03749062 0.1316169 -0.15364432 -0.129044 0.08899848 -0.1877026 0.008795275 -0.057657193
-0.22204612 0.004385074 -0.0848211 -0.06204434 0.3284652 0.3100053 0.111194186 0.0282713

modality_transformers.atac.layers.0.self_attn.in_proj_bias f4 [192]
00000000: 101a 17bd 7ca0 573b 793c 973c 4770 b43d
00000010: a369 433c 0eb7 b23b 23b6 99bd 8160 ff3c
00000020: 71b3 75bc 732c 45bc 36fe f9bc b464 8b3b
00000030: 5df1 3c3d dc32 b2bd 9258 d53c c9ce 14bb
00000040: 21ad 9a3d bf85 553c 0e1a 10bc 2c0c cabc
00000050: 2d94 2ebb 9525 f03c 06f7 8e3b 7735 f2bc
00000060: 163e c6bc 315f 3a3c e08e 123d 75d9 7dbc
00000070: a9b6 60bc 1666 ebbb 4e47 3bbb de9d 3bbd
00000080: 6b7e d73b 8263 b03c f63c 943b 16f2 1d3c
00000090: b074 833b fb0e a3bc 973f ba3b 2111 0b3d
000000a0: c005 0c3d 03bb 54bb b9cc c03c df5d bb3b
000000b0: 82a5 7cbb 5cd4 b43b b774 7c3a 6265 d33b
000000c0: c759 2e3a c4c7 b4bc b0ed 88bd 93a8 4b3c
000000d0: 66f6 603d 2b62 70bd ab06 21bc 5c4d 61bd
000000e0: 4d65 a63b d29a 43bc d490 923c 2e58 fdbc
000000f0: 1d8f aa3c a05a 3dbb 38e7 3d3c c255 013c
00000100: fdfe 70ba 2c7c 60bb 8f4c 9f3a bc30 613b
00000110: cde2 f9ba 5102 8c39 17d5 9fbb dba9 593b
00000120: 4a71 13bb 89d7 7d3a 2421 18bb 2cb1 8e39
00000130: 98ac a13a abc4 89bb 0263 c23b 8261 a13b
00000140: a8ca f73b 01b7 23ba deec 73bc e6d8 12bb
00000150: fb1e 023b 3710 203a ec39 74bb 9f61 2ebb
00000160: 5aa1 faba c7f7 f43b 0592 183b 5337 213b
00000170: 058a 43bb 3856 abba 2fc0 4bbb 5f86 38bb
00000180: 271e 353a 99e0 593a 70d6 843a 941b 1dbb
00000190: 6407 6a3b 2e61 c1bb 290d e63b 722f 7f3b
000001a0: 350a 15bc 84f0 1ab9 67a4 eeba e1a6 8a3b
000001b0: ba4e 68bb 76a5 90bb e510 063a 34fb 723b
000001c0: 165f 85b9 1957 383b 33ed 59bc 7816 443c
000001d0: 1d58 2dbc 0f37 50bc f704 fd3b 200b 063b
000001e0: 0727 1b3c 5a30 813a 42cf 0cbb 3f58 d4bb
000001f0: 6675 733a 2957 4239 5e49 2e3c dac2 623c
00000200: 3ceb 76bc 74c2 93bc 342c d63c 1ea4 ba3a
00000210: 3cba adb9 e5d5 483b 69e9 ecbb ad33 99bb
00000220: 523d bdbc 641f a9bc 3bdb 04bc 752a c93b
00000230: f2c5 bd3b 9966 14bc 20e2 2cbc 4772 aa3c
00000240: 2df7 c1bb 092f 93bb e08d b1bb fd64 2ebc
00000250: 017d 693b 61fb 45bc 4f5f 0a3b b3c9 153c
00000260: 15d3 b13b 88d0 703c a708 b4ba a01d 84bb
00000270: 87ae 0bbc 0ef5 253b 4f11 78bb 9c94 eb3b
00000280: 6c67 383c 39e4 bbbb c228 673c bb17 013c
00000290: ced8 1f3b d53f bab9 d3f8 1a3b 244a 74bb
000002a0: 0177 8f3b 9e1a dbbb 2ff8 d03b 66ed 20bb
000002b0: bad3 66bb 9cfa 5cbc f54b 6abc a3c8 8e3c
000002c0: 5d48 ddbb f020 1cbc 8b4c 6abb 06c8 403c
000002d0: c628 e0bb d2db a639 5120 6dbb 1fe5 4ebc
000002e0: 8f1b 803c 124f 8abc e48b 3a3c 3802 323c
000002f0: 7ee8 17bc 5f1e 013c 0e79 933b 0cd0 573c
-0.03689009 0.0032902053 0.018461453 0.08810478 0.011927041 0.0054539507 -0.07505443 0.031173946
-0.014996395 -0.012034523 -0.030516725 0.004253948 0.04612862 -0.08701107 0.02604321 -0.0022706261
0.07552553 0.013032376 -0.008795274 -0.024664007 -0.0026638613 0.029314796 0.0043629436 -0.02956651
-0.024199527 0.011375234 0.035780787 -0.01549374 -0.013715425 -0.0071838005 -0.0028576436 -0.04580485
0.0065763495 0.021531824 0.0045238687 0.009640237 0.004011713 -0.019904604 0.00568385 0.033951882
0.03418517 -0.00324601 0.02353512 0.0057179774 -0.0038550799 0.0055184793 0.0009630429 0.0064512948
0.0006650951 -0.022067912 -0.0668596 0.012430328 0.054922484 -0.05868737 -0.00982825 -0.055005416
0.005077994 -0.0119387675 0.017891325 -0.030925836 0.020820195 -0.0028893128 0.011590771 0.007893981
-0.00091932697 -0.00342537 0.0012153554 0.0034361323 -0.0019064784 0.00026704607 -0.004877697 0.0033212814
-0.0022497945 0.00096833013 -0.0023213113 0.00027216354 0.0012334762 -0.004204353 0.005932213 0.004924954
0.0075620003 -0.0006245226 -0.0148880165 -0.0022407114 0.0019854892 0.0006105932 -0.003726597 -0.002660848
-0.0019121573 0.0074758264 0.0023280394 0.0024599626 -0.0029836905 -0.001307196 -0.0031089892 -0.0028156263
0.0006909095 0.0008311361 0.0010134708 -0.0023972737 0.0035709972 -0.0059014773 0.007020612 0.0038938192
-0.009096672 -0.00014776184 -0.0018206955 0.0042313193 -0.0035447315 -0.0044142557 0.0005114212 0.0037075998
-0.0002543858 0.0028128086 -0.013301182 0.011968248 -0.01058009 -0.0127084395 0.007721539 0.0020453408
0.009469754 0.0009856329 -0.002148584 -0.0064802463 0.0009287208 0.00018533751 0.010637609 0.013840402
-0.015070733 -0.018037058 0.026144125 0.0014239585 -0.00033135887 0.003064507 -0.007229973 -0.0046753497
-0.023100529 -0.020644851 -0.008108909 0.0061390945 0.005791419 -0.009057664 -0.010551959 0.020806445
-0.005919358 -0.004491691 -0.005418524 -0.010644195 0.0035627487 -0.012083859 0.0021113937 0.009142327
0.0054267743 0.014698155 -0.0013735489 -0.004031852 -0.008525497 0.0025323066 -0.0037852114 0.0071893465
0.011255126 -0.0057339934 0.0141088385 0.007879193 0.00243907 -0.00035524243 0.0023646846 -0.0037275637
0.0043782 -0.0066865226 0.006377242 -0.0024555563 -0.0035221414 -0.013487484 -0.014300336 0.017429655
-0.006753011 -0.009529337 -0.003575119 0.011766439 -0.006840798 0.00031825766 -0.0036182592 -0.012627869
0.015638141 -0.016883407 0.011385892 0.010864787 -0.009271739 0.007880776 0.004500515 0.013172161

modality_transformers.atac.layers.0.self_attn.out_proj.weight f4 [64, 64]
00000000: ec56 63be d436 1e3e 95d7 ae3c 2e56 ef3c
00000010: e9a5 e0bd 1849 383e 85d6 9bbd 7566 10be
00000020: 7d44 dbbd f202 f0bd ece4 313e ce01 84bc
00000030: b0ff 47be 12f6 8a3d c113 07be 5ec9 6abd
00000040: 9547 50bd d8c0 3dbe ad1a 3cbd e8ac 6abe
00000050: 6f38 8b3d 71e9 163e 5176 7ebc 78df 11be
00000060: 4ef5 1d3d 0346 acbd 9ba8 573d 9f6d 9b3d
00000070: 236a 5cbd 1e16 00bc 1871 b03d a3e1 313e
00000080: f69c 04be 6a9e 00be a674 773d 4077 9a3d
00000090: c1e6 0cbd 88b7 9cbc ffb8 39be 7542 86bc
000000a0: 5f14 043e e2c1 37be dada be3d b558 2a3b
000000b0: 679e da3d 93bb e23c c570 4dbe cfc7 8d3c
000000c0: a14f 2e3d 5820 0a3e c88c 8dbd 7732 363c
000000d0: f858 d03b de25 9b3d 765c 823c b400 2fbe
000000e0: a51b c1bc b5ae c2bc ea10 71bd f229 893d
000000f0: 6239 563d 56aa 1fbe 9881 cd3d bad1 1dbe
00000100: cc42 2a3e be49 1abe 90b6 b9bd 5de5 443e
00000110: 15ff c5bd 9f9f 233e a768 a6bd 32e1 713d
00000120: 9729 d439 cc60 6cbd 3e16 2a3d df28 0dbe
00000130: 1e2a 0dbd 99fc 3fbe 056b 743e dd8a 003e
00000140: 8fc4 4bbe 3392 873c 2cb3 093e 4f70 e2bd
00000150: 0070 8c3d 33fc b03c db32 a43d 638d 4b3e
00000160: d1a0 b7bd 05ae 25bd 639c 013e 7d3e 9c3d
00000170: 170f 3e3e 8e89 48be a9ab 7bbd 78a1 e83d
00000180: 3927 24bd b465 09be 0479 7ebd fe24 01be
00000190: 5b66 23be 4928 eebd 04fb 3d3e 4141 6ebd
000001a0: 4552 923d 519f 033e eb93 81bd eee4 7b3d
000001b0: 51c3 97bc 40f2 94bd 2125 1e3e fd8e 3bbd
000001c0: ba57 1abe 9a48 22be aa56 11be 168d 10be
000001d0: 0e14 103e 306a 083e 4ac9 e8bd ce78 c9bd
000001e0: ab2c ffbc d34c 51be 5205 dc3d a139 b03d
000001f0: 7eba 17be f32c 3f3e 7cef 083d f4f5 4e3e
00000200: 73e4 013d 375a 0f3e 3a61 103e f233 1abe
00000210: 68a1 87bd d7aa 93bd ff87 3ebe 31b7 45bd
00000220: 76b0 dbbd d793 19be 3326 03be f9df 3dbe
00000230: ac9b 263e 6edb 443e 1a49 a3bd e831 073e
00000240: 1730 dcbd a206 243e 4b21 2e3e 367e f8bd
00000250: eac3 493e 571a 29be 1892 653e 3dce cc3d
00000260: feec bcbd 7a5c fdbd 2176 a93c dd3d cabd
00000270: f907 39be 9293 103e 73b7 393e 81f8 153d
00000280: d6fe b4bd f058 033e 878d 00be 5a89 ddbd
00000290: 2d90 6e3d fb61 89bd 6a11 4d3e c4aa 023e
000002a0: 5391 ca3d baab 223e 37f0 9e3d 9d98 923b
000002b0: 5db6 e0bd 4fe5 eebd b6e9 db3d f729 06be
000002c0: f7ac 50bd b09f 33be d43a 643e 355c 73be
000002d0: 2765 21be fd33 e5bd 21cc 7b3e e965 4ebe
000002e0: e738 4e3d 07c8 bbbd 9b3d 313e 54b1 19bd
000002f0: 4532 5cbe df29 d0bd 6d9b 93bd f24d 0cbe
00000300: 89a1 20be 0792 093e 1b36 4bbe 83b5 a53d
00000310: 5bdb 303e 7c11 5fbd b2ac 54be b3e7 cf3c
00000320: 7bef b7bd a259 603d feef ff3d 7d5f b3bd
00000330: 5d9a 6c3c 6601 033d b942 413e ddb6 753d
00000340: 6a31 67be c44c 5abe 09ab 773d da40 6b3e
00000350: cdf9 cbbd 5b10 15bd 6961 1b3e 5f57 393e
00000360: ced3 50be 9c49 0fbe eb01 fb3d f979 2fbe
00000370: 82f0 a1bd 201e 0bbe 9137 0e3e 13c5 98bd
00000380: 35a5 bd3d 5d27 a73d e842 0a3e 83ae 4c3e
00000390: e77f 51be 2e2b 283e c529 2b3e 02ef e63d
000003a0: 941a febc 7968 77be d55d 683d ce20 3abe
000003b0: 85ed d23d 45b9 d23d 3c2f 293d d3aa 46be
000003c0: 875f b3bc 86fe 443d 566a 38be 9a38 003e
000003d0: 4f0b aa3d fda4 893d c548 a83d 238f 45be
000003e0: 436e ff3d cdf9 fc3d da1c 16be 6128 0fbd
000003f0: 2ca9 09be ebde 5e3e aa79 883d bac8 5e3d
-0.22201127 0.15450603 0.021343032 0.029215898 -0.10969145 0.17996633 -0.07609276 -0.14101584
-0.107064225 -0.11719312 0.17372483 -0.016114142 -0.19531131 0.067852154 -0.1319113 -0.057320945
-0.050849516 -0.18530595 -0.045923878 -0.22917521 0.06797873 0.14737488 -0.0155311385 -0.14245403
0.03856402 -0.08411791 0.05265103 0.07589268 -0.053812157 -0.007817773 0.08615321 0.1737123
-0.12950501 -0.1256043 0.06041398 0.075422764 -0.03439975 -0.019130483 -0.18136977 -0.016389111
0.12898396 -0.17945054 0.093190864 0.0025992815 0.10674744 0.027677333 -0.2006255 0.01730719
0.04255641 0.134889 -0.069116175 0.01112043 0.006358262 0.07575582 0.01591323 -0.17090112
-0.023572752 -0.023764947 -0.05885402 0.066974536 0.05230082 -0.15592322 0.10034484 -0.15412036
0.16627043 -0.15067193 -0.09068024 0.1922812 -0.09667794 0.1597886 -0.081254296 0.059052654
0.00040466778 -0.0577095 0.041525118 -0.13785122 -0.034463994 -0.18748702 0.2386895 0.12552972
-0.198992 0.016549205 0.13447255 -0.110565774 0.068573 0.021604633 0.080175124 0.19878154
-0.0896622 -0.04044916 0.12657313 0.07629106 0.18560444 -0.19583723 -0.061443005 0.11358923
-0.04007647 -0.13417703 -0.06212713 -0.12611768 -0.15957014 -0.116287775 0.18552786 -0.0581677
0.07144598 0.12853743 -0.06327041 0.06149762 -0.018525751 -0.07272768 0.15443851 -0.04579066
-0.15072528 -0.15848008 -0.14193216 -0.1411632 0.1407015 0.13321757 -0.11366518 -0.09837495
-0.031149229 -0.20439462 0.10743202 0.08604742 -0.14817235 0.1866949 0.033431515 0.20211011
0.031712007 0.13999258 0.14099589 -0.15058878 -0.06622583 -0.072103195 -0.18606566 -0.048270408
-0.10727017 -0.14997803 -0.1280754 -0.1854247 0.16270322 0.19224331 -0.079729274 0.13202631
-0.1075136 0.16018155 0.17004888 -0.12133448 0.19703642 -0.16513954 0.22419012 0.10000274
-0.0922489 -0.12371154 0.020686211 -0.09875081 -0.18069448 0.14118794 0.18136387 0.036613945
-0.088376686 0.12826896 -0.12553988 -0.10817213 0.058242965 -0.067081414 0.20026174 0.12760454
0.09891 0.15885821 0.07760661 0.0044737593 -0.10972283 -0.11664831 0.10737936 -0.13101946
-0.050946202 -0.17541385 0.22288066 -0.23765643 -0.15761243 -0.111915566 0.24589588 -0.20156063
0.050347235 -0.091690116 0.17308657 -0.03752263 -0.21503551 -0.10164236 -0.072073795 -0.13701609
-0.15686621 0.13434611 -0.19844858 0.08091261 0.17271177 -0.054460034 -0.20769003 0.025379037
-0.08981224 0.05477298 0.12496947 -0.08758447 0.0144411 0.031983756 0.18873109 0.059988845
-0.22577444 -0.21318346 0.060465846 0.22973958 -0.09959755 -0.03639255 0.15173878 0.18099736
-0.20393297 -0.13992923 0.12256225 -0.17136373 -0.07907201 -0.1358571 0.13888384 -0.07459464
0.09260026 0.08161805 0.13502085 0.19988446 -0.20458947 0.16422722 0.16715153 0.11276056
-0.031018533 -0.24160947 0.05673011 -0.18176576 0.102992095 0.102892436 0.04130481 -0.19401102
-0.021896137 0.048094295 -0.18009314 0.12521592 0.08302938 0.06720922 0.08217005 -0.19292884
0.12472203 0.12352333 -0.14659443 -0.034950618 -0.1344344 0.21764724 0.066638306 0.054390647

modality_transformers.atac.layers.0.self_attn.out_proj.bias f4 [64]
00000000: f2ca 27bb 801a e7bb 3f3d c13c 9231 183c
00000010: 2779 063c aa5a d8bc 914e 0b3b 0a44 1dbc
00000020: ff00 993a c037 8bbb 51e6 1a3b 49ef 71bc
00000030: 2d2c 47bb 379d 073b b80b 28bc e847 293c
00000040: ace0 6ebc bdac 1f3a 1e73 2cbc a852 1fbc
00000050: 4e10 eebb 18d7 de3b 6ddc c1ba 307f 7f3b
00000060: d6b6 94bb b017 9ebc 1c80 82bb eb52 14bb
00000070: dee2 dfba 6282 04bc 91f4 6c3b 5f71 803b
00000080: a1e8 173c b055 83bb 7141 6c3a 8523 c83b
00000090: 03fb 4cbb 32ae 43bb 2a8f d13b b897 7a3b
000000a0: 3e4c c33b a1d4 823c 16e7 0b3b 1f3a 1e3c
000000b0: b6ab 0e3c 2bb6 1b3a 5350 e73b fa19 b33b
000000c0: 84ec 7d3b ace2 d9bb 0224 1c3c ac5b c1ba
000000d0: ed24 8e3c fe5c 11bc 2da4 b8bc 2e85 f6bb
000000e0: c24a 523c 57a6 3dbb 5f04 a53b 8421 91bb
000000f0: 6b03 b4bc dde8 2e3c 349b 53bc aa61 adbc
-0.0025603143 -0.0070527196 0.023588775 0.009289162 0.008207596 -0.02641042 0.0021256546 -0.009598741
0.001167327 -0.0042485893 0.0023635814 -0.014766523 -0.003039132 0.0020693073 -0.0102567 0.010332085
-0.014579933 0.00060911087 -0.010525493 -0.009724297 -0.0072651273 0.0068005435 -0.0014790423 0.0038985722
-0.0045383973 -0.019298404 -0.003982557 -0.002263243 -0.0017081161 -0.008087726 0.0036156515 0.003919765
0.009271772 -0.0040080175 0.0009012437 0.00610775 -0.0031277544 -0.0029858467 0.0063952403 0.0038237404
0.0059600165 0.01597053 0.0021347455 0.009657412 0.008707931 0.0005939926 0.007059136 0.005465743
0.003874571 -0.006649336 0.009530069 -0.0014752052 0.017351592 -0.008872269 -0.022539223 -0.0075232005
0.012835206 -0.0028938258 0.0050359215 -0.004429044 -0.021974286 0.010675636 -0.012915421 -0.021164734

modality_transformers.atac.layers.0.linear1.weight f4 [256, 64]
00000000: 3251 663b 958a 053e 7361 d8bd e294 cdbc
00000010: c69e a03d 2584 8ebc dc7b f2bd bbc4 e13d
00000020: 05bf a2bd 7a79 d73d ac1e a73d cc45 133d
00000030: c300 533d 5d66 17bc c2d1 a4bc bc83 e039
00000040: f30e 733d 0642 063d 831a a2bd b26a 2fbd
00000050: 8197 cd3d 98a4 09be f91a aa3d 4808 653c
00000060: 1a36 22be 7853 c2bd 1354 2dbd 8a49 75bd
00000070: a85b f63d 3948 ecbd 8c73 b63a 8189 b9bd
00000080: b9f9 963a 32ca d43c 97f5 813d 47e0 e43d
00000090: e723 e23c 08a9 9dbb 4fc6 c5bd 0cca 933d
000000a0: 69f6 bd3d 912a ee3d b018 0fbe 7f8a bf3d
000000b0: 8b3c dbbd 6072 803d 22c6 fd3d 92d2 3f3d
000000c0: 5973 3d3d 116e 963b 6397 5b3c 803b 2dbd
000000d0: 877b 86bd 5e99 cfbc 468c db3d 6efe 833d
000000e0: 73fe 51bd 19d2 bb3c b3b2 1c3d 25f4 f63c
000000f0: cd66 ba3a c377 e2bd bd2f 8e3c 20a0 f83d
00000100: 4b99 3a3e e22b b7bd cdfe a8bd c515 fabd
00000110: 1319 e3bd 0f6f 09bd 1cf7 ea3c 394c 833d
00000120: c08e c9bd 2151 ea3d 4808 ba3b 8d0b 173d
00000130: af65 c43d 019d 6abd b9e4 463d 3639 ae3d
00000140: 6886 f6bd 861f 873d e3d0 1dbd 8500 ba3d
00000150: c496 ebbc c588 c83d 7f69 cdbd c2c1 053e
00000160: 9f12 953d 8d3f 663d c293 fdbc 4901 f13d
00000170: 70ed c9ba ffb8 833d 4444 ab3c c7a5 13bc
00000180: 5910 973d 82c5 ecbb 7e48 033e 5834 b6bd
00000190: aa91 04be baae 76bc 1ef9 c4bd d2ca a3bd
000001a0: daad e43d 224d c73d 99eb febd 547e 04bd
000001b0: fa26 98bc ac6c 593d 7a4e 373d 4211 23bd
000001c0: 419e eb3a 63c3 06be 811b 10bc 8cd4 e43d
000001d0: b89b 783d fdc6 b5bc 7ef0 fbbc c43b cbbd
000001e0: 2d6a 06be fda1 313d 0512 d9bd f884 03be
000001f0: 3b05 aa3d 3c27 023e 0afa ea3d ee00 b73d
00000200: c6f2 01be ec7b 7bbd cbf9 fcbd a9d3 953d
00000210: c0e3 75bd c949 c3bc 6824 303d e589 e7ba
00000220: 11b0 403d 537d c8bd 7a46 6b3d ad15 17be
00000230: 4a53 c23d 865f 0a3e cb9a bc3d 4baf 393d
00000240: b851 8b3d 733f 523c 98fa 063e c9b5 4a3d
00000250: 93a1 b9bd dc04 2ebd 61e9 ca3c 6567 5b3d
00000260: ec4c ccbd edb1 e83d c59a 13be be61 bf3d
00000270: c07e 14bd 1608 1abd c9e6 94bd f951 b93d
00000280: 5fee bdbd eedf 2cbd c748 0bbd 8fb4 de3d
00000290: 3536 99bc db61 133e 14ef 683d d7fd ae3c
000002a0: 519d 7d3d 58e9 d73d 5713 39bd 2af8 fdbc
000002b0: 8b3b 06bd bc56 0bbe 07cd bd3d 825c 6d3c
000002c0: e3dc ef3b c636 c4bd ea5d aabd 1c17 aabd
000002d0: c724 bdbc 27ea adbd be89 503c 17fa fb3d
000002e0: 5844 773d bad9 523c 44ac f3bc 8e86 d03c
000002f0: fe1a 533d de53 02bd ff90 c43d 4da9 b03d
00000300: a2f8 2f3d d95f a93d c043 c33d 06cf 613d
00000310: ff58 883d 2af0 debd 20fd 6cbc 5f26 36bb
00000320: 411a 32bd 3c96 93bc 0f56 0dbd 35db ff3d
00000330: 936a 753d 14bb 1cbd d98c f43c e732 113d
00000340: f1e6 a73d 71ae dbbd 2aaa b9bb 7bf0 a23c
00000350: ece9 cf3b b476 6fbd 1980 26be 19b1 c73d
00000360: 5246 1e3e 897f 063d b491 f6bc eb3b 073e
00000370: 476f 8abc deca 073e a3b6 d73c 8d91 53bd
00000380: aa09 bf3b 5270 c03d a188 b7bd 8e8b fc3c
00000390: 0e31 ebbd 17ca d6bd 4af1 92bc 81e9 4fbd
000003a0: 51b3 783b b3ad 653c 2a15 efbd 9b61 be3d
000003b0: 617b d53d a0df b23b 9ea6 21bc 2aec 00be
000003c0: 3af2 49bc 8d1a 46bd 92e3 a83c 8382 0b3d
000003d0: f90a 323d 89ac 043e 66ba 563d 42fa b1ba
000003e0: b835 c03d 0bba ed3c dd0b 963d 04b5 ebbd
000003f0: 8951 e83d 8aa4 ab3d af05 473c 60ed 0abc
0.003514361 0.13041146 -0.10565462 -0.025095407 0.07842784 -0.017396996 -0.118400306 0.110238515
-0.0794659 0.10521217 0.08160147 0.035955235 0.0515144 -0.009240714 -0.020119552 0.0004282276
0.05934043 0.03277781 -0.07915213 -0.042826362 0.10038663 -0.13441694 0.08305926 0.013979025
-0.1584095 -0.09488577 -0.042316508 -0.059884585 0.12029201 -0.11537213 0.0013919934 -0.0905943
0.0011518515 0.02597532 0.06345671 0.1117559 0.02760501 -0.00481141 -0.09656965 0.07216272
0.09275515 0.11629213 -0.13974261 0.09352588 -0.10704907 0.06271815 0.123913065 0.046831675
0.046252582 0.0045907577 0.013402793 -0.04229307 -0.0656653 -0.025341686 0.107201144 0.06445013
-0.051268052 0.02292733 0.03825636 0.030145714 0.0014221311 -0.11057999 0.017356748 0.121399164
0.18222539 -0.08943917 -0.082517244 -0.122111835 -0.11088767 -0.03355318 0.028682284 0.06411023
-0.098416805 0.11441255 0.0056772567 0.03687625 0.09589707 -0.057278637 0.04855797 0.08507006
-0.12037355 0.065978095 -0.038529288 0.0908213 -0.028758414 0.09791712 -0.100298874 0.13062194
0.07278942 0.05621295 -0.030954245 0.11767823 -0.0015405845 0.064317696 0.020906575 -0.009011692
0.07376165 -0.007225693 0.12820622 -0.088967025 -0.12946191 -0.0150563065 -0.09617828 -0.07997669
0.11165972 0.09731509 -0.124472804 -0.03234704 -0.018573273 0.053082153 0.044752575 -0.03981138
0.001797624 -0.13160472 -0.00879562 0.111733526 0.06069538 -0.022189612 -0.030754324 -0.09923509
-0.1312644 0.043367375 -0.1059914 -0.12843692 0.08301779 0.12710279 0.114734724 0.08935724
-0.12690267 -0.061397478 -0.12352332 0.073157616 -0.060031652 -0.023838894 0.04300347 -0.0017664997
0.04704291 -0.09789529 0.05744026 -0.14754362 0.094885424 0.13513002 0.09209212 0.045333188
0.06802696 0.01283251 0.13181531 0.04948977 -0.09064021 -0.042485103 0.024769487 0.0535654
-0.09975609 0.11362062 -0.14414509 0.09344815 -0.03625369 -0.037605368 -0.07270581 0.09048838
-0.09273981 -0.042205743 -0.034004953 0.108742826 -0.018702606 0.14392798 0.056868628 0.021361275
0.061917607 0.10542554 -0.04518446 -0.031002123 -0.03277163 -0.13607305 0.092676215 0.014487388
0.007320033 -0.0958076 -0.08318694 -0.08305189 -0.023088826 -0.08491927 0.012728153 0.1230356
0.060367912 0.012869293 -0.029745229 0.025454786 0.051539414 -0.031818263 0.09597968 0.086260416
0.042961724 0.082702346 0.09534407 0.055129074 0.066576 -0.108856514 -0.014464647 -0.0027793867
-0.04348207 -0.018015973 -0.0345059 0.12492982 0.05991609 -0.03826435 0.029852318 0.035448935
0.081983455 -0.107266314 -0.005666037 0.01989006 0.0063450243 -0.058462813 -0.16259803 0.097505756
0.15456513 0.03283647 -0.030098774 0.1320645 -0.016898764 0.13260981 0.026332205 -0.05165248
0.0058300095 0.093964234 -0.08961607 0.030828264 -0.11483966 -0.10487764 -0.017937321 -0.050759796
0.0037948678 0.014018464 -0.116739586 0.092959605 0.10423923 0.005458787 -0.009866385 -0.1259009
-0.012325818 -0.048365165 0.020616326 0.034060013 0.043467496 0.12956442 0.052423857 -0.0013578611
0.09385246 0.029019376 0.073264815 -0.11509135 0.113436766 0.08380993 0.012147351 -0.008479446

modality_transformers.atac.layers.0.linear1.bias f4 [256]
00000000: 81f2 a33b fe8e bebb 8a67 86bc 4f28 9ebb
00000010: 4b31 26bc 8d31 f7bc 9fa1 a33b cfce a4ba
00000020: 5164 5a3c 7057 70ba 31f2 8bbc a314 4bbc
00000030: c0ca 61bc 7b3a 96bb 0ff6 efbb 29aa 89bc
00000040: df36 923c 36e3 83bc 36e4 b7bc 885d f0bb
00000050: e5fe 5bbc 0436 17bb a6e9 523b 49b9 4a3d
00000060: 85fb b4bc abfa c3bb 1b84 63bc 3578 8f3a
00000070: 2a8f 98bb 4c57 c9b9 ae8d 933b 92f2 033c
00000080: 354e 0dbc 30e8 32bc 2191 d3bc 3e72 4bbc
00000090: 626c 9bbc c0a1 d53b dc3c 1cbc a671 073c
000000a0: f435 ca3a 00af a3bc 12a2 59bc 8f2b 61bc
000000b0: da52 4ebc 07c4 54bc f3d7 203c 5d7b 523b
000000c0: d100 d83c 2b33 76bc e5a2 04bb 34b7 99ba
000000d0: dfa8 363c 72cd b7bb 281e 583b b51e 063c
000000e0: 3d41 82bb 1a5a 39bb a449 0bbc 634b c33b
000000f0: 1fdb cd3a 2f76 a9bc 1f5c 8c3c b9f4 ce3c
00000100: 6d2d efbc 64c7 7ebb 05ba 73bc 5b4f 2bbb
00000110: f0c8 1ebc feda 13bc 7200 7a3b 0319 b1bb
00000120: 1e10 a6bc 06cb f9bc f103 1fbb f344 093d
00000130: c704 a3bb 61a6 39bc 29fa 8fbc 8f88 5239
00000140: f427 ccbc bbe5 aabc bf93 83bc a209 b8bc
00000150: 9d8b 09bc c254 acb9 76f9 1dbb e5c6 aabb
00000160: 0a5f 933c a00e 813c c3f4 073c 585e fe39
00000170: d1be efbc 8651 3fbc ebf0 f93b 3772 043b
00000180: 36a3 1dbb e58f cc3c b9e0 df3b 938d b7bb
00000190: fbb6 e53c 7ea1 263c ed6c 9cb9 5a2f e4bb
000001a0: 77c5 9cbc ca3b 36bd 90ea 66bc df58 f63b
000001b0: 8a36 c63b e009 b1bb 1354 e4bc ad03 b83b
000001c0: 1162 b5ba d6cb b7bb 9a8c 5c3c ceea 55bb
000001d0: 9c80 313c 5ddb 97bb ce8d c5bb 8504 e0bb
000001e0: 89ac d5bb 43d5 fc3b 1794 023c 35fe 843c
000001f0: fbdb d0bc f494 fabc 8311 70bc 458a 88bb
00000200: 1f51 c0bc 3964 0e3b 99a5 393c 75f6 45bc
00000210: 9983 f33c ea31 38bc 91cf f33c bec1 e5bc
00000220: 9989 fb3c 5324 9bbc ce9a b63c 81e0 f0bb
00000230: 3fa4 d9bb db89 3cbc 3026 a43c e6ca f1bb
00000240: 2778 5ebc 0d36 12bc a820 8e3c cc08 83bb
00000250: 982f 84bc 4315 88bb f7a7 b73b ba9b 20bb
00000260: 3da9 90bc e648 a13a 426b 4ebb c86a c7bb
00000270: a846 603c 9bab 32bc 0664 a73b ac50 d9bb
00000280: 424b c13b 996d a6bc c270 9fbb 6b8a 92ba
00000290: 778d 8abc d604 abbc 84b0 73bb 013e 96bb
000002a0: cc54 68bb 3c48 36bb d353 59bc 8a03 babc
000002b0: abcb 3bbc 4981 bc3b 05b0 afbc 9d6e e4bb
000002c0: 9afb 3ebc 04b7 323a 658f 08bb a9b5 a3ba
000002d0: 4e74 323d a683 853b f5ab 34bb 159a 8fbb
000002e0: 9512 96bc 6265 28bc 036f f33b 51cf 873c
000002f0: 8104 a9bc 64b4 a93c 9714 813b d8f5 4d3b
00000300: 3d3a 1cbc 5c56 c13b 0d6b 22bc 4b6b b6ba
00000310: 5d02 b5bc e463 bbbd 3fb9 93bc f2f0 063c
00000320: 267a 8a3b 2802 e9bc e89d 15bc ceb5 1e3c
00000330: bb1b 86bc b81f 783a 4d7a d6bb ca39 303b
00000340: 57c9 85bc 95f1 583c 12f7 12bc de74 39bc
00000350: 8258 0c3c 3da9 8ebc 9475 2cbc 029e fabb
00000360: db7d e5bc 99aa fe39 d6e5 89bc 1be5 8f3b
00000370: b84c 50bc d7be abbc 7fec 823c 4a23 35bc
00000380: b61b 1cbc 2551 dd3c da31 d5bc b6f9 f6bb
00000390: 85e8 9bbb 7f77 f23b b463 00bc 9b69 dc3b
000003a0: b55c 63bc c534 a83c ab0b 8dbc 7e15 c8bb
000003b0: 9398 9abc ba80 b5bb c981 4eba ac95 c5bb
000003c0: f3f6 d13b d834 a4bb 96a8 eb3b 759d 243b
000003d0: 0fbb bdbb b5b9 1bbc 2a2b 55bc 0f46 283c
000003e0: f197 da38 952d 963b 114b 48bc 4439 3ab9
000003f0: 3822 2ebc 78bb 1cbd 0950 bfbc e6c8 3338
0.005003274 -0.005815386 -0.016406793 -0.0048265825 -0.010143588 -0.030174995 0.004993632 -0.0012573841
0.013329581 -0.00091683026 -0.01708326 -0.012395057 -0.0137812495 -0.004584608 -0.0073230336 -0.016804771
0.01784843 -0.016099554 -0.022447687 -0.0073353685 -0.013427471 -0.0023072967 0.0032182722 0.049493108
-0.02209259 -0.0059808097 -0.013886477 0.0010945859 -0.0046557384 -0.0003840275 0.0045029735 0.008053439
-0.008624603 -0.010919616 -0.025826039 -0.012417374 -0.01897258 0.0065195262 -0.009535994 0.008266842
0.0015427456 -0.019980907 -0.0132832695 -0.013743295 -0.012592996 -0.01298619 0.009817111 0.0032116987
0.026367577 -0.015026848 -0.0020238694 -0.0011727572 0.01114866 -0.005609208 0.003297696 0.008186032
-0.003975062 -0.0028282464 -0.008501444 0.0059599145 0.0015705562 -0.020686237 0.01713377 0.025263177
-0.029196465 -0.003887617 -0.0148758935 -0.002613983 -0.009691462 -0.00902438 0.0038147238 -0.005404593
-0.020271357 -0.030492317 -0.0024263824 0.03351302 -0.0049749347 -0.011331172 -0.01757534 0.00020078033
-0.024921395 -0.020861497 -0.016061662 -0.02246553 -0.008395103 -0.00032869546 -0.002410499 -0.0052116984
0.017989654 0.015754044 0.008298102 0.00048516947 -0.029265793 -0.011677152 0.0076275966 0.002020968
-0.002405358 0.024970958 0.006832209 -0.0056015938 0.028041353 0.010170339 -0.00029835795 -0.0069636526
-0.019137127 -0.044490613 -0.01409401 0.0075179185 0.006048982 -0.0054027885 -0.027872121 0.0056156726
-0.001383843 -0.005609016 0.013461256 -0.0032641175 0.0108338855 -0.0046343044 -0.0060288673 -0.0068364763
-0.006520812 0.0077158525 0.007969878 0.016234497 -0.02549552 -0.030588605 -0.014652613 -0.0041668736
-0.023476182 0.0021727218 0.011330985 -0.012082686 0.029725837 -0.011242369 0.029762061 -0.028046485
0.03070526 -0.01893822 0.022290614 -0.0073509817 -0.006641894 -0.011507477 0.02003774 -0.0073789237
-0.013578451 -0.0089240195 0.017349556 -0.0039988514 -0.016135976 -0.004152925 0.0056047398 -0.0024506883
-0.017658824 0.0012305051 -0.0031497036 -0.0060857274 0.013688721 -0.010905172 0.0051083593 -0.0066319313
0.005898864 -0.020315932 -0.0048657367 -0.0011180168 -0.016913159 -0.02087633 -0.003718407 -0.004585028
-0.0035450934 -0.002781405 -0.013264614 -0.022706766 -0.011462132 0.0057527167 -0.021446237 -0.006971194
-0.011656666 0.00068174326 -0.0020837423 -0.0012490052 0.043567948 0.0040745316 -0.0027568315 -0.0043823817
-0.018319407 -0.010278078 0.007429005 0.016578348 -0.02063203 0.0207159 0.003939222 0.0031427052
-0.009535369 0.0059001874 -0.009913218 -0.0013917474 -0.022095853 -0.09149912 -0.018032668 0.008236157
0.004225987 -0.028443411 -0.009131886 0.0096869 -0.016370645 0.00094651757 -0.006545341 0.0026889914
-0.016331358 0.013241191 -0.008970039 -0.011319367 0.008566024 -0.017414683 -0.01052608 -0.0076482305
-0.028014114 0.0004857376 -0.016833227 0.004391325 -0.012713604 -0.020965023 0.01598191 -0.011055777
-0.009528091 0.027016232 -0.026024748 -0.007537092 -0.004757943 0.007399499 -0.007836271 0.0067264563
-0.013877084 0.020532975 -0.017217478 -0.0061060777 -0.018871581 -0.005539027 -0.0007877616 -0.006029805
0.0064076125 -0.0050111823 0.007191728 0.0025118266 -0.0057901214 -0.009504725 -0.013010779 0.0102706095
0.00010423351 0.0045830705 -0.0122249285 -0.00017759675 -0.010628276 -0.03826472 -0.023353593 4.2864027e-05

modality_transformers.atac.layers.0.linear2.weight f4 [64, 256]
00000000: 9c3c b7bd 89a4 5dbd 1999 e53d 579e db3d
00000010: e392 b5bd 7cf9 823d 88de 5c3d b5a2 c2bc
00000020: f736 b13d 62a6 d03d 9c6b 443d 5a6a 0b3e
00000030: c3b0 233d 3119 0abe 712a f13d aeef db39
00000040: 6795 1d3d 3295 06bd 4e0b 103d 3e86 99bd
00000050: a71f 37bd 7f96 0ebe 5b96 9d3c 1c76 5ebd
00000060: bb01 d5bd e0b6 163d 7d76 8c3d 9c67 47bd
00000070: 6af8 cb3d 9a48 2b3d 3023 9abd 8490 fb3d
00000080: fb19 c8bd 0c47 0bbd 044e 073c 69fe 72bd
00000090: f893 1cbd 284e 6f3d a278 8b3d 63d5 d23d
000000a0: 8fcd bd3d 75e2 cbbd 0170 9cbc 6f1f e43c
000000b0: 2906 38bc 8259 a3bd 2b15 983c 338f f1b8
000000c0: d373 6e3d 91cf d13d cb54 9f3d a105 2abd
000000d0: b5c2 97bd 3cd6 dabd 7d6b 083e f3e0 e8bd
000000e0: 0f03 a3bc 0fc7 d13d 41a8 12bd 3e06 843d
000000f0: a9f3 e53d 7e75 d4bd cff9 a03d be07 7d3d
00000100: 0c0d 3e3d 70de 7ebd 845f b9bc 2556 d33d
00000110: 52f0 f03d 050b a2bd 50ef fc3d ece6 b63d
00000120: cbd8 25bc 35be 8fbd 2bf3 2dbc 57cf 263e
00000130: d9c3 98bd adf8 ff3c ee3f f8bd 187d 953a
00000140: bc66 b43d 213c d03d b368 2cbd 8925 94bc
00000150: f3d1 03be 888b 843d 4e8e b3bd e7b7 c0bd
00000160: 4746 c2bd c2b5 80bd 8258 6e3d 4456 a2bc
00000170: fa80 3cbd 5d7d ecbc 949d e3bd 5f4e 943d
00000180: 6edc dbbc df94 d9ba 8bb7 83bc dd7d 33bd
00000190: 1f3f 9cbd 591f 8dbc 7b72 ebbc 160f 203c
000001a0: c4af c83b 8620 15bd f61a 933b 3f0f c7bd
000001b0: 84f2 1ebd 07e8 8c3d 4aa0 aabd aab7 7b3d
000001c0: e992 0d3e 4418 fdbd 543b b03d 44bd a03d
000001d0: 19ea c43d fecf f5bd d7a5 adbd 232f ab3d
000001e0: e978 e73d eaa4 dc3d 5533 0b3e 693e b93d
000001f0: 2ced debd b696 c6bd e3ca 94bd c0b4 b3bd
00000200: fa18 a4bd f3eb 3abd e583 48bd 43b4 2abd
00000210: a78e 773d 5190 f0bd 0c5b 61bd a269 8bbd
00000220: 0180 ba3c 04e2 ec3d a4b0 843d 8a20 82bd
00000230: 960b 2c3c 4a77 9dbd 4abf d3bc 81ee b4bd
00000240: c6cd eabd 174d 853d 94f0 30be ce95 bd3c
00000250: 1cfc 8e3d 63a0 fb3d 6344 03bd 3f22 f5bd
00000260: 3d0f 433d 21d5 0a3c a8b0 a83d 83b5 e5bd
00000270: 58e2 b83b 3b73 0bbe b15e b13c 2b09 b9bd
00000280: abc2 08be 05f6 7cbd 2aca 5a3d bde5 8ebd
00000290: 1af5 89bd 6010 9f3b 9272 d83d 0b04 f63c
000002a0: ae58 cabd 2c98 013e e02c 8f3c 5ec7 e4bd
000002b0: 4937 78bd 59e2 b13d 4b4e dfbd 45af 75bd
000002c0: 652b c8bd fe4d 5cbd c1c0 83bd b79c 2ebd
000002d0: 852b b5bc b173 c43d 54ab 273d 1eca cbbd
000002e0: 8a59 d2b9 b3b6 10bd 1b6f 893d 98a5 c7bd
000002f0: f92c b4bd 4b3c 62bd bab6 d2bd 1414 a6bd
00000300: f810 913d 811d 0a3d 9b21 063e 3c80 413b
00000310: 183f 9ebd a1c9 d63d a3d8 093d 2f16 eebd
00000320: ebba 06bd a1b2 09bc 1383 693d 5792 adbd
00000330: 1aac fcbd 4677 ee3d 53ff bb3d 72fa fa3c
00000340: ed56 92bd 5a76 48bc 7f31 b23d f0f3 08be
00000350: 83f7 943d b042 b1bd 6537 90bd ff2f b1bd
00000360: 518d 033e d002 e73d a59d b3bd b3e3 4e3c
00000370: 36a5 90bc 7b62 d83d 248f debb a552 cdbb
00000380: 0809 103d 3cfc 25bd 87cd 10bd 5643 16bd
00000390: d04c 27bd 4f9d 2d3d a5d1 aabc 1814 d6bd
000003a0: ad5e 343c 3013 173d 729d df3d db43 5abc
000003b0: 3f85 06bc 7b4e 973d 5d6c cebd e9a0 f7bd
000003c0: e2cc c7bc c24e 803d 966e 84bd 6749 a63d
000003d0: 35e8 babd 02e9 5ebc 22da 07bd 3d49 d8bc
000003e0: 653e 903c d737 7abd ed19 bdbd 2c4a 233c
000003f0: 2ab3 4b3e 82b1 af3b 6a3e 86bd af30 38bd
-0.08947107 -0.05411199 0.11210842 0.1072356 -0.08865907 0.063952416 0.05392316 -0.023759225
0.08653062 0.10187985 0.047954187 0.13614789 0.039963495 -0.13486172 0.11775673 0.0004194951
0.03847256 -0.032857127 0.03516703 -0.07496308 -0.04470792 -0.13924597 0.019236734 -0.054311857
-0.10400721 0.036795497 0.06858537 -0.048682794 0.099594906 0.041817285 -0.07526243 0.122834235
-0.097705804 -0.034003302 0.0082583465 -0.059324656 -0.03822705 0.058424145 0.06810118 0.102946065
0.09267723 -0.099553026 -0.019096376 0.02784702 -0.011231937 -0.07976057 0.018564781 -0.000115184484
0.058215927 0.10244668 0.07779845 -0.041509274 -0.07410184 -0.10685393 0.13322254 -0.11371031
-0.01989892 0.102430455 -0.03580499 0.06446503 0.11228115 -0.10373972 0.07860147 0.06177496
0.04639916 -0.06222385 -0.022628553 0.10319165 0.117645875 -0.07912258 0.12350333 0.089307636
-0.010122488 -0.07018701 -0.010617058 0.16290031 -0.0745923 0.031246508 -0.121215686 0.0011405079
0.088086575 0.10167719 -0.042092036 -0.018084304 -0.12873058 0.06471926 -0.08767377 -0.094100766
-0.094860606 -0.062846676 0.058189876 -0.019816525 -0.04602144 -0.028868372 -0.1111404 0.072415106
-0.026838508 -0.0016600153 -0.016078731 -0.043821204 -0.07629227 -0.017226862 -0.028741112 0.009769222
0.0061244685 -0.03640797 0.004489298 -0.09719705 -0.0388055 0.06880193 -0.08331354 0.061454453
0.13825573 -0.12358144 0.08605066 0.078485996 0.09614963 -0.12002562 -0.08478897 0.083586
0.11302359 0.10773642 0.135938 0.09045107 -0.10885081 -0.096967146 -0.0726526 -0.0877471
-0.080125764 -0.045635175 -0.04895391 -0.041675817 0.06043878 -0.11746276 -0.05501847 -0.06807257
0.022766115 0.115665466 0.06479004 -0.063538626 0.010500809 -0.07688768 -0.02584805 -0.088345535
-0.114650294 0.06508844 -0.17279273 0.023142722 0.0698168 0.12286451 -0.03204764 -0.119694225
0.047621954 0.008473665 0.082368195 -0.11216261 0.0056422167 -0.13618176 0.021651598 -0.09034952
-0.1335551 -0.06175806 0.053415455 -0.06977413 -0.067362025 0.004854247 0.105687276 0.030031225
-0.098801956 0.12655705 0.017477453 -0.11170839 -0.0605996 0.086857505 -0.10903605 -0.059981603
-0.09773902 -0.053785317 -0.06433249 -0.042629924 -0.022115478 0.09592379 0.040934876 -0.0995066
-0.00040121033 -0.035330486 0.06710645 -0.097483814 -0.0879764 -0.05523328 -0.102887586 -0.08109298
0.07083315 0.033719543 0.13098757 0.0029525897 -0.07726878 0.104876764 0.033653866 -0.11625325
-0.032893103 -0.008404405 0.057009768 -0.08475178 -0.12337513 0.11643843 0.091795586 0.030637
-0.07145486 -0.012235248 0.08700847 -0.13374305 0.072737716 -0.08655298 -0.07041816 -0.08651733
0.12846877 0.11279833 -0.08770303 0.01262753 -0.017656904 0.10565659 -0.006791966 -0.0062659555
0.035164863 -0.040523753 -0.035352256 -0.03668531 -0.04084474 0.04238635 -0.02085192 -0.10453051
0.011008901 0.036883533 0.10918702 -0.013321842 -0.008210479 0.07388016 -0.100792624 -0.12091238
-0.024389688 0.06265022 -0.06466405 0.08119469 -0.09126321 -0.013605358 -0.033167012 -0.02640211
0.017607877 -0.06108841 -0.092334606 0.009966414 0.19892564 0.0053617368 -0.06554873 -0.044968303
