ml_output/CA1-ProS_Glut/atac/model_3.pth (torch, 474380 bytes, 48 tensors)

query f4 [1, 64]
00000000: 71ed 273f 9f18 eb3e 6628 c5be 17db ea3e
00000010: c625 303e 2034 2d3e bbc8 dabf 33cf 82be
00000020: 6e6a 3dbe 1a67 26bf 9571 8e3f d73f 973f
00000030: b9c9 b3bf 7fef 1c3f 0dfc 80bf a845 0cc0
00000040: 632a aebe dbf1 a8bf 6c1a 2bbd 5176 99bf
00000050: 000c 4b3f a6b3 48bf af7d f23d 49f0 da3f
00000060: 86ce 0e3f 9c49 4cbe b711 a2be cc1f 99bf
00000070: 9a0f e7be 8ea0 b73e 0a7e ef3c 248b babf
00000080: 320f 2fbf 1158 8fbf 38e4 e13e cf4b 55bf
00000090: a1ba 1cbf 7f5a bcbe afa0 d2be 5375 ce3f
000000a0: 3980 2cbf 4294 a0bc 4cb8 2a3e 0551 ba3f
000000b0: 478c 28bf 96ef acbd abc2 a63f 832b 9e3e
000000c0: e63b 283e ec17 01bd 9375 a93e 1f47 45bf
000000d0: 8048 18c0 bfc6 ddbf 660d 1040 511d 943f
000000e0: 15c2 28be 2b0a 6c3f 4b88 10bf 63b8 dabf
000000f0: 2f7d fa3e a9d0 3a40 72eb 603d bddc 4a3e
0.6559668 0.45917222 -0.38507384 0.45870277 0.1720191 0.16914415 -1.7092508 -0.25548705
-0.18497631 -0.6500107 1.1128412 1.1816357 -1.4045936 0.6130294 -1.007692 -2.1917515
-0.34016714 -1.3198808 -0.041773245 -1.1989232 0.79315186 -0.7839912 0.118403785 1.7104579
0.5578388 -0.19949955 -0.3165414 -1.1962829 -0.4512909 0.3586468 0.029234905 -1.4573712
-0.6838256 -1.1198751 0.4411943 -0.833188 -0.61222273 -0.36787793 -0.41138217 1.6129555
-0.6738315 -0.019601945 0.16671866 1.4555975 -0.65839046 -0.08444135 1.3028158 0.30892572
0.164291 -0.031516954 0.33097515 -0.7706165 -2.379425 -1.7326277 2.2508178 1.1571447
-0.16480286 0.92203015 -0.56457967 -1.708752 0.48923633 2.9189856 0.05491204 0.19810767

cls_embeddings.atac f4 [1, 1, 64]
00000000: 8d5f 513f b826 54be 0926 253f 79a1 43bf
00000010: d9c3 ce3e 216c 64be 55ba 16bf 773f 2cbe
00000020: 13b2 e33f 5d12 01be c0d9 07be abad 853e
00000030: 4e0a b9bf 1cc4 ebbe 37bd f3bf 7440 043f
00000040: 0d13 d13e 3359 14bf 551b 42bd ef12 75bf
00000050: e057 2a3f 49a6 a23f a353 0f3f 4ca3 bfbe
00000060: f1a1 da3f 1ef6 1b3f 7da5 0abe 241d 5c3f
00000070: 823c a5bd 304a 1c3f 3569 653f 68d3 3a3f
00000080: 4dfc 9c3f 00c6 ac3c 04c6 04be f3ad a4be
00000090: ea93 913f 2c9c 76bf 9e4a 77bf d027 80bf
000000a0: 49a4 64be 69cb 2e40 670c d13e e128 1d3e
000000b0: e37b 703e af1e 333b 737a 07bc 1f1a 23c0
000000c0: 11f4 543c e1a5 1bbf 9ee4 cfbf 9d91 babf
000000d0: 9add 263f 555e e23d 745c 04c0 af88 733f
000000e0: 619b 8c3e 5072 10bf fb41 853f f045 52bd
000000f0: 40fd 853e 252b 9bbf a6e7 97bf 8b0b 23bf
0.81786424 -0.20717895 0.6451116 -0.7641826 0.40383795 -0.22306873 -0.5887807 -0.16821085
1.7788719 -0.12604661 -0.13266659 0.2610906 -1.445627 -0.46048057 -1.9042119 0.5166085
0.40834847 -0.5794861 -0.047389347 -0.95732015 0.66540337 1.2706996 0.55986995 -0.37429273
1.708067 0.6092242 -0.13539691 0.85981965 -0.080681816 0.610507 0.8961366 0.7297883
1.2264496 0.021090508 -0.12966162 -0.32163963 1.1373265 -0.9633205 -0.9659823 -1.001215
-0.22328295 2.7311652 0.40829775 0.15347625 0.23484759 0.0027331521 -0.00826894 -2.5484693
0.012997643 -0.60799986 -1.6241643 -1.4575688 0.6518189 0.11053149 -2.068143 0.9513044
0.27462295 -0.5642443 1.0410761 -0.05133623 0.26169777 -1.2122542 -1.1867568 -0.6368949

modality_embeddings.atac.weight f4 [64, 9]
00000000: aa76 d53d 0a9b dcbd 23a7 a93d 9b04 243e
00000010: 66c4 12be 668a 133e 9bd1 0dbe fe06 2e3e
00000020: 8c4e 46be 1703 06be 3398 1dbc 9b1c 2e3e
00000030: ef77 e8bd 1a56 fa3d 81cb 6fbe f13f 223e
00000040: d214 13be ceb5 cebd 6ed0 4dbe bb34 28be
00000050: 3fe6 9ebe 6a07 c9bc e5a0 003e e784 4bbd
00000060: 0fee 6d3c d1eb 143e 9cfb 5bbe be69 32bd
00000070: 0089 ccbd 9594 c63d 6ce3 9e3e 863e 8cbe
00000080: cd59 1c3e c13e 983e ebc4 aabe 1133 993d
00000090: 93ea bdbd 209d afbd 7898 cf3d 19d9 8b3e
000000a0: a47f 24be 5f8e dd3d bf1f 213e a59e afbe
000000b0: 3ed2 523e bc38 e33d 34dc 7f3d ae42 9dbe
000000c0: ef8d f73d fb69 503e e86f 75be 4e3f 13be
000000d0: 17bb b0bd 7daf 793e 3968 713e ebbe 213e
000000e0: 7386 393e a288 0a3e 18fc 783d 5d9f e13d
000000f0: 2544 053d 4657 9dbe 7c55 353e afc0 9a3d
00000100: 8283 98bd 299d 003e e4c5 56be 3e0c b7bd
00000110: 92a9 babd a7b3 693e 01cf c0bd 9012 bc3d
00000120: 7a50 6abe 84e7 e5bd 7b03 6dbe 042c 59be
00000130: 2086 6c3e d0a7 323e 5bdf 2fbe b64d 793e
00000140: 6458 613e 84cf 983d 70b8 d73d 0929 5e3e
00000150: 059c 873e 1feb 573e 6615 26be 9efb 08bd
00000160: 1b75 2a3e 18a0 8dbe d813 4dbe cd67 f0bd
00000170: 8ecb 65bd dabd 4cbc 6359 80be 1f67 0d3e
00000180: d4f5 0fbe a70d ee3d 4ebd 653e 3ab4 1a3e
00000190: 5a07 7d3b 919e 503e c5e8 3bbd 4ca5 f53a
000001a0: 9f6e 83be 32ac e33d 8eed 2f3e 62ad 173e
000001b0: 193e 503e 1738 873e d2ef 76bd 6d03 893d
000001c0: ce54 36be 5cfe 18be 9feb ab3b fc55 11be
000001d0: df9e 703e 8b23 3ebe b3c2 efbd 5288 413d
000001e0: 523f 423e d77e 2c3e f56a 1c3e 115c 2abe
000001f0: e710 f03c 4658 66be c793 36be e0ac 573e
00000200: aa39 963e 20af 2dbe 2950 433d 43b3 7ebe
00000210: de80 38be 6cc7 35be 2655 503e 3549 4b3e
00000220: c646 9a3d eefe fe3d 1ecc 41bd 327e 803d
00000230: a701 12be 244d 093e 3f12 12be 758e 083d
00000240: c140 b73d e3a5 183e 9029 07be 2487 89be
00000250: 2955 58bc b263 4e3e a03a 163e 7250 dc3d
00000260: 7824 4dbe 136b 95be de49 e2bc 70d5 4f3e
00000270: a74f 14be e3f8 2a3e d5f9 8c3e c531 123e
00000280: ec9c 73be 3d1d 10be 3faa 81be 48d9 81be
00000290: 6cd3 96be dc89 5dbe 571d 8bbe e69a 563e
000002a0: 91df d63d de7d 5d3e cfa3 4e3e fafb b5bc
000002b0: a0e6 093d 5418 7ebe 532e 833e 9e48 b43d
000002c0: 882d 7b3d f064 98bc d703 59be 867d 72be
000002d0: a7c5 a5be fa79 223d e87a 823d 2c62 9a3d
000002e0: 5ee1 cdbd bfa9 b4bd ee7c db3d 2553 263d
000002f0: 21c5 5f3e 76fc 0fbd 4fc8 86be 39ad c83d
00000300: 7709 133e 64f0 9f3c 0232 0abe 3342 1bbe
00000310: 8339 5e3d f3d5 11bd d602 1dbd 30cc c8bd
00000320: 9908 63bd 560b 85be 0785 443e 1ab1 7f3e
00000330: 59ad b33d 7a23 053e 64c1 43be 54df 723c
00000340: b45c 12be d612 a6bd 8373 9dbd c753 873e
00000350: 6848 543d e8ff 6f3e 5d36 f1bd 9c86 71be
00000360: edff 6d3e 5519 3bbe 1333 fdbd 800c 663e
00000370: af67 79be ffc7 6a3e 77ee a13e f971 90bc
00000380: 3318 3dbe 11da 393e e1ed 73be eb40 a13c
00000390: 1e69 93be 7d4c 383e 013b 94ba 112c 04be
000003a0: e8d9 75ba df3f 8b3e 12f5 02be b36f cfbc
000003b0: 560a fa3d b0af c1bd 617d 8ebd 4c74 0a3e
000003c0: e78e d13d 793d 503c ee58 b03d 47c3 2f3e
000003d0: fd0f 703e d02d 73bd 6c4b 38be 25e3 383d
000003e0: fb30 103e 3829 903d 1cc6 f0bd a309 803e
000003f0: 1f60 1cbc 638c e33d 4855 4bbe 07b0 873e
0.10423024 -0.10771759 0.08283832 0.16017382 -0.14332733 0.14408264 -0.1384949 0.16994855
-0.19365901 -0.13087116 -0.009618807 0.170031 -0.113510005 0.12223454 -0.23417474 0.15844704
-0.14363411 -0.1009327 -0.20099041 -0.16426365 -0.3103504 -0.024539668 0.12561376 -0.049687292
0.01452209 0.14543082 -0.214827 -0.043557875 -0.09987068 0.096963085 0.31032884 -0.27391452
0.15268631 0.29735377 -0.3335336 0.07480443 -0.09273257 -0.08574891 0.10136503 0.2731407
-0.16064316 0.10818171 0.15734766 -0.34300724 0.20588014 0.110948056 0.06246586 -0.30714935
0.120876186 0.20352928 -0.2396847 -0.14379618 -0.086294346 0.2438335 0.23574914 0.15795486
0.18117695 0.13528684 0.06078729 0.11016724 0.03253569 -0.30730647 0.17708391 0.07556283
-0.07446958 0.12559952 -0.20973927 -0.08937882 -0.09114374 0.22822438 -0.09414483 0.09183228
-0.22882262 -0.11225799 -0.23145859 -0.21208197 0.2309804 0.17446828 -0.17175047 0.2434605
0.22006375 0.074614555 0.105332255 0.21695341 0.2648622 0.21085785 -0.162191 -0.033443086
0.16646235 -0.27661204 -0.20027101 -0.117385484 -0.056102328 -0.012496436 -0.25068197 0.13808869
-0.1405862 0.11623698 0.22435495 0.15107813 0.0038609118 0.20372988 -0.045876283 0.0018741279
-0.25670335 0.11116828 0.17180464 0.14812234 0.20336188 0.2640998 -0.060287304 0.066901065
-0.17805788 -0.1494078 0.005246594 -0.14192957 0.23498105 -0.18568246 -0.11707058 0.047249146
0.18969467 0.1684526 0.15275176 -0.16636683 0.029304935 -0.22494611 -0.1782981 0.2106204
0.2934087 -0.16961336 0.04768387 -0.2487307 -0.18017909 -0.17751855 0.20344982 0.19852145
0.0753303 0.12450968 -0.047313802 0.0627407 -0.14258443 0.13408333 -0.14264773 0.033338983
0.08947898 0.14907031 -0.13199449 -0.26860917 -0.0132038975 0.20155218 0.14670801 0.10757531
-0.20033443 -0.29183254 -0.027623113 0.20296264 -0.1448351 0.16696505 0.27534357 0.14276798
-0.2379033 -0.14073654 -0.253252 -0.25361085 -0.29458177 -0.2163462 -0.27170822 0.20957527
0.10491861 0.21630046 0.20179676 -0.022214878 0.033667207 -0.24813968 0.2562128 0.08802913
0.06132272 -0.018602818 -0.21192871 -0.23680696 -0.3237736 0.039667107 0.06371099 0.07538256
-0.10052751 -0.08821439 0.10717188 0.040606637 0.21852542 -0.035152875 -0.26324698 0.097986646
0.1435908 0.019523807 -0.13495639 -0.15161972 0.054254066 -0.03560443 -0.038332783 -0.09804571
-0.05542812 -0.2598521 0.19191371 0.24969903 0.08773298 0.13001814 -0.19116741 0.014823753
-0.14293176 -0.081090614 -0.07688048 0.26431105 0.051826864 0.23437464 -0.11777947 -0.23586506
0.23242159 -0.18271382 -0.12363257 0.22465706 -0.24355958 0.22927855 0.31627247 -0.017632471
-0.18466263 0.18149592 -0.23821212 0.019684276 -0.28791136 0.17997928 -0.0011309088 -0.12907435
-0.0009378479 0.27197167 -0.127888 -0.025321817 0.12209003 -0.09457338 -0.06957508 0.13520926
0.102323346 0.012709969 0.08610712 0.17164336 0.23443599 -0.059369862 -0.17997521 0.045138497
0.14081185 0.07039112 -0.11756536 0.25007352 -0.009544401 0.11110761 -0.19856751 0.26501486

modality_embeddings.atac.bias f4 [64]
00000000: 2a0d 203d 0628 e03c 919f 0a3d 2ccc c7bd
00000010: 0d94 82bd fac7 173d 4ab7 29bd 3240 50bd
00000020: 3e2b f4bb 17e2 c6bc 6b1d 013d 7ff8 8bbc
00000030: 91d0 90bc 556b 273d 63ab be3d 6e5a 96bb
00000040: 38ca 63bd 1698 4cbc c02a 4bbd 8b8e db3c
00000050: 4514 3bbd 237c 1d3d 5b96 4c3b a7d1 29bd
00000060: 7dd3 c4bd 47b2 723d 4296 29bd dfb9 2e3b
00000070: fe29 8d3c 3616 9f3d 88d1 82bc 7e1c cf3d
00000080: fcaa 943c 49e0 0abd 9f62 f33c 4cb1 933d
00000090: ca7d e63c 36b4 83bd 643b 8a3c dbdb 293d
000000a0: 07a1 ec3b ef96 92bd 85ed f53c fb7f c7bd
000000b0: 3ce7 8b3d c03f edbc e90e 213d 7cfe 063c
000000c0: 68ba b53d 6e76 5dbd a526 58bd c49c c23c
000000d0: 1ba2 f63c 830b 92bc 27f1 983d 1838 b93a
000000e0: 2e49 933c 7bc3 8abd ef0c 3b3d f468 893d
000000f0: a050 8f3d 2005 c0bd 7153 96bd cb5d 1e3a
0.039075054 0.027362835 0.03384358 -0.097557396 -0.06375895 0.037055947 -0.041434564 -0.05084247
-0.007451444 -0.02427773 0.031522196 -0.017086266 -0.017677577 0.040873844 0.09310033 -0.004588417
-0.055612773 -0.012487432 -0.049601316 0.026801368 -0.045673627 0.038448464 0.0031217549 -0.041459706
-0.09610651 0.05925205 -0.041403063 0.002666108 0.017231937 0.07767908 -0.015969053 0.10112856
0.018147938 -0.0339053 0.029710112 0.07211551 0.028136153 -0.06430857 0.016874023 0.041469436
0.0072213444 -0.071576945 0.030020485 -0.09741207 0.06831214 -0.028961062 0.03932086 0.008239385
0.08873445 -0.05406802 -0.05277123 0.023756392 0.030106595 -0.017827755 0.07467871 0.0014131097
0.01797923 -0.06775566 0.04566663 0.06709471 0.069978 -0.093759775 -0.07340134 0.0006041198

modality_transformers.atac.layers.0.self_attn.in_proj_weight f4 [192, 64]
00000000: 06d3 5fbd b682 273d 8208 b4bd 7665 223d
00000010: 852a 7e3d 57bb 1dbe 8301 06be 6f3c a13d
00000020: d448 67bd 16cd 41be 6085 ab3c 9de9 12be
00000030: 004f e83c 2414 fbbc 60e0 6c3d d2c2 963d
00000040: f289 07be c653 1cbe acea e4bc c9ff dcbb
00000050: c153 d63c 8f8b 0e3e a804 38be 55ac 11be
00000060: 92c5 f83d 806a a63d 00a3 64be b774 50bd
00000070: f04f 493d 4361 153e c191 2a3e c5bd f93b
00000080: 8b8c eabd d02a a4bd e29b a43d d31d 1e3d
00000090: e55b 1cbe 5714 133d e280 e7bd 4e0b 263e
000000a0: ab92 103e f4bf 4abd 539c 06be f9b4 133e
000000b0: 570d e3bc c47c babc 9d5c 9b3c cb69 fe3c
000000c0: 197f bc3d ded3 c9bb 62f2 383e c4b7 ca3d
000000d0: af0c 0d3e c81c d93d 8bd3 0abc 82cf 1a3d
000000e0: 5a10 3abd 24ac 41bc 142a 4f3e b237 1fbb
000000f0: c1da 803d d37e ebbd 8005 0c3e 56ff 86bd
00000100: ce76 f23b 4e43 8cbb 2fb0 5a3d fdf4 2d3e
00000110: 16d9 203c 91ab 02bd 86d1 1c3e 3a60 fd3c
00000120: 780e ec3c 1ff5 923e ebde 33be a90c c0bb
00000130: e91b 6f3c 8b19 d5bd 02ab 0fbe 10e3 88bd
00000140: 2d67 d9bd ad39 91bd a540 123e c5bc 9bbd
00000150: 4a21 a93d 4a1b 47be a2e6 943d cdde 813d
00000160: c005 5cbd 311d fbbd 0800 823d d19c 403d
00000170: cce1 89be 8c40 03be 9021 353d 3353 09be
00000180: e6f8 993c f6ea dc3d 2eed c9bd eb3b 03be
00000190: 2e09 83bd e2f9 983e c0ac 02be aec6 b2bd
000001a0: c36e 8bbe 832c 083c eebd cc3d 4ab1 753e
000001b0: 3ade 23bd b4c7 4d3e 0062 3f3d 2e58 073e
000001c0: d63f 68be 0fc8 9e3d e5f7 213e 840e 563c
000001d0: 8a47 37be d907 e53d 1970 01be 6340 abbd
000001e0: 210f 0ebe e0f7 9f3d 13a6 ebbd 6b8c cbbd
000001f0: d8cc abbe 752e 803e fafa 94bd 1827 4a3c
00000200: 1a84 debd 4792 193e 1978 813d 5a9e d8bd
00000210: 61f7 4fbd 5ef0 90bc 8a2c edbc 546c 90bd
00000220: 92b6 afbd 8407 003e b1be 27bd 2ca5 0cbe
00000230: e54c d63d 24b0 d4bc 25fa d43d b4ad d33c
00000240: 5665 033e 2578 0e3d dfde 373b fd35 c6bd
00000250: 450d 553d 5b9e 0d3e 2403 41bd aec9 edbd
00000260: ada5 193e 2f9c ad3d bbfa 733b 5870 debd
00000270: bdae 62bd a99c 973d cfdd a43d 8de8 923d
00000280: 4e16 b33d 0ce1 86bd f77a 2e3e cc17 eebd
00000290: 2c5f a2bd 524c 00be 23d7 923d 74aa a6bd
000002a0: 6a9f cd3c 43e6 f03d a8b4 3c3b f839 2abd
000002b0: 93b8 87bc f688 8e3d ecd4 62bc 696f c73d
000002c0: f56f 073e 5fd3 2d3c 08c3 d6bd 0ccd b8bd
000002d0: d8bd 0b3e c6bf 83bd e505 06be b5d9 993d
000002e0: cab9 a53c 3249 773d 0745 293b 3a9d a73d
000002f0: ec20 89bd 4d4f ed3d 0a51 a43d f818 4f3d
00000300: 5bd8 d23d 89bf 8cbd a05b 283e 7fe6 c1bd
00000310: d974 a3bd 9357 f93d a864 06be 6593 52bd
00000320: 492a 12bd fbfd 90bd 2bc5 323e 4e38 17be
00000330: a6b3 90bb 3c45 93bc 3dd1 8b3d 7d2e 59bd
00000340: c3ff e43d 8a5a 41bd bbd3 15bc 52f6 1abe
00000350: 55d4 8d3d 98ef 983d 3356 25be 6ec4 48be
00000360: 001c 9abd 8f7e ab3d acb7 1cbe 55ed 65bd
00000370: 0458 213e 999b fb3d c145 bcbd dbf1 593b
00000380: 9d94 933d a0ea a0bd 7525 0a3e fbfc 9ebc
00000390: 10c7 df3d 85f1 d93d 8e28 1abe 5b65 25be
000003a0: 445d 243e d853 043e 8c8d 103e d882 9dbc
000003b0: 3acd 803d 9ed6 d8b7 6087 983d 11c5 423d
000003c0: f2bf 393e df14 b63c dc18 ae3c 2adc 693d
000003d0: ad7a d93c 03ff 91bd 0ede c2bd ec3e f13d
000003e0: 5cfa bbbd 3bc1 dfbd 248e ec3d 5d1c 95bd
000003f0: 1204 fd3d a19b 633d 3fd0 993d bbc7 fd3d
-0.054644607 0.04089614 -0.08790685 0.039647542 0.06205227 -0.15403496 -0.13086514 0.07872855
-0.05646594 -0.1892589 0.020937622 -0.14346929 0.028357983 -0.030649252 0.05783117 0.07361378
-0.13236216 -0.15266332 -0.027943932 -0.006744359 0.026162984 0.13920425 -0.17970526 -0.14225896
0.121470585 0.08125782 -0.22327805 -0.050892558 0.0491485 0.14587884 0.16657163 0.0076214992
-0.11452588 -0.08015978 0.08037545 0.03860266 -0.1526943 0.03590807 -0.11303879 0.1621525
0.1411845 -0.049499467 -0.1314557 0.14424504 -0.027716322 -0.022764571 0.01896506 0.031056305
0.092039295 -0.0061592897 0.18061212 0.09898332 0.1377437 0.10601193 -0.008473287 0.03779555
-0.04542575 -0.011820827 0.20230895 -0.0024294672 0.06291724 -0.11498799 0.13673973 -0.0659167
0.0073994165 -0.0042804843 0.053390678 0.16987987 0.009817382 -0.0319019 0.15314302 0.030929673
0.028815493 0.28702638 -0.17565505 -0.005860884 0.014594057 -0.104052626 -0.14030078 -0.06683934
-0.10615382 -0.07091079 0.14282472 -0.07604364 0.082583025 -0.19444004 0.07270552 0.06341324
-0.05371642 -0.12261427 0.06347662 0.04702455 -0.26930082 -0.12817591 0.04422146 -0.13410644
0.018795442 0.10787003 -0.098596916 -0.12815826 -0.06398235 0.29878145 -0.12761211 -0.087293014
-0.27232942 0.008311394 0.09997164 0.23993412 -0.040006854 0.20095712 0.04672432 0.13217232
-0.22680601 0.07753002 0.1581722 0.013064984 -0.17898384 0.111831374 -0.12640418 -0.0836189
-0.13872959 0.0781095 -0.115062855 -0.09938892 -0.3355472 0.25035444 -0.072744325 0.012338422
-0.1086504 0.14997207 0.06321735 -0.10577078 -0.05077303 -0.017692741 -0.028951902 -0.07051912
-0.085797444 0.12502867 -0.040953342 -0.13734883 0.10463885 -0.025962897 0.10399274 0.025839664
0.12831625 0.034782548 0.0028056426 -0.09678266 0.052014608 0.13829939 -0.047122136 -0.11610733
0.15004607 0.08477055 0.0037228304 -0.108612716 -0.055342425 0.074029274 0.08050119 0.07173262
0.08744489 -0.06585893 0.17039095 -0.11625633 -0.07928309 -0.12529114 0.0716994 -0.0813798
0.025100429 0.11762669 0.0028794203 -0.04155919 -0.016567504 0.06959717 -0.01384471 0.09738047
0.13226302 0.010609477 -0.10486418 -0.090234846 0.13646638 -0.06433062 -0.13088186 0.075122274
0.020230193 0.06037254 0.0025828497 0.081842855 -0.066957325 0.11587391 0.080232695 0.05056092
0.10295173 -0.0687247 0.16441202 -0.09467792 -0.07981271 0.121749066 -0.13124335 -0.051410098
-0.035684858 -0.07079693 0.17458026 -0.14767572 -0.004415947 -0.01797735 0.068270184 -0.05302285
0.11181595 -0.047205485 -0.009144719 -0.15133026 0.06925265 0.07467574 -0.16146164 -0.19606182
-0.07524872 0.083737485 -0.1530444 -0.05613454 0.15756232 0.12285537 -0.09192992 0.003325573
0.0720608 -0.07857251 0.13490851 -0.01940774 0.1092664 0.10641769 -0.15054533 -0.16151945
0.16051203 0.12922609 0.14116496 -0.01922743 0.06289144 -2.5849145e-05 0.07447696 0.04755122
0.18139628 0.022226749 0.021252088 0.05709473 0.026547754 -0.07128718 -0.0951501 0.117795795
-0.09178612 -0.10925528 0.11550549 -0.072808005 0.12354292 0.05556834 0.07510423 0.12391611

modality_transformers.atac.layers.0.self_attn.in_proj_bias f4 [192]
00000000: 727a 62bd 7f07 773d 3555 7d3b ee17 053b
00000010: c60b aabb 694b 0c3b f639 39bc 6e64 f1bc
00000020: 458a adbc 6dde ccba 62d6 bd3b 3b93 bd3c
00000030: 9db8 2a3c 64de 01bc ba71 15bc 42c4 e13c
00000040: 9acf ff3b 3c40 e23b fd3d c339 b8f4 bdbc
00000050: 8832 83bd e684 28bb ff46 6eba 8bc8 333d
00000060: 0de3 fab8 0ddd 9fba 685e 11bd f677 bc3c
00000070: 39be 923c fef1 5e3c acf6 3a3c b1b9 75bc
00000080: b245 0cba 6c02 8abb 522c 7abc f3b7 463c
00000090: 8248 4ebc 223c c2bc 84ba a8bc e1e2 08bd
000000a0: 85a1 9c3a b751 363d 4cf7 673c 4c7c a6bc
000000b0: 9919 f83b 2f97 02bd 0dc1 bd3a 8941 2b3b
000000c0: 853d 1cbc 11d9 2e3c f40c f9bc 20d6 a3bc
000000d0: 126d cebd bcc9 8e3a 220c 933d 6953 ac3a
000000e0: d62b f1ba f9d6 68bb 6ee1 ad3c 8d9d ce3b
000000f0: 5bff 07bc 9543 4f3c 0c0b 75bc fc95 153d
00000100: 3683 d83a 08cb 73bb f490 cd3a 9c84 093b
00000110: 068f 4eb9 0de3 27bb b088 f3ba 9be4 b43a
00000120: 4213 0f3b 9ab6 603b 39bc ef3a 973f d0bb
00000130: f678 e3b9 0244 0dbb 9bd0 483a 8e7f 813a
00000140: 6e10 18bb b320 8bbb 1de1 85ba a630 dcb8
00000150: d993 dcbb aaf4 ccbb b52d 9dbb f6f1 eab9
00000160: 505c 89bb ecf5 513a 6304 3ebb 3c01 ed3b
00000170: be83 e639 db34 9b3a 1b43 a23a ec88 ebba
00000180: b076 a2ba 8bcf 23bb cef4 db39 2c0a a13a
00000190: fb49 cbba 2222 beba 6d34 d4ba 5145 a5b9
000001a0: 7db7 2a3a 75ca 65ba 4da4 c938 df3f 4abb
000001b0: 8b48 84ba d8df cc3a b6c3 dcb9 78f8 ea3b
000001c0: ee7a 883b dc40 05b9 52a8 d83b 8a2f 4b39
000001d0: 0ede 823b 16a3 d6ba 9e4d da3a f580 c13a
000001e0: 600e a5ba 1764 3ebb a2ca 8ebb 80d6 dc39
000001f0: d084 85b9 cf80 3e3b 20b3 13bb 0295 35bb
00000200: c736 b33c 004d 19bb 8e61 73bb b6d5 4bbb
00000210: 7add 7abc 24bf 87bc e148 373a 2b94 c7bb
00000220: 1314 933b 39aa 5bbc d96f 233c f967 58bc
00000230: 3fa5 3b3c b115 c1bb d86a 06bc d34c 28bb
00000240: f3d9 70bc 0e66 62bb e875 70bc 380f 9abb
00000250: ec4e ebbb 6718 9b3b 3dfb d8bb ed2d 91ba
00000260: 23af 353c 6b70 e7bb 4400 563b b0e3 783b
00000270: 69da 99bb fe2c 19bc ee1b bd3b 927e fa3a
00000280: ec54 2f3b 2828 e03b 66f9 26bc 93f6 1bbc
00000290: 7803 7aba c7ca 053c 1e32 6bbc 0099 d3ba
000002a0: ca82 7e3b ae4c 4f3b ea84 ba3c 254e c83c
000002b0: 6a69 b1bc 6d0a 06bc a5cb 5f3a 6de9 41bc
000002c0: eccd ed3b daf7 16bb f008 01bc 542a c73b
000002d0: 2419 95bb 2c5b 263a 3b8d 0a3c a161 2dbb
000002e0: 870d 4b3c 4de6 cebc 20a7 e5bb d98b 03bc
000002f0: 850c 5ebc 6269 ac3c 63ac 02bc 0753 1bbc
-0.055292554 0.060309883 0.0038655524 0.0020308453 -0.005189392 0.0021407253 -0.011305323 -0.029466834
-0.021184096 -0.0015630253 0.0057933787 0.023141494 0.010419992 -0.007926557 -0.009121353 0.027559403
0.0078067305 0.00690463 0.00037239483 -0.02318798 -0.064061224 -0.002571398 -0.0009089559 0.043892425
-0.000119632205 -0.0012196616 -0.035490423 0.02300642 0.01791297 0.0136075 0.01141135 -0.014997886
-0.00053509616 -0.0042117145 -0.015269356 0.012128818 -0.012590529 -0.023710314 -0.02059675 -0.033419494
0.0011949992 0.044511523 0.014158081 -0.020322941 0.007571411 -0.03188246 0.0014477089 0.0026131591
-0.009536152 0.01067187 -0.030401684 -0.019999564 -0.10079397 0.0010893862 0.071800485 0.0013147417
-0.0018399905 -0.0035528524 0.021225657 0.0063054026 -0.008300628 0.01265039 -0.014956247 0.03651999
0.0016518596 -0.0037199873 0.0015683458 0.0020983582 -0.00019698971 -0.002561751 -0.0018580165 0.001380104
0.0021831547 0.0034288527 0.0018290348 -0.0063552368 -0.00043386937 -0.0021555428 0.0007660479 0.0009879933
-0.0023203152 -0.0042458414 -0.0010214184 -0.00010499479 -0.006731492 -0.006254752 -0.0047967085 -0.00044812233
-0.0041919127 0.00080093625 -0.0028994314 0.007232813 0.00043967174 0.0011841314 0.0012379618 -0.0017969883
-0.0012394991 -0.0024995531 0.0004195333 0.0012286357 -0.0015509719 -0.0014506022 -0.001618994 -0.00031522897
0.0006512327 -0.0008765825 9.61503e-05 -0.0030860824 -0.001009242 0.0015630675 -0.00042107486 0.007170733
0.004165045 -0.0001270803 0.006611862 0.00019377298 0.003993756 -0.0016375508 0.0016655212 0.0014763164
-0.0012592785 -0.0029051357 -0.004357652 0.00042121485 -0.0002546669 0.0029068475 -0.0022537187 -0.0027707224
0.021876706 -0.0023391843 -0.0037137005 -0.0031102723 -0.015311593 -0.016570635 0.0006991756 -0.006090661
0.004488477 -0.013407283 0.009975397 -0.013208383 0.011452972 -0.0058924784 -0.0082041845 -0.0025680556
-0.014700401 -0.0034545693 -0.014676549 -0.0047015212 -0.007181039 0.0047331336 -0.006621747 -0.0011076309
0.011089119 -0.007062962 0.0032653967 0.003797751 -0.004695226 -0.009349106 0.0057711517 0.0019111207
0.0026753498 0.0068407245 -0.010191297 -0.009519237 -0.000953726 0.008166022 -0.014355211 -0.001614362
0.003883528 0.0031631398 0.022768456 0.024451325 -0.02165671 -0.008181197 0.00085371203 -0.011835438
0.007257214 -0.0023035915 -0.007875666 0.006078044 -0.004550116 0.0006345983 0.0084565235 -0.0026455896
0.012393362 -0.0252563 -0.0070084482 -0.008028948 -0.01355279 0.021046344 -0.0079756705 -0.0094802445

modality_transformers.atac.layers.0.self_attn.out_proj.weight f4 [64, 64]
00000000: 098d 2abe 7b55 f4bd b425 5f3d 5718 8f3d
00000010: 0458 043c b994 023e d442 acbc 51b7 53bd
00000020: 00ba 343d 0240 483c b446 5f3b 1fa7 023e
00000030: 512e 393d b912 603c 8958 bc3d b93e 25be
00000040: 8716 80bd bb34 3fbd 4967 e33d 5567 933d
00000050: 2845 f4bd 5734 9cbd 00fd 9ebc fd88 c33d
00000060: 1af7 e9bc e309 a33d 2ace 7bbd da2e a13b
00000070: 8c0f 3d3e 854e e73d 6f06 653e ecde c3bd
00000080: 15b8 05be 6066 0a3e 2089 4ebe a576 4e3d
00000090: 6146 0abd 265d 0dbe cc09 493d aa79 a93d
000000a0: 3c3d 003e ac28 e5bd a5c1 a23d 9459 73bc
000000b0: 325b d4bd 19e9 4fbd d8fc eabc 1957 66be
000000c0: dff4 08be 87cf 8fbd 7e52 f9bc 626c 08bd
000000d0: 40ca 243d 97ec 553e 0c9c 123b 391f 1d3e
000000e0: 6bba af3d 668e 20bd 6942 cf3c 94d6 683d
000000f0: 56ab 14be 681d 263d fefe 53bc dfca 473d
00000100: 3a1b 293e 7160 933c 6d6d 22bd e7c4 5cbe
00000110: a813 61bd 9021 293e 749f 1f3e 8602 d1bc
00000120: 7575 113e c67b a43d 3793 9ebd 996e 68be
00000130: c345 75be 1c92 ec3b f6a3 103d d468 a83d
00000140: 4b03 40be 2eac 913c 8dff 86bd cfe4 28be
00000150: bc06 083d d159 21be 8f06 77bd 206b cabc
00000160: e2e6 03be 95b0 52be f698 01be f6e9 423e
00000170: 9be1 1cbe fd90 b0bd 8915 a7bd d4b2 10be
00000180: a570 4fbc 9a2d 553d 847f 3b3c 06da 27bd
00000190: 1371 533e b0e8 923d 3716 2bbe 0cfe b7bd
000001a0: 6068 1dbe c8f4 07bd 1ca2 f73c e044 b53d
000001b0: b033 113c b274 c4bb 5ee7 093e 2f23 d73d
000001c0: 3e92 95bd ae6b 87bd f86b 823b 7cdf acbd
000001d0: 5bd0 203e db7b 1dbe 9103 12be 6a79 923d
000001e0: 034c febd 524f 7fbd cb6b 963d 5402 d7bd
000001f0: 7407 5abe 7a59 283e 6865 6fbe 1677 c8bd
00000200: ea8a 44be 79ff 143d 4d68 013e b3f3 0c3e
00000210: b4c2 4a3e 8845 3ebe 4ba9 59be b715 1fbd
00000220: 3183 54bd 56e2 e33d 4633 46bd 4405 8bbd
00000230: fe77 9d3d 6719 853d 4528 84bc 32bf c13d
00000240: 2827 473e 2b26 e7bd eadb d33b 0dbd 1e3e
00000250: a673 b5bd c45c fabd 8786 dc3d e586 7b3d
00000260: 5f74 df3d a81e 13be 835f 2fbd 183e 303e
00000270: fcc5 2a3e a0eb a83c 9eb2 41be d719 463e
00000280: 3323 013d 6a5c a33d da83 763c 7c20 273d
00000290: 4d07 38be b092 203e 13c5 2b3e 8aa6 e03c
000002a0: e0c4 4f3e 168d 363d c576 4ebe e657 a3bc
000002b0: ee74 4d3e cb62 0abd f104 2d3e 197d 24be
000002c0: 0563 9c3c 9e5e 143e deee 403e 3b98 46be
000002d0: 263f 7b3e b31e 69bd 9066 5ebe 93ec db3d
000002e0: dd42 8c3d d333 4dbe deaf 8c3b 9387 cabd
000002f0: 9093 043e c5bc ee3c cc03 b53d a064 d7bd
00000300: e46e 00bd 3eb4 b73d cb52 a23d a633 de3a
00000310: 7432 8d3d 4c2d 293e c0ae 98ba a102 79be
00000320: 6083 4bbe f129 82bd a936 563e f19c 533e
00000330: e06f 0a3e 1610 c8bd 07c6 933b bbd3 61be
00000340: cd2c 8dbd 3951 383e edbd 07be 4673 afbd
00000350: 24c3 36be d2b9 393e 2b1c 1f3e a7c6 20be
00000360: 2b33 103e 6550 3d3e c4f2 423e 360a 85bd
00000370: e362 6bbe f8cd 37be 51e4 183e 4b77 353e
00000380: 43ae 7cbd 61de cd3d 3e1b 47be 9a67 0bbe
00000390: 6a99 623c e28a e73c a2cd 743d 7341 df3c
000003a0: c94a 44be be8f 4bbe 7dc7 223e 25e8 073e
000003b0: c0d9 17bd be47 90bd 0e46 2bbd d943 d9bd
000003c0: 5f66 b73d 8252 073d 2af2 1dbc ec1c f6bc
000003d0: a4be 07bb 955e ddbd 1232 f6bd ad57 3fbe
000003e0: e998 dd3d 3d02 45be 2413 153e d912 443e
000003f0: f03f d83d adda 813d 9eb1 07be 2e75 6d3d
-0.16655363 -0.119303666 0.054479316 0.06987064 0.008077625 0.12752046 -0.02102796 -0.051688496
0.044122696 0.012222292 0.0034069242 0.12759064 0.045210186 0.013676339 0.09196574 -0.16137208
-0.06254297 -0.046681147 0.111036845 0.071974434 -0.11927253 -0.076271705 -0.01940775 0.09547613
-0.02856021 0.0796087 -0.06147591 0.004918915 0.18462962 0.11294273 0.22365735 -0.09564003
-0.13058503 0.13515615 -0.20169497 0.050406117 -0.033758525 -0.13805065 0.04908161 0.08275159
0.12523359 -0.11189398 0.07947091 -0.0148529 -0.103689566 -0.05075941 -0.028685018 -0.22494163
-0.13374661 -0.070220046 -0.030434843 -0.033306487 0.040231943 0.20891033 0.0022370843 0.15343942
0.08580478 -0.0391983 0.025300222 0.056845263 -0.14518484 0.040555388 -0.012939213 0.048777457
0.16514292 0.017990323 -0.039655138 -0.21559487 -0.054950386 0.1651671 0.1558817 -0.025513899
0.14204963 0.080314204 -0.07742923 -0.2269844 -0.23952393 0.007219566 0.035312615 0.082231194
-0.18751256 0.017782297 -0.06591711 -0.16493534 0.033209547 -0.15756918 -0.06030899 -0.024709284
-0.12881044 -0.20575173 -0.12656006 0.19034562 -0.15320437 -0.08621404 -0.081584044 -0.14130718
-0.012661134 0.052045442 0.011443976 -0.040979408 0.20648603 0.07173288 -0.16707693 -0.089840025
-0.15371847 -0.033192426 0.030228667 0.088510275 0.008862421 -0.0059953565 0.13467166 0.105047576
-0.07303284 -0.06612335 0.003980156 -0.08441064 0.15704481 -0.15379278 -0.14259173 0.07152064
-0.12416842 -0.062331505 0.073447786 -0.10498491 -0.21291906 0.16440383 -0.23378527 -0.09788339
-0.19193617 0.03637645 0.12637444 0.13764839 0.19800836 -0.18581212 -0.21255986 -0.03883907
-0.051882926 0.111271545 -0.048388742 -0.06788114 0.07688902 0.06498986 -0.016132483 0.09460296
0.1944853 -0.11286577 0.006465425 0.15501805 -0.08859949 -0.12224725 0.107678466 0.061407942
0.10910868 -0.14367163 -0.042815696 0.17211187 0.16677088 0.020620167 -0.18915793 0.19345795
0.03152771 0.07976611 0.015046084 0.040802464 -0.17971535 0.15680957 0.16774397 0.027423162
0.20289946 0.044568144 -0.20162494 -0.019939374 0.20064136 -0.033785623 0.16896416 -0.16063346
0.019090185 0.14489219 0.1884112 -0.19394009 0.24535808 -0.056914043 -0.21718812 0.10738482
0.06848691 -0.200393 0.004293426 -0.0988914 0.12946916 0.029142747 0.08838615 -0.105172396
-0.031355754 0.08969925 0.07925948 0.0016952648 0.06894389 0.16521186 -0.0011648759 -0.24317409
-0.19874334 -0.06355656 0.20919289 0.20665337 0.1351924 -0.09768693 0.0045096907 -0.22053425
-0.06893311 0.17999734 -0.13256045 -0.085669085 -0.17847878 0.18137291 0.15538089 -0.1570078
0.14082019 0.184877 0.1903792 -0.06496088 -0.22986941 -0.17949665 0.14930846 0.17721288
-0.061689626 0.10052181 -0.19443986 -0.1361374 0.013830522 0.028264467 0.05976642 0.027252888
-0.19169153 -0.19879052 0.15896411 0.1327215 -0.037072897 -0.07044934 -0.041814856 -0.10608644
0.089550726 0.03303767 -0.009640256 -0.030043088 -0.0020712996 -0.10809056 -0.12021269 -0.1868579
0.10820181 -0.19239135 0.14558083 0.19147815 0.1055907 0.06340537 -0.1325135 0.05797308

modality_transformers.atac.layers.0.self_attn.out_proj.bias f4 [64]
00000000: f597 7e3c 4771 97bb 8bc1 833b 22a4 933b
00000010: e80f 853c 2fe9 d6ba f123 6d3c 7dfe 383c
00000020: 7485 43bc 37c0 033b 0268 333c 9523 17bc
00000030: 75db d9ba fa1f debb b061 4eba 9359 89bc
00000040: 70b9 323b 2fba 533c 0c35 29bb d343 f33a
00000050: c34f 9f3b 6413 febb f11c 10bc a8a0 8ebb
00000060: 35ae 573b 7f67 83bc 8bdf debb cd8d 1d3b
00000070: 3ce8 693b 4f7b 6ebc 938d fc3b d56d 3b3c
00000080: 26cf a4ba 1ae1 08bc 9106 b33c f760 8739
00000090: 0899 b23b d6ed e3bb ac41 653b 85fe 803b
000000a0: 194e af3b e8df b33c 14f6 8a3b e49f 14bc
000000b0: 8671 b9bc 1f0d ddba f456 1bbb f788 8dbb
000000c0: 482f c73b e034 debb a9aa 833c 01de b93b
000000d0: 5fe3 8d39 34e4 82bb c84f 223b 7202 94bb
000000e0: c0ce 90bc 1430 dd3b c15b 2abc a044 ccba
000000f0: dc88 15bc b005 973b 7343 ebb9 4b9c 77bc
0.015539159 -0.004621658 0.004020875 0.00450565 0.016242936 -0.0016396398 0.014473901 0.0112911435
-0.011933673 0.0020103583 0.01095009 -0.009224792 -0.001662119 -0.0067787142 -0.0007872833 -0.016766345
0.0027271174 0.012922808 -0.0025818972 0.0018559642 0.0048618033 -0.0077537764 -0.008795963 -0.004352648
0.0032910232 -0.016040562 -0.0068015507 0.0024040819 0.00356914 -0.014555766 0.0077073066 0.01143976
-0.0012573942 -0.00835445 0.021853717 0.0002582145 0.0054503717 -0.0069558425 0.003498177 0.003936591
0.005349886 0.021957353 0.0042407606 -0.009071324 -0.02263714 -0.0016864872 -0.002370295 -0.004319306
0.0060786344 -0.0067812055 0.016072588 0.005672217 0.0002706302 -0.003994489 0.0024766792 -0.004516893
-0.017676711 0.006750116 -0.010397852 -0.0015584417 -0.009126868 0.0046088323 -0.00044872946 -0.015112947

modality_transformers.atac.layers.0.linear1.weight f4 [256, 64]
00000000: 6a3b 80bc a021 bb3c 775d 01be 837a 2c3c
00000010: 60ab ecbd 80a9 1a3d 19e5 893d 005a b1bd
00000020: cd76 1f3d c03d c33d e7e3 5b3d 8c8c 0fbd
00000030: 5556 153e a03e ad3d 29bc 463c ffb7 f6bc
00000040: dbd8 20be 616d 853d bba8 fabd 467a 383d
00000050: fc99 d8bd a779 f7bd 5059 90bd fa9e fabd
00000060: d5a5 00bc 7357 c73d 6512 21bc adec fa3d
00000070: bfc5 e1bd b2d7 fdbc 498a 84bd 503a 0ebe
00000080: 6bd7 2cbd 310e ea3c 5f3e 963d ffb9 d43c
00000090: 0764 81bd 72fc bb3c 8e94 32bd d4a5 dbbd
000000a0: 5351 b6bd 39ce ffbd 03d6 6e3d 2a70 13be
000000b0: a963 33bd 1280 d8bd d021 4b3d 86f2 69bb
000000c0: 1c93 bcbd 98f0 073d a9ae 75bd 3c57 393a
000000d0: 0b00 9d3d 4a08 873d c1c9 bcbd adaf 1ebd
000000e0: d34e b63d 9755 93bd 5c65 e0bd b5a5 413d
000000f0: 37cc a13d c921 e93d 1922 c4bb f6ab 0c3e
00000100: 1749 6fbd 21fd efbd ea8d 6c3d c166 613d
00000110: daa5 0c3d 3133 f4bd 2efd 81bd fbf0 d2bd
00000120: bc82 3cbd a2b1 afbd 723b 75bd 8ce1 d7bc
00000130: 71c6 dabd 892e 7c3d a017 a93d 394a 523d
00000140: ac7c 5dba 69a5 82bd fb10 af3c df9c 633c
00000150: eb7a 493d 1748 d4bc 5e43 1abd 8db6 04bd
00000160: 2d76 f63a f9ef 9abd 1da5 30bd 9f16 2c3e
00000170: 4411 40bc 7f0c bf3d 485e ed3d 3684 35bd
00000180: fc46 49bc 468e 7dbd 61dd c7bd 5466 df3d
00000190: 18d2 6ebd 3fd5 62bc 076a d33d f9e0 7ebd
000001a0: d281 e33d 2b6f c5bd 7364 043e 3906 dbbd
000001b0: 148b 97bd f34d 5c3d 4bc9 723c cbce 21bd
000001c0: e504 a23c f6de f2bc 0df8 81bd 9d91 f0bd
000001d0: e069 263c da5c f83d cd02 6f3c cca5 40bc
000001e0: c67d 873d 7a6c adbd c537 093e bc7c 093d
000001f0: 720e 19bd 7749 023e ecba c5bd 08b7 cbbc
00000200: 1508 1cbd aee0 9d3d 6f1b 80bc 8bb5 0bbe
00000210: 8e25 283c 196c 93bc f861 bbbd a0fb 36bc
00000220: 6f31 86bd 84ac 1ebe 6371 21bd 88c7 e33d
00000230: 49d9 3cbc 9599 9abd 730d d93d 595e 123e
00000240: 54a5 d4b9 0490 343d d069 fcbc 4ce6 513d
00000250: 8dfb 0c3d f1fa 6ebd 690e a03d da6a 913d
00000260: bc6f 02bd 4d2e 4b3d 4db1 7dbd 659e 053e
00000270: 76db 5b3d 9797 d93c 5ef8 6d3d 8e65 c4bd
00000280: 7e68 a03d f680 c6bc 7031 9a3c eaa0 7f3c
00000290: a563 14bd f327 353c 22d2 663d 5a75 033e
000002a0: 8ce8 1ebd c6d8 42bd dd7c a23d d17b c8bb
000002b0: 6bc1 493c 6f86 04be 5bb4 ad3d c690 083e
000002c0: 8039 d73d 599b fd3d 15bc a33d 2dc4 083c
000002d0: 798b 1dbd a3a7 1bba a7bd 073e 9aa3 24be
000002e0: 19bb cc3d b541 5abd 4a82 2bbd c3ed 99bd
000002f0: 559c 6fbd 13a3 3dbd 4512 24bd 08c8 cc3d
00000300: e950 86bd ad21 a7ba 780d 113c 5465 a13d
00000310: c6d6 49bd abb6 b8bd 92ad 0cbe 6963 bc3d
00000320: 1482 153d 5783 743c 8d3d cbbd 7407 cfbc
00000330: 706d 733d bb4b 213e cfb4 cf3d b618 cc3d
00000340: cf68 07bd f077 aa3d 034d ca3c d0dd 4abd
00000350: 4e4c 73bd 9c84 4b3c 9267 023b 070d 1e3c
00000360: 757b 39bd 4fd5 c7bd 3cf9 9cbd a521 de3d
00000370: e6fc 0ebe 8aea a6bd 159e abbc 5e8e 6d3d
00000380: a112 c93d 968e 24bd 988b f1bd ad2f bbbd
00000390: 5fce 15bd 2247 00bc 959c bbbd b477 f83d
000003a0: a5bf 4ebd b990 afbd 96af aa3c 0f70 f0bd
000003b0: 8a75 a9bc bcde cb3d 6a7b 06be f479 98bd
000003c0: 68c3 e53d c656 f53d 279c e3bd 8a2e 353d
000003d0: 0266 17be 8b44 55bd 5e5c 453c 3af0 1e3b
000003e0: 1851 dabd 606a a43c 1f26 133d b32c a33d
000003f0: 2943 1fbe d860 94bd 067c a1bd 314a 073d
-0.01565333 0.022843182 -0.1263331 0.010527256 -0.11556125 0.037759304 0.0673315 -0.08659744
0.038931657 0.09533262 0.05368414 -0.035046145 0.14583714 0.084592104 0.012129822 -0.030117033
-0.15707724 0.06515003 -0.12239214 0.045038484 -0.10576245 -0.1208375 -0.07048285 -0.122373536
-0.007852037 0.097334765 -0.009831046 0.122521736 -0.11024045 -0.03098664 -0.06471688 -0.13889432
-0.042197626 0.02857122 0.07336115 0.025967596 -0.06317907 0.022947524 -0.043598704 -0.107249886
-0.0890223 -0.12490506 0.058309566 -0.14398256 -0.043796215 -0.105713025 0.049592793 -0.0035697534
-0.092077464 0.033188432 -0.059981022 0.0007070189 0.07666024 0.06593378 -0.09218169 -0.038741756
0.08901753 -0.07194059 -0.10956833 0.04727717 0.07900279 0.11383397 -0.00598551 0.13737473
-0.058419313 -0.117182024 0.057752527 0.055029634 0.034337856 -0.119238265 -0.06347118 -0.102998696
-0.046023116 -0.08578803 -0.059871145 -0.026352666 -0.10682381 0.061567817 0.08256459 0.051340315
-0.00084490585 -0.06379206 0.021370402 0.013892381 0.04918949 -0.025913281 -0.037661903 -0.032400656
0.001880353 -0.075653024 -0.043126214 0.16805504 -0.011722866 0.09328555 0.11590248 -0.04431554
-0.01228499 -0.06190326 -0.097590216 0.109081894 -0.05830583 -0.013844787 0.103229575 -0.06222627
0.11108746 -0.09640344 0.12928943 -0.10694546 -0.07399574 0.053785276 0.0148185 -0.039503854
0.019777725 -0.029647332 -0.0634614 -0.117465235 0.0101570785 0.12127085 0.01458807 -0.011758279
0.06615786 -0.08467956 0.1340018 0.03356622 -0.03736729 0.12723337 -0.09654793 -0.02486755
-0.038093645 0.0770887 -0.015638081 -0.13643472 0.01026286 -0.01799588 -0.091495454 -0.0111683905
-0.065523975 -0.15495497 -0.039414775 0.11122042 -0.011526414 -0.07548825 0.10598268 0.14293803
-0.0004055897 0.044082657 -0.030812174 0.05124502 0.034419585 -0.058344785 0.078152485 0.071004584
-0.03184484 0.049604703 -0.061936665 0.13048704 0.05367609 0.026561541 0.05809819 -0.095896825
0.0783243 -0.024231415 0.018822402 0.01560233 -0.03622784 0.011056888 0.056352742 0.12837735
-0.038795993 -0.047570013 0.07933972 -0.0061182757 0.012314181 -0.12941907 0.08481666 0.13336477
0.10509014 0.12383146 0.07994858 0.008347553 -0.03846309 -0.00059377606 0.1325594 -0.16078034
0.099966235 -0.05328532 -0.0418723 -0.075160526 -0.0584987 -0.046298098 -0.040056486 0.099990904
-0.06558401 -0.0012751125 0.008853309 0.07880655 -0.04927709 -0.09019216 -0.13738087 0.091986485
0.036501005 0.014923892 -0.09923849 -0.025272109 0.05943054 0.15751545 0.101419084 0.09965651
-0.033058938 0.083236575 0.024694925 -0.049527943 -0.05939894 0.012421753 0.0019898158 0.009646661
-0.045283753 -0.09757482 -0.07664725 0.10846261 -0.1396366 -0.081502035 -0.020949403 0.0579971
0.09818006 -0.040175043 -0.117942035 -0.09139953 -0.036573764 -0.007829459 -0.09160725 0.121322066
-0.050475735 -0.085725255 0.020835679 -0.117401235 -0.02068593 0.099545926 -0.13133016 -0.07445136
0.112189114 0.11979441 -0.11113768 0.044233836 -0.14785007 -0.05206732 0.012045948 0.0024252073
-0.10659999 0.020070255 0.035925027 0.0796751 -0.15552963 -0.07245034 -0.07884984 0.03302974

modality_transformers.atac.layers.0.linear1.bias f4 [256]
00000000: de86 37bb 61c0 72bb 7fe5 1dbb 8559 07bd
00000010: 412a 27bc 1d35 5dbb 9731 1d3b f437 a0ba
00000020: 3ec9 fabb 914c c0ba 1403 7ebc 75a3 37bc
00000030: 245d 01bc 3b5b a7bb 0a88 e9ba 81f5 40bd
00000040: a4c1 fdb9 5357 e9bc 643c 59bc fee9 c23a
00000050: a891 bd3b a230 5bbc bed5 c73b 24d5 9abc
00000060: a40e 15b9 d807 293d 3f48 373c d16d 293b
00000070: 7eb7 93bc 65cc 2bbc 5480 be3b bdcf edb9
00000080: 5ff1 a2ba 8369 e73b 28f6 78bc 0cce a3bb
00000090: c525 de3b 1d03 65bc dcd3 f9bb 30a1 cebc
000000a0: 48bb 063b 4d89 fb39 3d00 ba3b 6adc 02ba
000000b0: 961a e7b9 5b3e 86bc 1cc2 143c d23a 403c
000000c0: 7ae2 f739 661a 083b e91a c1bc 7b39 a4bb
000000d0: 92ce dc3b 9222 393c 5e3c 83bc eed4 c5bb
000000e0: 58ad 5fbc 8478 1a3c 41bc 56bb b32e 393c
000000f0: a085 2ebc 5b21 21bc 530a 89bc 4168 003c
00000100: 726b 1dbd 10a4 3f3c 5a95 0f3b c0a3 e83b
00000110: cf20 b7bc 3ac1 2ebc fd0f 1c3c d5c4 66bb
00000120: 1197 8abb 8c52 123c 7e4f 1cbc 62b3 8eba
00000130: 9a58 903b 9702 47bd 3b63 13bc 469b aebc
00000140: ac9b 2fbc 83fb c03c 94b8 c13b 90ac 1fbc
00000150: c43d d93b 5f53 b0ba abf8 21bc 525f 64bd
00000160: 9f54 453b 459c 8a39 f583 b73b 58ba cdbc
00000170: 4ab0 2c3c 71c6 febb 7645 86bc ff5e 793c
00000180: 0cb2 88bc fc6d b83b f2ef 35bc b31f 903b
00000190: 2c40 aabc b171 03bc 8dd1 893c 0a2c a1bc
000001a0: 354c c9bb bcf0 493c a2e2 4ebb ad8e a8bb
000001b0: 67f4 1bbc 3352 c7bc 8e6d a23b e5e5 8dbc
000001c0: 33b4 a9bc 85f3 ca3b 87ac 023b 635b 9bbc
000001d0: c23e 91bc a414 80bc 2234 b2bc f309 60bc
000001e0: 5ab3 42bc aabb 8c3a 465d dbbc 777d cc3b
000001f0: 3ad1 48bc 51e4 4d3c 849b 4c3b 0372 023d
00000200: 3c36 553d 2876 84bc 2a60 4a3b f27f bcba
00000210: d848 04bc 0c57 283c 416b a33c 809b b33c
00000220: 115e 873c d3ff 103c 6b93 2ebc 7461 07bc
00000230: 7fe9 9a3c 0530 ef3a a1d8 70bc 9b35 363c
00000240: 0ce6 59bb f00c 4e39 23bf 8239 41c9 1abc
00000250: 71b6 56bb 782d 55bb 5b63 98bc 5b1b 93bb
00000260: e429 043c 4221 9abc b500 23bb 93fe 553c
00000270: cbc9 7cbc ba76 09bc 4235 093c d855 9a3b
00000280: 0a70 193b 9c7d 083c c58d 7b3c a7a4 63bb
00000290: 369b b33c c9e0 13bc a7b3 57bc 7385 b1bc
000002a0: 0bbf deba f8ed 7a3c c72a 3abc 00bb 023c
000002b0: f6bf 74bc 0446 213c 1987 b5bb 0046 c13a
000002c0: 0799 803b ea2c b8b9 4464 9abc bd79 86bc
000002d0: 5bbc 35bc 9a49 b5bb 885b 2cbb f038 b8bc
000002e0: cd14 5d3a ef05 6abc 174a 25bb e5ea 61bc
000002f0: 47ec 3a3c 20bd 1eba afd5 24bc 7b46 d33a
00000300: 7cc3 ce3c ff13 3a3b fda1 bebc 1092 babb
00000310: 85ef a6bc c932 d7bb ff43 033c 560c f7bc
00000320: 7ea3 f03c 45ba 97bc 9dde a03b 4554 d13b
00000330: bb25 85bc 7182 2e3c 2cfb 35bc 0aa9 d13b
00000340: 9c74 06bb 6279 8dbc 6381 8ebc 0f1a a3b8
00000350: 32f0 053b 4004 963c 3a04 39bc 1ab3 66ba
00000360: 2d85 66bc 1cf9 413b 9a80 be3c 3aba 16bd
00000370: f516 123d bdff 56bc 7d80 63bb 98ae 5abc
00000380: a78f 203c 1a2e ca3b f9d6 80bc 59ef f8bc
00000390: 14d4 41bb 1355 8b3c 0a0e c9bc 5d2f 99bb
000003a0: c19c 863a 5e28 a6b9 310a adbc 0a35 2bbc
000003b0: a456 12bc 77f5 ce3b deaf a2bc f3fa 5c3c
000003c0: 7bdc 2c3c 0437 f7bb a56a 96bc 8bb4 17bc
000003d0: 9920 9ebc a19c 83bc 664d c6bc 1050 83bc
000003e0: f6d1 d4bb 5c13 3fbc 0529 08bc bf17 443c
000003f0: 26b0 e33c 109f d6bb ddfa 03bb f0ac 8fbb
-0.002800397 -0.0037040936 -0.002409309 -0.033044357 -0.010202945 -0.0033753582 0.0023985857 -0.0012223707
-0.0076533845 -0.0014671256 -0.015503664 -0.011208405 -0.007895742 -0.005107311 -0.0017817032 -0.04710913
-0.00048400194 -0.028484022 -0.013259027 0.001487076 0.005785186 -0.013378294 0.006098478 -0.018900461
-0.00014215201 0.041267246 0.011186658 0.002585281 -0.018031832 -0.010485743 0.0058136377 -0.0004535894
-0.0012431553 0.0070621385 -0.015195407 -0.004998928 0.006779405 -0.013977793 -0.0076241326 -0.025223345
0.0020558406 0.00047976748 0.005676298 -0.00049919507 -0.00044079561 -0.016387155 0.009079482 0.011732774
0.0004728025 0.0020767688 -0.023572402 -0.005011735 0.0067384923 0.011299746 -0.016019996 -0.006037346
-0.013652168 0.009428147 -0.0032766017 0.011302638 -0.010651976 -0.009834613 -0.016728556 0.007837356
-0.038432546 0.01169683 0.0021909089 0.0070995986 -0.022354512 -0.010666186 0.009525296 -0.0035212536
-0.0042294343 0.0089308135 -0.009540437 -0.00108872 0.0044050934 -0.048586454 -0.008995826 -0.021314275
-0.010718267 0.02355743 0.005911896 -0.009745732 0.0066296775 -0.0013452581 -0.009885947 -0.055754967
0.0030110253 0.0002643784 0.0056004473 -0.02511327 0.010540077 -0.007775121 -0.016390543 0.015220403
-0.016686462 0.0056283455 -0.011104571 0.00439831 -0.020782553 -0.008022712 0.016823554 -0.01967432
-0.006143118 0.012325462 -0.003156819 -0.0051439614 -0.009518719 -0.024331188 0.0049569076 -0.017321536
-0.020715808 0.0061935806 0.001993926 -0.018964475 -0.01773012 -0.015634842 -0.021753374 -0.013674247
-0.011883581 0.0010737081 -0.026777875 0.0062405425 -0.012256915 0.012566642 0.0031220624 0.03184701
0.052053675 -0.016169623 0.0030880072 -0.0014381392 -0.008074008 0.01027466 0.019948604 0.021924734
0.016524347 0.008850056 -0.010655264 -0.008262981 0.018910168 0.0018248564 -0.014700086 0.011121179
-0.003324869 0.0001965051 0.0002493794 -0.009447397 -0.0032762552 -0.0032528322 -0.018602064 -0.004489345
0.008066628 -0.018814687 -0.0024872248 0.0130611835 -0.015428971 -0.008390123 0.008374514 0.0047099404
0.0023412728 0.008330729 0.015353625 -0.0034735592 0.021924596 -0.009025761 -0.013165391 -0.021670079
-0.0016994191 0.015315525 -0.011362738 0.007979155 -0.014938345 0.009843353 -0.0055397865 0.0014745593
0.0039244923 -0.00035128678 -0.018846639 -0.016415471 -0.011092271 -0.0055324556 -0.0026299674 -0.022488087
0.00084335805 -0.014283641 -0.0025221163 -0.013788913 0.011408872 -0.00060554035 -0.010060712 0.0016119027
0.025239699 0.0028393266 -0.023270601 -0.0056936815 -0.020377884 -0.0065673334 0.008011817 -0.03015725
0.029374834 -0.018521437 0.00490935 0.0063882195 -0.016253343 0.010651217 -0.011107247 0.006398325
-0.0020516282 -0.017269794 -0.01739568 -7.7772995e-05 0.0020437357 0.018312573 -0.011292512 -0.0008800492
-0.0140698375 0.0029597944 0.023254681 -0.036798693 0.035666425 -0.013122496 -0.0034714036 -0.01334729
0.009799874 0.0061700465 -0.015727507 -0.030387567 -0.0029575871 0.01700834 -0.024542827 -0.0046748356
0.0010270105 -0.00031692063 -0.021123024 -0.010449657 -0.00893179 0.006315883 -0.01985925 0.013487565
0.0105506135 -0.0075444 -0.018361399 -0.009259353 -0.019302653 -0.016065897 -0.024206828 -0.016029388
-0.006494756 -0.0116623305 -0.008310561 0.011968552 0.027793955 -0.0065497234 -0.002013854 -0.0043846294

modality_transformers.atac.layers.0.linear2.weight f4 [64, 256]
00000000: 3b18 aebd 576c f7bd 77d2 b4bd 42a5 cd3d
00000010: 4b0a 163c 9e8d 35bc 0d3f 4a3d 133c 48ba
00000020: f485 323d 2983 ccbc f639 8fbd f54c 4abb
00000030: 0674 00be 029a 893d 49ba 01be 9427 c93d
00000040: a197 a7bc 8f6e eebd e634 a4bd 0d81 d23d
00000050: be34 b9bc 91bf 3ebd 311e a5bc e3c4 5b3b
00000060: a9b2 85bb 4e0b 57bd 6285 d13d c2de fcbd
00000070: 0620 9f3d 46ea 2fbd 449a 75bc 56c1 16be
00000080: ed63 5fbd d68b af3d c90a 563c 163a 28be
00000090: f9d6 a4bd 2864 0c3d e979 25bd cfaa acbd
000000a0: b455 00be b96a a8bc cadc 16be 675d 6b3d
000000b0: e469 57bd 3f8e 6a3d 4968 92bd 3a33 353d
000000c0: 38ff 803d 7dd2 393d e30d 32bd 581c cb3d
000000d0: 589e b53b fd5a 99bd 09af 89bd c1ec f0bd
000000e0: 1804 60bd 786d 4bbd 1030 12bd ca93 343d
000000f0: d172 983d 02ac b93d e540 9d3d 0acb ce3d
00000100: 3c1e ddbc 5b7c 423d 5c2d 17be 4069 83bd
00000110: 4cba 543d d406 643d d062 e43d c240 b4bd
00000120: b3e8 f03d bd9f 0dbe 66e6 d53d 3e2e 43bd
00000130: 8ff4 dbbc 0ba2 013e fa5e 003e 949e fb3d
00000140: 1e40 e43c 5c98 293e bfb0 babd c6d6 d7bd
00000150: 4cb9 5dbd 32e9 a33d 0594 bbbd f589 613d
00000160: 44ab 42bd 68c3 693d 4cfe cd3d 0886 423d
00000170: 7a13 9d3d 3d68 a13d 4d18 5b3c e722 663b
00000180: c3de 643c 4e68 1e3d 3999 05bc 3c97 7e3d
00000190: f7f8 9cbd 809e e83b 698d 6bbc ca3e e1bd
000001a0: 94e0 9b3d 6789 c7bd 045c 99bd 5010 873c
000001b0: a051 d0bd 8a86 3ebd d2d7 783d 3080 c5bd
000001c0: 9f6f 9d3c 06e5 da3c ad9d 813d aa4a b1bd
000001d0: 0fad 26bd 2b02 8fbd 6d52 c53d 9944 bdba
000001e0: c5f9 cd3d e2f1 03be d4aa e7bd 2927 b0bd
000001f0: 9bae 82bc 858e a83d 365b 5f3d 53c9 723d
00000200: d1e5 23be b06e ed3c 5ab2 0fbe 3dcf 67bd
00000210: 1ef4 d9bd eeb4 303d 6830 0cbe 61cc f1bd
00000220: f1d5 183e 84f5 bebc fadd 5bbd 01aa f63d
00000230: 8274 4abd 497c 36bd 0b62 03bd 8b14 dd3b
00000240: 3821 b63d 06cc 61bd 5ac7 d0bb 68e4 fe3d
00000250: f155 d03d afd4 b7bd a9ee f43b 2af6 c0bd
00000260: b7a9 1b3d 4e06 30bd 74b2 c2bd f955 18be
00000270: b736 ee3d 70ab ecbc 5625 bb3a f33e 833c
00000280: 1472 54bd 4529 fe3d fbc3 35bd 9f43 1b3d
00000290: 82c2 08bd ade4 433d a375 00be 9e8c 72bd
000002a0: e0d8 f83d 1d05 b2bd e754 9a3c 1010 2d3d
000002b0: 064e b7bd 893d 18be fb0f 163c 5f94 2abd
000002c0: 51a1 24be e1a6 f2bc 9021 94bd ae12 d4bd
000002d0: f40b b83d 5ff7 23bc ed9a ecbd cf06 923d
000002e0: 41a1 aa3c 0104 c53d df9a a5bc aec5 a8bd
000002f0: dfb5 5cbd dc4e 833d e1c4 dc3c 265d 86bd
00000300: f3c0 8fbd c3d4 14be 13bc a3bd 8823 ae3c
00000310: bb75 d6bd ef9f c33d 1d94 a8bd 76e9 bc3b
00000320: f22a 8d3d 1af2 c0bc 43eb e0bd 9aa9 0cbd
00000330: 3fbe 80bd 5bdc d3bd 3640 063c 9824 16be
00000340: 2dba ad3d 50c8 b63c a21d 98bd c308 de3d
00000350: f4ca 00be acc7 423d 5930 b13d 161c 02bd
00000360: 8f10 2dbd 2071 cfbd 605e 86bd fdd5 88bc
00000370: b68d 3c37 34ff 00be 0cf7 c33d 9d01 05be
00000380: 085b 893a 8ac9 c93c 6b7a 9ebd dacf bf3d
00000390: 7871 223d 4ae4 c63c dfef d3bd b96d dd3c
000003a0: 41cd 20bd a2f0 ccbd bd26 24bd d91d 7c3d
000003b0: 97c7 493c 0af5 c2bc 1ede 893d 4661 63bd
000003c0: 87ca babd f74c b5bd b5d4 91bd 882e b2bd
000003d0: ed84 263d e002 ce3d 7088 ee3d 411c 88bd
000003e0: ca62 bfbc 8360 27bd 8bf9 f33a 56fd c9bd
000003f0: a385 0cbe f10f d73d 13e6 10be 9a27 e6bc
-0.08500715 -0.12081211 -0.088292055 0.10041286 0.0091577275 -0.011081127 0.049376536 -0.0007638346
0.04358478 -0.024964886 -0.06993477 -0.0030868624 -0.1254426 0.06718828 -0.12668718 0.09822002
-0.020458044 -0.11642181 -0.08017902 0.10278521 -0.022608157 -0.04656941 -0.020155998 0.0033534102
-0.004080136 -0.052501015 0.10230519 -0.12347175 0.0776978 -0.04294803 -0.014990393 -0.1472219
-0.054538656 0.085715935 0.013064095 -0.16428408 -0.08048815 0.034275204 -0.040399466 -0.08431017
-0.12532693 -0.020558702 -0.14732662 0.057462122 -0.05259122 0.057264563 -0.07148797 0.044238307
0.06298679 0.045366753 -0.043470275 0.099175155 0.0055425577 -0.07488058 -0.067228384 -0.11763907
-0.054691404 -0.049664944 -0.035690367 0.044086255 0.074437745 0.09066011 0.07678393 0.100973204
-0.026991956 0.047481876 -0.14763397 -0.06416559 0.05193548 0.055670574 0.111516595 -0.08801414
0.11763134 -0.13830467 0.10444336 -0.04765152 -0.026850013 0.1265947 0.1253623 0.12286106
0.027862605 0.16562027 -0.09115743 -0.10539012 -0.05413179 0.08003463 -0.09159092 0.055063207
-0.047526613 0.05707112 0.10058269 0.047491103 0.076697305 0.0788121 0.013372493 0.0035116018
0.013969126 0.03867369 -0.008154207 0.062155947 -0.07664674 0.007098973 -0.0143769765 -0.10998304
0.07611194 -0.09743004 -0.07488254 0.01648727 -0.10171819 -0.046515025 0.060752697 -0.096435905
0.019218264 0.026720535 0.063289024 -0.08656819 -0.040692385 -0.069828354 0.09634862 -0.0014439999
0.100574054 -0.1288524 -0.1131188 -0.08601219 -0.015952399 0.082303084 0.054530345 0.05927403
-0.16005637 0.028983444 -0.1403288 -0.056594122 -0.10642265 0.043141298 -0.1369034 -0.1180656
0.14925362 -0.02331043 -0.05367849 0.120441444 -0.049427517 -0.04455212 -0.032075923 0.0067468337
0.08893055 -0.055126213 -0.006371421 0.12445909 0.10172642 -0.08976113 0.0074747396 -0.09421952
0.03800365 -0.042974763 -0.095066935 -0.14876546 0.1163153 -0.028890342 0.0014278095 0.016021227
-0.051866606 0.12410215 -0.044376355 0.037906285 -0.033388622 0.047825504 -0.12544875 -0.059216134
0.121507406 -0.086923815 0.018839313 0.042251647 -0.08950429 -0.14867224 0.0091590835 -0.041645404
-0.16077162 -0.02962059 -0.07232964 -0.10355125 0.08986655 -0.010007708 -0.11552987 0.07130205
0.020828845 0.09619904 -0.02021545 -0.082408294 -0.053884383 0.064115256 0.026949348 -0.065607354
-0.07019224 -0.14534287 -0.07994857 0.021257177 -0.10471674 0.09551989 -0.08231375 0.0057651354
0.06892957 -0.023552943 -0.109823726 -0.034341432 -0.062862866 -0.10344764 0.00819402 -0.14662397
0.08482776 0.022312313 -0.07427527 0.10841515 -0.1257742 0.047553703 0.086518 -0.031765066
-0.04225212 -0.10128999 -0.06560969 -0.0167036 1.1238668e-05 -0.12597352 0.09568605 -0.12988897
0.00104794 0.024632234 -0.07738193 0.093658164 0.039658993 0.024278779 -0.10348486 0.027029859
-0.039258245 -0.100068346 -0.040076006 0.061551902 0.012315652 -0.023798484 0.067318186 -0.05551269
-0.0912066 -0.088525705 -0.07120649 -0.087002814 0.04065411 0.10059142 0.11647117 -0.06646014
-0.023362536 -0.040863525 0.0018613798 -0.09862773 -0.13722853 0.105010875 -0.14150266 -0.028095055
