ml_output/CA1-ProS_Glut/atac/model_0.pth (torch, 474380 bytes, 48 tensors)

query f4 [1, 64]
2.0475755 -0.3526359 -0.626449 0.55526686 -0.22079988 0.019640338 0.6835311 -1.6642483
-1.2928584 0.15699682 0.031242387 -0.18409835 -0.36333236 0.5026656 0.106911674 0.84425104
-0.15553327 0.9419007 -0.6162215 -0.105536036 -0.40879208 -2.0697865 1.30931 -0.86709636
0.4317093 -0.9051631 -0.29600984 0.102132544 -2.7612512 -1.1603663 1.1941694 -1.8901489
1.0162711 1.9857721 -1.4480809 -0.55497336 1.5764071 0.3518975 1.091522 -0.6001031
-1.3151788 -0.502155 1.0015781 -1.6939908 0.19833276 1.0474236 0.010019124 -0.59236175
0.06862607 1.0391821 0.55212 -0.8788924 -2.7412696 0.8898383 -0.6094047 0.838149
-0.10866887 -2.0750885 0.33414304 -0.76998705 2.1193337 -1.0638895 -0.7963196 -2.820241
00000000: 7a0b 0340 b18c b4be f65e 20bf f825 0e3f
00000010: 5d19 62be c6e4 a03c e5fb 2e3f 1706 d5bf
00000020: 627c a5bf c6c3 203e 09f0 ff3c 4784 3cbe
00000030: b306 babe b1ae 003f 82f4 da3d d620 583f
00000040: 1d44 1fbe 6720 713f b1c0 1dbf 4723 d8bd
00000050: 324d d1be 6277 04c0 7897 a73f 07fa 5dbf
00000060: 0009 dd3e c5b8 67bf 9a8e 97be de2a d13d
00000070: 57b8 30c0 e286 94bf 8bda 983f 66f0 f1bf
00000080: 2c15 823f c82d fe3f b75a b9bf bc12 0ebf
00000090: b5c7 c93f e92b b43e feb6 8b3f 5ba0 19bf
000000a0: c757 a8bf 3b8d 00bf b633 803f b1d4 d8bf
000000b0: be17 4b3e fa11 863f 4027 243c 05a5 17bf
000000c0: d38b 8c3d eb03 853f bc57 0d3f 18ff 60bf
000000d0: f670 2fc0 71cc 633f f201 1cbf ef90 563f
000000e0: c98d debd 40ce 04c0 cc14 ab3e df1d 45bf
000000f0: 2aa3 0740 882d 88bf 9adb 4bbf d47e 34c0

cls_embeddings.atac f4 [1, 1, 64]
0.07256696 -0.5852125 0.35831514 -1.2465355 -0.5763685 0.7888635 1.2895755 0.46384645
1.6614645 -0.23146999 0.11371209 1.7431741 0.7655033 -0.2430763 0.2210263 -0.6646254
-0.92282337 0.53494245 1.854362 1.2508438 -0.09093443 -0.59475195 -0.7781679 0.4612578
0.3644814 1.0719835 -1.8767583 1.6040394 0.021147016 -0.5971916 2.1749444 -1.6994808
0.16592766 -0.17179802 0.4812442 -0.7789031 1.6425773 -0.017346313 -0.32469252 -0.15307434
1.095155 1.5018255 3.0329666 0.1400917 0.6289319 0.7081205 0.37676045 -1.5060487
0.2355972 0.28166553 0.29725185 0.7426926 1.3616755 -0.03183357 -0.81487614 0.7031583
-1.41199 -1.171739 -0.37275305 -1.3348546 1.2448817 0.29183668 0.15880744 0.2513225
00000000: fc9d 943d 7dd0 15bf 1575 b73e 7a8e 9fbf
00000010: e38c 13bf f5f2 493f cf10 a53f 487d ed3e
00000020: deaa d43f 7806 6dbe e2e1 e83d 5420 df3f
00000030: 06f8 433f fee8 78be b854 623e e424 2abf
00000040: 273e 6cbf fdf1 083f bc5b ed3f a61b a03f
00000050: d53b babd aa41 18bf 0336 47bf fb29 ec3e
00000060: 4e9d ba3e c136 893f 9e39 f0bf 2a51 cd3f
00000070: 823c ad3c 8ce1 18bf 4a32 0b40 9688 d9bf
00000080: f1e8 293e d2eb 2fbe a465 f63e 3266 47bf
00000090: f93f d23f db19 8ebc 193e a6be 85bf 1cbe
000000a0: 0a2e 8c3f d13b c03f 201c 4240 3374 0f3e
000000b0: ae01 213f 6347 353f bfe6 c03e 34c6 c0bf
000000c0: 6440 713e 7736 903e 6531 983e 1a21 3e3f
000000d0: 624b ae3f eb63 02bd b99b 50bf 2f02 343f
000000e0: 17bc b4bf 8bfb 95bf 7dd9 bebe 84dc aabf
000000f0: 4958 9f3f 9e6b 953e 6b9e 223e 58ad 803e

modality_embeddings.atac.weight f4 [64, 9]
-0.13308789 -0.25287935 0.056760114 0.025307894 -0.25459024 -0.05779206 0.012647754 0.057684593
-0.036799993 0.008585053 -0.055201 0.07435308 0.156925 -0.05051681 0.18854475 0.29709578
-0.09415176 -0.28717977 0.057850957 0.18826285 0.19640425 -0.112551466 0.112695046 0.2625182
-0.13570757 -0.23144789 -0.09431698 0.24563253 -0.0792964 0.00032396382 -0.008952205 0.14522879
-0.033028614 -0.008978232 -0.18691339 0.01942139 -0.25243178 -0.31399533 -0.04720654 0.15621895
-0.10801352 0.03665036 -0.01675815 0.120203316 -0.20060086 -0.028582642 -0.29287702 -0.04767866
0.2461581 -0.21007352 0.10778088 0.1678684 -0.3019867 0.17352319 -0.23411846 -0.22908081
-0.113780156 -0.096916065 0.21496303 -0.019074015 -0.02565722 -0.25363612 0.1066683 0.18439525
0.2231328 -0.04773683 0.054176476 0.3119601 0.16263455 -0.23656343 -0.023408236 -0.15972327
0.11441673 -0.27046385 0.011706288 -0.07305675 0.07451517 -0.076074675 0.081940725 0.08209577
-0.15155803 -0.15263063 -0.011105515 0.23881057 -0.13903286 -0.21020083 -0.05342005 -0.11886987
0.057750605 0.010119224 -0.3502661 -0.30641025 -0.1617937 0.23224992 -0.008475913 0.12319975
-0.024682166 -0.024972579 -0.062363055 0.078956544 -0.028539894 0.14170846 0.15739477 0.15037952
-0.015623878 -0.08844197 0.18581606 0.03155684 0.1015277 0.29373443 0.00966864 -0.1337974
0.025026284 -0.31391406 -0.09648732 0.16964577 0.17707165 -0.09867503 0.058445197 -0.18579529
0.23578584 -0.08936482 0.19296701 -0.21361174 -0.024288509 -0.13564208 -0.13794722 0.24150084
0.27378345 -0.070664294 -0.049254186 0.19918418 0.07072525 -0.20807256 -0.07374428 -0.25974447
-0.20082092 -0.15246986 0.013816358 0.062733285 0.09729231 0.058043614 -0.05972692 -0.1276386
-0.16634724 0.092086256 -0.25879762 0.1373972 -0.0709788 -0.20784849 -0.20104569 0.13860603
-0.19766876 -0.15016429 -0.036746543 -0.23877168 -0.003526857 -0.10813129 -0.24793327 -0.047533754
0.16970804 0.13669653 -0.2129849 0.04434109 0.07803992 0.18570544 0.026012946 -0.11980392
0.08074697 -0.22540364 -0.17474537 -0.03146546 -0.21061979 -0.20645669 0.15132461 -0.045201138
0.021747116 0.03400825 -0.021408945 0.07644869 0.25629985 0.27469015 0.07408037 0.10994753
-0.009546266 -0.1817832 0.047779657 0.15600917 0.06380714 0.038266126 0.20715705 -0.060224365
-0.15215011 0.18038976 -0.16939434 -0.27821574 0.16217084 0.03266735 -0.18976054 0.15891886
0.2539169 -0.29898366 0.253582 0.21821727 0.19447796 -0.12587589 -0.0401493 -0.27826333
0.14335114 -0.008382653 -0.045279223 0.27105972 0.090428814 -0.32027385 0.1627363 0.034141093
0.05635143 -0.0519203 -0.19869603 0.12460215 0.020905675 -0.35960826 0.13184217 0.16379902
0.01011555 0.18666963 0.21217026 -0.20311446 0.029012552 -0.2630879 -0.23357797 0.18261102
0.2292393 0.06694218 0.13908753 -0.12998895 0.025657732 0.12826352 0.050560217 0.33909774
-0.19471991 -0.1050824 -0.10762076 0.15692765 0.02281021 -0.06741517 0.0114710545 0.19653425
0.09899727 0.032623753 -0.2707918 0.0073490357 -0.13882074 0.281249 0.16392791 0.06774415
00000000: 3148 08be 6779 81be 4b7d 683d 8052 cf3c
00000010: a759 82be 5eb7 6cbd 8638 4f3c ae46 6c3d
00000020: 97bb 16bd 52a8 0c3c 721a 62bd 6d46 983d
00000030: f2b0 203e b7ea 4ebd e011 413e f01c 983e
00000040: a3d2 c0bd 3a09 93be 20f5 6c3d fac7 403e
00000050: 321e 493e 6281 e6bd a9cc e63d c968 863e
00000060: edf6 0abe ad00 6dbe 4329 c1bd 1887 7b3e
00000070: 2766 a2bd b0d9 a939 45ac 12bc dbb6 143e
00000080: 0349 07bd 6f19 13bc 3966 3fbe 9b19 9f3c
00000090: bd3e 81be ffc3 a0be a55b 41bd dcf7 1f3e
000000a0: 3136 ddbd b01e 163d 6348 89bc 282d f63d
000000b0: 506a 4dbe 2526 eabc faf3 95be b34a 43bd
000000c0: de10 7c3e 831d 57be 39bc dc3d b2e5 2b3e
000000d0: 009e 9abe 10b0 313e c0bc 6fbe 2994 6abe
000000e0: 9205 e9bd ee7b c6bd 451f 5c3e 1c41 9cbc
000000f0: 172f d2bc 98dc 81be e974 da3d 1cd2 3c3e
00000100: ed7c 643e b287 43bd 27e8 5d3d 3cb9 9f3e
00000110: ac89 263e af3d 72be a1c2 bfbc 7f8e 23be
00000120: 5253 ea3d 3d7a 8abe bbcb 3f3c c79e 95bd
00000130: 699b 983d 0acd 9bbd 8ad0 a73d d421 a83d
00000140: 0732 1bbe 344b 1cbe e8f3 35bc c28a 743e
00000150: a15e 0ebe e33e 57be fbce 5abd 0c72 f3bd
00000160: e68b 6c3d 1acb 253c 1456 b3be cee1 9cbe
00000170: 3fad 25be ecd2 6d3e 8ede 0abc 2750 fc3d
00000180: 4132 cabc 4b93 ccbc 6770 7fbd f8b3 a13d
00000190: 7fcc e9bc 061c 113e 182c 213e 17fd 193e
000001a0: 4bfb 7fbc 1021 b5bd 9146 3e3e bf41 013d
000001b0: c1ed cf3d 5c64 963e 3769 1e3c 3002 09be
000001c0: ec03 cd3c 58b9 a0be 259b c5bd 9fb7 2d3e
000001d0: 4552 353e 2216 cabd 3b64 6f3d 1f41 3ebe
000001e0: d871 713e e704 b7bd 2599 453e 09bd 5abe
000001f0: b2f8 c6bc c2e5 0abe 0942 0dbe ff4b 773e
00000200: 582d 8c3e 71b8 90bd c2be 49bd f0f6 4b3e
00000210: 66d8 903d f910 55be 3e07 97bd 3afd 84be
00000220: 00a4 4dbe 0f21 1cbe 015e 623c 4f7a 803d
00000230: 3141 c73d 24bf 6d3d 37a4 74bd b1b3 02be
00000240: ee56 2abe b897 bc3d 1f81 84be dab1 0c3e
00000250: 555d 91bd 3cd6 54be ecde 4dbe bdee 0d3e
00000260: ae69 4abe abc4 19be 8b83 16bd 9080 74be
00000270: d722 67bb f073 ddbd 38e2 7dbe c1b2 42bd
00000280: f2c7 2d3e 2dfa 0b3e b718 5abe 019f 353d
00000290: 65d3 9f3d 9129 3e3e 1a19 d53c c25b f5bd
000002a0: ab5e a53d 36d0 66be 73f0 32be ede1 00bd
000002b0: b7ac 57be 6269 53be d7f4 1a3e d424 39bd
000002c0: 0227 b23c 3c4c 0b3d d061 afbc 2191 9c3d
000002d0: bc39 833e 30a4 8c3e 73b7 973d 2c2c e13d
000002e0: f167 1cbc 6025 3abe 9ab4 433d dec0 1f3e
000002f0: 51ad 823d f1bc 1c3d fa20 543e d3ad 76bd
00000300: 3dcd 1bbe 18b8 383e b675 2dbe 4b72 8ebe
00000310: 1d10 263e 33ce 053d 9650 42be a0bb 223e
00000320: 6501 823e 6314 99be 80d5 813e 5974 5f3e
00000330: 3b25 473e 9ce5 00be 9873 24bd 8878 8ebe
00000340: a4ca 123e 6557 09bc b576 39bd 57c8 8a3e
00000350: be32 b93d effa a3be 58a4 263e 88d7 0b3d
00000360: c2d0 663d 61aa 54bd f976 4bbe 692f ff3d
00000370: 6142 ab3c 931e b8be a201 073e eeba 273e
00000380: b1bb 253c 5326 3f3e 2943 593e 3dfd 4fbe
00000390: bbab ed3c 75b3 86be 102f 6fbe 62fe 3a3e
000003a0: b5bd 6a3e fb18 893d f66c 0e3e d31b 05be
000003b0: 2a30 d23c 8357 033e 3b18 4f3d 389e ad3e
000003c0: a864 47be 7135 d7bd 4668 dcbd a4b1 203e
000003d0: 7adc ba3c f710 8abd 17f1 3b3c 4640 493e
000003e0: 15bf ca3d 7ca0 053d 39a5 8abe 2ed0 f03b
000003f0: 0627 0ebe deff 8f3e b8dc 273e 72bd 8a3d

modality_embeddings.atac.bias f4 [64]
-0.022135999 -0.058881227 0.059138734 0.032267623 -0.05738854 -0.065538615 0.030401543 0.07431531
0.038385287 0.060176168 -0.06046471 0.0035336935 0.025129355 0.026953615 0.014331762 -0.032925144
0.044650164 0.009871237 0.03233001 -0.047094893 -0.054884646 0.08057388 -0.025136124 0.07058274
-0.058798794 -0.079111665 0.06587821 0.019302914 -0.059453752 -0.06405136 -0.008954508 -0.03266931
0.048400253 -0.085898325 -0.0045510638 -0.004281536 0.06571328 0.032170556 -0.046346996 0.032284107
-0.0327376 0.05702465 -0.017999763 -0.0031927614 0.06867321 0.042214476 -0.043428637 0.00735945
-0.07024038 0.034724247 0.07195323 -0.007235295 -0.017465333 0.053310618 -0.059544608 -0.07782937
0.05924296 -0.04817898 0.047431562 -0.023529014 0.088038564 0.04718212 -0.027746497 -0.07600356
00000000: 8e56 b5bc 712d 71bd 753b 723d 0e2b 043d
00000010: 3f10 6bbd 1c39 86bd a80c f93c a032 983d
00000020: e439 1d3d 497b 763d d8a9 77bd 8a95 673b
00000030: 14dc cd3c d4cd dc3c c4cf 6a3c 84dc 06bd
00000040: 17e3 363d f8ba 213c 796c 043d 93e6 40bd
00000050: b9ce 60bd eb03 a53d 46ea cdbc af8d 903d
00000060: 01d7 70bd 4c05 a2bd 28eb 863d 2521 9e3c
00000070: c785 73bd 5c2d 83bd eeb5 12bc 41d0 05bd
00000080: 583f 463d 76eb afbd 1721 95bb 214c 8cbb
00000090: af94 863d 46c5 033d 59d6 3dbd 573c 043d
000000a0: dd17 06bd ae92 693d 3d74 93bc a63d 51bb
000000b0: 8aa4 8c3d 16e9 2c3d 3ae2 31bd 8b27 f13b
000000c0: 30da 8fbd 033b 0e3d 375c 933d 0e16 edbb
000000d0: 7513 8fbc 3c5c 5a3d 0ce5 73bd 0165 9fbd
000000e0: bfa8 723d 5257 45bd 9947 423d ebbf c0bc
000000f0: 904d b43d 0a42 413d 9f4c e3bc c1a7 9bbd

modality_transformers.atac.layers.0.self_attn.in_proj_weight f4 [192, 64]
0.02933117 0.07974751 -0.062079236 0.044148922 -0.14771171 0.0046851 -0.009938913 -0.070147045
0.12490501 -0.14847976 0.012362294 -0.06847365 0.22160068 -0.060799915 0.056286786 0.12119137
-0.00055223826 0.18443316 -0.09544454 0.021072684 -0.011448377 0.043638557 0.1200952 0.04392104
0.20503359 0.26941392 -0.10236562 -0.08294177 0.06562076 -0.030728046 0.08165751 0.16600357
0.114174746 -0.04837352 -0.14480257 -0.17106925 -0.06722124 0.10791181 0.23286045 -0.28393203
0.028150901 0.15683153 0.038769554 0.13814364 -0.04647692 -0.060587313 -0.03506577 -0.09832102
0.1670651 0.12616949 -0.046292428 0.2004909 -0.029422319 -0.11091877 -0.057035375 -0.039996445
-0.2123692 -0.018827759 0.028508352 0.052659936 -0.13134237 -0.109035805 -0.07043557 0.15441859
0.12697144 -0.029741593 -0.12537992 -0.102484055 0.018386917 -0.15590791 0.095257714 -0.081510276
0.101357184 0.046829045 0.078029506 -0.15546203 -0.043070614 0.13207497 0.024846176 0.13694878
0.13733749 -0.11248018 0.018148255 0.014530903 -0.12991151 -0.040489484 0.14648329 -0.04031442
0.12553342 0.0016298419 -0.049077857 -0.088788226 -0.04506341 0.0396638 -0.094416924 0.07145418
0.07748864 -0.10817151 0.09978422 0.15708713 0.0039389487 -0.05466685 -0.089632 0.05874571
0.018429546 -0.093655266 -0.108673394 -0.081150405 -0.027463187 -0.13160801 -0.022500573 0.15074284
0.043353647 0.023857372 0.058500715 0.122857414 -0.06390969 -0.0049169916 -0.11743058 -0.06470138
-0.0107271345 0.1518995 0.019174272 0.1434479 -0.10127888 -0.11334585 -0.03818196 -0.021513399
-0.038415316 0.16377734 0.13175696 0.1577224 -0.09839493 -0.17925929 -0.04848666 0.060109805
0.00095084787 0.10044206 -0.03494428 0.035479013 -0.10734223 -0.094095334 0.046260487 -0.03172449
0.1135634 -0.09346573 -0.076833405 0.034000427 0.009447568 -0.015917882 0.1409659 0.121767156
-0.11866666 -0.15091246 -0.10455725 -0.078169875 -0.07623862 -0.078395166 -0.055970054 0.11318611
0.17791836 0.055994745 -0.009526822 -0.06253838 -0.099216245 -0.13894734 0.04914568 0.11584556
-0.077225566 -0.00061115867 -0.13930894 0.14961669 -0.01516572 0.05688206 0.018706728 0.103888914
-0.098940946 0.034427073 0.13975072 -0.112336084 0.09013748 0.15493917 -0.0065424386 -0.027648546
0.07826429 -0.03442018 0.10246842 0.06312508 0.14593244 0.11866878 -0.020051086 0.046717837
0.036542762 0.011057235 -0.08385244 -0.040969163 0.03853037 0.027997905 0.18516184 -0.22321808
0.026246926 0.05986102 0.16949163 -0.14037831 0.12963043 -0.00727388 -0.016734604 0.11580927
-0.14400008 0.11249794 -0.020019041 0.14151151 0.07556873 -0.1267196 -0.010419911 0.021278014
0.1363095 0.027059903 -0.08473116 0.09338815 -0.043035425 0.103808105 0.044498954 -0.033758655
-0.20183575 -0.04330888 0.08744522 0.09114426 -0.074073374 -0.10967679 0.061631452 0.09918038
-0.066413365 -0.046729304 0.17846166 0.039958753 0.009927041 -0.08511547 -0.10202085 -0.114325576
-0.04992816 0.08164102 0.016848346 0.06465149 -0.17381944 -0.1544333 0.038050745 0.029075908
0.08181682 0.020438308 -0.13728376 0.101777084 -0.01437428 -0.058014944 0.020435201 0.10024627
00000000: ec47 f03c aa52 a33d cc46 7ebd 80d5 343d
00000010: bd41 17be 7885 993b d3d6 22bc 41a9 8fbd
00000020: 33ce ff3d 140b 18be 388b 4a3c ea3b 8cbd
00000030: 4aeb 623e 5509 79bd f98c 663d 2e33 f83d
00000040: 15c4 10ba 0cdc 3c3e 6d78 c3bd 9fa0 ac3c
00000050: f991 3bbc 58be 323d 79f4 f53d 8ce6 333d
00000060: 53f4 513e 9ff0 893e 11a5 d1bd 60dd a9bd
00000070: 2d64 863d 62b9 fbbc 0d3c a73d d7fc 293e
00000080: 73d4 e93d 5023 46bd 2047 14be c72c 2fbe
00000090: 4aab 89bd de00 dd3d f872 6e3e 8a5f 91be
000000a0: b89c e63c 7298 203e d3cc 1e3d 8775 0d3e
000000b0: 955e 3ebd 672a 78bd 20a1 0fbd 885c c9bd
000000c0: 1d13 2b3e 9332 013e 219d 3dbd 7d4d 4d3e
000000d0: 1307 f1bc 6129 e3bd ed9d 69bd 50d3 23bd
000000e0: 5077 59be ac3c 9abc 598a e93c f2b1 573d
000000f0: 9d7e 06be 2a4e dfbd 8640 90bd e81f 1e3e
00000100: cd04 023e a4a4 f3bc 9863 00be 29e3 d1bd
00000110: 29a0 963c 53a6 1fbe 7a16 c33d dcee a6bd
00000120: 5b94 cf3d d0cf 3f3d efcd 9f3d 7031 1fbe
00000130: d06a 30bd a93e 073e 358a cb3c 4d3c 0c3e
00000140: 33a2 0c3e 025c e6bd a6ab 943c 0613 6e3c
00000150: 8607 05be 4dd8 25bd b7ff 153e bc20 25bd
00000160: d58b 003e 6ba0 d53a dd05 49bd 9ad6 b5bd
00000170: 6994 38bd 8276 223d a95d c1bd 9256 923d
00000180: 5db2 9e3d 0689 ddbd ab5b cc3d 73db 203e
00000190: 4c12 813b 59ea 5fbd fb90 b7bd 579f 703d
000001a0: 8ff9 963c 55ce bfbd 2890 debd 2f32 a6bd
000001b0: 7afa e0bc 40c4 06be 1f53 b8bc 555c 1a3e
000001c0: 9893 313d 8970 c33c 729e 6f3d ab9c fb3d
000001d0: 15e3 82bd b71e a1bb 727f f0bd 2882 84bd
000001e0: ddc0 2fbc 8b8b 1b3e 5d13 9d3c 02e4 123e
000001f0: 4d6b cfbd de21 e8bd b064 1cbd de3c b0bc
00000200: 6159 1dbd 3fb5 273e 4ceb 063e fb81 213e
00000210: 4883 c9bd bf8f 37be f399 46bd b335 763d
00000220: 5242 793a 91b4 cd3d bc21 0fbd 7152 113d
00000230: 3ed6 dbbd 0eb5 c0bd a37b 3d3d 8af1 01bd
00000240: ee93 e83d f66a bfbd d55a 9dbd 0844 0b3d
00000250: f9c9 1a3c 3866 82bc 5d59 103e 0f61 f93d
00000260: 8107 f3bd cc88 1abe 1d22 d6bd 8717 a0bd
00000270: fe22 9cbd a58d a0bd db40 65bd 1fce e73d
00000280: 3b30 363e bf5a 653d 6316 1cbc 1f14 80bd
00000290: e331 cbbd 3648 0ebe fb4c 493d 7040 ed3d
000002a0: 7028 9ebd 2a36 20ba 01a7 0ebe 1e35 193e
000002b0: a479 78bc 2afd 683d da3e 993c b6c3 d43d
000002c0: 8da1 cabd 6703 0d3d d01a 0f3e 7610 e6bd
000002d0: 009a b83d 60a8 1e3e f461 d6bb 347f e2bc
000002e0: 0749 a03d 2dfc 0cbd f7da d13d b947 813d
000002f0: 506f 153e 9e08 f33d 2d42 a4bc 345b 3f3d
00000300: ddad 153d 6829 353c d4ba abbd 48cf 27bd
00000310: 05d2 1d3d dd5b e53c 119b 3d3e 4893 64be
00000320: cb03 d73c d430 753d 378f 2d3e 55bf 0fbe
00000330: d7bd 043e ba59 eebb 0217 89bc 692d ed3d
00000340: c274 13be 5265 e63d f9fe a3bc 65e8 103e
00000350: c7c3 9a3d c8c2 01be 46b8 2abc 3b4f ae3c
00000360: b894 0b3e bbac dd3c 8887 adbd 4942 bf3d
00000370: ea45 30bd 5899 d43d 8944 363d 8446 0abd
00000380: 08ae 4ebe a764 31bd 7b16 b33d d7a9 ba3d
00000390: c8b3 97bd 3a9e e0bd 4371 7c3d 151f cb3d
000003a0: bb03 88bd 3a67 3fbd a7be 363e caab 233d
000003b0: 07a5 223c 0551 aebd 4ff0 d0bd 8723 eabd
000003c0: 7881 4cbd 6833 a73d 8b05 8a3c 0068 843d
000003d0: b9fd 31be c323 1ebe 19db 1b3d 9930 ee3c
000003e0: 948f a73d 3d6e a73c 1d94 0cbe 8170 d03d
000003f0: 1a82 6bbc 14a1 6dbd b967 a73c eb4d cd3d

modality_transformers.atac.layers.0.self_attn.in_proj_bias f4 [192]
0.07018547 -0.011174442 -0.0059277243 0.0119620245 -0.011798868 -0.0046214047 0.009222053 0.049358808
0.026817014 0.02665623 -0.030305903 0.029492157 0.01601392 -0.0040670773 -0.022855487 -0.040029857
-0.04719849 -0.004188959 -0.0010280289 0.0057994584 0.055372994 -0.019842505 0.03293666 0.0052603963
-0.008158919 -0.015658336 0.0065166643 -0.05115654 0.030036243 0.045229785 0.031076271 0.03237347
0.035549957 -0.018923841 0.023418762 0.0076853326 -0.039326403 -0.008157678 0.0023412185 0.046641655
0.008287852 -0.009710233 -0.055397384 0.008596621 -0.018874807 -0.0014470156 -0.053222116 -0.002050613
0.008442962 0.0015505352 -0.009257249 0.026623929 -0.014258603 -0.0038376779 -0.0054577086 0.00974884
-0.017721312 -0.0039236536 0.021640386 0.016055668 -0.0047129425 0.010488534 0.003059895 0.024165494
-0.0049109613 0.0051047653 0.007965449 -0.003795259 0.0022193415 0.0021092074 -0.00094002613 -0.005965739
0.00028494996 -0.0073544662 0.0023169764 -0.007648499 0.0014966537 0.0028716628 0.0026242035 -0.00022690506
-0.0010596602 2.314029e-05 -0.0024788033 -0.0001335624 0.0013069194 -0.00057865214 -0.0009959601 0.0063767834
-0.0010782074 -0.0005638132 -0.0012421572 0.00020760634 6.0985705e-05 0.0032776622 0.0028785623 0.0023276093
-0.0008028826 0.001218722 0.0019976227 0.0064180032 0.0029684403 -0.0020522142 -0.00048512267 -0.004923262
-0.0033659225 0.0038707436 -0.0017812155 0.007730743 -5.6211844e-05 0.001060955 -0.004318751 -0.00065616425
-0.00036911486 -0.000526703 0.0011739105 0.0012230737 -0.0010937593 0.0059882463 0.00087062083 0.0009586777
0.0004683364 0.0013713838 -0.0011137225 0.00017346673 -0.00076483085 -0.00081815483 -0.0007466822 -0.0018587812
0.0070322617 0.019985965 0.003457063 0.0049956315 -0.001215094 -0.008424445 0.010848031 -0.006067492
0.014954102 -0.01952049 0.0033167698 0.006732654 0.0027914043 -0.0016190145 0.028784763 0.028575055
0.009716112 -0.003314743 0.036918104 -0.005781342 0.0029151284 0.0053596436 -0.009569795 0.009181803
0.008838826 -0.008723093 0.0100624785 0.0017861064 -0.0037935735 0.013381452 0.01788179 0.010899941
0.018409416 -0.006607459 -0.01262177 0.015696127 0.008988434 -0.009880704 -0.0017901736 -0.0026791468
0.00035540748 0.008866286 0.0044938563 0.005630343 0.02276759 0.011148431 -0.0010562798 0.005915754
-0.0020460847 -0.015302806 -0.0115451375 0.010722841 0.018826045 -0.00091856666 -0.0066471933 -0.0024371105
-0.011844566 -0.0017151311 -0.012503371 -0.018545281 -0.006786362 0.0040739668 -0.011896035 -0.016707867
00000000: 66bd 8f3d 0215 37bc 5b3d c2bb 5efc 433c
00000010: 0a50 41bc 276f 97bb 1818 173c 762c 4a3d
00000020: 5baf db3c 2b5e da3c 1644 f8bc 8999 f13c
00000030: a02f 833c 1e45 85bb 6e3b bbbc 59f6 23bd
00000040: 3453 41bd 8943 89bb edbe 86ba 6209 be3b
00000050: cbce 623d c08c a2bc 97e8 063d 675f ac3b
00000060: fdac 05bc e945 80bc be89 d53b 8589 51bd
00000070: 910e f63c de42 393d aa93 fe3c 0b9a 043d
00000080: d59c 113d 2c06 9bbc b4d8 bf3c 3ed5 fb3b
00000090: b914 21bd c8a7 05bc 216f 193b 520b 3f3d
000000a0: c5c9 073c ab17 1fbc 5ee8 62bd d8d8 0c3c
000000b0: 579f 9abc c9a9 bdba 6fff 59bd 9463 06bb
000000c0: 5954 0a3c 543b cb3a b7ab 17bc 6d1a da3c
000000d0: ea9c 69bc 8d81 7bbb 94d6 b2bb 99b9 1f3c
000000e0: 492c 91bc fe91 80bb 2e47 b13c 2d87 833c
000000f0: 076f 9abb 1ad8 2b3c 8588 483b b7f6 c53c
00000100: 21ec a0bb e045 a73b 8481 023c e1b9 78bb
00000110: 5f72 113b a13a 0a3b 166c 76ba 3f7c c3bb
00000120: 5665 9539 bcfd f0bb 6ad8 173b 43a0 fabb
00000130: 5d2b c43a 8232 3c3b d4fa 2b3b 5ded 6db9
00000140: 4ce4 8aba 651d c237 6b73 22bb e20c 0cb9
00000150: f04c ab3a b0b0 17ba e08a 82ba 56f4 d03b
00000160: a352 8dba ddcc 13ba e1cf a2ba e7b0 5939
00000170: e7ca 7f38 0cce 563b 43a6 3c3b ce8a 183b
00000180: 8a78 52ba 86bd 9f3a 8cea 023b 1d4e d23b
00000190: 2a8a 423b 717e 06bb 1058 feb9 5153 a1bb
000001a0: cf96 5cbb 4dac 7d3b ad77 e9ba 2c52 fd3b
000001b0: 02c5 6bb8 be0f 8b3a 4f84 8dbb 7002 2cba
000001c0: c285 c1b9 7112 0aba e6dd 993a 8b4f a03a
000001d0: 795c 8fba 0d39 c43b 603a 643a c54f 7b3a
000001e0: 0c8b f539 01c0 b33a 53fa 91ba 9fe4 3539
000001f0: ee7e 48ba 7179 56ba ffbc 43ba 59a2 f3ba
00000200: e36e e63b 9bb9 a33c e58f 623b 65b2 a33b
00000210: ca43 9fba af06 0abc f1bb 313c d0d1 c6bb
00000220: 0d02 753c 6fe9 9fbc 2a5e 593b 989d dc3b
00000230: feef 363b 1d35 d4ba 06ce eb3c 3c16 ea3c
00000240: 5430 1f3c 293c 59bb 7037 173d 6971 bdbb
00000250: bd0b 3f3b f39f af3b a1ca 1cbc 466f 163c
00000260: b9d0 103c 4eeb 0ebc 18dd 243c c91b ea3a
00000270: 9a9d 78bb e13d 5b3c d57c 923c ab95 323c
00000280: 58cf 963c 6283 d8bb 8acb 4ebc 2a95 803c
00000290: 3a44 133c ade2 21bc 42a4 eaba a094 2fbb
000002a0: fc55 ba39 e643 113c 3341 933b be7e b83b
000002b0: 1983 ba3c e9a7 363c de72 8aba f1d8 c13b
000002c0: 9b17 06bb 9fb8 7abc d127 3dbc dbae 2f3c
000002d0: 1439 9a3c f7cb 70ba b3d0 d9bb eeb7 1fbb
000002e0: b60f 42bc 40ce e0ba f0da 4cbc 46ec 97bc
000002f0: 2160 debb e97e 853b 96e7 42bc f0de 88bc

modality_transformers.atac.layers.0.self_attn.out_proj.weight f4 [64, 64]
-0.2250343 -0.04958171 0.21953277 -0.20057052 -0.18216267 -0.17057739 0.21886273 0.044847958
-0.022274142 0.17670372 0.2151957 0.07499831 -0.09731543 -0.15163258 0.15319039 -0.033273388
-0.026232691 0.061257344 -0.16636005 -0.04623611 -0.070726946 -0.09319369 0.18088259 -0.077573
0.17022464 0.06020225 0.2053982 0.15024456 0.08343505 0.05114067 -0.081535 0.15806875
0.052539036 0.021144215 -0.17261268 0.147799 0.06725495 -0.13010946 -0.10566134 0.17464028
0.0958457 0.09716903 0.07087803 -0.09942181 0.057850607 -0.0007522314 -0.13991845 -0.16682059
-0.04691903 -0.00022275257 0.18616067 0.025316345 0.05343257 0.008830323 -0.1597413 0.10894557
-0.044306535 -0.09481097 0.03984177 0.12207159 -0.06904302 -0.08617986 0.13742651 -0.17704597
0.17536226 -0.15268564 -0.068656184 -0.13618827 -0.21792983 -0.16246174 0.2252568 0.1824053
0.106394134 -0.13472022 0.1239505 -0.008857689 0.027108941 0.21384819 0.08314227 0.016266696
-0.14440565 0.07999219 -0.16550617 0.01697971 -0.061873585 0.20963281 0.032949764 0.03368363
0.20051605 0.10582152 -0.14941385 0.058810312 -0.21535604 -0.17452446 0.19785489 0.09831226
0.05155782 -0.12698503 0.16833143 0.025379177 -0.16958216 0.14999984 -0.087564096 0.05504978
-0.18344614 -0.20154792 -0.11520239 0.16690971 -0.18338352 0.1599808 -0.03970868 0.09729837
0.21407382 -0.00869593 0.12348831 0.077855766 0.07894031 0.015040128 -0.013216587 0.18261208
0.20554814 0.12834024 -0.17998987 -0.19025491 0.04435689 0.18663622 0.10941072 -0.0053004464
0.16370684 0.14228438 0.18693385 0.034546223 0.008699688 -0.1734933 0.062395904 -0.1706586
-0.074030794 -0.0065718805 0.11609789 0.19617733 -0.027205879 0.17333117 0.11004892 -0.061559983
0.19186085 0.18479545 0.027915876 -0.14531387 0.16647916 -0.11554797 -0.025415074 0.09926088
-0.0704568 -0.06807333 0.22696607 0.09678615 -0.112949245 0.1980917 0.07407868 0.17653291
-0.0057089147 -0.012301547 0.0067315293 0.16120753 -0.06541976 0.03322224 -0.10461393 -0.03572169
-0.028066358 0.094172984 0.08855226 -0.049100123 -0.073408015 -0.019506196 -0.1434269 0.12753429
-0.046341866 -0.08454139 0.13547955 0.16984831 0.27004665 -0.10330149 0.12759358 0.094661675
-0.04290628 -0.01234799 0.097992346 -0.15931787 0.08966869 -0.0012114353 -0.21681078 -0.053717982
0.10594663 -0.15269838 -0.16343531 0.07882407 0.05083959 0.17639689 -0.2162631 -0.122066855
-0.1768659 -0.06716734 0.1423148 -0.039526302 -0.1123067 -0.07769119 -0.16286643 -0.046247795
0.14064088 0.14276591 -0.06594296 0.18851067 -0.06517581 -0.07128884 -0.2170019 -0.07816412
-0.1613077 0.18444526 0.20338224 0.042047303 0.033549152 -0.044043858 -0.16981047 0.15738346
-0.034573857 -0.09975986 -0.18312387 0.12870951 -0.08949935 0.07410773 0.11423118 0.1563509
-0.14901227 0.03981294 -0.026943818 -0.081895314 -0.16675009 -0.2469298 0.0043799425 0.16238402
0.025172606 -0.006508469 0.12850443 -0.056372106 0.12039982 0.15135688 -0.13709426 0.12951525
-0.20040841 0.07061336 -0.13809025 0.025905805 0.18872377 0.17261593 -0.036217123 0.047547217
00000000: 646f 66be 3116 4bbd 33cd 603e 5c62 4dbe
00000010: da88 3abe d7ab 2ebe 8d1d 603e 7eb2 373d
00000020: 4378 b6bc d2f1 343e 435c 5c3e b798 993d
00000030: 504d c7bd 9245 1bbe f1dd 1c3e ad49 08bd
00000040: f1e5 d6bc fbe8 7a3d 4a5a 2abe 1362 3dbd
00000050: 4ad9 90bd 55dc bebd 4939 393e 98de 9ebd
00000060: 5e4f 2e3e a296 763d e853 523e b6d9 193e
00000070: ffdf aa3d e178 513d d2fb a6bd c6dc 213e
00000080: 2c33 573d a236 ad3c 61c1 30be 9f58 173e
00000090: f7bc 893d 6a3b 05be f964 d8bd e7d4 323e
000000a0: c04a c43d 8e00 c73d 8028 913d a99d cbbd
000000b0: c2f4 6c3d 6531 45ba c846 0fbe 04d3 2abe
000000c0: 2b2e 40bd b092 69b9 e7a0 3e3e 3964 cf3c
000000d0: 1cdc 5a3d 0fad 103c 3993 23be db1e df3d
000000e0: c57a 35bd 412c c2bd 2031 233d ab00 fa3d
000000f0: 6d66 8dbd 117f b0bd 89b9 0c3e 8a4b 35be
00000100: 2a92 333e a059 1cbe 9d9b 8cbd f074 0bbe
00000110: ff28 5fbe 5f5c 26be b8a9 663e 74c8 3a3e
00000120: 2be5 d93d 19f4 09be c2d9 fd3d d71f 11bc
00000130: 9213 de3c 05fb 5a3e 7f46 aa3d bc41 853c
00000140: 13df 13be f2d2 a33d 737a 29be 0819 8b3c
00000150: 286f 7dbd fca9 563e 55f6 063d d9f7 093d
00000160: 1454 4d3e f4b8 d83d f2ff 18be 15e3 703d
00000170: 4b86 5cbe 8ab6 32be 799a 4a3e f057 c93d
00000180: 4b2e 533d 5d08 02be 135f 2c3e fee7 cf3c
00000190: f2a6 2dbe 8f99 193e ce54 b3bd e17b 613d
000001a0: 4ed9 3bbe 9462 4ebe 3bef ebbd 61ea 2a3e
000001b0: e4c8 3bbe 02d2 233e 92a5 22bd 5e44 c73d
000001c0: 2b36 5b3e 6079 0ebc 70e7 fc3d d872 9f3d
000001d0: 75ab a13d de6a 763c 628a 58bc a9fe 3a3e
000001e0: 367b 523e a06b 033e 444f 38be 2fd2 42be
000001f0: 92af 353d 911d 3f3e ba12 e03d 5eaf adbb
00000200: c4a2 273e ffb2 113e 966b 3f3e 5780 0d3d
00000210: 2389 0e3c 3aa8 31be d992 7f3d 21c1 2ebe
00000220: 759d 97bd ee58 d7bb bbc4 ed3d b6e2 483e
00000230: ddde debc ba7d 313e 5461 e13d 5226 7cbd
00000240: 2c77 443e 053b 3d3e d6af e43c 29cd 14be
00000250: 8379 2a3e 6aa4 ecbd 4633 d0bc 4a49 cb3d
00000260: a84b 90bd 086a 8bbd cb69 683e d137 c63d
00000270: ef51 e7bd 8dd8 4a3e 90b6 973d 0bc5 343e
00000280: d911 bbbb 6e8c 49bc 2994 dc3b 9613 253e
00000290: ccfa 85bd 0b14 083d d43f d6bd e850 12bd
000002a0: 6beb e5bc c4dd c03d e35a b53d 361d 49bd
000002b0: f156 96bd 75cb 9fbc 80de 12be 5998 023e
000002c0: f8d0 3dbd 0924 adbd 27bb 0a3e b7ec 2d3e
000002d0: 8e43 8a3e bb8f d3bd e4a7 023e fbdd c13d
000002e0: 7fbe 2fbd 394f 4abc 36b0 c83d 3924 23be
000002f0: 38a4 b73d 06c9 9eba a503 5ebe 6307 5cbd
00000300: 8cfa d83d f75c 1cbe 965b 27be 846e a13d
00000310: 2d3d 503d 63a1 343e 1374 5dbe 30fe f9bd
00000320: 561c 35be 088f 89bd f9ba 113e 55e6 21bd
00000330: 0e01 e6bd 8f1c 9fbd 75c6 26be 546e 3dbd
00000340: 2a04 103e 3a31 123e 1a0d 87bd f108 413e
00000350: e57a 85bd e2ff 91bd bf35 5ebe 8314 a0bd
00000360: d92d 25be 38df 3c3e 6f43 503e cb39 2c3d
00000370: d66a 093d 5567 34bd cce2 2dbe 2129 213e
00000380: 519d 0dbd e64e ccbd d384 3bbe 6dcc 033e
00000390: 6f4b b7bd cbc5 973d 09f2 e93d 731a 203e
000003a0: ac96 18be e512 233d 48b9 dcbc bbb8 a7bd
000003b0: 89c0 2abe 2adb 7cbe 9f85 8f3b ff47 263e
000003c0: c836 ce3c ff44 d5bb aa96 033e 70e6 66bd
000003d0: 2e94 f63d 4cfd 1a3e 7062 0cbe a59f 043e
000003e0: dd37 4dbe bd9d 903d 8867 0dbe 6938 d43c
000003f0: ce40 413e 3bc2 303e 6858 14bd dfc0 423d

modality_transformers.atac.layers.0.self_attn.out_proj.bias f4 [64]
-0.005754642 -0.008755443 0.022811703 0.016073244 0.0036086182 0.0032824264 0.0022676778 -0.014130292
0.014149703 0.0049639326 -0.0018197307 0.009387307 0.015670883 0.02136415 -0.024776092 -0.020132666
0.018378893 -0.0036346149 -0.0022109945 -0.017000906 0.0061288546 -0.022772374 -0.014958506 -0.011848029
0.005464912 0.013717124 -0.016349373 0.014715348 -0.001070658 0.0069401087 -0.010563879 0.0029252584
-0.011764618 -0.011878391 -0.0057597253 -0.022207538 0.008404603 0.0044314917 0.007438247 -0.022188697
-0.026582457 0.0134114055 0.008796103 -0.0103803305 0.0049746013 0.0079205325 0.008746718 -0.012750416
0.0015842301 0.0024006388 -0.009995175 -0.0060285726 -0.0034032927 -0.015869683 0.007498808 -0.0013884503
0.010900516 -0.0022538842 0.01931318 0.0046203085 0.010753436 -0.016070927 -0.012998058 0.0099071
00000000: 7091 bcbb fd72 0fbc 9cdf ba3c 09ac 833c
00000010: 917e 6c3b fa1d 573b 529d 143b be82 67bc
00000020: 28d4 673c 7ca8 a23b 0884 eeba 38cd 193c
00000030: 3960 803c df03 af3c 3bf7 cabc 43ed a4bc
00000040: 558f 963c b832 6ebb 55e6 10bb 7c45 8bbc
00000050: 8fd4 c83b 218d babc 8614 75bc 3c1e 42bc
00000060: 0113 b33b cabd 603c 1fef 85bc a518 713c
00000070: 5255 8cba da69 e33b 1f14 2dbc b1b5 3f3b
00000080: 62c0 40bc 959d 42bc 14bc bcbb 95ec b5bc
00000090: 76b3 093c 0c36 913b 8abc f33b 12c5 b5bc
000000a0: 74c3 d9bc 83bb 5b3c 881d 103c 4312 2abc
000000b0: fb01 a33b 1fc5 013c 654e 0f3c 1fe7 50bc
000000c0: f1a5 cf3a 0954 1d3b cdc2 23bc 558b c5bb
000000d0: c709 5fbb 2301 82bc 90b8 f53b a9fc b5ba
000000e0: 1498 323c e7b5 13bb ad36 9e3c f565 973b
000000f0: 2e2f 303c 2da7 83bc cff5 54bc 6451 223c

modality_transformers.atac.layers.0.linear1.weight f4 [256, 64]
-0.053676385 -0.07396364 -0.13813965 0.0441875 -0.13267453 0.076039836 0.11932337 -0.100719295
-0.034476295 -0.13395083 -0.02544942 -0.096405916 0.027093457 -0.07043516 0.114227794 -0.08925766
-0.016026668 -0.07679382 -0.10847445 -0.03734619 0.13291496 0.118710354 0.021954268 -0.07748758
-0.06191038 0.13535608 0.115413494 -0.06723653 -0.037388872 -0.04856802 -0.064380705 -0.058973014
0.09984089 -0.013088143 0.064270556 -0.084595636 -0.12968281 0.07238449 0.13497515 0.06447213
0.058574043 0.090378955 -0.061205022 0.10419317 -0.078728795 -0.03669685 -0.10346057 0.00088974496
0.053930733 0.11214994 0.07215469 -0.12740327 -0.09533699 0.020847699 -0.099899516 0.036856942
0.14858174 -0.08699272 0.11955546 0.05194008 -0.08014035 0.12486129 0.10048963 -0.01519972
0.15195863 -0.1179777 -0.04251821 0.1280787 0.13957892 -0.058120187 -0.10248769 -0.12990966
-0.116334096 0.1429164 0.13028277 -0.047456626 -0.11666731 -0.017864788 0.00431248 -0.14177045
-0.01788513 -0.06470637 -0.030346492 0.024528088 0.05145393 0.048840728 0.09483943 -0.104675636
-0.0704295 -0.11524262 0.0073451335 0.018068308 -0.0070420112 -0.026175851 0.07816866 -0.10945175
0.12616827 0.11806051 -0.0016002689 0.030282062 -0.04080515 -0.10538075 0.048580553 -0.013893613
-0.039578125 0.014657722 -0.13037163 -0.08966601 -0.011885723 0.13140742 -0.084924005 0.0569007
-0.07730293 0.077550694 0.08083534 0.11257922 -0.12701449 0.015986783 0.052352555 -0.025639674
-0.119649194 -0.050119057 -0.12281933 -0.08489093 -0.12067486 0.13243525 0.036198985 -0.102620915
-0.09524766 0.14652695 0.020997403 -0.030262584 0.005512244 -0.036732234 0.106076635 -0.03317715
0.06538282 -0.04122048 0.11199934 0.035516255 0.03142062 -0.11431791 0.06959345 0.19460362
-0.114066355 -0.074948385 -0.094646394 -0.009482971 -0.071563184 0.13183121 -0.08214891 0.08904922
-0.0008051259 -0.09378924 -0.116128646 0.06169782 -0.039839596 0.13128114 0.11166545 0.08821953
-0.0138365 0.026349513 0.13477214 0.11664152 0.031864602 -0.055963766 0.02118385 -0.024644889
0.046711814 -0.1000264 0.01378182 0.13007316 0.07586844 0.0323428 -0.14854927 0.03424244
-0.15201506 0.048746075 -0.0019614652 0.0764651 0.13119002 0.09665448 0.037138555 -0.118645236
-0.07196366 -0.108304456 -0.060035504 -0.07252867 0.050096415 0.054128926 -0.03188687 -0.06266074
0.12217588 0.019541072 -0.050829224 -0.0719188 -0.0011044357 0.121907346 -0.02020039 0.026603965
-0.08591382 0.049503632 0.012572857 -0.07463332 0.07677976 -0.061839387 0.11930984 -0.0063260347
-0.05263824 -0.035312932 0.054453693 0.1041621 -0.15108576 -0.097616345 -0.043926038 -0.14141694
0.039721716 -0.060729656 0.016012814 -0.011741478 0.080149874 0.14816204 0.09549639 -0.09323701
-0.05731088 0.029402561 -0.100575306 -0.015238054 -0.07336018 0.11344284 0.11931316 -0.04535817
0.030530715 -0.12636182 -0.046430223 -0.036154598 0.037726622 0.11973301 -0.043493535 -0.009734449
0.0368166 -0.062181924 0.009689673 0.06675583 -0.06802545 0.06589533 0.0054275272 -0.12879838
0.11756745 0.08861512 -0.007097292 -0.09007426 0.026481729 -0.054552622 -0.010214837 0.081533134
00000000: c5db 5bbd 407a 97bd 7b74 0dbe f4fd 343d
00000010: d5db 07be c6ba 9b3d d05f f43d eb45 cebd
00000020: 0437 0dbd 682a 09be 4d7b d0bc 7770 c5bd
00000030: 19f3 dd3c 4f40 90bd 43f0 e93d b8cc b6bd
00000040: 5c4a 83bc 1446 9dbd da27 debd 52f8 18bd
00000050: dc1a 083e 6a1e f33d 70d9 b33c cfb1 9ebd
00000060: bd95 7dbd c99a 0a3e e95d ec3d 4eb3 89bd
00000070: 1325 19bd 43ef 46bd 08da 83bd b08d 71bd
00000080: 6179 cc3d a76f 56bc 48a0 833d 7a40 adbd
00000090: 92cb 04be 523e 943d ed36 0a3e f709 843d
000000a0: 56eb 6f3d 9a18 b93d 1eb2 7abd 3b63 d53d
000000b0: 903c a1bd 704f 16bd 23e3 d3bd c63d 693a
000000c0: 79e6 5c3d deae e53d d7c5 933d 0176 02be
000000d0: 0a40 c3bd cbc8 aa3c 1e98 ccbd 4ef7 163d
000000e0: d025 183e 3d29 b2bd 7ed9 f43d 1fbf 543d
000000f0: a020 a4bd 47b7 ff3d 82cd cd3d 3f08 79bc
00000100: 0b9b 1b3e 4b9e f1bd 9327 2ebd 1027 033e
00000110: c7ed 0e3e 6f0f 6ebd 11e5 d1bd 0a07 05be
00000120: 9240 eebd ad58 123e d968 053e e161 42bd
00000130: 45ef eebd 2d59 92bc b44f 8d3b 462c 11be
00000140: d683 92bc c684 84bd 3599 f8bc 21ef c83c
00000150: 5bc1 523d 370d 483d 2d3b c23d 2e60 d6bd
00000160: 573d 90bd 5304 ecbd 72af f03b fd03 943c
00000170: acc0 e6bb bd6e d6bc e416 a03d 3d28 e0bd
00000180: 4132 013e b5c9 f13d 1dc0 d1ba 1612 f83c
00000190: 4d23 27bd ddd1 d7bd 67fc 463d 09a2 63bc
000001a0: ac1c 22bd f126 703c 2480 05be d0a2 b7bd
000001b0: 56bc 42bc ab8f 063e a3ec adbd b510 693d
000001c0: 0051 9ebd e6d2 9e3d 008d a53d ef8f e63d
000001d0: 1610 02be b7f6 823c a26f 563d 4b0a d2bc
000001e0: a30a f5bd a449 4dbd b388 fbbd 4cdb adbd
000001f0: 6224 f7bd 1b9d 073e 6345 143d ea2a d2bd
00000200: 3511 c3bd 290b 163e bf02 ac3c 3de9 f7bc
00000210: 0ea0 b43b 8a74 16bd b53e d93d c3e4 07bd
00000220: 6ee7 853d ced6 28bd e95f e53d 7e79 113d
00000230: e8b2 003d 821f eabd 0387 8e3d 2c46 473e
00000240: 9f9b e9bd 8a7e 99bd f8d5 c1bd 775e 1bbc
00000250: b88f 92bd c3fe 063e b03d a8bd 705f b63d
00000260: 160f 53ba 9314 c0bd dbd4 edbd dab6 7c3d
00000270: d82e 23bd 906e 063e dbb0 e43d 71ac b43d
00000280: 7db2 62bc efda d73c b501 0a3e c0e1 ee3d
00000290: 7584 023d 433a 65bd c189 ad3c 14e4 c9bc
000002a0: e354 3f3d a4da ccbd 25cd 613c e631 053e
000002b0: ea60 9b3d e279 043d 4d1d 18be cd41 0c3d
000002c0: d6a9 1bbe f7a9 473d ed8b 00bb bc99 9c3d
000002d0: ad56 063e c9f2 c53d 991e 183d 46fc f2bd
000002e0: af61 93bd bace ddbd cae7 75bd e989 94bd
000002f0: e631 4d3d 4bb6 5d3d ce9b 02bd 4654 80bd
00000300: 5937 fa3d 9914 a03c 4e32 50bd 2a4a 93bd
00000310: b6c2 90ba 8faa f93d 4a7b a5bc 8ff0 d93c
00000320: 96f3 afbd 52c4 4a3d 62fe 4d3c 5bd9 98bd
00000330: b53e 9d3d 4c4b 7dbd b858 f43d a04a cfbb
00000340: 329b 57bd 4ba4 10bd d60a 5f3d f052 d53d
00000350: 3ab6 1abe 14eb c7bd caeb 33bd 9acf 10be
00000360: 3db3 223d a9bf 78bd 4e2d 833c 545f 40bc
00000370: 9e25 a43d cab7 173e 9c93 c33d 0cf3 bebd
00000380: d0be 6abd a4dd f03c 6dfa cdbd 08a9 79bc
00000390: dd3d 96bd b854 e83d 755a f43d 7dc9 39bd
000003a0: 8d1b fa3c fe64 01be 9e2d 3ebd d816 14bd
000003b0: 3b87 1a3d 9536 f53d 4726 32bd 3d7d 1fbc
000003c0: 01cd 163d 79b2 7ebd 6fc1 1e3c 48b7 883d
000003d0: ed50 8bbd 21f4 863d 66d9 b13b b9e3 03be
000003e0: 34c7 f03d d87b b53d 6790 e8bb db78 b8bd
000003f0: 36f0 d83c 9272 5fbd 225c 27bc d8fa a63d

modality_transformers.atac.layers.0.linear1.bias f4 [256]
-0.002490754 -0.011005901 -0.007867716 -0.015173521 -0.009579091 -0.0007008571 -0.019273628 0.0025049283
-0.007821515 -0.005976539 -0.0057463413 -0.010276161 -0.006314171 -0.012367533 -0.009589804 0.0074172765
-0.016408287 -0.0008640402 -0.003955115 0.011253521 -0.01761203 0.00450509 0.0003747804 -0.007320074
0.014008622 0.00024308068 -0.003528776 0.014902723 0.012403926 0.0038725643 -0.016996708 0.014398871
0.0013387927 -0.016520925 -0.02967128 -0.015950069 -0.008215379 0.009894738 0.003291539 -0.0018669021
0.003663362 -0.004592595 0.0066533573 -0.0028688505 0.0017082342 0.007151906 -0.012868122 -0.02710329
0.091183685 0.014712747 0.015359078 0.0066897455 0.0056213196 -0.025445653 0.010616124 0.0033834395
-0.014712037 -0.020356901 -0.008064377 -0.021502497 -0.014824068 -0.008024142 -0.007663495 -0.010836363
0.006621347 -0.00795035 -0.014842803 -0.0055387164 0.0006998444 0.0066427253 -0.0017240049 -0.00830917
0.0045071403 -0.017420465 0.030598875 -0.008249765 -0.0025321664 -0.023464967 -0.004163113 -0.016334867
0.00468687 -0.00423192 0.017734336 -0.03803503 0.017429708 0.005189329 -0.0036538676 -0.025069814
-0.014263912 -0.006709729 0.0060243867 -0.01994214 -0.0023711044 -0.022506332 0.03967122 0.011890346
-0.014633105 -0.011119857 -0.017382527 -0.0078540305 0.0042481734 -0.01787303 0.004441064 0.011920961
0.007235313 0.001399022 -0.020096352 -0.013705189 0.015104266 -0.006668555 0.0049784803 -0.014850919
0.0020085038 0.00269951 -0.0099292565 -0.0062326333 0.009490056 -0.03813385 -0.013698142 0.010459813
-0.007872813 0.006149972 -0.0056681945 -0.014854975 -0.014525255 0.007189977 -0.05125952 0.015421564
0.01452518 -0.038103245 -0.01780591 -0.044160772 -0.013380274 -0.0019519037 -0.0058251945 -0.010582069
-0.003282064 -0.0017681008 -0.02110291 -0.0033486406 0.0061115487 -0.073718056 0.01045611 -0.005868928
-0.014168329 0.0045630545 -0.0073691085 -0.022868656 -0.027601348 0.0026862565 -0.014137757 -0.003986119
-0.015357194 0.0074233618 0.020132015 -0.008459986 -0.004921805 -0.02307514 0.017468926 -0.008404269
-0.005891225 0.018198598 -0.009116084 -0.005760793 0.0003989395 -0.0029137847 -0.007861939 0.003696969
-0.0005603565 0.020441428 9.0649395e-05 0.004978633 -0.009527757 0.013206288 -0.010517681 -0.011527049
-0.0182161 -0.012919966 -0.0011106099 -0.01934835 -0.015361612 -0.0013787575 0.004090096 -0.006857231
-0.017629223 -0.029630456 0.0034485902 -0.012710684 -0.0035552552 -0.0021967497 -0.01662607 -0.049552187
-0.017165247 -0.014114691 0.0029298551 -0.0126767205 -0.009638374 -0.03324979 0.014048839 -0.000207775
-0.005830719 -0.03115831 -0.017357267 -0.012685275 0.005560998 0.008151413 0.0026879967 0.013943473
-0.015554216 -0.01318591 0.014111136 0.019545792 0.0014602091 0.016388893 -0.013715178 -0.0070388718
-0.02209427 -0.0039212657 -0.010254407 -0.00917371 -0.0036528024 -0.0128151635 -0.013287375 -0.024289938
-0.005189967 0.017340245 -0.009656463 -0.019911982 -0.003974873 0.030384047 -0.008540251 0.0040045003
-0.01568172 -0.0152109135 0.0109324185 0.0022847669 -0.07956115 -0.010578287 -0.0054291366 -0.003789122
0.009034668 -0.0038040997 -0.0045088553 -0.0032665567 -0.013976831 0.0062451274 -0.030917054 0.04348039
0.008684201 -0.015105778 -0.0042259553 -0.0035172892 -0.008886263 -0.007124664 0.018207902 -0.009957771
00000000: eb3b 23bb 1852 34bc 98e7 00bc 5c9a 78bc
00000010: 9ff1 1cbc b9b9 37ba bae3 9dbc b929 243b
00000020: d025 00bc d8d6 c3bb ce4b bcbb 585d 28bc
00000030: 1be7 cebb 31a1 4abc 8e1e 1dbc a00c f33b
00000040: ac6a 86bc c280 62ba e999 81bb b060 383c
00000050: 1b47 90bc 6f9f 933b 2c7e c439 3bdd efbb
00000060: 6b84 653c 79e3 7e39 0a43 67bb 8d2a 743c
00000070: d639 4b3c d9ca 7d3b ae3c 8bbc 3ee9 6b3c
00000080: 6e7a af3a e456 87bc 2f11 f3bc b8a9 82bc
00000090: cc99 06bc 8a1d 223c dcb6 573b d7b2 f4ba
000000a0: 0415 703b 7b7d 96bb 6804 da3b 5303 3cbb
000000b0: d4e6 df3a 895a ea3b d1d4 52bc b807 debc
000000c0: 83be ba3d bc0d 713c a4a4 7b3c a735 db3b
000000d0: 0c33 b83b 6773 d0bc 40ef 2d3c b2bc 5d3b
000000e0: c10a 71bc 84c3 a6bc 7320 04bc 0126 b0bc
000000f0: a6e0 72bc b177 03bc 0e1e fbbb 008b 31bc
00000100: e2f7 d83b 2f42 02bc 3a2f 73bc 1f7e b5bb
00000110: c375 373a 38ab d93b 01f8 e1ba 2f23 08bc
00000120: a2b0 933b 5db5 8ebc 7eaa fa3c 062a 07bc
00000130: b4f2 25bb 9a39 c0bc b96a 88bb b3d0 85bc
00000140: 5194 993b ebab 8abb 9947 913c 9fca 1bbd
00000150: bfc8 8e3c 3f0b aa3b ba75 6fbb 365f cdbc
00000160: 2fb3 69bc 49dd dbbb 3868 c53b b35d a3bc
00000170: 8864 1bbb 335f b8bc 4a7e 223d bacf 423c
00000180: b1bf 6fbc 1030 36bc cd65 8ebc 31ae 00bc
00000190: 4334 8b3b 766a 92bc 5886 913b 2250 433c
000001a0: 3416 ed3b 635f b73a 1ba1 a4bc bb8b 60bc
000001b0: e277 773c e583 dabb 8522 a33b 4551 73bc
000001c0: 1aa1 033b 43ea 303b 52ae 22bc 1e3b ccbb
000001d0: 2e7c 1b3c 3d32 1cbd 2c6e 60bc a35f 2b3c
000001e0: f9fc 00bc b485 c93b 43bc b9bb 4862 73bc
000001f0: 56fb 6dbc e699 eb3b 81f5 51bd baaa 7c3c
00000200: 05fb 6d3c 2612 1cbd b3dd 91bc ede1 34bd
00000210: f038 5bbc 05d7 ffba 46e1 bebb 6a60 2dbc
00000220: e617 57bb 9ebf e7ba 03e0 acbc de74 5bbb
00000230: 6343 c83b 7ef9 96bd 1b50 2b3c 2350 c0bb
00000240: 4722 68bc ad85 953b 9078 f1bb 0c57 bbbc
00000250: 391c e2bc e80b 303b 0da2 67bc fd9d 82bb
00000260: bd9c 7bbc ac3f f33b e5eb a43c c19b 0abc
00000270: 1847 a1bb 1308 bdbc fe1a 8f3c 0fb2 09bc
00000280: 2d0b c1bb 3a15 953c a15b 15bc 09c5 bcbb
00000290: c128 d139 32f5 3ebb 5dcf 00bc d948 723b
000002a0: e3e4 12ba c874 a73c 061b be38 cd23 a33b
000002b0: 4f1a 1cbc 305f 583c 5a52 2cbc f3db 3cbc
000002c0: ee39 95bc 44ae 53bc e291 91ba 6e80 9ebc
000002d0: 45af 7bbc 6db7 b4ba 3606 863b 9fb2 e0bb
000002e0: 296b 90bc 92bb f2bc be01 623b 7940 50bc
000002f0: 49ff 68bb 58f7 0fbb 6533 88bc 3cf7 4abd
00000300: 229e 8cbc 4e41 67bc d002 403b 05b2 4fbc
00000310: 45ea 1dbc ef30 08bd 1a2d 663c 2dde 59b9
00000320: 9e0f bfbb b63f ffbc d430 8ebc e6d5 4fbc
00000330: 0839 b63b 818d 053c 1a29 303b 2a73 643c
00000340: 1cd7 7ebc b709 58bc 6532 673c 7f1e a03c
00000350: 7d64 bf3a 0042 863c a0b5 60bc 56a6 e6bb
00000360: 0bff b4bc f67d 80bb 1a02 28bc 544d 16bc
00000370: db63 6fbb b1f6 51bc 4ab3 59bc b1fb c6bc
00000380: 9910 aabb 210d 8e3c 2436 1ebc 741e a3bc
00000390: a73f 82bb f7e7 f83c 69ec 0bbc 2f38 833b
000003a0: f376 80bc 3237 79bc e31d 333c 07bc 153b
000003b0: f5f0 a2bd 8d50 2dbc e6e6 b1bb eb52 78bb
000003c0: 2506 143c 344e 79bb 05bf 93bb ba13 56bb
000003d0: 14ff 64bc eda3 cc3b c345 fdbc 7e18 323d
000003e0: 2e48 0e3c 3a7e 77bc e279 8abb 5282 66bb
000003f0: b097 11bc 0376 e9bb bd28 953c eb25 23bc

modality_transformers.atac.layers.0.linear2.weight f4 [64, 256]
0.064709745 0.104521416 0.04580808 0.079501234 0.07956459 0.057601828 -0.045853473 0.049267717
0.15822856 0.021540444 -0.038526174 0.034813985 -0.01751145 -0.09713493 -0.060668316 -0.0968425
-0.062394638 -0.102973536 0.025792135 0.021066215 -0.10503394 0.13577084 -0.008190718 -0.032612104
-0.06876733 -0.080820434 -0.027791355 -0.08097533 0.041503724 -0.06361005 0.10062949 -0.12575136
-0.02868162 -0.113735616 -0.11044453 -0.05215683 -0.103551455 0.011956442 -0.15885086 0.13234855
-0.067585215 -0.017551573 -0.07998851 -0.027503433 0.034581278 -0.030486321 -0.07873077 -0.06546911
0.14241181 -0.051928625 0.06894813 0.059798338 0.066569135 -0.0035484643 -0.079307 0.06527719
0.012724884 -0.035329796 0.042991467 0.085966185 -0.03845834 -0.098841384 -0.092447065 -0.07700093
-0.01325817 -0.07145269 0.08400514 -0.0526789 -0.09939357 0.03722891 0.106062576 -0.04088734
-0.021673629 -0.08488178 -0.042189237 -0.07064888 -0.07897493 0.014081862 0.034305457 -0.009379902
0.08116117 0.03880755 0.089744255 0.10805605 -0.08383303 0.006776661 0.08216616 -0.0007770175
0.12775993 0.002618659 -0.04591801 0.112564094 0.053708527 -0.014959154 0.09252701 -0.10676915
-0.09057508 -0.08168477 0.09216626 -0.02748631 -0.038559385 -0.007918869 0.11322504 -0.06598445
0.084681064 -0.09075623 -0.027349873 0.0944746 -0.123680405 0.08748051 -0.08611047 -0.029098958
-0.006051269 -0.13298926 -0.02632619 -0.07973394 -0.04107912 -0.028653216 0.123155 0.064915024
0.10215062 0.09927719 -0.08026913 0.05168281 0.07179072 0.092616215 -0.005239431 -0.13828735
0.14863089 -0.016453141 -0.07682187 -0.04136955 -0.009437545 -0.118584275 -0.007929386 -0.042372655
-0.014326866 -0.06020427 -0.0503639 -0.045486473 0.042291343 -0.08519091 -0.060314212 0.065613255
0.12861171 -0.008352478 -0.07059309 0.06343566 0.11462195 0.059191916 -0.11181589 0.09992296
0.104462706 -0.12005251 0.10368971 -0.100861356 0.005216612 -0.0420262 -0.07884163 0.054422192
0.06978656 0.035785213 0.07577972 -0.12054005 -0.03851787 -0.11870211 0.121136844 -0.06262658
0.073337816 -0.097372554 -0.08593046 0.24669707 0.062000204 -0.032435074 -0.014369402 0.0029696121
-0.028241068 -0.103607684 0.102001265 -0.09941579 -0.025678314 0.1546417 0.055969317 0.051615313
-0.12064561 0.12789053 0.08720218 -0.09302205 -0.10201394 -0.075080685 -0.003396713 0.005744046
-0.05260224 -0.004195333 0.08235151 0.15778236 -0.016154027 0.035359092 -0.05743026 0.02357039
-0.058372706 -0.06743466 -0.0032069043 0.10148653 -0.020565337 0.06653447 -0.019289806 0.039661676
0.039215144 0.05501501 -0.061718635 0.047309794 -0.0077640195 0.032884546 0.13012987 0.04614903
-0.0732512 0.023127357 -0.01405761 0.07126898 0.1646117 -0.022831528 0.09548406 -0.119073264
-0.035413798 -0.13753131 0.016707001 -0.0052144667 -0.06563428 0.020331118 0.02196255 0.12232236
-0.042499263 0.11446045 0.0066200607 0.06857264 -0.117411435 0.007360413 -0.10389729 0.12828903
-0.024768917 -0.06573621 0.10340025 -0.114426926 -0.06618434 0.0011755264 -0.09071146 -0.08850419
0.07089006 0.10830671 -0.050487965 0.04655168 -0.10873663 -0.013071008 -0.05118138 0.04259506
00000000: 8b86 843d 530f d63d 41a1 3b3d 8bd1 a23d
00000010: c2f2 a23d e5ef 6b3d dad0 3bbd f2cc 493d
00000020: ab06 223e 9675 b03c 9fcd 1dbd 1c99 0e3d
00000030: 2c74 8fbc aeee c6bd 577f 78bd 5c55 c6bd
00000040: 8591 7fbd cae3 d2bd 074a d33c 0e93 ac3c
00000050: 091c d7bd 8307 0b3e 5c32 06bc 4594 05bd
00000060: e3d5 8cbd 2f85 a5bd b2aa e3bc 65d6 a5bd
00000070: cfff 293d fc45 82bd d616 ce3d f7c4 00be
00000080: b7f5 eabc 38ee e8bd be30 e2bd 66a2 55bd
00000090: c912 d4bd f4e4 433c cda9 22be 6186 073e
000000a0: 1e6a 8abd 51c8 8fbc 04d1 a3bd e14e e1bc
000000b0: 19a5 0d3d 73be f9bc 993d a1bd ab14 86bd
000000c0: 67d4 113e 1cb3 54bd ad34 8d3d 1aef 743d
000000d0: 6655 883d 5a8d 68bb b56b a2bd 0cb0 853d
000000e0: 087c 503c fab5 10bd d217 303d 0a0f b03d
000000f0: 7e86 1dbd 5a6d cabd e354 bdbd aab2 9dbd
00000100: cc38 59bc ca55 92bd e30a ac3d d5c5 57bd
00000110: db8e cbbd 577d 183d 5637 d93d 7c79 27bd
00000120: e58c b1bc 80d6 adbd 9fce 2cbd 5cb0 90bd
00000130: 9cbd a1bd 9cb7 663c e183 0c3d 29ae 19bc
00000140: d437 a63d aaf4 1e3d d6cb b73d 7e4c dd3d
00000150: a7b0 abbd c10e de3b bb46 a83d c3b0 4bba
00000160: 80d3 023e cf9d 2b3b 8614 3cbd 0188 e63d
00000170: 79fd 5b3d 3d17 75bc cd7e bd3d c9a9 dabd
00000180: 6d7f b9bd 584a a7bd aac1 bc3d f82a e1bc
00000190: 72f0 1dbd 25be 01bc 88e2 e73d db22 87bd
000001a0: 446d ad3d 67de b9bd d70c e0bc e67b c13d
000001b0: 274c fdbd fb28 b33d b05a b0bd f060 eebc
000001c0: b949 c6bb 562e 08be 06aa d7bc 8c4b a3bd
000001d0: 9442 28bd 26ba eabc b038 fc3d 2bf2 843d
000001e0: 5834 d13d d751 cb3d 2464 a4bd 5bb1 533d
000001f0: 0307 933d 92ad bd3d 88af abbb 339b 0dbe
00000200: b232 183e bdc8 86bc c954 9dbd 1e73 29bd
00000210: ef9f 1abc 50dc f2bd 41ea 01bc f38e 2dbd
00000220: 3bbb 6abc c198 76bd 604a 4ebd 0650 3abd
00000230: b039 2d3d 9278 aebd 090c 77bd 3e60 863d
00000240: cab2 033e d5d8 08bc 1c93 90bd 8eea 813d
00000250: eabe ea3d 3973 723d bbff e4bd 69a4 cc3d
00000260: 8bf0 d53d 17de f5bd 455b d43d 6690 cebd
00000270: 1df0 aa3b aa23 2cbd b877 a1bd cee9 5e3d
00000280: 42ec 8e3d 8493 123d 6632 9b3d b4dd f6bd
00000290: eac4 1dbd 181a f3bd 9816 f83d 5d42 80bd
000002a0: 2332 963d 436b c7bd 4ffc afbd 289e 7c3e
000002b0: edf3 7d3d a4da 04bd a46d 6bbc d39d 423b
000002c0: d059 e7bc 4430 d4bd 0ae6 d03d 819a cbbd
000002d0: 545b d2bc 655a 1e3e 1540 653d 946a 533d
000002e0: 0c15 f7bd bcf5 023e 0e97 b23d 5882 bebd
000002f0: afec d0bd e7c3 99bd 639b 5ebb 8d38 bc3b
00000300: 7275 57bd 0179 89bb e9a7 a83d b391 213e
00000310: 7355 84bc b2d4 103d fe3b 6bbd b116 c13c
00000320: 3818 6fbd 2f1b 8abd ed2a 52bb 2bd8 cf3d
00000330: a378 a8bc 3943 883d a805 9ebc 4874 223d
00000340: 0fa0 203d 6b57 613d aecc 7cbd eac7 413d
00000350: 5169 febb f2b1 063d c440 053e c406 3d3d
00000360: ba04 96bd 9575 bd3c e451 66bc 79f5 913d
00000370: f88f 283e 2f09 bbbc 268d c33d afdc f3bd
00000380: 0f0e 11bd 02d5 0cbe 1fdd 883c 1ede aabb
00000390: 446b 86bd 728d a63c ceea b33c 2584 fa3d
000003a0: b513 2ebd 3e6a ea3d 18ed d83b d06f 8c3d
000003b0: 6875 f0bd 9f2f f13b 1ac8 d4bd 335e 033e
000003c0: 2fe8 cabc b5a0 86bd 83c3 d33d aa58 eabd
000003d0: a88b 87bd 1f14 9a3a eec6 b9bd af41 b5bd
000003e0: cf2e 913d e9cf dd3d 78cc 4ebd f9ac 3e3d
000003f0: 4fb1 debd c827 56bc 91a3 51bd 2878 2e3d
