ml_output/Oligo_NN/atac/model_1.pth (torch, 474380 bytes, 48 tensors)

query f4 [1, 64]
0	0x3f3306fa	0.6993252
1	0xbf2d3911	-0.676652
2	0xbef458ae	-0.47723907
3	0xbdba53f3	-0.09098043
4	0x3ee93d7a	0.45554715
5	0x3f5fe47a	0.87458
6	0xc002c7d1	-2.0434458
7	0x3f294e62	0.6613523
8	0x3f661ceb	0.89887875
9	0x3f111e41	0.5668679
10	0x3ff0264c	1.8761687
11	0x3d0cb6cd	0.03435402
12	0x3fad34b6	1.3531711
13	0x3f3d09b2	0.7384292
14	0x3f6fc1a9	0.93654877
15	0x3f0d12dc	0.551069
16	0x3f07e8cb	0.5308959
17	0xbe2400a9	-0.16015877
18	0xbe841309	-0.25795773
19	0x3fc1d347	1.5142602
20	0xbf9be56a	-1.2179387
21	0x3f93e8f6	1.1555469
22	0xbe83a9c9	-0.25715473
23	0xbe2cf6a0	-0.16890955
24	0xbf9b4ebd	-1.2133404
25	0x3f01736a	0.5056673
26	0x3f837b5e	1.0272024
27	0x3f52c0f1	0.82325655
28	0xbf69595f	-0.91151994
29	0xc008a532	-2.1350827
30	0xbe833836	-0.25628823
31	0x3d7a2f4b	0.06108026
32	0x40084596	2.1292472
33	0x3fb4de8e	1.4130418
34	0x3df5f217	0.120090656
35	0x3f2b8c9a	0.67011416
36	0x3f7a62f2	0.9780723
37	0xbe886bb5	-0.26644674
38	0xbf2a7567	-0.6658539
39	0x3e2bbbb8	0.16770828
40	0x3f290831	0.66028124
41	0xbfb0f826	-1.3825729
42	0xbf2967f7	-0.6617426
43	0x3fae5bd7	1.3621777
44	0x40031245	2.04799
45	0xbf84b456	-1.0367534
46	0x3e54cf1f	0.20782135
47	0x3e43f79b	0.19137423
48	0x3f3fb761	0.7488919
49	0xbed544a8	-0.41653943
50	0x3eb4557a	0.35221463
51	0x3ec0ae28	0.3763287
52	0x3fd51f7e	1.6650236
53	0xbf9c840a	-1.2227795
54	0x3fe1d3ec	1.7642798
55	0x3e949e5f	0.29027078
56	0x3edee7c5	0.435362
57	0xbd94b92e	-0.07261883
58	0x3fbbb263	1.4663814
59	0xbfe84328	-1.8145494
60	0xbefc04e8	-0.49222493
61	0x3d084526	0.03326907
62	0x3e758114	0.2397502
63	0x3eea3859	0.45746115

cls_embeddings.atac f4 [1, 1, 64]
0	0xbf14508a	-0.5793539
1	0x3fe3600e	1.7763689
2	0xbf74b975	-0.95595485
3	0x3fb796ba	1.4342873
4	0xbfabe262	-1.3428462
5	0xbee78183	-0.45215997
6	0x3d699cdf	0.05703437
7	0xbf8dc135	-1.1074587
8	0xc02c6e1c	-2.6942205
9	0x3ed6c361	0.41945937
10	0xbf566815	-0.83752567
11	0xbf842ee3	-1.0326809
12	0x4045d547	3.0911424
13	0xbf02a76f	-0.51036733
14	0xbf571765	-0.8402007
15	0xbe5687eb	-0.20950286
16	0xbe8f18c8	-0.27948594
17	0xbec05281	-0.37562945
18	0xbf01b1dd	-0.5066202
19	0xbe747069	-0.23871006
20	0xbe841abc	-0.25801647
21	0xbe67bd9c	-0.22630924
22	0x3f863938	1.0486212
23	0xbfc39c85	-1.5282141
24	0x3fce904e	1.6137788
25	0x3e4ca163	0.19983439
26	0xbfb0b2b6	-1.3804538
27	0xbf99c2af	-1.2012538
28	0x3e95d9b2	0.2926765
29	0xbd8a4fe2	-0.06753518
30	0x3e953fa0	0.29150105
31	0x3f8ea7ae	1.1144922
32	0xbdaeb4d6	-0.085305855
33	0x3f71bfa9	0.94433075
34	0x3f189da7	0.5961556
35	0x3fbccf72	1.4750807
36	0xbe1753f3	-0.14778118
37	0x3e3f837b	0.187025
38	0xbf1f69f4	-0.62271047
39	0xbfaa7402	-1.3316653
40	0xc00445c2	-2.0667577
41	0x3f29af99	0.66283566
42	0x3f940c3f	1.1566237
43	0xc02d5919	-2.708563
44	0xbf4b5170	-0.7942114
45	0xbfa11de7	-1.258725
46	0xbedaa040	-0.42700386
47	0xbf311205	-0.6916812
48	0x3f96a928	1.1770372
49	0xbfe70646	-1.804879
50	0xbd3c5f18	-0.045989126
51	0x3f08201a	0.53173983
52	0xbe27e8c2	-0.16397384
53	0x3fa7f022	1.3120158
54	0x3f3e1bcf	0.7426118
55	0x3b3c6f64	0.0028752917
56	0xbe337f92	-0.17529133
57	0xbe1b2dac	-0.15154141
58	0xbf84b414	-1.0367455
59	0x3f0c16d2	0.5472232
60	0x3fcb24ab	1.5870565
61	0x3fb5c9a6	1.4202163
62	0xbeed9868	-0.4640534
63	0xbed879f3	-0.4228054

modality_embeddings.atac.weight f4 [64, 9]
0	0xbe5e761b	-0.21724741
1	0xbec05412	-0.3756414
2	0xbda42551	-0.0801493
3	0xbc1a3073	-0.009410965
4	0x3e11a5f4	0.14223462
5	0x3dac6e56	0.084194824
6	0x3e8ce307	0.27516958
7	0xbdee6b9f	-0.11641621
8	0x3e77c7a2	0.24197248
9	0x3e15259d	0.1456513
10	0x3b9ae042	0.0047264406
11	0x3d57e8ed	0.05271237
12	0xbd8e3463	-0.06943586
13	0x3e3edca8	0.18638861
14	0x3e7d61b6	0.24744305
15	0xbe914549	-0.28373173
16	0x3dda0b92	0.10646738
17	0xbe410183	-0.18848233
18	0x3e273fe0	0.1633296
19	0xbd85515e	-0.0650966
20	0x3d904d88	0.07046038
21	0xbdc87542	-0.0978799
22	0x3c87c3b9	0.01657282
23	0x3b5759da	0.0032859952
24	0xbe70f6b2	-0.23531607
25	0x3e43576f	0.19076322
26	0xbd6e7a48	-0.058222085
27	0xbe4f2d7f	-0.20232199
28	0xbe311481	-0.17292978
29	0x3d67c32b	0.05658261
30	0x3e5faaaf	0.21842454
31	0xbe3bee1b	-0.18352549
32	0x3e43b85e	0.19113299
33	0xbddb5380	-0.10709286
34	0x3e154f25	0.14580972
35	0x3d091880	0.03347063
36	0x3d1bab5f	0.03800523
37	0xbccb1a92	-0.024792943
38	0x3e069c9f	0.13145684
39	0x3c489561	0.012242646
40	0xbde712a9	-0.11282856
41	0xbe4f919b	-0.20270388
42	0x3e882ba5	0.26595798
43	0x3e642d16	0.22282824
44	0xbe68bcd7	-0.22728287
45	0xbe7f82dc	-0.24952263
46	0xbd013ebb	-0.031553965
47	0xbdde19ae	-0.10844742
48	0xbde33058	-0.11093205
49	0x3c7b169e	0.015325217
50	0x3dba5714	0.0909864
51	0xbe0c69b7	-0.13712202
52	0x3eae79d0	0.3407731
53	0xbe6f2d6b	-0.2335717
54	0x3e8f6d36	0.2801301
55	0x3e2f3bda	0.17112675
56	0xbe7f78f5	-0.24948485
57	0x3e0cbd40	0.13744068
58	0xbdb6ec00	-0.08931732
59	0xbe2e5735	-0.17025454
60	0x3d6ccdd7	0.05781349
61	0x3cc609c3	0.024174577
62	0x3d96e033	0.07366981
63	0xbdeff352	-0.117163315
64	0xbc8dd49f	-0.0173133
65	0xbe8590f9	-0.26087168
66	0x3da6f250	0.08151686
67	0xbe17cc21	-0.14823963
68	0xbcfbd8b9	-0.03074299
69	0xbe00b50c	-0.12569064
70	0x3e1b2d6d	0.15154047
71	0x3d7b9b50	0.061427414
72	0xbe32a0b3	-0.17444114
73	0x3e82f9a2	0.2558108
74	0x3eb71557	0.35758469
75	0xbdd0d5ee	-0.10197054
76	0x3d296443	0.041355383
77	0xbe2f5ce7	-0.17125283
78	0x3e8a09fd	0.26960745
79	0xbd2d841b	-0.042362314
80	0xbe3db2cb	-0.18525235
81	0x3d4dce89	0.050245795
82	0xbe846420	-0.2585764
83	0x3dbfff99	0.09374923
84	0x3da9946a	0.08280261
85	0x3bda8455	0.0066686072
86	0x3e8f3361	0.27968886
87	0x3e1fcdec	0.15605897
88	0x3d940c8b	0.07228955
89	0xbe73376c	-0.2375161
90	0xbe5f0f89	-0.2178327
91	0x3e692f3c	0.22771925
92	0x3e3fe5cc	0.18740004
93	0x3d44edc3	0.04807831
94	0x3cfacd07	0.030615343
95	0x3e2e8f9d	0.17046972
96	0xbdd775c4	-0.10520509
97	0x3e1662e1	0.14686157
98	0xbd6ecad9	-0.05829892
99	0x3c8e8712	0.01739839
100	0x3dd87afe	0.10570334
101	0x3e73bd4d	0.23802681
102	0x3dd47d68	0.10375482
103	0xbe10ed21	-0.14152957
104	0xbdd5831f	-0.104254
105	0x3e54727f	0.20746802
106	0xbe0b7ea5	-0.1362253
107	0xbc5dc045	-0.01353461
108	0xbdcd57f8	-0.10026544
109	0xbe447733	-0.19186096
110	0xbc4c6230	-0.012474582
111	0x3e5768bb	0.21036045
112	0xbd43abec	-0.04777138
113	0x3d06251d	0.032750238
114	0x3c48a21c	0.012245681
115	0xbdf825c5	-0.12116579
116	0xbdf7000d	-0.120605566
117	0xbe37b2dc	-0.17939323
118	0x3e3333c3	0.17500214
119	0xbd8bc178	-0.068240106
120	0x3e955215	0.29164186
121	0x3dea7f06	0.11450009
122	0xbdec8546	-0.115488574
123	0xbe404b6f	-0.18778776
124	0xbe4587af	-0.1929004
125	0xbe52a6b8	-0.2057141
126	0xbe9ab5e6	-0.30216902
127	0x3d8ef5e9	0.069804974
128	0xbc8ab1b7	-0.016930444
129	0xbd7feea3	-0.06248344
130	0x3e62cf39	0.22149362
131	0x3e115d6c	0.14195794
132	0xbe506946	-0.20352659
133	0xbdbf8622	-0.09351756
134	0x3e0ce459	0.13758983
135	0x3ec67fbe	0.38769335
136	0x3ecf9acc	0.40547788
137	0x3e591e95	0.21203072
138	0xbd31a51a	-0.043370344
139	0x3e467a85	0.19382675
140	0xbe885c66	-0.26632994
141	0xbe3a9779	-0.18221845
142	0xbdddb4dc	-0.10825512
143	0xbd4eaceb	-0.050457876
144	0xbda79cd6	-0.08184211
145	0xbd2eeae7	-0.04270449
146	0x3cd87409	0.026422517
147	0xbcdd4f15	-0.027015248
148	0xbe4c33bc	-0.1994161
149	0xbde4a1f8	-0.111637056
150	0x3ea69872	0.32538182
151	0xbd98a2ad	-0.07452903
152	0xbdba72ab	-0.091039024
153	0xbe89d905	-0.26923385
154	0xbe100639	-0.14064874
155	0xbdc4e995	-0.09614865
156	0x3de6d311	0.112707265
157	0xbe0ca603	-0.13735203
158	0xbd902baf	-0.07039582
159	0x3c3a0e98	0.0113560185
160	0x3e2fef45	0.17181118
161	0x3db6e458	0.08930272
162	0xbdf8bab7	-0.12144988
163	0xbd1c08ba	-0.03809426
164	0x3d10615e	0.035249107
165	0x3d6b2c69	0.0574154
166	0xbd8e6a77	-0.069539
167	0x3e1ce7c7	0.15322791
168	0xbd50c25a	-0.050966598
169	0xbd0c34b7	-0.03422996
170	0xbc0e9699	-0.0087028975
171	0x3e139dda	0.14415684
172	0x3e2a8d75	0.16655524
173	0x3df69028	0.120392144
174	0x3e237ca0	0.1596551
175	0xbe792187	-0.24329196
176	0xbdcb477e	-0.099257454
177	0xbd8cd871	-0.068772204
178	0x3d1da6f8	0.038489312
179	0xbe6649bd	-0.22489066
180	0xbe4a15ad	-0.19734831
181	0xbe94432b	-0.28957495
182	0xbe809911	-0.2511678
183	0x3de0437b	0.10950371
184	0xbe164665	-0.14675291
185	0xbe253c94	-0.1613639
186	0x3da80e87	0.08205896
187	0xbbca8bcc	-0.006181216
188	0xbe0efba5	-0.13963182
189	0x3dab0310	0.083501935
190	0x3e936fd7	0.28796265
191	0xbe21142a	-0.15730348
192	0x3e1a90b9	0.1509427
193	0x3df3b67f	0.11900043
194	0x3dbe2a40	0.09285402
195	0xbe9a5c55	-0.3014857
196	0x3e64c478	0.22340572
197	0xbe6e2f29	-0.23260178
198	0xbdfb5f5d	-0.122740485
199	0xbdd42914	-0.103593975
200	0xbe41de28	-0.18932402
201	0x3df05d25	0.11736516
202	0xbe6e7918	-0.23288381
203	0x3d93fe46	0.07226233
204	0xbe9257c2	-0.2858258
205	0x3dce7719	0.1008131
206	0x3c5bef51	0.013423757
207	0xbd3fae28	-0.046796948
208	0xbe60d8d2	-0.2195771
209	0x3cbbda96	0.022931378
210	0x3e4d2ef0	0.20037436
211	0x3cebf8ed	0.02880522
212	0x3d745f89	0.059661422
213	0xbdd17200	-0.10226822
214	0xbe124b46	-0.14286527
215	0x3e15548a	0.1458303
216	0xbe6ad00b	-0.22930925
217	0xbc5db872	-0.013532745
218	0xbe602f71	-0.21893097
219	0x3e61b634	0.22042161
220	0xbe14de58	-0.14537942
221	0xbe774417	-0.24147068
222	0xbe8434d5	-0.25821558
223	0x3e764ab3	0.24051933
224	0x3e6cfbcb	0.23142926
225	0x3e3503f7	0.17677294
226	0x3e1e2c27	0.1544653
227	0xbe8599df	-0.26093957
228	0xbc9c73af	-0.019098131
229	0xbde546d8	-0.11195153
230	0x3dbfd491	0.09366716
231	0x3d9d70fb	0.07687565
232	0x3e5d23f0	0.2159574
233	0x3e447135	0.1918381
234	0xbe1b3c92	-0.15159824
235	0xbcd8e060	-0.026474178
236	0x3e680cbe	0.22661111
237	0xbdf8ac8e	-0.12142287
238	0xbd63ea0f	-0.055643138
239	0x3e21250f	0.15736793
240	0x3a82f396	0.0009990807
241	0xbd049f0d	-0.032378245
242	0x3e7cfc95	0.24705727
243	0xbc863881	-0.016384365
244	0x3e9ca375	0.30593458
245	0x3d8d23a4	0.068915635
246	0xbcc31006	-0.023811352
247	0xbdcda22c	-0.100406975
248	0x3e084e53	0.13311128
249	0xbe3619c4	-0.17783266
250	0xbe8b146e	-0.27164024
251	0x3e203f0f	0.15649055
252	0x3ae6a3b6	0.0017596397
253	0x3dd73a54	0.10509172
254	0xbe7faa08	-0.24967206
255	0x3e58f9df	0.21189068

modality_embeddings.atac.bias f4 [64]
0	0xbe68dabe	-0.22739694
1	0x3c9b92dd	0.018990928
2	0x3e172e78	0.1476382
3	0xbde8b9d2	-0.113635674
4	0x3bda0d17	0.0066543925
5	0x3cd9d15f	0.026589094
6	0x3dbd48ce	0.09242402
7	0x3d09d580	0.033650875
8	0x3d1d9618	0.03847322
9	0xbe38fd6c	-0.18065423
10	0xbdd17a08	-0.10228354
11	0x3d6f544d	0.058430005
12	0x3d27d635	0.040975768
13	0x3dcc1a1d	0.09965918
14	0xbd06a519	-0.032872293
15	0x3e43bbb8	0.19114578
16	0xbd17015b	-0.036866527
17	0xbdb7a81f	-0.089676134
18	0xbd706dd0	-0.058698475
19	0x3e51aa0a	0.20475021
20	0x3d81dbe4	0.06340769
21	0x3d08bf87	0.03338578
22	0x3db9d27b	0.09073349
23	0xbdb726c2	-0.08942939
24	0xbce83d07	-0.028349413
25	0xbdeb850a	-0.114999846
26	0xbd2cdf76	-0.042205296
27	0x3d7cf175	0.06175371
28	0xbd66fd3c	-0.056393847
29	0xbe052145	-0.13000973
30	0xbd43a5a9	-0.047765408
31	0xbdcb8d72	-0.09939088
32	0x3d988b1b	0.07448407
33	0x3e0ed543	0.1394854
34	0xbdea63ab	-0.114447914
35	0x3cd8f538	0.026484117
36	0x3dd9d92a	0.10637124
37	0xbdae2994	-0.08504024
38	0x3aec45e4	0.00180262
39	0x3e24cded	0.1609418
40	0xbd5fec10	-0.054668486
41	0x3e1770f4	0.14789182
42	0x3ccd8e97	0.025092406
43	0xbd0f8300	-0.03503704
44	0xbd5e62f8	-0.054293603
45	0x3dedd9eb	0.1161383
46	0xbe3c2313	-0.18372755
47	0x3dd460d2	0.103700295
48	0xbcdce124	-0.026962824
49	0xbcae4923	-0.021275109
50	0xbd70b6d4	-0.05876811
51	0x3daf0c92	0.085473195
52	0xbe246d6f	-0.1605737
53	0xbd550920	-0.052010655
54	0xbe290b73	-0.16508274
55	0x3e06139d	0.1309342
56	0x3d3fc8a0	0.04682219
57	0x3d8d1113	0.06888022
58	0xbbfeb9c8	-0.0077736117
59	0x3e10a7bb	0.14126484
60	0x3dfb5153	0.12271371
61	0x3d9ffbe7	0.078117184
62	0xbde12734	-0.109938055
63	0xbdfcc01e	-0.12341331

modality_transformers.atac.layers.0.self_attn.in_proj_weight f4 [192, 64]
0	0xbd4fc6e1	-0.050726775
1	0xbb9da7ca	-0.004811262
2	0x3d759b9a	0.059962846
3	0x3d1fa70c	0.038977668
4	0xbd059abd	-0.032618273
5	0x3d2e9086	0.042618297
6	0x3da785d2	0.08179821
7	0xbded8d14	-0.11599174
8	0x3d8aed78	0.06783575
9	0xbdf2d208	-0.118564665
10	0xbdf8cc3c	-0.121483296
11	0x3d7ba3d4	0.061435536
12	0xbd90d2c9	-0.07071454
13	0xbb6c1f81	-0.003602952
14	0x3e44ab07	0.19205867
15	0x3db0b3a7	0.08628016
16	0xbd9acf18	-0.07559031
17	0xbe09364b	-0.13399617
18	0x3e031599	0.12801208
19	0x3df85e7b	0.12127396
20	0x3e33b600	0.17549896
21	0xbdd7dbb5	-0.10539953
22	0xbd9f88b0	-0.07789743
23	0x3d950113	0.072755955
24	0xbcaf8a89	-0.021428363
25	0xbdc0c767	-0.09413033
26	0x3d392e78	0.04521033
27	0xb91e35b2	-0.00015088057
28	0x3d4127b9	0.047157023
29	0x3c89b8a4	0.016811676
30	0x3d39810f	0.045289095
31	0x3d91a6fd	0.071119286
32	0xbc8b0148	-0.016968384
33	0x3cc855dd	0.024455005
34	0xbdc42a69	-0.095784016
35	0xbd75b756	-0.059989296
36	0x3d8f3473	0.06992426
37	0xbe526c6e	-0.20549175
38	0xbd8eebf7	-0.069786005
39	0xbe000501	-0.12501909
40	0xbdc0a457	-0.09406345
41	0x3dbc3b57	0.09191006
42	0x3d8a5ebd	0.06756351
43	0xbdf1474f	-0.11781179
44	0x3e15791d	0.14596982
45	0x3e08b5ab	0.13350551
46	0xbe0d9a68	-0.13828433
47	0xbe23765a	-0.15963116
48	0x3dc20f34	0.09475556
49	0xbde6ea76	-0.112751886
50	0xbdf3d404	-0.11905673
51	0xbd93b7f3	-0.0721282
52	0x3d8159a2	0.06315924
53	0x3e129e77	0.14318262
54	0xbe0a3f1c	-0.13500637
55	0xbe1fef73	-0.15618686
56	0xbd505dfb	-0.050870877
57	0xbca7ec2e	-0.020498361
58	0xbc8ac967	-0.01694174
59	0x3ca68ed3	0.020331776
60	0xbd6652b5	-0.05623122
61	0xbd2e7b0a	-0.042597808
62	0xbd4d1784	-0.050071254
63	0x3c2c8734	0.010530282
64	0xbdd5b215	-0.10434357
65	0x3d020e54	0.031751946
66	0xbe1df237	-0.15424429
67	0xbdccae6e	-0.09994207
68	0x3de96f7c	0.11398217
69	0xbd904dd5	-0.07046095
70	0x3d84b12c	0.06479105
71	0xbe0f4555	-0.13991292
72	0x3d9d4906	0.07679944
73	0xb9b5b847	-0.00034660308
74	0xbdbe3bec	-0.09288773
75	0x3d221136	0.039567195
76	0x3da44955	0.080217995
77	0xbe2c330c	-0.16816348
78	0x3e177eeb	0.14794509
79	0x3cb8faef	0.022580592
80	0xbdf4d19d	-0.11954043
81	0xbdb3726d	-0.08762059
82	0x3d156851	0.036476437
83	0x3bf60fc7	0.007509205
84	0xbde52db9	-0.111903615
85	0x3dadd38d	0.08487616
86	0x3b4e6187	0.0031491236
87	0xbdf21e78	-0.11822218
88	0xbb61ccaa	-0.0034454265
89	0x3d072cae	0.033001594
90	0x3e111167	0.14166795
91	0xbe03ca91	-0.12870242
92	0xbda363ba	-0.07978006
93	0xbdebac3a	-0.11507459
94	0x3d12b5ae	0.035817795
95	0x3c1303b0	0.008973047
96	0xbda191b5	-0.078891195
97	0xbd94ccb9	-0.0726561
98	0x3d3bfad1	0.045893494
99	0x3d184e14	0.037183836
100	0x3d9b1357	0.07572048
101	0xb8a8142c	-8.0146216e-05
102	0xbe31ad9b	-0.17351381
103	0xbd48a0e0	-0.048981547
104	0x3d8042bb	0.06262728
105	0x3d809924	0.06279209
106	0x3e013cfc	0.1262092
107	0x3daf83d2	0.085700646
108	0xbd7d9093	-0.061905455
109	0x3de40ca2	0.11135222
110	0x3b4e52f0	0.003148254
111	0xbdb97ff3	-0.090576075
112	0x3cd3c125	0.025848934
113	0xbd849152	-0.0647303
114	0x3c6a3a76	0.014296165
115	0x3df467b4	0.11933842
116	0xbd8b76be	-0.06809758
117	0xbced1be5	-0.028943965
118	0x3daaa8c8	0.08332974
119	0x3d1684c8	0.036747724
120	0x3e029f8a	0.12756172
121	0xbe087bf3	-0.13328533
122	0x3e00ada1	0.12566234
123	0x3e1b0277	0.15137659
124	0x3d84f623	0.06492259
125	0x3da3175a	0.07963438
126	0x3da8080c	0.0820466
127	0x3db95443	0.09049275
128	0x3d827e76	0.06371777
129	0x3d84b91c	0.06480619
130	0x3bb41e60	0.005496785
131	0xbd277cf0	-0.040890634
132	0x3d80e7a1	0.0629418
133	0xbbeae5b4	-0.007168496
134	0x3db4ad78	0.08822149
135	0x3c5dd0f3	0.013538587
136	0x3db735d2	0.08945812
137	0x3c3de8aa	0.011591116
138	0x3dc4d8e0	0.09611678
139	0x3db355e8	0.0875662
140	0xbe399563	-0.18123393
141	0x3ca7e959	0.020497011
142	0xbdf5210b	-0.11969193
143	0x3c0f42b6	0.0087439325
144	0x3bc40b22	0.0059827724
145	0xbdd8835c	-0.1057193
146	0xbda62367	-0.08112221
147	0xbda33ae2	-0.079702154
148	0xbb9df2a5	-0.0048201852
149	0x3dc303c9	0.09522206
150	0x3b9b4415	0.0047383406
151	0xbd940698	-0.0722782
152	0xbe067bc5	-0.13133152
153	0x3db7cee0	0.08975005
154	0xbd9794e8	-0.074014485
155	0x3d24858e	0.04016643
156	0x3da17824	0.07884243
157	0xbcdb0751	-0.026736887
158	0xbdf3b0cf	-0.11898958
159	0x3dbfb768	0.09361154
160	0x3e137da7	0.14403401
161	0xbdf44fed	-0.11929307
162	0x3d7cfe99	0.06176624
163	0x3cadd1d7	0.021218223
164	0xbe573049	-0.21014513
165	0xbcd991d2	-0.02655879
166	0x3d581ec8	0.05276373
167	0x3e0f3f50	0.13988996
168	0x3c97729d	0.018487269
169	0xbd9a448d	-0.07532606
170	0x3d9efe7e	0.07763384
171	0xbda940fa	-0.082643464
172	0xbb552df9	-0.0032528623
173	0x3db9d916	0.09074609
174	0x3ccc4928	0.024937227
175	0x3e1aacd2	0.15104988
176	0xbe27e493	-0.16395788
177	0xbdbbf070	-0.09176719
178	0xbd6318bc	-0.05544351
179	0x3d851242	0.06497623
180	0xbd62f517	-0.055409517
181	0xbcf93752	-0.030421887
182	0x3e044edf	0.12920712
183	0xbdafb119	-0.085787006
184	0x3db46592	0.088084355
185	0xbdbec268	-0.09314424
186	0xbdf09142	-0.11746456
187	0xbd0982b0	-0.0335719
188	0x3dccdcf6	0.100030825
189	0x3e0831ad	0.133002
190	0xbd6f9c73	-0.05849881
191	0x3e2a82e3	0.16651492
192	0xbdd13a15	-0.102161564
193	0x3cd0b606	0.02547742
194	0xbc9b2058	-0.018936321
195	0xbe613cd5	-0.21995862
196	0xbd9f54c8	-0.077798426
197	0x3e9ef751	0.31048062
198	0xbe6fc6e0	-0.23415709
199	0x3dda2576	0.10651676
200	0x3d95a274	0.07306376
201	0xbb86d1ed	-0.0041143806
202	0xbd907592	-0.07053675
203	0x3e26f736	0.16305241
204	0xbe086b22	-0.13322118
205	0x3d593684	0.053030506
206	0x3d83634b	0.06415423
207	0xbc22b856	-0.009931644
208	0x3e0a35f5	0.13497145
209	0x3db8ba1f	0.09019875
210	0xbdc666ae	-0.09687553
211	0x3d37b778	0.044852704
212	0x3e3cd98e	0.18442366
213	0x3c842f25	0.016135762
214	0x3c70bce4	0.014693473
215	0x3db527cd	0.08845482
216	0xbd3a2e55	-0.045454342
217	0xbe287806	-0.16452035
218	0x3d64cb1e	0.05585777
219	0x3c79a07e	0.015236018
220	0xbe77f84c	-0.24215811
221	0xbd873c40	-0.06603289
222	0x3b3306d9	0.0027317314
223	0xbbc29a6b	-0.005938818
224	0xbe1f945f	-0.15583943
225	0xbc9a17ad	-0.018810118
226	0xbe76dfdb	-0.24108832
227	0xbb8cccf9	-0.0042968956
228	0x3e6b45c1	0.22975828
229	0xbe3b674c	-0.18301123
230	0xbcc1802e	-0.023620691
231	0x3e15bd2d	0.14622946
232	0x3e196dd0	0.14983296
233	0x3cebb7a3	0.028774088
234	0x39e55477	0.00043741215
235	0xbd258243	-0.04040743
236	0x3e342c8d	0.1759512
237	0x3cf07485	0.029352436
238	0x3d7088c7	0.05872419
239	0x3d7ddaff	0.06197643
240	0xbe33c42f	-0.17555307
241	0x3d89b3ff	0.06723785
242	0x3e0f5912	0.13998821
243	0x3dace210	0.084415555
244	0x3e5c8c4f	0.21537898
245	0xbdbf1c69	-0.09331591
246	0x3b99fe86	0.004699531
247	0xbe0a35e6	-0.13497123
248	0xbde185c5	-0.11011843
249	0xbe18ffeb	-0.14941375
250	0xbd951e50	-0.07281172
251	0x3dc13ddf	0.09435629
252	0xbcbd8348	-0.023133889
253	0xbe134c75	-0.14384635
254	0x3e2987e9	0.16555752
255	0x3d9c438c	0.07630071

modality_transformers.atac.layers.0.self_attn.in_proj_bias f4 [192]
0	0xbc9510ad	-0.018196428
1	0xbc058880	-0.00815022
2	0x3b96ff24	0.004608052
3	0xbdb758c1	-0.08952475
4	0xbcd5bbf1	-0.026090594
5	0xbcd25cd8	-0.025679037
6	0xbcd2fde8	-0.025755838
7	0xbbfbf071	-0.007688575
8	0xbcd568a9	-0.026050882
9	0x3d3620f0	0.044465005
10	0xbd09785b	-0.033562046
11	0x3b82e3e8	0.0039944537
12	0xbcc76f64	-0.024345107
13	0x3c9c12cc	0.019051932
14	0xbc5ff5ff	-0.01366949
15	0x3af41a8b	0.0018623633
16	0x3bf7fb21	0.0075677787
17	0x3c34beb5	0.011031796
18	0xbc21302d	-0.009838146
19	0x3c5b89a0	0.013399512
20	0x39b026fa	0.00033598376
21	0xbc022fc8	-0.007945962
22	0xbaa5ba41	-0.0012644009
23	0x3b5757b0	0.0032858662
24	0x3ca9fddb	0.02075093
25	0xbc34ace3	-0.0110275475
26	0xbc37d7a4	-0.011220846
27	0x39fc7128	0.00048149494
28	0xbbe2e4c9	-0.006924246
29	0x3cca1b35	0.024671176
30	0x3b82cb6d	0.0039915354
31	0xbc36ea17	-0.01116421
32	0xbca25c83	-0.019819504
33	0x39c6e787	0.00037938004
34	0xbbbe331d	-0.005804433
35	0xbcfeebbb	-0.031118264
36	0xbcbd861c	-0.023135237
37	0xba1f5638	-0.0006078216
38	0x3c86c0ec	0.016449414
39	0xbceb6412	-0.02873424
40	0xbd0c61de	-0.03427302
41	0x3c9c426e	0.019074645
42	0xb88c2b85	-6.683826e-05
43	0x3cecdb7c	0.028913252
44	0xbc794009	-0.015213021
45	0xbc840239	-0.016114341
46	0x3d40089e	0.046883218
47	0xbbcf9a48	-0.0063355304
48	0x3c54eaf6	0.012995472
49	0x3d14021b	0.03613482
50	0x3d386d05	0.045025844
51	0xbc0d5566	-0.008626318
52	0xbc69bfae	-0.014266891
53	0x3bac4383	0.0052570715
54	0x3c8bff1d	0.01708942
55	0xba20b379	-0.0006130259
56	0xbbc8796d	-0.0061179907
57	0x3c211928	0.009832658
58	0xbcda9d60	-0.02668637
59	0xbc08d49f	-0.008351474
60	0x3b6f1dcd	0.0036486269
61	0x3a36cdd0	0.00069734175
62	0x3c968738	0.018375024
63	0x3b240967	0.0025030018
64	0x3bc876e7	0.00611769
65	0xbb8cf2eb	-0.004301419
66	0xbaa04951	-0.0012228881
67	0xbc72d2c0	-0.0148207545
68	0x3af944a4	0.0019017649
69	0x3bf1b811	0.0073766788
70	0x3b77c0a4	0.0037804032
71	0x3a0142ce	0.0004930914
72	0xbb221694	-0.0024732696
73	0xbb807238	-0.003919866
74	0x3c5a1d88	0.013312705
75	0x3b93bf91	0.0045089205
76	0xbbc31462	-0.0059533576
77	0xb8d94270	-0.00010359741
78	0x3bf8cb22	0.0075925747
79	0x3b0ac009	0.002117159
80	0x3b4d008c	0.0031280844
81	0xb9c21e8a	-0.00037025317
82	0x39f00a14	0.00045783876
83	0x3affb653	0.0019509293
84	0x3a9567ff	0.0011398791
85	0x3ae8c824	0.0017759842
86	0x3b391984	0.0028243968
87	0x3b44b328	0.0030014012
88	0xbbbf8ceb	-0.005845656
89	0x3a82d78c	0.0009982451
90	0x3b8756f6	0.0041302396
91	0xbb5f9d4e	-0.003412086
92	0x3bc363b8	0.005962815
93	0xba00d5d1	-0.00049146736
94	0xbbd02ed2	-0.0063532377
95	0x3bdbff22	0.006713764
96	0x3b2426ee	0.0025047618
97	0xbb020a8b	-0.001984271
98	0x3ac6083e	0.0015108658
99	0x3a1a1ed9	0.00058792304
100	0x3bb7d36e	0.005609921
101	0xbaa5d945	-0.0012653252
102	0xbad243b1	-0.0016041902
103	0x3bac63bb	0.0052609122
104	0xbb29cfaa	-0.002591113
105	0xbb75797a	-0.003745644
106	0xbabfe5a6	-0.0014640584
107	0x3b5a0a6f	0.003327038
108	0x3996899b	0.00028712754
109	0xbad6a874	-0.0016377107
110	0xbb7c3662	-0.0038484563
111	0xb9a88d9a	-0.00032148958
112	0xbc15f9a4	-0.009153757
113	0xbc01a458	-0.007912718
114	0xbc038b89	-0.008028873
115	0xbc12ba17	-0.0089555
116	0xbb4f89fe	-0.0031667943
117	0x3c26d31e	0.01018217
118	0xbbe8f4fe	-0.0071092835
119	0xbbe36c58	-0.006940406
120	0xbc40076b	-0.011720519
121	0x3be0f865	0.0068655484
122	0x3a1d70a8	0.0006005862
123	0x3b22fcca	0.0024869912
124	0x3bb683d4	0.0055699144
125	0xbc2ba79e	-0.010476975
126	0x3bc9d6b3	0.0061596273
127	0x3ba02e02	0.004888297
128	0x3b9604bd	0.0045782016
129	0xbd012c2a	-0.03153626
130	0xbac6a9f4	-0.0015156851
131	0x3c325fc8	0.010887094
132	0xbc5070a4	-0.012722168
133	0x3b5a40e7	0.0033302845
134	0xbc428694	-0.011872906
135	0xbc81e7bf	-0.015857575
136	0xbb88adfd	-0.0041711316
137	0x3bf34701	0.007424236
138	0x3b830a38	0.003999021
139	0xbcb0dd91	-0.021590026
140	0x3c56c8b4	0.013109375
141	0xbd08ea3a	-0.0334265
142	0xba91368f	-0.0011078882
143	0x3a3b3960	0.00071420334
144	0x3b12d9b1	0.0022407586
145	0xbaa21878	-0.0012366911
146	0xbc8519eb	-0.01624771
147	0x3a57f9f0	0.0008238843
148	0x3b030215	0.0019990255
149	0x3c44f3e7	0.0120210415
150	0xbce937fe	-0.028469082
151	0x3a471ca0	0.0007595513
152	0xbb7eba3b	-0.0038868326
153	0xbb8bb46c	-0.0042634513
154	0x3c0175c1	0.00790161
155	0xbc338783	-0.0109576015
156	0x3cde9d8e	0.027174737
157	0x3c85edef	0.016348807
158	0xba81ee22	-0.0009912888
159	0xbc2567d3	-0.010095554
160	0x3d0653d4	0.03279479
161	0xbca786b3	-0.020449972
162	0xbc89ca0c	-0.016819976
163	0x3d21ca12	0.03949935
164	0x3c53dec9	0.012931534
165	0xbb282311	-0.0025655667
166	0x3cf6abe5	0.030111263
167	0x3c65f976	0.014036527
168	0xbc8c9315	-0.017159978
169	0xbcd18342	-0.025575284
170	0xbccf4f0c	-0.025306247
171	0xbc465c38	-0.012106948
172	0xbb97ac78	-0.004628714
173	0xbc87235f	-0.016496358
174	0x3cd9aa73	0.026570534
175	0xbb060cac	-0.002045433
176	0x3bf7c150	0.0075608864
177	0xbbf1600c	-0.007366186
178	0xbc0d9132	-0.008640574
179	0xbc8c3b31	-0.017118068
180	0xbbe3fca9	-0.0069576097
181	0xbc7a9798	-0.015294932
182	0x3b03ae4a	0.0020092898
183	0xbcb9d75a	-0.022685695
184	0xbc967d6d	-0.018370355
185	0x3c935bb7	0.017988069
186	0x3bf1a2e5	0.007374155
187	0xbab91f5d	-0.0014123727
188	0xbb9f69a5	-0.0048648887
189	0xbc5698c4	-0.013097946
190	0x3c2ead3d	0.01066142
191	0x3c09c225	0.008408104

modality_transformers.atac.layers.0.self_attn.out_proj.weight f4 [64, 64]
0	0x3d714288	0.05890134
1	0xbe9632f9	-0.29335764
2	0xbc70ea3d	-0.014704284
3	0x3be1eee1	0.0068949317
4	0xbe8e569b	-0.2780045
5	0xbe30ecee	-0.17277882
6	0x3ddf43c0	0.10901594
7	0x3df57153	0.119845055
8	0xbe5f5ae8	-0.21812022
9	0xbd8b25f2	-0.06794347
10	0xbdf85054	-0.121246964
11	0xbe328ebf	-0.17437266
12	0xbe1d85e5	-0.15383108
13	0x3dbc784f	0.092026345
14	0x3e0b3380	0.13593864
15	0x3e7202b4	0.23633844
16	0xbe0f4831	-0.13992383
17	0xbc83a6fe	-0.016070839
18	0xbe3ce001	-0.18444826
19	0x3e650b1b	0.22367518
20	0xbe24261c	-0.16030163
21	0xbcb378ad	-0.021908129
22	0xbd9720bf	-0.07379293
23	0xbd991810	-0.07475293
24	0x3e1a23fb	0.15052788
25	0xbdd3a741	-0.103346355
26	0x3cf4ab71	0.029866906
27	0x3d7dd01a	0.06196604
28	0x3cbd0e9d	0.023078257
29	0x3c9db2b1	0.019250246
30	0x3d95d7e0	0.073165655
31	0x3d8450f3	0.06460752
32	0x3d956c89	0.07296092
33	0xbe435e28	-0.19078887
34	0xbde5f707	-0.11228757
35	0xbe0b4032	-0.13598707
36	0xbdfc4c28	-0.12319213
37	0xbe24d0d7	-0.16095291
38	0xbccbce1a	-0.02487855
39	0xbdfd3691	-0.12363923
40	0xbe4f3e3c	-0.20238584
41	0xbe17f27f	-0.14838599
42	0xbd8b9792	-0.06816019
43	0x3e19e819	0.15029944
44	0x3d482764	0.04886569
45	0xbd922023	-0.07135036
46	0xbd3daf05	-0.04630949
47	0xbc41be73	-0.011825192
48	0x3e307c90	0.17235017
49	0xbe63115d	-0.22174592
50	0x3dfaced4	0.122464806
51	0xbce67cf8	-0.028135762
52	0xbe2a9165	-0.16657026
53	0xbde36130	-0.111025214
54	0xbc5ca3bf	-0.0134667745
55	0x3cc7d150	0.0243918
56	0x3cd05041	0.025428893
57	0x3e0cc2e0	0.13746214
58	0x3cfd31af	0.03090748
59	0x3ddc4d1d	0.10756896
60	0x3dd1ecbe	0.10250233
61	0x3e3bc697	0.18337475
62	0x3cb655d4	0.022257723
63	0x3d126a63	0.03574599
64	0x3e56bd7a	0.20970717
65	0xbd8c4d38	-0.06850666
66	0x3d10c19f	0.0353409
67	0xbe11cd50	-0.14238477
68	0xbd9bd71f	-0.076093905
69	0xbde668b1	-0.11250437
70	0x3e074abf	0.13212107
71	0xbda795b5	-0.08182851
72	0xbd637752	-0.055533715
73	0x3dac9ec0	0.08428717
74	0xbe2291e8	-0.15875971
75	0x3e09c1f1	0.13452889
76	0x3c50e9cd	0.012751055
77	0x3d7ccb72	0.061717458
78	0x3d4de394	0.050265864
79	0x3e104f9d	0.1409287
80	0x3e3fa478	0.18715084
81	0x3e44fe43	0.19237618
82	0x3d4dbad0	0.050226986
83	0x3de3bc80	0.11119938
84	0xbe15331e	-0.14570281
85	0x3ded97d5	0.11601225
86	0x3e3269ff	0.17423247
87	0xbe14c906	-0.1452981
88	0xbe4e133e	-0.20124528
89	0xbd884ded	-0.06655488
90	0xbd8f8478	-0.07007688
91	0xbdd10233	-0.102054976
92	0xbcfdaa6c	-0.030965053
93	0xbd411b1e	-0.047145
94	0xbe133a6a	-0.14377752
95	0xbdbf84a0	-0.09351468
96	0xbe48a28c	-0.19593257
97	0x3de372ab	0.111058556
98	0x3e3ef027	0.18646298
99	0xbcde8da7	-0.027167154
100	0xbdfeb3d4	-0.12436643
101	0x3dd2e2da	0.10297175
102	0x3e431afa	0.1905326
103	0xbce80965	-0.028324792
104	0x3cbd2234	0.023087598
105	0xbe0a7ebb	-0.13524906
106	0xbe0f311a	-0.13983575
107	0x3e2af9a5	0.16696794
108	0xbd6eaefe	-0.058272354
109	0xbd6d3a40	-0.05791688
110	0xbe1cbcf7	-0.1530646
111	0xbbd7bebb	-0.006584016
112	0xbe86e041	-0.26342967
113	0x3dd41e17	0.10357302
114	0x3cad2863	0.021137422
115	0x3debf970	0.11522186
116	0x3d178e99	0.037001226
117	0x3e2ba144	0.16760737
118	0xbde3387f	-0.1109476
119	0x3dc1fb32	0.0947174
120	0x3dbae3a1	0.09125448
121	0x3e538689	0.2065679
122	0x3da020f0	0.07818782
123	0x3d799382	0.06093169
124	0x3dc41e9f	0.09576153
125	0x3e066e68	0.13128054
126	0x3e0d4527	0.13795911
127	0x3cb01598	0.021494672
128	0x3e11ced3	0.14239053
129	0xbe60034f	-0.21876262
130	0x3c4c0991	0.012453453
131	0x3db2a629	0.08723099
132	0xbdb004c2	-0.085946575
133	0x3dc477d3	0.09593167
134	0xbe40ca03	-0.18827061
135	0xbe033f71	-0.1281717
136	0x3da4ba6b	0.08043369
137	0x3e0c2c85	0.13688858
138	0x3e09e4da	0.13466206
139	0x3ddbf7a5	0.10740594
140	0x3cfacd27	0.030615402
141	0xbde480ee	-0.11157404
142	0xbe2d23b0	-0.16908145
143	0xbdac532b	-0.084143005
144	0xbe05b2db	-0.13056509
145	0x3e325547	0.17415343
146	0xbdcd8fff	-0.10037231
147	0xbe27bfa5	-0.163817
148	0x3e48008f	0.19531463
149	0xbe4f342e	-0.20234749
150	0x3e17a725	0.14809854
151	0x3d0d59d6	0.034509502
152	0xbd86a14a	-0.06573732
153	0x3e32d172	0.1746271
154	0xbe2b3337	-0.16718756
155	0xbd821801	-0.06352235
156	0xbe204ff4	-0.156555
157	0x3d805ebd	0.0626807
158	0xbd4818c8	-0.04885176
159	0xbd43f5c7	-0.047841813
160	0x3e5ec648	0.21755326
161	0x3e25d567	0.16194688
162	0xbd06dac9	-0.032923494
163	0x3dab5615	0.08366028
164	0xbc15aff1	-0.009136186
165	0xbe5075b3	-0.20357399
166	0xbbb940c4	-0.0056534726
167	0xbd2034ec	-0.03911297
168	0xbe129f84	-0.14318663
169	0xbe25b2d6	-0.16181502
170	0x3e2ebc27	0.17063962
171	0x3e5706d7	0.20998703
172	0x3e09d863	0.13461451
173	0x3e00a724	0.12563759
174	0xbd669331	-0.056292716
175	0x3e500386	0.20313844
176	0xbc91b664	-0.017787166
177	0x3e7419a6	0.23837909
178	0xbd60dfb8	-0.054900855
179	0xbdf12fc1	-0.117766865
180	0xb9ecc3cd	-0.0004515931
181	0xbd9fa83b	-0.07795759
182	0xbe1c7419	-0.15278663
183	0xbe408951	-0.18802382
184	0xbd430cab	-0.047619503
185	0xbdca912f	-0.09890973
186	0x3e4766bf	0.19472788
187	0x3d94b013	0.07260146
188	0x3d9198df	0.07109236
189	0xbe48bdb8	-0.19603622
190	0xbe609e59	-0.21935405
191	0xbe59b242	-0.21259406
192	0x3d9d51a1	0.07681585
193	0x3e852a63	0.260089
194	0x3db12293	0.08649173
195	0x3e57203c	0.2100839
196	0x3e09fdff	0.13475798
197	0xbc65075b	-0.013978804
198	0x3d48d57e	0.049031727
199	0xbd41d7f6	-0.047325097
200	0x3bc6d8eb	0.006068339
201	0x3df776c2	0.12083198
202	0xbdeac9f7	-0.11464303
203	0x3bb489e8	0.005509604
204	0xbe17ec8b	-0.14836328
205	0x3e6facbd	0.23405738
206	0x3e68d780	0.22738457
207	0x3d4dff67	0.0502924
208	0xbc700edd	-0.014651981
209	0xbda46fad	-0.08029113
210	0xbe1938d6	-0.14963087
211	0x3d8d1b85	0.068900146
212	0xbdb510a7	-0.08841067
213	0xbc354acb	-0.011065195
214	0xbd85f368	-0.06540567
215	0x3e30bf4a	0.17260471
216	0xbd7598e3	-0.059960257
217	0xbd3d8f6a	-0.04627935
218	0xbda78732	-0.08180083
219	0x3caa221a	0.020768214
220	0xbe33fce3	-0.17576937
221	0xbe5f106d	-0.2178361
222	0x3d44ad96	0.048017107
223	0x3e66d0b9	0.22540559
224	0x3d47062d	0.048589874
225	0xbdb6b848	-0.089218676
226	0x3e21566b	0.15755622
227	0x3deee2de	0.11664365
228	0x3e5f5c66	0.21812591
229	0x3e09126c	0.13385934
230	0xbd80b4f0	-0.06284511
231	0x3d3f966a	0.046774305
232	0x39af3005	0.00033414378
233	0xbb245231	-0.0025073404
234	0x3aa5cec3	0.0012650121
235	0xbda6d12c	-0.08145365
236	0xbe4d2b49	-0.20036043
237	0x3e4b3194	0.19843131
238	0x3de5cb40	0.112204075
239	0xbd729b30	-0.05923003
240	0xbd45d52e	-0.048299007
241	0xbdcb3dd8	-0.09923905
242	0x3e020882	0.12698558
243	0xbceb4b1a	-0.028722335
244	0x3d9139b0	0.07091081
245	0x3d398e1e	0.04530155
246	0x3dd4150a	0.103555754
247	0xbd8979d4	-0.0671269
248	0xbc51a15e	-0.012794821
249	0x3e1a8025	0.15087946
250	0xbcf9e012	-0.030502353
251	0x3d98a419	0.07453174
252	0x3c6e7610	0.0145545155
253	0xbda5d4c3	-0.08097222
254	0x3dd75ef3	0.10516157
255	0xbe3d96ea	-0.185146

modality_transformers.atac.layers.0.self_attn.out_proj.bias f4 [64]
0	0x3bfaa1b6	0.007648672
1	0xbbf5780a	-0.0074911164
2	0xbc45d021	-0.012073548
3	0xbb9aa058	-0.0047188215
4	0x3ba3fe4b	0.0050046793
5	0x3bde65df	0.0067870463
6	0xbb99abaa	-0.0046896534
7	0x39d7db68	0.00041171466
8	0x3be8ae86	0.007100883
9	0xbbb913f8	-0.0056481324
10	0xbc3d96df	-0.011571615
11	0x3c1e4d86	0.009662038
12	0xbc9f15ec	-0.019419633
13	0x3c0102e4	0.007874224
14	0xbca4a521	-0.02009827
15	0xbc6690d3	-0.014072615
16	0x3b1e5c6d	0.0024163977
17	0xbb035b59	-0.002004346
18	0x39b9fbd5	0.0003547358
19	0x3c2cae4e	0.010539604
20	0xbc540c7e	-0.0129424315
21	0x3c5a4d23	0.013324055
22	0x3b360196	0.0027771941
23	0xbb268d51	-0.002541382
24	0x3ac660e2	0.0015135074
25	0x3c968275	0.018372754
26	0xbc854319	-0.016267346
27	0x3a9af5c2	0.0011822509
28	0x3cdde8fa	0.027088631
29	0x3ca9dd55	0.020735422
30	0xbafa8959	-0.0019114419
31	0x3b02bf7d	0.0019950562
32	0xbba17bb8	-0.0049280785
33	0xbc22e0a8	-0.009941258
34	0x3c8e206f	0.01734945
35	0x3a17fd90	0.00057979766
36	0x3bd37492	0.0064531052
37	0xbcb2995f	-0.021801649
38	0xbb6127f9	-0.00343561
39	0xbce88c2f	-0.028387157
40	0xbcb58a69	-0.022160726
41	0xbc665ecc	-0.014060687
42	0xbab1fa5f	-0.0013578645
43	0x3c5646c4	0.013078395
44	0x3c0217d4	0.007940251
45	0x3c26c5f9	0.010179036
46	0xbcc498af	-0.023998586
47	0xbaf90d8b	-0.0019001229
48	0x3be11b18	0.006869685
49	0x3ac1bcf9	0.001478105
50	0x3c8314cc	0.016001128
51	0xbc1f6799	-0.009729289
52	0x3b4cfd38	0.003127886
53	0x3ba26663	0.004956053
54	0x3bce8824	0.0063028503
55	0xbc279f60	-0.010230869
56	0x3acf6a24	0.0015824479
57	0xbb337a31	-0.0027386064
58	0x3c8f2031	0.017471405
59	0x3c553f2b	0.013015549
60	0xbabef19f	-0.0014567858
61	0x3bcaf8b9	0.006194201
62	0xbc876f16	-0.016532462
63	0x3bc6342a	0.006048699

modality_transformers.atac.layers.0.linear1.weight f4 [256, 64]
0	0xbc8ceb0c	-0.017201923
1	0xbe0a60ff	-0.13513564
2	0xbda125ad	-0.07868514
3	0xbd922211	-0.07135404
4	0x3d807072	0.06271447
5	0xbc8e351a	-0.017359305
6	0x3c1bb94f	0.00950463
7	0xbdce57cb	-0.10075339
8	0x3d5e6652	0.0542968
9	0xbd9bead1	-0.07613147
10	0x3d03facb	0.032221597
11	0x3cba6b38	0.022756204
12	0x3da48a42	0.08034183
13	0xbd35ef22	-0.044417508
14	0x3d3a648c	0.045506045
15	0xbdb8df96	-0.09027021
16	0xbe040303	-0.12891774
17	0x3d80a98e	0.0628234
18	0x3d309258	0.043108314
19	0x3d7b9535	0.06142159
20	0xbdf75371	-0.12076462
21	0x3d1b0a00	0.037851334
22	0xbd108043	-0.03527857
23	0xbdf2dc76	-0.11858456
24	0xbd6e3ad6	-0.05816158
25	0x3d6e17e9	0.05812827
26	0x3e092757	0.13393913
27	0x3c7fd77e	0.015615342
28	0x3c0d8732	0.00863819
29	0xbbc2abad	-0.0059408755
30	0x3d591ab4	0.05300398
31	0xbdd672a8	-0.10471088
32	0xbd9964b6	-0.07489912
33	0x3db2e20f	0.087345235
34	0x3d5c3523	0.053761613
35	0x3dde8b70	0.10866439
36	0x3ddd4479	0.10804076
37	0xbd6bf2ba	-0.05760453
38	0x3d9fa733	0.077955626
39	0x3d0b5f07	0.034026172
40	0xbd30e127	-0.043183472
41	0x3da91690	0.082562566
42	0x3d19a7b4	0.03751345
43	0xba2332ca	-0.00062255247
44	0x3b0a8bab	0.0021140378
45	0xbd76c5e3	-0.060247313
46	0x3bbd303c	0.0057735723
47	0x3d2a8be8	0.04163733
48	0xbd9d4eda	-0.07681055
49	0x3d3b23b4	0.045688346
50	0x3cde7322	0.027154509
51	0x3d4e6b5d	0.05039536
52	0x3d56a5a5	0.052404065
53	0x3dfc4f42	0.12319805
54	0x3d43f3ad	0.04783981
55	0xbd2e351f	-0.04253113
56	0x3d53122f	0.051531013
57	0xbc9ad0f0	-0.018898457
58	0xbe09c972	-0.13455752
59	0x3de174b8	0.110085905
60	0x3cff2f52	0.031150494
61	0x3ca2f85f	0.019893823
62	0x3e1ce90d	0.15323277
63	0xbdbf5c8a	-0.09343822
64	0x3e1f2a23	0.15543418
65	0x3df691a8	0.120395005
66	0xbc162e1d	-0.009166268
67	0xbdfaa6e8	-0.12238866
68	0xbc4cb3a9	-0.012494006
69	0x3c8851fa	0.016640652
70	0x3da006e1	0.07813812
71	0x3dab9384	0.08377746
72	0xbdd0d32d	-0.101965286
73	0x3cc3776f	0.023860661
74	0x3daa335b	0.083105765
75	0x3daef1e0	0.08542228
76	0xbdfe341a	-0.12412281
77	0x3c87e58a	0.016588945
78	0xbdd8993f	-0.105761044
79	0x3da9d62a	0.08292802
80	0x3d1cc1ab	0.038270634
81	0x3d20d65a	0.03926692
82	0xbe1284cb	-0.14308469
83	0x3d8cddc5	0.06878237
84	0x3d8af4ac	0.06784949
85	0xbd04a048	-0.03237942
86	0xbd27bb30	-0.04095
87	0xbe176a01	-0.14786531
88	0x3e030ede	0.1279864
89	0xbe096dcd	-0.13420792
90	0x3e02e811	0.12783839
91	0x3da34d2b	0.07973703
92	0x3d623902	0.055230148
93	0x3d94a57f	0.072581284
94	0xbde802b9	-0.11328644
95	0xbca2e633	-0.019885158
96	0xbc406905	-0.011743789
97	0xbcc9cb7d	-0.024633164
98	0xbd2ba869	-0.041908655
99	0xbd5b0992	-0.053475924
100	0x3d28a2df	0.04117095
101	0xbe11d38f	-0.1424086
102	0x3d592e00	0.053022385
103	0x3d73cde3	0.05952252
104	0xbdf1ba66	-0.11803131
105	0xbd26bdec	-0.040708467
106	0xbbe5f41c	-0.0070176255
107	0xbd93dd2b	-0.07219919
108	0xbd1fc3a1	-0.039004926
109	0x3cf7bbb0	0.030240864
110	0xbc86d8fc	-0.016460888
111	0x3e4a0217	0.1972736
112	0xbdadc07d	-0.0848398
113	0xbd90379e	-0.07041858
114	0x3bd90a23	0.006623523
115	0x3dd29726	0.102827355
116	0xbd3162b3	-0.043307018
117	0xbd0ae6f6	-0.033911668
118	0x3dd759ba	0.10515161
119	0x3d65675d	0.056006778
120	0xbda9b6e1	-0.082868345
121	0xbdd333ab	-0.10312589
122	0xbdeac63c	-0.114635915
123	0x3c897b4e	0.01678243
124	0x3cc0e4f9	0.023546683
125	0x3c19661b	0.009362723
126	0x3aabd861	0.0013110751
127	0x3ce5e37b	0.028062573
128	0xbc363460	-0.011120886
129	0x3dfa030a	0.12207611
130	0xbdc970d4	-0.098359734
131	0x3d9b3072	0.075775996
132	0xbce10bb5	-0.027471403
133	0x3cea3188	0.028588071
134	0x3dcbfc3e	0.09960221
135	0x3dd0bc40	0.10192156
136	0xbca16e0a	-0.019705791
137	0x3d4da61a	0.050207235
138	0x3d9edd72	0.07757081
139	0xbd89c5d6	-0.06727187
140	0x3cde116f	0.027107922
141	0xbdf73a3f	-0.120716564
142	0x3df573f2	0.119850054
143	0xbe1aeb41	-0.15128805
144	0xbdc868eb	-0.097856365
145	0x3d139b3e	0.036036722
146	0xbd3a4e9e	-0.04548513
147	0xbcd64e5d	-0.026160413
148	0xbce540b4	-0.027984954
149	0xbdb8f909	-0.09031875
150	0xbdaef98e	-0.085436925
151	0x3cafbb31	0.021451565
152	0xbdb66fad	-0.08908019
153	0xbd3c8945	-0.046029348
154	0x3dfcdca0	0.123467684
155	0x3db28fa6	0.08718805
156	0x3c390c6c	0.0112944655
157	0x3d76612a	0.060151257
158	0x3d163ac3	0.036677133
159	0x3da8fd9e	0.08251499
160	0xbcdb3f5e	-0.026763614
161	0xbde536e0	-0.11192107
162	0x3d0d15f6	0.03444477
163	0xbdca2971	-0.098711856
164	0x3dc7d99b	0.09758302
165	0x3db10015	0.08642594
166	0xbbae88bc	-0.0053263586
167	0x3dffb9ae	0.124865875
168	0xbdd2d8d5	-0.10295264
169	0xbc74d826	-0.014944112
170	0x3d14a17c	0.036286816
171	0xbddc9b38	-0.10771793
172	0xbdd04675	-0.101696886
173	0x3d2c664a	0.042089738
174	0xbb22e93d	-0.002485826
175	0xbdc6b78a	-0.09702976
176	0x3debb159	0.11508436
177	0xbd215b5c	-0.039393768
178	0x3d985532	0.07438125
179	0x3df7c0b9	0.12097306
180	0x3d1237a8	0.03569761
181	0x3dbc30fc	0.091890305
182	0xbe060696	-0.1308845
183	0x3e232f2c	0.15935963
184	0x3d634d90	0.05549389
185	0x3dd3f8f8	0.103502214
186	0x3ded5b1a	0.11589642
187	0xbd1d847c	-0.038456425
188	0xbd6f95f5	-0.05849262
189	0xbdc0b305	-0.09409145
190	0x3d9c7ea7	0.076413445
191	0xbdee6508	-0.11640364
192	0xbcb3e97b	-0.021961918
193	0xbd4b1637	-0.049581733
194	0x3d959163	0.07303121
195	0x3d2b31bc	0.041795477
196	0x3d0995f5	0.033590276
197	0x3c986ea5	0.018607447
198	0xbd3122a3	-0.043245923
199	0x3d92e25d	0.071720816
200	0x3d8c91f7	0.06863778
201	0xbbf4cf7d	-0.0074710236
202	0x3de47fe8	0.11157209
203	0x3dc49be7	0.096000485
204	0x3daa12ac	0.08304343
205	0x3cb601f5	0.02221773
206	0x3cede3a6	0.029039215
207	0x3d529cb8	0.05141899
208	0x3c3a64b2	0.011376547
209	0x3df2eb1c	0.1186125
210	0xbda8cc71	-0.08242119
211	0xbd9be043	-0.07611134
212	0x3e08cf08	0.13360226
213	0xbd76f9d3	-0.060296845
214	0x3df0d1d4	0.117587715
215	0xbdce9f54	-0.10088983
216	0xbd57a54d	-0.052647877
217	0xbdbf1818	-0.093307674
218	0xbdbb8ce0	-0.09157729
219	0xbc820e7c	-0.015876047
220	0xbd3f0517	-0.046635713
221	0x3d524c71	0.05134243
222	0x3d762f9b	0.060103994
223	0xbd07962b	-0.033102196
224	0xbd980b43	-0.07424023
225	0xbd04076e	-0.032233648
226	0x3e3f7a34	0.1869896
227	0x3daa50de	0.083162054
228	0x3e57780d	0.2104189
229	0xbdfbd5f6	-0.12296669
230	0x3ddc2bb2	0.10750522
231	0xbd51989c	-0.05117093
232	0xbc191a62	-0.009344669
233	0x3db78a5a	0.08961935
234	0xbd01f506	-0.031727813
235	0xbe0bb9e4	-0.1364513
236	0xbdc71e14	-0.09722534
237	0x3dda5493	0.106606625
238	0xbdd9c497	-0.106332
239	0x3c743a27	0.014906443
240	0xbe0fe06d	-0.14050455
241	0xbe0b3ceb	-0.13597457
242	0x3e5174de	0.20454738
243	0x3d6c2c26	0.05765929
244	0x3c5d0eae	0.013492269
245	0x3c9ea005	0.019363413
246	0x3d59b773	0.053153466
247	0x3c59a488	0.013283856
248	0x3d2d233b	0.042269927
249	0xbdd83ec6	-0.10558848
250	0xbc99b933	-0.018765068
251	0x3d41584c	0.047203347
252	0xbd1dc921	-0.03852189
253	0xbda3daa8	-0.0800069
254	0x3d8d730a	0.069067076
255	0x3dd70bb7	0.10500281

modality_transformers.atac.layers.0.linear1.bias f4 [256]
0	0xbc3dd877	-0.011587254
1	0xbad5accd	-0.0016302109
2	0xbc180d26	-0.009280479
3	0xb956b00b	-0.00020474211
4	0x3b28db53	0.0025765493
5	0xbba3b3d1	-0.004995801
6	0xbc7761bb	-0.015098984
7	0xbb40b643	-0.0029405511
8	0xbcaeded2	-0.021346483
9	0xbc356241	-0.011070789
10	0xbcbc3646	-0.022975098
11	0x3c3d6605	0.011559968
12	0xbb827a09	-0.003981833
13	0xbcc1b5c7	-0.023646249
14	0xbc79d646	-0.015248841
15	0xbb277c65	-0.0025556323
16	0x3c6faa2c	0.0146279745
17	0xbd2f9107	-0.04286292
18	0xbbd11206	-0.0063803224
19	0x3aab8744	0.0013086577
20	0x3caa1e94	0.020766534
21	0xbca34b9b	-0.019933512
22	0xbcd2bf3f	-0.025725959
23	0xbda6e12a	-0.081484154
24	0xbca55443	-0.02018178
25	0xbc8124a3	-0.01576454
26	0x3c655718	0.013997816
27	0xbb09ac22	-0.002100714
28	0xbbb7a85c	-0.005604787
29	0xbc4a11ac	-0.012333315
30	0xbc712d4d	-0.014720273
31	0xbd52cca2	-0.051464684
32	0xb84ad2e5	-4.8356964e-05
33	0x3a8b680a	0.0010635864
34	0x3c1e4173	0.009659159
35	0x3ba13d9c	0.0049206745
36	0xbc9e99fd	-0.019360537
37	0x3cb0dd6e	0.02158996
38	0xbbc2ebad	-0.005948505
39	0xbbd4213d	-0.006473689
40	0x3bc5a2a9	0.0060313535
41	0x3c058a1a	0.008150602
42	0x3cc0d2b2	0.023537967
43	0xbb1c4855	-0.0023846824
44	0x3c2c62dc	0.010521617
45	0xbc1151fd	-0.008869645
46	0xbb015658	-0.0019735303
47	0xbc91e29e	-0.017808255
48	0xbb3426c4	-0.0027488926
49	0xbd26760f	-0.040639933
50	0x3c65f929	0.014036455
51	0xbc7b8d4c	-0.015353512
52	0xbc9df09d	-0.019279772
53	0xbcfb47d2	-0.030673895
54	0xbd7f72a4	-0.06236519
55	0x3c2eaff6	0.01066207
56	0xbae6707f	-0.0017581134
57	0x3ca72b14	0.020406283
58	0xbc2ecdfe	-0.01066923
59	0xbbac1cd6	-0.005252461
60	0x3bbe7ddb	0.005813343
61	0xba2809ef	-0.00064101716
62	0x3c892be6	0.016744565
63	0xbc4874e6	-0.012234902
64	0xb8af6133	-8.362755e-05
65	0xbc0e84a9	-0.008698621
66	0x3bd45432	0.0064797634
67	0x3bc0c787	0.0058831605
68	0x3bae5527	0.0053202095
69	0xbd216dae	-0.03941124
70	0xbac05f64	-0.0014676866
71	0xbb726494	-0.0036986219
72	0xbc2ef32f	-0.010678097
73	0xbb77af0f	-0.0037793552
74	0x3b0abef2	0.0021170941
75	0xbcb6913e	-0.022286054
76	0x3cd8969d	0.026439006
77	0xbc297334	-0.010342408
78	0xbbf1145a	-0.0073571624
79	0xbcbe4d5b	-0.023230245
80	0xba8d3acb	-0.0010774968
81	0x3b8ed3b6	0.004358734
82	0xbcd70c4c	-0.02625098
83	0xbc875c80	-0.0165236
84	0xbc09134b	-0.008366416
85	0xbc317d03	-0.010833028
86	0x3b964a72	0.0045865113
87	0x3b310792	0.002701257
88	0xbc8b6678	-0.017016634
89	0xbc18b554	-0.009320576
90	0xbb1ac9f8	-0.0023618918
91	0x3bee8b16	0.007279764
92	0xbcb978e7	-0.022640659
93	0xbb574908	-0.0032849927
94	0x3b4083bb	0.0029375392
95	0xbad2a671	-0.0016071332
96	0x3b2c0787	0.0026249604
97	0x3c923901	0.017849447
98	0xbcb6c4cc	-0.022310637
99	0xbc1017ae	-0.008794708
100	0x39112aae	0.00013844177
101	0x3c8766ac	0.01652845
102	0xbccde06b	-0.025131425
103	0xbc999f70	-0.018752784
104	0xbbcce4db	-0.0062528676
105	0xbcd62fc1	-0.026145818
106	0xbc60e3d1	-0.013726191
107	0x3c5dffcf	0.013549759
108	0xbc5cab9f	-0.013468652
109	0x3ba0fca3	0.004912929
110	0x3c9184ba	0.017763484
111	0x3b67b60b	0.0035356309
112	0xbc3f254e	-0.011666609
113	0xbb6f5e1e	-0.0036524604
114	0xbc7c3835	-0.01539426
115	0xbd853ed6	-0.06506126
116	0xbbcc4b9c	-0.0062345993
117	0xbcbb0cf0	-0.022833318
118	0xbc1827e4	-0.009286854
119	0xbcbbfeec	-0.022948705
120	0x3c3fb074	0.011699785
121	0xbb923d39	-0.0044628647
122	0xbd168333	-0.036746215
123	0xbcf9e2f3	-0.030503726
124	0xbbd4181f	-0.006472602
125	0x3b46cf99	0.003033614
126	0xbd130862	-0.035896666
127	0x3c12bef9	0.008956664
128	0x3bce3d1e	0.006293907
129	0x3ae2ee38	0.0017313426
130	0xbc905932	-0.017620657
131	0xbc1a29bd	-0.009409365
132	0xbc587d46	-0.013213461
133	0xbbc64bac	-0.0060515013
134	0x3ce8f463	0.028436845
135	0xbc35be27	-0.011092699
136	0xbc2ce95b	-0.010553683
137	0x3c9b7fda	0.018981863
138	0xbb534248	-0.0032235552
139	0xbc025fe9	-0.007957437
140	0x3b129570	0.0022366904
141	0x3c836fc4	0.016044505
142	0xbce55f33	-0.027999496
143	0x3bb6fc36	0.005584265
144	0x3c13b9ab	0.009016435
145	0x3cfba49c	0.03071814
146	0xbcc0cbe5	-0.023534724
147	0xbb9bd0b0	-0.004755102
148	0xbc9d94f4	-0.019236065
149	0xbbafbf6f	-0.005363397
150	0x3ba891d4	0.005144337
151	0xbc17c426	-0.009263074
152	0xbd0b65a9	-0.034032498
153	0x3c936c6b	0.017996034
154	0xbb586d41	-0.0033024105
155	0xbb1aaac3	-0.0023600317
156	0x3c80b4ef	0.015711276
157	0xbb8cf562	-0.004301713
158	0xbcdb2c76	-0.026754599
159	0x3b95ab6a	0.0045675533
160	0x3c99edc7	0.018790139
161	0xbd1a6ed7	-0.03770336
162	0xbb77c514	-0.0037806677
163	0xbc6a4917	-0.014299653
164	0xbca75de0	-0.020430505
165	0xbb18e759	-0.0023331253
166	0xbae1a324	-0.0017214757
167	0xbc8509fd	-0.016240114
168	0xbd1c2ad9	-0.0381268
169	0xbc371fd9	-0.011177027
170	0xbc4128da	-0.011789525
171	0x39eb27f6	0.00044852466
172	0xbb7c6345	-0.0038511318
173	0xbca79726	-0.020457815
174	0x3d4dd338	0.050250262
175	0x3a4828df	0.0007635485
176	0x3985d82e	0.00025528803
177	0xbc3b31c6	-0.011425441
178	0xbc8c3c39	-0.01711856
179	0xbc6c6d5e	-0.014430372
180	0xbbceb9a3	-0.0063087507
181	0xbbbff91b	-0.005858553
182	0xbbaa85eb	-0.0052039525
183	0x3c2ae738	0.010431103
184	0x3c58a583	0.013223055
185	0xbb116c07	-0.0022189633
186	0xbc877b34	-0.01653824
187	0x3db1a586	0.08674149
188	0xbc684cdc	-0.014178481
189	0x3c6c4c9b	0.014422561
190	0xbc3c2332	-0.011483001
191	0xbb84387b	-0.0040350533
192	0xbc7a90d0	-0.015293315
193	0xbc6ebf99	-0.014572048
194	0xbabe0f6a	-0.0014500443
195	0xbd1e5a82	-0.038660534
196	0xbca4400c	-0.020050071
197	0xbc2a2738	-0.010385327
198	0x3b9ddf71	0.004817896
199	0xbc729ee6	-0.014808392
200	0xbc961bc9	-0.018323796
201	0x3b1f56cb	0.0024313207
202	0xbc893d40	-0.01675284
203	0x3b445500	0.002995789
204	0xbc08cb4b	-0.00834925
205	0x3b000dfd	0.0019539588
206	0xbcbbc1f3	-0.02291963
207	0x3b202e77	0.0024441758
208	0xbc07aaf6	-0.008280506
209	0xbca7671d	-0.02043491
210	0xbc1da263	-0.009621236
211	0xbb1615de	-0.0022901217
212	0x3bd95f44	0.006633671
213	0x3b0dfe8d	0.0021666617
214	0x3c43e12b	0.01195554
215	0xbccd6fe6	-0.025077771
216	0x3b3aff14	0.0028533386
217	0xbca1ecfb	-0.019766321
218	0xbd10599a	-0.0352417
219	0x3ba57e7b	0.005050478
220	0xbc391b73	-0.011298048
221	0xba814c29	-0.0009864616
222	0xbced7e83	-0.02899099
223	0x3b278067	0.0025558711
224	0xb824135d	-3.911868e-05
225	0xbc3c7350	-0.011502102
226	0xbd9aa539	-0.07551045
227	0xbbeb1747	-0.0071744057
228	0xbbc99d17	-0.00615276
229	0x3ba5536f	0.0050453465
230	0xbbacc326	-0.005272287
231	0x3c2e7fa1	0.010650546
232	0xbc5aee42	-0.013362469
233	0x3c3f71af	0.011684819
234	0x3b67913c	0.003533437
235	0xbb6aeb58	-0.0035845842
236	0xbb96e0d1	-0.004604437
237	0x3b91f569	0.004454304
238	0x3cd4126e	0.025887694
239	0xbb4af3fb	-0.0030968178
240	0xbb38aa41	-0.002817765
241	0xbc3a6f33	-0.011379051
242	0x3c863239	0.01638137
243	0xbc403f32	-0.011733817
244	0x3c8654bb	0.016397825
245	0xbc349762	-0.011022421
246	0x3b150fd8	0.002274504
247	0xbc874577	-0.016512616
248	0xbcacec61	-0.021108808
249	0x3bf84ad7	0.007577281
250	0xbc91a6d6	-0.017779749
251	0xbb9c0b89	-0.0047621173
252	0xbc63ebb0	-0.013911173
253	0x3c20120d	0.009769929
254	0xbbd9e379	-0.0066494313
255	0xbc6becc9	-0.014399716
