ml_output/Oligo_NN/atac/model_4.pth (torch, 474380 bytes, 48 tensors)

query f4 [1, 64]
000000 f6 43 82 3e 7a 15 a8 3e 13 e8 11 bf 56 4b 24 be
       0.25442475 0.32828885 -0.5699474 -0.16044363
000010 31 b8 aa 3f a4 57 bd 3e c7 37 a3 be cb 5e dd be
       1.3337461 0.36980927 -0.31878492 -0.43236384
000020 61 09 08 bf dc ec 10 3f ac 83 af 3d a9 ed eb be
       -0.5313931 0.5661142 0.08570036 -0.46079758
000030 2e 4a 9c 3d 7a 1f c7 bf 8d 0e 2f 3e 0c c2 e0 be
       0.07631336 -1.5556481 0.17095394 -0.43898046
000040 97 15 eb bf 28 20 b1 3f 64 47 01 3f d4 42 0b bf
       -1.8365964 1.3837938 0.5049956 -0.54398847
000050 c3 62 a5 bf b6 cf 89 3b bf 2f ef 3e 59 c2 05 3e
       -1.2920765 0.0042056693 0.46716115 0.13062419
000060 00 da ab bf 41 dc 61 bf b4 66 8e 3f 1e 21 f2 be
       -1.3425903 -0.88226706 1.1125093 -0.4729089
000070 79 9b 41 3e bd 11 3b be 75 88 5c bf 6e d4 84 3f
       0.18906964 -0.18268485 -0.86145717 1.0377328
000080 e4 a4 22 bf 56 9d 8c bd e1 10 ec be 1e a9 68 3e
       -0.63532853 -0.06865947 -0.46106628 0.22720763
000090 99 8f 18 40 d4 ce 87 bf 8b ea 47 be 02 3b 11 40
       2.3837645 -1.0609994 -0.19523065 2.2692266
0000a0 ef cf 7c 3c e1 67 93 3f dc 11 15 bf 84 48 9e 3e
       0.015430435 1.1516076 -0.58230376 0.309147
0000b0 f5 5d 82 3f ba c9 6a 3e b3 00 be 3e 29 22 f3 3f
       1.0184923 0.22928515 0.37109908 1.89948
0000c0 58 3f 09 3d 49 48 28 bf ee ce 9b 3e 4d 9b 05 bf
       0.033507675 -0.657353 0.30431312 -0.52190095
0000d0 2f fb 6c 3e 4e 1e 37 3f 3c 53 12 c0 24 1b ad bf
       0.23142694 0.71530616 -2.2863302 -1.3523908
0000e0 b9 cd e9 be a2 c0 74 3f e1 ad 00 3f 05 eb 74 3f
       -0.45664766 0.95606434 0.5026532 0.9567111
0000f0 eb 0e 31 3d 4f ea 72 bd f3 c2 c5 bd be 39 02 bf
       0.043227118 -0.059305485 -0.09656324 -0.5086936

cls_embeddings.atac f4 [1, 1, 64]
000000 82 82 de 3d 74 9f 2d 3d 73 a2 d4 be cd 5d 4d 3d
       0.10864736 0.042388394 -0.4153019 0.050138284
000010 d3 4f 88 3f f8 d4 78 bf 8f b6 a0 3e 53 22 9e 3f
       1.064936 -0.97199965 0.3138928 1.2354225
000020 ef af c1 3f 1b 44 c4 3f 98 85 59 3e 6a d9 7b 3f
       1.5131816 1.5333284 0.21242368 0.9837862
000030 ba 5c 45 3f b8 07 ca be cf de 03 3f 02 71 81 bf
       0.77094615 -0.39459014 0.51511854 -1.0112612
000040 9e b2 83 3f f7 9b 84 be 11 e7 83 be 1d 76 08 3e
       1.0288885 -0.25900242 -0.25762227 0.13326307
000050 3d b8 8b be e9 0e ec 3e df e2 a7 bd df 43 91 bf
       -0.27289 0.46105126 -0.08197569 -1.1348838
000060 e6 4c cb 3b da 03 2c be 8c f7 30 3f 2f 87 87 3f
       0.0062042354 -0.16798344 0.69127727 1.058813
000070 ff 36 1b 40 ed 57 8a 3f 06 67 52 bf b3 68 ab 3e
       2.4252317 1.0808083 -0.8218845 0.33478317
000080 28 74 44 be c3 bc 34 bf 11 c1 7e bc 7f f2 5b 3f
       -0.19184935 -0.7060053 -0.01554896 0.85916895
000090 46 b0 3d 3f d5 eb 9e 3f eb 94 89 bf 75 51 22 bf
       0.74097097 1.241572 -1.0748571 -0.63405544
0000a0 49 7d 85 bf 74 04 15 bf 74 4d 90 3d a4 9c 38 be
       -1.0428859 -0.5820992 0.07046023 -0.18028504
0000b0 3c bc 1b be e9 28 83 bf 84 ed e9 bf 87 c8 8b 3e
       -0.15208524 -1.024686 -1.8275609 0.27301428
0000c0 88 c4 9f bf ed 23 55 3e f4 8f 40 3f 97 f7 93 bc
       -1.2481852 0.20814486 0.75219655 -0.018062396
0000d0 ca ed e7 3e 91 71 98 bf 5d 59 61 3d 34 86 a9 3f
       0.45298606 -1.1909658 0.055016864 1.324408
0000e0 f1 a0 9b 3e b4 c8 cd 3f 91 99 6f 3f 49 9e 90 bf
       0.30396226 1.6076875 0.935937 -1.1298305
0000f0 d9 29 bc 3f 2e a6 17 3f 88 b3 b9 3f 0f f5 7e 3e
       1.4700271 0.59237945 1.4507914 0.2489817

modality_embeddings.atac.weight f4 [64, 9]
000000 99 23 d5 3c cd 83 39 3e 22 2b bd be a8 8c fe 3d
       0.02601795 0.18116684 -0.3694697 0.12429172
000010 4d 10 da bd f6 6c 39 3e 1b 85 a3 be 68 90 57 3e
       -0.106476404 0.18107972 -0.3193749 0.2105118
000020 f9 3d b6 bd 80 45 18 be 23 57 63 be ac f4 24 be
       -0.08898539 -0.14870262 -0.22201209 -0.1610896
000030 7f 01 50 be 5c 6e 8c 3e 6d e3 b9 3d d3 83 6a 3e
       -0.2031307 0.27427948 0.09076581 0.2290185
000040 f3 b0 f1 bd e6 4d 22 3e 95 b0 89 be a1 ad 43 be
       -0.118013285 0.15850028 -0.26892534 -0.19109203
000050 ce d0 9e be 59 bc 3b bd 66 63 8b 3e 16 e3 53 be
       -0.3101868 -0.04583392 0.27224272 -0.20692095
000060 4d 79 2b be 10 2d 82 3e da bc 17 3e 44 72 67 3e
       -0.16745491 0.25425005 0.14818135 0.22602183
000070 d8 f1 b8 bd 97 b5 18 be f2 c7 b1 bd 46 11 03 be
       -0.09030503 -0.14913021 -0.08680715 -0.12799558
000080 2f a4 06 be f5 9c 83 3b cd b4 be bd 7c e7 56 3e
       -0.13148569 0.0040165135 -0.09311829 0.20986742
000090 5e b8 9d 3e 3f 2b 1a 3e 86 07 40 be 41 81 f3 3d
       0.30804724 0.1505556 -0.1875287 0.118898876
0000a0 05 e4 8c 3e fb 3c 89 be b0 fa 5b be 3e eb 3f be
       0.27517715 -0.26804337 -0.21482348 -0.18742082
0000b0 c7 61 9f 3d 7d a2 e7 3d 8d 2b 7c 3e 07 27 99 bd
       0.077823214 0.11310289 0.24625988 -0.07478147
0000c0 87 da 25 3e 13 3f 34 3e 3f fb 18 bd 69 37 53 3e
       0.16196643 0.17602186 -0.037348982 0.20626606
0000d0 32 1e 00 bd 62 25 a5 be 5a 59 fb bc b1 ce a0 bd
       -0.031278796 -0.32255083 -0.030682255 -0.07851923
0000e0 b1 9d 83 3e 92 a3 11 3e 34 ba 82 be d5 c8 ab bc
       0.25706246 0.14222553 -0.25532687 -0.020969788
0000f0 86 99 0b 3e 8f 36 ad bc 31 27 8f bd 3e be 0c 3e
       0.13632783 -0.02114418 -0.06989897 0.13744447
000100 0a 43 a4 3d 2c a4 64 bd f0 96 fb bd 92 ca 1c bd
       0.08020599 -0.05582063 -0.122846484 -0.038279124
000110 66 97 72 3e 15 0f 56 be ca c5 40 bc 78 58 66 3e
       0.23690566 -0.20904191 -0.011765907 0.22494686
000120 81 c6 24 bc cb 83 30 3e 57 cf ad 3d e5 c0 29 be
       -0.010057093 0.17237775 0.084868126 -0.1657749
000130 af 4b 38 3e bf 7c a2 bd a6 24 bc bc 76 2d ec 3d
       0.17997621 -0.0793395 -0.022966694 0.115321085
000140 e7 9f 6d bd 8b 79 41 bc 6f 49 70 be 6a e2 84 3d
       -0.058013823 -0.011808763 -0.23465513 0.064884976
000150 ea c0 a2 3c 97 3d 7e 3d 10 56 53 3e ca e6 46 3e
       0.01986738 0.062070455 0.20638299 0.19423977
000160 bc a7 2e 3e f8 f7 4e bc 24 fa ca 3d 1c 69 19 be
       0.17056173 -0.012632363 0.09910992 -0.14981502
000170 5c 02 89 3c 9d 99 9d 3d 12 33 aa bb e2 65 68 3e
       0.016724758 0.07695315 -0.0051940763 0.22695115
000180 4b 88 4c 3d 06 1a 4f be 13 f1 a7 3d e7 42 11 bd
       0.049934667 -0.20224771 0.08200278 -0.035464194
000190 46 f3 38 be 6d 43 a0 3e 55 5b f4 bd fb d8 5f be
       -0.18061551 0.31301442 -0.11931483 -0.21860115
0001a0 0c a2 09 3e e1 05 7f 3e e6 51 72 3e b2 f5 3c be
       0.13440722 0.24904586 0.23664054 -0.184531
0001b0 4d f9 20 bd 7f 54 30 3e ad 36 7e 3c e7 32 10 be
       -0.03930025 0.17219733 0.015515965 -0.14081918
0001c0 31 28 9b be 12 02 b2 3d 94 cc 25 3e 13 de 8c 3e
       -0.303041 0.08691801 0.16191322 0.2751318
0001d0 3d d7 81 be d9 c5 14 3e 42 f8 8a bd bf 94 01 3e
       -0.25359526 0.14528598 -0.06785633 0.12654398
0001e0 ca 2b 39 3e 4b 86 4d 3e 06 5a d9 3d 52 5d 03 3e
       0.1808311 0.2007076 0.10612874 0.12828568
0001f0 94 98 f7 bd 26 ac 6e be 51 3e 0e 3e c5 91 94 3b
       -0.12089649 -0.23307857 0.1389096 0.0045339786
000200 4d cc 96 3d 3d 5d c7 3d 7e cf 42 be 99 d2 7a bd
       0.07363186 0.09734581 -0.19024464 -0.061235998
000210 48 f2 12 3c b6 40 d5 3d 3f 1a 73 be ac b7 74 3e
       0.008968897 0.10412733 -0.23740481 0.2389819
000220 0d 77 37 3e 46 17 7e be 8a ce 6c 3d 82 50 ca bd
       0.17916508 -0.24813566 0.05781416 -0.09878637
000230 6d d6 81 be ef d2 ff bd b4 40 06 be 3d bd 80 3e
       -0.25358906 -0.12491404 -0.1311062 0.25144377
000240 cc ae 73 be 4e 77 29 bd b6 5e d3 3d 08 31 90 be
       -0.23797148 -0.041373543 0.10320799 -0.28162408
000250 e1 a1 d2 bd cd b9 58 3e 64 5c 22 3e 20 52 7b 3e
       -0.10284782 0.21164627 0.15855557 0.24543047
000260 8d 75 04 3e b1 56 9d 3e 0a 80 32 3e 07 7c eb bd
       0.12935467 0.30730203 0.17431656 -0.11498266
000270 e9 c7 02 3e e2 e7 2a bd 0a 61 3d bc 6e a3 52 be
       0.12771572 -0.041725047 -0.01155878 -0.20570156
000280 5b cb 5f 3d 61 81 ab bd 87 22 10 3e 52 18 71 be
       0.054637294 -0.083742864 0.14075671 -0.23544434
000290 f0 33 20 be aa 88 03 3e 2c 28 07 be 56 b6 71 bd
       -0.15644813 0.12845102 -0.13198918 -0.05901178
0002a0 2e 70 39 3e 9b a7 4a 3e 3e e0 c6 bd 4a ce 90 3e
       0.181092 0.19790499 -0.097107396 0.28282386
0002b0 b4 3b 6e be 92 83 5b 3e 67 4c 90 3d 68 81 f1 bd
       -0.23264962 0.21436909 0.070458226 -0.117922604
0002c0 7b a6 ef 3d c5 55 c5 3d 25 8e 13 be 62 05 a2 bd
       0.117016755 0.096355 -0.14409693 -0.07911183
0002d0 66 df 8c be 0a b0 b9 3c 38 1d 9d bd 9c e7 b4 bd
       -0.2751419 0.02266695 -0.07671589 -0.088332385
0002e0 c4 8f a6 3d 9d 2d 9e 3e 3f 6c 19 be 7b 9b 04 bb
       0.0813289 0.30894175 -0.14982699 -0.0020234275
0002f0 b0 a1 2a 3e d0 70 87 3e cb 3b 56 be 6f f4 1e bc
       0.16663241 0.26453257 -0.20921247 -0.009701832
000300 45 67 26 be 1a 59 0f be 49 fb 31 3d 03 33 be bd
       -0.16250332 -0.13998833 0.043452535 -0.092870735
000310 1d 52 6d 3e 63 d5 77 3d 16 61 7f 3e a4 b1 4c 3e
       0.23175855 0.060506236 0.24939379 0.1998964
000320 6e c8 93 3e 54 4d 8b 3e 05 5a 75 be be b0 2d 3e
       0.28863853 0.27207434 -0.23960121 0.16961953
000330 cd ba 87 be af b7 a2 be 06 00 37 3e 5d 48 de 3d
       -0.26509705 -0.31780764 0.17871103 0.10853646
000340 7e 27 a9 bd 62 9b 0c 3e bc 3f 91 3e a1 6e 0b be
       -0.08259486 0.13731149 0.28368938 -0.1361642
000350 7d 00 a2 bc 1e c2 d8 bd f8 ca 46 3d 9a 39 45 be
       -0.019775623 -0.105839 0.04853341 -0.19260255
000360 02 c1 54 3e dc a5 3f 3e 66 4d f0 3c 8d 8d 26 3e
       0.20776752 0.18715614 0.029333781 0.16264935
000370 39 6e e2 bd d2 a6 0b 3e 8c 8a ee 3d b6 5e 06 3c
       -0.110561796 0.13637856 0.116475195 0.008201292
000380 9f 31 b4 be a6 b0 a5 be 43 82 28 be 4a d6 5c 3e
       -0.35194108 -0.32361335 -0.16455941 0.2156612
000390 8f 8d ea bb f4 17 eb 3d 95 62 1e bd 0f e4 69 bc
       -0.0071579884 0.11479178 -0.038668234 -0.014275565
0003a0 cf 90 0d 3e 7b 68 e5 3d 67 3e 49 3e 93 b4 8d 3e
       0.13824771 0.11201569 0.19652711 0.2767683
0003b0 f7 5a 93 3e 58 9f 87 3d 22 37 bf bd f5 b8 03 be
       0.28780338 0.06622189 -0.093366876 -0.12863524
0003c0 6a c0 0f be d0 a6 1a be e3 46 75 3d 72 0d 37 3e
       -0.14038244 -0.15102696 0.059882056 0.17876223
0003d0 8f 38 17 bc 6e 81 f7 3d 91 a8 1d 3e e9 a4 64 3e
       -0.009229793 0.12085234 0.15396334 0.22328533
0003e0 3a 6d 75 3b 64 98 18 3e 60 de 43 be 57 40 3b 3d
       0.0037449137 0.14901882 -0.19127798 0.045715656
0003f0 51 c2 6f 3e 0c 6a 9a 3c 08 44 ef bc 8d c1 a5 bc
       0.2341397 0.018849395 -0.029207245 -0.020233894

modality_embeddings.atac.bias f4 [64]
000000 fa 81 14 3c 86 d1 56 be 50 ba 81 bd f5 02 16 3e
       0.009064192 -0.20978364 -0.063343644 0.14649566
000010 b6 0d 0d 3e cb ee bc 3c ea e9 62 3d 63 dd 9c bc
       0.13774762 0.023063084 0.05539886 -0.019148534
000020 c2 dd 46 3d a5 fd 79 be 90 da d8 bd 8f 2f 87 bd
       0.04855133 -0.24413164 -0.105885625 -0.06600868
000030 e6 51 a0 3d 54 dc 10 be cd 06 59 3e 51 fa 2c 3e
       0.07828121 -0.14146549 0.21194 0.16892363
000040 9a b6 11 be bd 99 ed 3d be f9 c0 bd ac 57 cb 3b
       -0.14229813 0.11601589 -0.094226345 0.0062055197
000050 3f 98 0a be 5c 99 f0 3c 70 43 cf 3d 7f 33 9d 3d
       -0.1353464 0.029370002 0.101202846 0.07675838
000060 42 f8 5b 3c 79 15 02 be e6 85 26 3e a8 b4 fb bd
       0.0134258885 -0.12703504 0.16262016 -0.12290317
000070 15 8d 53 3d a8 1b 52 bd ee 57 2e be b3 ef a4 3d
       0.05164822 -0.051295906 -0.1702573 0.080535315
000080 2a 7e 6b 3c 7a 76 cf bd 7f 22 9b 3d 0b 61 19 be
       0.014373342 -0.101300195 0.07574939 -0.14978425
000090 c7 bf 8c 3d 24 02 31 3e f4 60 58 3c 15 6b 02 be
       0.06872516 0.17285973 0.013206709 -0.12736161
0000a0 67 b8 e4 bd 28 7e 29 be 05 9c 27 3e 88 d7 1a be
       -0.111679845 -0.16552031 0.1636811 -0.15121281
0000b0 37 62 53 be 3e 29 47 3e 20 ee 3f 3d 74 4e d1 3d
       -0.20642935 0.19449326 0.046857953 0.10220042
0000c0 78 9e 22 bd 83 92 ec 3d 8f 1b 71 bd e0 d1 14 3e
       -0.03970191 0.115513824 -0.058864173 0.14533186
0000d0 5f 4a e4 3c ea 9c 46 bb 34 3a 9b bc 2e fe 80 3d
       0.027867494 -0.003030593 -0.018948652 0.06298481
0000e0 a7 db 2e bd d1 ab c0 3d b5 58 0c 3e 19 78 01 3d
       -0.042689946 0.094077714 0.13705714 0.031608675
0000f0 c9 8c 05 3d 95 ab e4 bd 14 cc 25 be 35 a0 c3 3d
       0.032604966 -0.11165539 -0.16191131 0.095520414

modality_transformers.atac.layers.0.self_attn.in_proj_weight f4 [192, 64]
000000 24 50 8d bd 33 92 a8 3d 1b 63 28 3d e7 29 61 3d
       -0.06900051 0.0823101 0.04111014 0.0549716
000010 10 5f 05 be 84 59 a8 bb fa df 58 3d ac 8d a0 bd
       -0.13024545 -0.005137624 0.052947976 -0.07839522
000020 2e 5e 04 3e ad 7d fb 3d 99 46 a1 bd 6a 87 17 bd
       0.12926552 0.1227983 -0.078747936 -0.036994375
000030 48 83 0a be 47 bb 68 bc e0 61 bc 3d 2b 69 98 3d
       -0.13526642 -0.014204807 0.09198356 0.07441934
000040 63 ef 27 3d 57 e9 a1 3b 2c 1f b9 3c bb d1 d5 bd
       0.04099978 0.0049411464 0.022597872 -0.104403935
000050 3a d2 80 3d 27 5c e5 bd 35 61 3a 3d a7 9f fd 3d
       0.062900975 -0.11199217 0.04550286 0.12383967
000060 f7 c9 db bd 46 c9 5c 3d 54 a3 b4 bd 2c 5a cb bd
       -0.10731881 0.053902887 -0.08820215 -0.09929308
000070 8b 74 e9 bc 23 8f 19 3e 9c c6 fb 3d 92 fc 00 be
       -0.028497955 0.14996009 0.12293741 -0.12596348
000080 5b 46 a1 3d 63 c9 dd 3c d2 7c f0 bb 5f 9a 80 bd
       0.07874747 0.027073568 -0.0073390985 -0.06279444
000090 45 9e f6 3d 63 a1 ab 3c d0 4c 47 bd f7 d8 f6 bc
       0.12041906 0.020950979 -0.04865724 -0.030132754
0000a0 ef a6 c1 bd 14 98 16 be 8a 48 2c 3e f8 62 09 be
       -0.09455668 -0.1470645 0.16824546 -0.1341666
0000b0 7d 62 1c be 2f 0b 04 3e 4e 96 31 bd 99 a2 ad 3d
       -0.15271945 0.12894891 -0.043356232 0.08478279
0000c0 86 3b 37 3d 7f 68 14 3e ad c4 05 be 1e da 74 bd
       0.0447345 0.14492987 -0.13063307 -0.059778325
0000d0 a1 52 17 bd 55 94 a5 bd f8 ca 2c be 49 92 d6 bd
       -0.036944035 -0.08084933 -0.16874301 -0.104771204
0000e0 aa ac eb bd 0d ce b3 ba bb c6 01 be 4e 92 3b 3c
       -0.115075424 -0.0013718024 -0.12673466 0.011448456
0000f0 ce 98 5e 3d 14 1e 9a bd aa f6 0b be 7a 7a 05 3e
       0.054344945 -0.07525268 -0.13668314 0.13035002
000100 3a 1d e5 bd 8c e4 b8 3c 88 5f ab 3d 91 8e 72 3d
       -0.11187215 0.022569917 0.083678305 0.059217993
000110 66 2d 94 3d fa 24 87 bc 92 56 1f bd 6b 13 d9 bc
       0.072352216 -0.016497124 -0.03890092 -0.026498517
000120 83 ac 79 3d 1d 96 87 3d b0 ff 67 bd 46 44 0c 3d
       0.060955536 0.06620429 -0.056640327 0.034244798
000130 88 fe 12 3e 45 38 a2 bd 1b fd 62 bd 17 18 fa bd
       0.14354908 -0.07920889 -0.05541716 -0.12211626
000140 97 1b 1c be b4 ae 9d 3d d4 40 38 3e 18 47 b4 3d
       -0.152449 0.076993376 0.1799348 0.088026226
000150 5c ee e0 bd 30 1d f6 3c d4 f4 a5 bb 54 44 7d 3b
       -0.109829634 0.030043215 -0.005064586 0.0038645463
000160 63 ea ef 3d b5 ac 5a 3c 4b 36 8f bd f4 8f 48 bd
       0.117146276 0.013346841 -0.069927774 -0.04896541
000170 20 44 6d bd 03 a3 2f be c7 a5 a0 bd 07 4b 04 3d
       -0.057926297 -0.17152028 -0.078441195 0.032298114
000180 49 4b 36 3e ed 29 88 3c 07 7f 41 be 5c 07 dd 3d
       0.17802157 0.016621554 -0.18896113 0.10792419
000190 39 83 1d bc e4 2e 98 bd 16 0c 9b 3d 52 cf 3d 3d
       -0.009613805 -0.07430819 0.075706646 0.046340294
0001a0 f1 a9 34 3d 12 13 ed 3d 4b 15 1a 3d 04 1f 9c bd
       0.04410738 0.11575903 0.037617963 -0.07623103
0001b0 8e c2 42 b9 29 a8 27 3e b4 bd d6 3d cc f7 e1 bd
       -0.00018573759 0.16372742 0.10485402 -0.11033592
0001c0 c4 d9 04 3e 58 73 2d be a3 fb fe bd ea 76 88 3d
       0.12973696 -0.16938531 -0.1245034 0.06663306
0001d0 50 cb b7 bd 2d 00 d2 3d 0b 7e 79 3d cc ba b0 bd
       -0.08974326 0.1025394 0.06091122 -0.08629379
0001e0 93 36 80 3d ab 1c c1 3d de ed c1 3d 8c e8 6b bd
       0.06260409 0.09429296 0.09469198 -0.05759482
0001f0 99 ae 57 3d b5 c4 02 be dd 00 97 3d 0e 6f 2d be
       0.052656744 -0.1277035 0.073732115 -0.16936895
000200 52 0f 31 3b cc fc fb bb 1e 3c 2d bd ca fe de 3d
       0.0027017188 -0.007690048 -0.04229366 0.10888441
000210 22 a1 6a bd 06 7c b3 bd c4 b2 fb 3d 86 cc 03 3e
       -0.057282574 -0.0876389 0.12289956 0.12870988
000220 2a 69 fd 3d 38 fc e6 3d e9 7b 16 3e cd 37 00 3e
       0.12373574 0.11278576 0.14695705 0.12521286
000230 bd cf 0d 3e c5 ea 7f 3d 28 a2 b1 3d de 25 a8 3d
       0.13848777 0.062479753 0.08673507 0.082103476
000240 5b 53 59 bd 77 a7 b0 bd 04 44 12 bb cc 1a 98 3c
       -0.05305801 -0.086256914 -0.0022318373 0.018567465
000250 23 b0 70 3c 00 34 ea bd d7 16 50 3d 00 b3 1f be
       0.014690432 -0.114356995 0.05080303 -0.15595627
000260 40 3d fa 3d 63 ae 0e be c4 b9 04 3d ce f2 a6 3d
       0.12218714 -0.13933711 0.032403722 0.0815178
000270 21 cb 88 3c 4e cf aa bd 8b 5c a1 3d 6e 8b a9 bc
       0.016698422 -0.083403215 0.07878979 -0.020696368
000280 54 31 a7 bd f1 a4 5b 3d 2c c0 47 3d 93 53 cc 3d
       -0.081637055 0.053624097 0.048767254 0.09976878
000290 0b d5 66 bd 43 82 dd bd fc ef f6 3b 48 09 7b bd
       -0.056355517 -0.10815861 0.0075359326 -0.06128815
0002a0 44 77 87 3d ff ad 8f bd 23 b1 aa 3a ea a0 de 3b
       0.06614545 -0.07015609 0.0013022762 0.006794085
0002b0 0c 5f 2c be 66 11 cf bc c7 c1 2b be 93 ce 6a bd
       -0.16833133 -0.02527685 -0.16773139 -0.05732591
0002c0 a6 31 29 be 34 b4 f4 bd 9c 2d c9 bd 7f c1 98 bd
       -0.16522846 -0.119484335 -0.098231524 -0.074587815
0002d0 0b d6 88 bd 20 bb a3 ba 9d 0e 82 bd e7 e1 e4 bd
       -0.066814505 -0.0012491681 -0.063504435 -0.111759
0002e0 2a 28 12 3d 50 ec 07 3d c1 b4 6d 3d 0f 79 bd bd
       0.035682835 0.03318435 0.05803371 -0.09251606
0002f0 b8 a8 19 3d 81 a5 65 bd 75 33 f6 3d db 93 95 bd
       0.03751442 -0.05606604 0.120215334 -0.07303592
000300 54 4c f6 bc f4 91 19 3d 03 6b 69 3d 4f 87 40 3d
       -0.030065693 0.037492707 0.05698682 0.04700404
000310 df 98 e4 3d 98 d9 94 3d 34 65 3b bc b5 c0 a4 3a
       0.1116197 0.07268065 -0.011437703 0.0012569638
000320 fd 40 45 3d d8 4d 8b 3c 48 5d 1e be 73 3f 4d 3d
       0.04815768 0.017004892 -0.15465271 0.050109338
000330 3e 25 5a bc fe ea 4c 3d 9d 8b 9b bd 62 8e 0d 3e
       -0.013314543 0.050028794 -0.075949885 0.13823846
000340 94 e5 fd bd 4a 99 8d bd 89 f4 71 ba 25 1a cc bd
       -0.12397304 -0.06914003 -0.0009229859 -0.09965924
000350 6d 94 15 be 43 53 bf bd 2d 13 cd bc 37 41 e1 bd
       -0.14607401 -0.09342053 -0.025033558 -0.10998767
000360 22 fb b9 bc 28 02 a5 bb 87 dd 79 bb c0 54 1a be
       -0.022702757 -0.0050356574 -0.0038126425 -0.15071392
000370 6f 8e 18 3d 0c ef 1c bd 2b f6 cb bc 62 1d f3 bc
       0.03724521 -0.03831391 -0.024897655 -0.029677097
000380 a8 d3 98 3d d0 13 40 3c 37 66 e3 bd 63 17 c7 3d
       0.07462245 0.011723474 -0.1110348 0.097212575
000390 59 2a 9b bd 72 c2 db 3b 6e e8 05 bd 3b 30 fa bd
       -0.075764365 0.0067065293 -0.032692365 -0.122162305
0003a0 cd ea e0 3d d8 cf 98 bd 39 78 47 3d 91 29 0f 3e
       0.10982285 -0.07461518 0.048698638 0.139807
0003b0 17 7f d6 bd ac b6 af 3d c5 d7 c4 3c b4 4a 2e 3d
       -0.10473459 0.08579764 0.024028668 0.04255171
0003c0 9e 11 9c bd 93 47 d6 3c a6 6b 00 be fe 9f 97 3d
       -0.07620548 0.026157176 -0.12541065 0.07403563
0003d0 bd ac 1d 3d bd 29 d3 bd 39 13 9a bd 11 f0 02 3e
       0.038494814 -0.10310695 -0.07523198 0.1278689
0003e0 cc 94 e7 3a 3d 18 72 bd 05 26 fe bd bd 78 73 ba
       0.0017668246 -0.059105147 -0.124095954 -0.0009287706
0003f0 6c aa fd bd e7 87 8d 3d 80 93 a6 bc c7 2e 81 3d
       -0.12386021 0.06910687 -0.020334005 0.0630775

modality_transformers.atac.layers.0.self_attn.in_proj_bias f4 [192]
000000 c0 04 d5 3b e9 8f 51 bc b8 1e 01 3d e1 45 00 bc
       0.0065008104 -0.0127906585 0.031523436 -0.00782916
000010 6a 51 4a 3c 98 9c a1 3c 88 53 79 bc 32 59 c7 3c
       0.012348512 0.01972799 -0.015217669 0.024334524
000020 ab 8e 1d bc d5 38 4b bb 7d 98 00 3d e8 7e 10 3c
       -0.009616534 -0.0031009216 0.031395424 0.008819319
000030 86 73 4f 3c f1 ad ae 3c 0b 2b d4 3b e8 de c8 3b
       0.01266182 0.021323176 0.0064748577 0.006130088
000040 4e 40 9f bc 36 b4 45 3c b0 0c fb 3b 8b 30 85 3b
       -0.019439843 0.012066891 0.0076614246 0.0040646247
000050 d2 74 1b 3b fb cb f1 3b 98 bd 4d bb 9b af e2 bb
       0.0023720753 0.0073790527 -0.0031393524 -0.0069179065
000060 84 8a 16 bc c9 11 a5 3a 64 ad 29 bc f7 03 38 3c
       -0.009188298 0.0012593801 -0.010356281 0.011231414
000070 ca f0 0e 3a 57 38 8c bc 24 e0 37 3c 6c dd 10 bd
       0.00054527505 -0.017116709 0.011222873 -0.035367414
000080 b9 68 ea 3c 6f 57 40 bc 3e 41 8e 3c 9e 96 14 3d
       0.028614389 -0.011739596 0.017365094 0.036276452
000090 2b 13 97 bd 3d 25 3c bc 26 64 20 bd 68 5c b2 bb
       -0.07376703 -0.011483488 -0.03915801 -0.0054431446
0000a0 81 45 3d 3d 3a 5e 73 bb 84 db 91 bb aa b4 60 3c
       0.046208862 -0.003713502 -0.004451217 0.013714949
0000b0 7e 63 26 bb f5 99 e5 3b 94 03 ba 3c eb e5 1a bd
       -0.0025388892 0.0070068785 0.022706784 -0.037816923
0000c0 b1 4e 0e bc dc 2e 7f bd b4 a6 92 3d d8 2d 23 bd
       -0.008685754 -0.062300548 0.07160702 -0.039838642
0000d0 88 bc 06 bc 07 e6 95 3c a2 10 03 3c c2 73 1a 3b
       -0.00822366 0.018298162 0.007999571 0.0023567532
0000e0 c7 1e 02 bb 84 c6 b0 3c 45 bd 3e 3c 91 e2 87 3d
       -0.001985477 0.021579035 0.011641805 0.06635011
0000f0 4c 61 a7 3b 40 35 d7 3b 95 0f c7 bc 5b 1e 31 3d
       0.0051080342 0.006567627 -0.024299422 0.04324184
000100 72 85 7f 39 1d 19 0a 3a 7c 37 07 bb cc 92 f9 b9
       0.00024368407 0.00052680244 -0.0020632436 -0.00047602353
000110 1e 15 2b 3b c2 ec f4 3a e5 ae 97 ba 3a a6 ff ba
       0.0026105116 0.0018686282 -0.0011572508 -0.0019504495
000120 d5 db 2c ba 8c a9 97 38 a4 ed 81 bb b0 93 25 bb
       -0.0006594037 7.231822e-05 -0.0039650965 -0.002526503
000130 54 9d a4 ba 0e 12 e6 3a 43 fb 62 3b 32 a7 a0 ba
       -0.0012559094 0.0017552988 0.0034634627 -0.0012256859
000140 0f 31 b0 39 7e 04 c9 ba a4 4c 10 3b da 22 a4 3a
       0.00033605887 -0.0015336422 0.0022018338 0.0012522594
000150 7b cc 5d 3b 27 1e 5e 3a 29 24 e9 ba da b7 f2 39
       0.0033843804 0.0008473121 -0.0017787266 0.00046294817
000160 29 8c ce ba e4 16 5e 3b 2b 8d 03 3b c2 10 c3 38
       -0.0015758324 0.0033888156 0.0020073156 9.301446e-05
000170 12 39 a6 ba 84 57 98 bb 09 ca 22 3c eb a0 b4 3b
       -0.0012681803 -0.0046491046 0.009935864 0.005512347
000180 97 e0 c3 b9 73 e1 44 ba ed 52 0f bb af 63 df 3a
       -0.0003736063 -0.0007510401 -0.0021869496 0.0017043258
000190 d0 a7 91 bb 7f e1 48 ba a2 17 0c bb d0 59 85 b9
       -0.0044450536 -0.0007662996 -0.002137639 -0.00025434652
0001a0 8c b8 96 3b 6b a4 0a bb e3 52 e4 ba 8a 59 ad ba
       0.0045996364 -0.002115513 -0.0017419722 -0.0013225537
0001b0 82 3a a4 3b 36 5c ea 3a 0a ff ce 3b 21 c6 5e 3b
       0.0050118575 0.0017880264 0.006317024 0.0033992606
0001c0 db 43 4a 3a 62 f2 69 bb a9 4e 9c bc 4d 09 8a 3c
       0.00077158 -0.003569745 -0.019080477 0.016850138
0001d0 a9 77 af ba 82 83 01 bc bc 39 41 bc 20 4c 02 3b
       -0.0013387102 -0.007904889 -0.01179355 0.00198818
0001e0 88 ec 80 bb 13 f1 e6 bb d3 db 05 3c e2 80 3f bc
       -0.0039344467 -0.0070477813 0.008170086 -0.011688443
0001f0 8f 12 dc bb 39 52 9a ba a7 1e fd ba 9c c5 e0 bb
       -0.0067160795 -0.0011773772 -0.0019311503 -0.0068594944
000200 65 70 5f 3c 04 52 e9 bc 35 6d cd bc f5 2c d0 3b
       0.013637637 -0.02848149 -0.025076488 0.0063530155
000210 7e 70 4c bc 4f c6 c6 bb 0f 54 9c bc 4e 33 b4 bc
       -0.012477992 -0.0060661207 -0.019083051 -0.02199712
000220 56 d9 d3 bc 3f d3 96 bb 73 63 89 bc db 99 19 bc
       -0.02586047 -0.004602819 -0.016771054 -0.009375061
000230 dc 3e be ba 17 d8 6b bc 56 ea 80 3c 83 22 fa b9
       -0.0014514583 -0.014394782 0.01573674 -0.0004770943
000240 07 1a 36 3b 02 94 d6 bb ab ff 50 bc f8 6f 55 3c
       0.002778651 -0.0065484056 -0.0127562685 0.013027184
000250 06 8f fb 3c e9 b0 da ba 52 76 0e bc 56 bc b4 3c
       0.030707847 -0.0016684803 -0.008695202 0.022062462
000260 f9 59 c7 3b 57 f1 ab 3b 27 fe c7 3c af 0d df 3b
       0.0060837236 0.005247276 0.024413181 0.006807051
000270 09 36 c5 bb 89 55 95 bc 77 7c 34 3c 8e 4f 99 bc
       -0.0060184044 -0.018229263 0.011016003 -0.018714692
000280 7f 5b 84 b9 bd 0d 98 3c f9 75 1a bc 9c aa e4 3b
       -0.00025245172 0.018561238 -0.009427541 0.006978346
000290 d4 e5 a0 bc 98 40 67 bb 6a 38 9e 3b 98 01 d1 ba
       -0.01964084 -0.0035286304 0.0048285024 -0.001594591
0002a0 82 63 ee 3b 18 ca b9 bc 08 ae 90 bb 89 98 12 bc
       0.007275046 -0.022679374 -0.0044152774 -0.0089475
0002b0 c8 b8 67 bb 53 76 6f 3c e8 20 17 bd de d1 4a bc
       -0.003535794 0.014615613 -0.036896616 -0.012379138
0002c0 58 54 b5 bb 95 6c 72 bc 0f 43 16 3d 32 ad cc 3b
       -0.005533736 -0.014796396 0.036685046 0.0062462324
0002d0 34 46 84 bb c6 4f 20 bb ee 56 c6 bc d5 be 9d 3c
       -0.004036689 -0.0024461611 -0.024211373 0.019256035
0002e0 55 05 26 bd a2 fe a9 bc df 28 5d bb 06 20 ae 3c
       -0.04053243 -0.020751301 -0.0033746285 0.021255504
0002f0 40 bc cf 3c f7 28 b9 3c 36 6d 41 3c d1 3d 08 bb
       0.02535832 0.022602541 0.011805823 -0.0020788799

modality_transformers.atac.layers.0.self_attn.out_proj.weight f4 [64, 64]
000000 65 38 2d 3d 64 13 8e bd 05 47 87 bd 02 6a 10 be
       0.04229011 -0.06937292 -0.06605343 -0.14102939
000010 6b e2 15 be fc 80 09 3d 4d ca 0b bd 59 15 a3 bd
       -0.14637153 0.033570275 -0.034128476 -0.07963056
000020 0e ad ba bb cc 7a 0b 3d c9 1e 00 3d ce a0 37 3e
       -0.0056968993 0.034052655 0.03127936 0.17932436
000030 6a c8 21 be 8b 9d 0f 3e fd d7 ce 3d d1 8c b3 bd
       -0.15799108 0.14024942 0.1009979 -0.08767093
000040 89 2d fd ba cb fc 8a bd f6 8b fb bd a3 d5 d3 3b
       -0.0019315939 -0.06786498 -0.12282555 0.0064646765
000050 9b 24 f9 3d 65 45 6b bd 2e 28 48 3e 27 5a 52 3e
       0.12165185 -0.057439227 0.19546577 0.20542203
000060 f3 e5 f5 bd d6 a5 37 3e 5b a8 99 3c b5 4c b9 bd
       -0.1200675 0.17934355 0.018757036 -0.09047834
000070 a0 ed ba bc bd 02 44 3e 6f d4 e4 3c d3 fa b7 3d
       -0.022818387 0.1914167 0.027933327 0.08983388
000080 4d 54 6b ba 4d df 15 bc 23 d0 e7 bd f3 c2 bb bd
       -0.00089771004 -0.009147477 -0.11318996 -0.09168043
000090 26 d1 9a 3c cd 71 0c 3e f4 e4 a6 3d 6f a0 90 bd
       0.018898558 0.13715287 0.08149138 -0.0706185
0000a0 36 0c b2 3b 7c 9a 3f be db 7f 15 3e 7c f4 58 be
       0.0054335846 -0.18711275 0.14599554 -0.21187013
0000b0 d6 3f e5 3b dd 99 c8 bd da 7d e4 bd 00 b3 03 3e
       0.006996135 -0.09794972 -0.11156817 0.12861252
0000c0 a7 f0 16 3e 67 e6 1e bd 10 85 39 bc 20 f7 31 be
       0.14740239 -0.038793948 -0.0113232285 -0.17379427
0000d0 3a d3 ec 3d a9 01 f4 bd 30 13 c0 bd 8d 58 4d 3e
       0.11563726 -0.11914379 -0.0937866 0.2005331
0000e0 a8 d2 25 be 0f b7 a9 bd 62 98 be bd f9 d9 bd bd
       -0.1619364 -0.08286869 -0.093064085 -0.092700906
0000f0 6f d9 3b 3e fd 1c b9 3c 39 30 f8 bc da 1a 38 bd
       0.18344663 0.02259683 -0.030296432 -0.044947483
000100 f6 57 f2 bc 36 ec d2 3c 0d cc 06 be ad 0e 9b bd
       -0.029582959 0.0257474 -0.13163777 -0.075711586
000110 d9 46 6d bd 2b 99 15 be 47 df 76 bd ea 94 55 3d
       -0.057928894 -0.1460921 -0.060271528 0.05214397
000120 5a 94 dc 3c 92 fd c9 3c 72 a5 2e 3e 7d a0 cf 3d
       0.026926208 0.024657045 0.170553 0.101380326
000130 45 7e 83 be 11 6f 02 3e a4 44 56 3e 3c ed 34 bd
       -0.25682274 0.12737681 0.20924622 -0.044171557
000140 bc 6d 22 3e 4a d0 2e 3e 14 fb 62 bd bc 75 09 be
       0.15862173 0.17071643 -0.055415228 -0.13423818
000150 23 6d dd bc 74 33 03 3e 63 b5 32 bc 86 28 57 be
       -0.02702958 0.12812597 -0.010907504 -0.21011552
000160 f9 13 57 be 3c 15 2c bd fb bb 28 be ea 23 c6 3d
       -0.21003713 -0.04201244 -0.16477959 0.09674819
000170 b0 da d5 bd ef 8b e2 bd db d5 f1 bd fc 3d 2f be
       -0.10442102 -0.110618465 -0.11808368 -0.17113489
000180 40 57 2a 3e 92 13 05 bd 54 ae 1e 3e b6 e2 04 be
       0.16634846 -0.032489367 0.15496188 -0.12977108
000190 d3 28 04 3e 10 a9 ac bd dc a7 20 be 80 ea 54 3e
       0.12906198 -0.084306836 -0.15689033 0.2079258
0001a0 b8 2b 5d 3d b5 49 d0 bd e1 e9 d7 bd 8d 46 27 3e
       0.05399677 -0.101703085 -0.10542656 0.16335507
0001b0 24 8d 45 3e f1 dd 8a bd 8a 1d 55 3d 49 c2 1d be
       0.19292122 -0.06780613 0.052030124 -0.15406145
0001c0 36 2e 2d be 79 c3 1e be 03 7a 25 3d 34 51 e5 bd
       -0.1691216 -0.15504254 0.040399563 -0.11197129
0001d0 44 7f 65 3d c0 e5 7a bd af 36 cb bc 3e a6 96 3d
       0.056029573 -0.061254263 -0.024806349 0.07355927
0001e0 8d ae c1 3b 09 37 65 3e 6d a3 2f 3e 0d 6c 8c bc
       0.0059107007 0.22384275 0.17152186 -0.017141366
0001f0 12 9b 96 3c f3 30 45 be 7c 97 f8 bc f5 ef 96 3d
       0.01838449 -0.19256954 -0.03034567 0.07369987
000200 ef 28 9b bd 94 e1 98 3d 2f b2 6e 3d 0d 5a 0b be
       -0.07576167 0.074649006 0.058275398 -0.1360857
000210 d5 47 fe bd 98 ae a7 bd 79 e1 da bd 18 ba 26 be
       -0.124160446 -0.08187598 -0.10687537 -0.16281927
000220 df ec 1c be 87 8d 86 3d fb e7 0e 3e 28 f6 2b be
       -0.15324734 0.06569963 0.13955681 -0.1679312
000230 e2 f6 25 bc 7a 1c 32 be 27 89 c4 bd e2 08 18 3e
       -0.010129662 -0.17393675 -0.09596472 0.14847139
000240 d0 bd 9c bd d4 a5 94 bd 6a 14 34 be c9 e3 57 3a
       -0.07653391 -0.07258192 -0.17585912 0.0008235542
000250 3b 04 a4 bc 7d cb 36 3d 40 86 fd bd b3 de 37 be
       -0.020021548 0.044627655 -0.12379122 -0.17956047
000260 6f 5f f4 3d 40 9a 6f bd 4b 9e f9 3d af d9 d4 3d
       0.11932265 -0.058496714 0.12188395 0.10393082
000270 5d 28 11 3d 23 3c e9 3d db ac 2e bd 7d 7a 9a bd
       0.035438884 0.11388423 -0.042645317 -0.07542894
000280 5d 7c 38 be c8 52 58 bd a7 e0 b8 bb 76 ff 5a be
       -0.18016191 -0.05281332 -0.005642015 -0.21386513
000290 b9 97 28 be 6e ac 01 3d bd 3a 16 3d 16 37 32 be
       -0.16464128 0.031658582 0.03667711 -0.17403826
0002a0 e8 02 8f bd e1 65 64 bd db 3e 62 bd a3 92 a5 3d
       -0.06982976 -0.05576122 -0.055235725 0.08084609
0002b0 b5 e1 eb 3c 9d 35 1e bd d3 74 0a bd ac 2e d1 3d
       0.028794149 -0.03862535 -0.03380282 0.1021398
0002c0 30 43 2f 3e aa 9a 3c be b8 dd 47 be 8f 95 3c 3e
       0.17115474 -0.18418375 -0.19518173 0.18416427
0002d0 b2 aa 2b be 4e 89 17 bd 04 92 2f 3e 4d 28 7a bd
       -0.16764334 -0.03699618 0.17145544 -0.06107359
0002e0 f3 6e 56 be b8 ea 6f bd e8 34 ff 3d 0e 90 38 be
       -0.20940761 -0.058573455 0.12461263 -0.18023703
0002f0 d2 8c a8 3a 72 32 75 3e 44 41 3a be 64 a8 6d bd
       0.001285935 0.23945025 -0.1818896 -0.058021918
000300 dc 99 29 be 5c 64 04 ba 64 3a 55 3e 0d db c4 bd
       -0.16562599 -0.0005050355 0.20823056 -0.09612093
000310 d6 7e 51 3e 63 e1 dc 3d 05 b0 39 3e bb fd e8 3d
       0.2045854 0.107851766 0.18133552 0.1137652
000320 6c 18 11 3e d0 4a 5c 3b 42 78 37 3e a6 40 2c 3e
       0.14169472 0.0033613928 0.17916968 0.16821536
000330 50 11 54 be 1d 84 71 3d cd 4b b1 3b bc 62 2f be
       -0.20709729 0.058963884 0.0054106475 -0.17127508
000340 9d db 21 be ec 2e 7d 3d 72 74 f9 3d 9f 4c da 3a
       -0.15806432 0.061812326 0.12180413 0.0016654915
000350 55 f4 36 be ac cd 71 3e 6a 20 d1 3d 7e 7a 55 be
       -0.17866643 0.23613614 0.102112606 -0.20847508
000360 f3 52 95 3d f7 35 af 3c a3 3a 16 3e 9a de 57 be
       0.07291212 0.021388037 0.14670806 -0.2108101
000370 8e 8a 04 3e 6f 7f b8 3d 0a a6 31 be b1 c9 9c 3d
       0.1294348 0.09008681 -0.17348495 0.07655657
000380 bd a6 1e 3e 50 f1 e0 3c f6 42 a5 bb ac 18 79 bd
       0.15493293 0.027458817 -0.0050433828 -0.060814545
000390 d7 68 10 be 9b 68 f2 bc 3e 46 6f bd 85 6a f2 3d
       -0.14102493 -0.029590895 -0.058416598 0.11836723
0003a0 89 dc 46 3d a7 9d f1 3d aa 17 af bd 7d 78 03 3e
       0.048550162 0.11797648 -0.085494354 0.12838931
0003b0 67 de 99 bd f1 09 61 be b0 70 1c bd 7e a6 5e 3e
       -0.07513123 -0.21976449 -0.038193405 0.21743199
0003c0 8e 6d 22 be a1 2f af 3d 30 2b 39 be 13 7b a3 3d
       -0.15862104 0.08554006 -0.18082881 0.07982459
0003d0 bd 87 4d be 7c 83 8a bd eb c4 34 3c de b8 34 be
       -0.20071311 -0.0676336 0.011033277 -0.17648646
0003e0 42 c6 87 3e 02 6c 85 bd 15 67 ea 3d 68 38 fc bc
       0.26518446 -0.065147415 0.114454426 -0.030788615
0003f0 52 f9 b9 bd 24 0d 19 bd aa 94 00 3d 4b c5 26 be
       -0.09080757 -0.037366048 0.031391777 -0.16286199

modality_transformers.atac.layers.0.self_attn.out_proj.bias f4 [64]
000000 c8 64 94 3c 4a c3 51 bb 27 a1 94 3b df 8d ff bb
       0.018114462 -0.003200727 0.0045358124 -0.007798895
000010 10 60 cd bb c3 01 b3 bb 61 7b 29 3c 31 5a c6 3a
       -0.006267555 -0.0054628565 0.010344357 0.001513308
000020 b2 88 c2 3b 31 18 b2 3b ae 38 e5 bb 42 8b 34 bb
       0.0059367055 0.0054350127 -0.006995282 -0.0027548824
000030 e2 33 a9 3c 45 7d 9e bc 05 2b 96 bc c6 ee 29 bb
       0.020654622 -0.019346843 -0.01833106 -0.0025929674
000040 d6 e2 ab bc 57 49 cb bb 3c af 0b 3c 4b ee d3 3b
       -0.020982187 -0.006203811 0.008525666 0.0064676157
000050 7b 6a 38 3b be 4b 19 bc 57 58 09 39 33 24 0e 3b
       0.002813964 -0.009356437 0.00013098247 0.0021689057
000060 33 83 23 ba fa 26 b3 3a 7d c1 e4 bc f0 e3 a0 bc
       -0.0006237507 0.0013668232 -0.027924294 -0.01963994
000070 64 49 98 bb b6 44 2f bb 71 79 10 3b c6 12 12 ba
       -0.0046474207 -0.0026743836 0.002204504 -0.00055722555
000080 c0 09 a9 3c 66 d2 7b 3b a2 f2 82 3b 0b 6e 11 3c
       0.020634532 0.0038424968 0.0039962092 0.008876334
000090 94 ed bb 39 1b 55 99 3b 6e 2a 91 bc 9d bc 40 3c
       0.0003584443 0.004679335 -0.017720427 0.011763719
0000a0 ba 15 c1 3b 4d 0c 79 bc ef 4e d3 3c f6 ca 1b bc
       0.0058924826 -0.015200687 0.025794474 -0.009508839
0000b0 e1 ea f8 3b 92 73 87 bc d6 b7 c6 3b ff ad d9 3b
       0.007596359 -0.0165346 0.0060643954 0.0066430564
0000c0 64 51 a9 ba ca 42 17 bc 8c 90 22 bc 59 b3 c6 bc
       -0.0012917933 -0.009232232 -0.009922158 -0.024255442
0000d0 ab 57 ae 3c f3 9a 94 3b 0f 50 02 3c 66 9b 90 3b
       0.021282038 0.004535073 0.007953658 0.004413056
0000e0 62 c2 ae 3b 45 bb c2 bc e9 71 79 3a 86 52 34 3b
       0.005333231 -0.023770938 0.000951557 0.0027515008
0000f0 53 91 86 3a 9b 81 29 bc 46 9a 87 3b 59 e5 5f bc
       0.0010266699 -0.010345842 0.004138264 -0.013665521

modality_transformers.atac.layers.0.linear1.weight f4 [256, 64]
000000 15 50 78 3d 9a 40 ee bd c8 ea 29 bd b2 93 77 bd
       0.060623247 -0.116334155 -0.04148367 -0.060443588
000010 c8 35 d7 bd b6 6c af bd 3f 56 00 3e f4 c0 0d be
       -0.10508305 -0.08565657 0.125329 -0.13843137
000020 cb 39 16 3d b4 7a 84 bd 23 01 ca bd 40 02 ef 3c
       0.03667621 -0.06468716 -0.09863498 0.029175878
000030 fb f6 9e 3d e2 a1 ce 3d 49 a1 fb bd 36 c7 22 bd
       0.077619515 0.100894704 -0.12286622 -0.039740764
000040 4f 15 30 3d 34 3a ea bd 1c 65 bb 3b 0c 72 43 3d
       0.04298907 -0.114368826 0.0057188403 0.047716185
000050 aa b1 c9 bd c5 c6 d8 3d b9 ee d7 3d a5 8e ec 3b
       -0.0984834 0.10584787 0.105435796 0.007219153
000060 1d 01 25 bd b3 7f 97 3d 2d 92 12 bd 1f ae c5 bd
       -0.040284265 0.073974036 -0.035783935 -0.096523516
000070 ce 4b a0 3d 1f aa d8 3c 36 a6 ac bd 4c 22 cc bc
       0.078269586 0.026448308 -0.0843014 -0.024918698
000080 84 83 23 3d f8 73 bb bd 3e 2a a3 3d 20 bc 29 bc
       0.039920345 -0.09152979 0.079670414 -0.010359794
000090 8e 9e 3b 3a 9a e5 89 bd 8f b5 5e 3d 9c c5 21 bd
       0.00071571104 -0.06733246 0.054372367 -0.039495096
0000a0 4b de c7 bd a3 51 2f bd 17 f9 13 3d bc 64 c3 3c
       -0.09759196 -0.042802464 0.036126222 0.023851745
0000b0 0d 5f 89 bb 59 46 97 bd d4 fa 16 3d 04 e1 b3 3c
       -0.004192239 -0.073864646 0.036860302 0.021957882
0000c0 84 d1 12 3d e9 03 89 3d bb d2 7f bc bd 88 1d 3d
       0.03584434 0.06690199 -0.015614207 0.038460482
0000d0 37 9e 00 3d b3 39 05 be c3 29 1e bd 08 fc a0 bd
       0.031400885 -0.13010292 -0.038614046 -0.07860571
0000e0 02 28 14 be 12 22 ae bc ab 2b 07 3e 2b 2f 27 3d
       -0.14468387 -0.02125648 0.13200252 0.040816467
0000f0 35 98 7f bc 95 00 f4 3d 5b 56 03 3e 24 cb 41 3d
       -0.015600254 0.119141735 0.12825911 0.04731287
000100 07 a8 b0 bd 3b 36 dc bc 51 1e 61 bd c8 67 c9 3c
       -0.08625799 -0.026881328 -0.054960553 0.02458562
000110 8b e6 f4 bd f7 7c 1d 3d 77 5a eb 3c 0c 1c 94 bd
       -0.11958035 0.038449254 0.02872966 -0.07231912
000120 fe c4 0c be 96 53 10 bd ad 19 a5 bd 6b 06 2d bd
       -0.13747022 -0.035235964 -0.08061538 -0.04224245
000130 a1 fe 83 3d cd ee 74 bd 5c 34 03 be d5 77 07 3e
       0.06445051 -0.05979805 -0.12812942 0.13229306
000140 3e f4 9d bd c6 39 cb bd fa f4 62 3d d8 26 af 3d
       -0.07712601 -0.09923129 0.05540941 0.08552331
000150 ac 94 d5 3c 41 ed 48 bd a2 00 1c 3e 37 43 9a bd
       0.026071869 -0.049054388 0.15234616 -0.075323515
000160 98 86 b0 bd 79 2b 96 bc 50 7c 71 3d 72 ad de 3d
       -0.08619422 -0.018331276 0.058956444 0.10872926
000170 b0 f7 6f bd bd cf 78 3d f8 d3 0b 3e 0a b7 b4 3c
       -0.058585823 0.06074499 0.13655078 0.022059936
000180 51 57 e5 3d 60 fe 79 3d 65 3d 3c 3d 57 b3 39 3d
       0.11198295 0.061033607 0.045956988 0.045337047
000190 7d ba 65 3d 04 ce a8 bd 27 7e a9 3d 75 db 97 3d
       0.056086052 -0.08242419 0.08276015 0.07414905
0001a0 f2 cc 99 3d 27 d2 28 3d 4b f1 fc bb ef 13 84 bd
       0.07509793 0.041216042 -0.007719194 -0.064491145
0001b0 7c 13 1b 3e 25 4e a9 3d df c9 c6 bd ce 83 02 bd
       0.15144151 0.08266858 -0.097064726 -0.03186398
0001c0 74 93 b5 bd 44 ea 93 bc 59 00 b8 bc 75 90 61 3d
       -0.08866015 -0.018056042 -0.022461103 0.055069406
0001d0 bb 78 87 3d 20 90 2f bd bf bc 3f bd 07 0a 93 bd
       0.066148244 -0.042862058 -0.04681086 -0.07179647
0001e0 5d fa fd bd e8 2f 81 3d 86 7d 3d bd 17 b9 8d bd
       -0.12401269 0.063079655 -0.046262287 -0.06920069
0001f0 8e 08 d3 bc 69 8d 7b bc 4b 66 87 bd 8e 8a 9a bd
       -0.025760915 -0.015353539 -0.06611308 -0.075459585
000200 68 21 8c bd 03 78 9e 3d b1 c1 54 3d c9 d7 37 bd
       -0.06842309 0.07737734 0.05194253 -0.044883523
000210 12 be 98 3d 69 6c 4a bd 0a 2f 6e 3d 69 37 1d be
       0.07458128 -0.049419794 0.05815033 -0.15353169
000220 aa c0 98 bd b4 60 b0 3b 8c bf 28 bd 48 09 5e bd
       -0.07458623 0.0053826217 -0.0411983 -0.05420807
000230 01 ab 3f be 56 43 31 3d c6 2e df 3d c9 30 14 3d
       -0.18717577 0.043277107 0.10897593 0.036179338
000240 31 9d 22 be c6 28 a6 3b 4d ed 31 bd 90 7c ff bc
       -0.15880276 0.0050707785 -0.0434392 -0.031187326
000250 f3 96 90 3c 92 1d 77 3d 19 ae 19 3e e6 e1 1f bd
       0.017650103 0.060330935 0.15007819 -0.039033793
000260 28 a1 c3 bd 3b 9f 00 be 35 3c 69 bd 59 7a dd bd
       -0.095522225 -0.12560742 -0.056942184 -0.108143516
000270 b8 d6 02 be 48 a3 92 bd 8a ae a0 3d 13 f0 6f bc
       -0.12777221 -0.0716005 0.07845791 -0.0146446405
000280 7b 4a b1 bd 4f ff 28 3c ab 6d 14 3e 6f 59 e4 3d
       -0.08656784 0.010314777 0.1449496 0.111498706
000290 61 b7 a9 3c 06 f5 26 be 36 11 1b 3d 37 4a 23 3c
       0.020717325 -0.16304407 0.03785821 0.009966425
0002a0 f9 ce 3c 3d 66 37 e9 bc 3f 70 ed bd 3a 0c 97 3d
       0.046095822 -0.028468799 -0.11593675 0.07375379
0002b0 36 84 cc bc 37 b9 41 3b a1 19 0a bd bb 75 aa bd
       -0.024965387 0.002955986 -0.033715848 -0.083232366
0002c0 6f 6e 8e 3d e2 fa 1c 3e b1 67 c4 3d 82 20 6b bd
       0.06954657 0.15330079 0.0959009 -0.05740405
0002d0 09 a2 d0 3d 58 5d 56 3d b7 bf f1 3d 7f 4a 11 bd
       0.10187156 0.052335113 0.11804145 -0.035471436
0002e0 9b 98 70 3d 97 88 ea 3d b9 92 33 3c 94 53 4f bd
       0.058739286 0.11451834 0.010960274 -0.050616816
0002f0 4a 02 0c be ba 94 97 bd 45 9f e7 3d 33 57 76 3d
       -0.13672748 -0.07401414 0.11309675 0.060141753
000300 e8 e6 db bd 53 18 05 3d 53 da 08 3e 44 80 56 bc
       -0.10737401 0.0324939 0.13364534 -0.013092104
000310 e1 ce 4d 3d 09 96 9e bd c4 0d 27 bd 00 7b fb 3d
       0.050246123 -0.07743461 -0.040784612 0.1227932
000320 10 7f f3 bd c2 3b f8 3c 08 33 db 3c f8 13 dd bd
       -0.118894696 0.030301932 0.026757732 -0.10794824
000330 78 b3 b7 3d 4f 03 c2 3c e9 dc 09 3e af 78 0b be
       0.08969778 0.023683218 0.13463177 -0.13620256
000340 a5 97 f9 bd 8e 6e dc bd 3d 53 03 3e 12 ff 9f bd
       -0.12187127 -0.10763274 0.12824722 -0.07812323
000350 b4 63 c7 bd 80 78 02 3c 1b 16 09 be 34 b2 c8 bd
       -0.09735814 0.0079633 -0.13387339 -0.097996145
000360 89 3d c6 bc dc 66 1d 3e f1 ba 8b bc 67 bc 1e bd
       -0.024199264 0.15371269 -0.017056914 -0.038753893
000370 b5 71 72 3d b0 ea ae bc 8b 0d a1 bd 75 19 1a be
       0.05919047 -0.021352142 -0.07863911 -0.15048774
000380 51 cb 3e 3d 8e d4 45 bd bd f6 e5 bb 9b b6 e2 3d
       0.046580616 -0.04829841 -0.007017939 0.110699855
000390 ce 47 52 3c 50 bc 54 3d 4a e2 ab 3d 9f e1 86 bd
       0.012834502 0.0519374 0.083927706 -0.065860026
0003a0 a7 97 ca 3c 64 02 b7 3d 8b fd ec 3d ba a7 56 3b
       0.024730517 0.08936003 0.11571797 0.0032753781
0003b0 bf 50 ad 3d 83 cf 01 3d 9a 53 92 bd 70 7e 96 3c
       0.08462667 0.03169204 -0.07144852 0.018370837
0003c0 b4 99 d8 bd 9f 60 a0 3d 3e b1 a7 3d 88 53 cf 3d
       -0.105761915 0.07830929 0.08188103 0.10123354
0003d0 a8 6c 61 bd 7c 8e 7a bd d6 05 e4 bc 30 af b9 3d
       -0.055035263 -0.06117104 -0.027834814 0.090666175
0003e0 13 25 6d bd c3 c9 bb 3d b7 83 93 3d 8e 92 61 bd
       -0.057896685 0.09169342 0.07202857 -0.055071406
0003f0 83 1a 75 3d 68 5b 08 3c e1 e7 51 bd 54 45 bf bd
       0.059839737 0.008322574 -0.051246528 -0.09339395

modality_transformers.atac.layers.0.linear1.bias f4 [256]
000000 1a ca ef ba 69 28 04 bd ba 3a b0 bc 55 90 69 ba
       -0.0018294484 -0.0322651 -0.021512378 -0.0008909752
000010 65 c6 8a ba bf 8e 06 3b 4e ce 20 bd 58 50 a2 3b
       -0.0010587691 0.002053186 -0.039259247 0.0049534254
000020 ee 59 83 bc e0 fb 99 3d 42 f3 ba bc 75 67 98 3a
       -0.016034093 0.075187445 -0.022821072 0.0011627512
000030 a6 1f 42 3b 90 1b 6c bc 35 9e 73 bc 80 16 80 3c
       0.0029620915 -0.014410868 -0.014869262 0.015635729
000040 83 e8 b6 3b 86 5b e7 3b 6a 3f 86 3c 9b 41 c8 3c
       0.005581917 0.007060471 0.01638766 0.024445346
000050 ee 27 93 3b d3 95 19 bc 05 f1 d6 3c b9 ec c1 3b
       0.004490844 -0.0093741 0.026237974 0.005918112
000060 38 28 f6 bb 28 de 3a 3c 9a ce 2d 3c 04 c3 f8 bb
       -0.0075121187 0.011405505 0.01060834 -0.007591607
000070 d3 7d 25 3d e7 56 a9 3b e2 83 3a 3d a9 dc 7c 3d
       0.0404032 0.0051678303 0.04553593 0.061733875
000080 e0 af c7 3b a0 13 f4 b9 2f b2 2a bb fc 02 23 bb
       0.006093964 -0.00046553928 -0.0026046147 -0.0024873605
000090 32 f3 14 bb 1d 57 92 bc 30 c6 83 ba 4e 6a 13 3d
       -0.0022727964 -0.017863804 -0.0010053571 0.035990052
0000a0 ed 50 95 bc 71 9c 9e 3c 94 d0 8f 3b 01 be 1e bc
       -0.018227065 0.019361706 0.004388878 -0.009688855
0000b0 eb 29 c5 bb 5c 30 b8 bb 26 24 a9 3d 08 3b ba 3b
       -0.00601696 -0.0056209993 0.08258848 0.0056833066
0000c0 89 54 14 bb b6 ce 91 3c 75 b7 0b bc cc 59 99 bc
       -0.0022633395 0.017798763 -0.008527626 -0.018719576
0000d0 1e ee a7 bc aa ad 02 bd 33 59 63 bc b0 85 67 bc
       -0.020499285 -0.0319039 -0.013876247 -0.014130995
0000e0 8d 50 96 bc 6d 71 0d 3c 2c 94 ed bb 91 d7 4e 3c
       -0.018348956 0.008633 -0.0072503295 0.012624637
0000f0 0c 37 04 bc f3 53 48 3c e2 9d 09 bc c1 3c 7d 3c
       -0.008069765 0.012227046 -0.008399459 0.015456379
000100 4a f8 30 3b 57 50 95 bb 2d de e7 b9 82 76 f2 bb
       0.002700346 -0.0045566964 -0.00044225287 -0.007399381
000110 cb 8c b3 bc 0d 6d 9e bc 75 58 0c bc e6 55 ab ba
       -0.021917721 -0.019339109 -0.008566012 -0.0013071864
000120 9c 6f 19 bc b9 06 ee 3b 7d f3 ce 3c 19 ad db bb
       -0.009364989 0.007263985 0.025262589 -0.0067039845
000130 07 a1 bf 3b cb a8 c5 bc 28 57 7a bc cf 5f d2 bb
       0.0058480534 -0.024128338 -0.015279569 -0.0064201127
000140 bc f0 51 bc 20 ae 70 bc 7c f6 6e bc e5 de 88 bc
       -0.012813743 -0.014689952 -0.014585134 -0.016707847
000150 72 56 a7 bb bd f0 dc b9 ba 88 03 bb 19 1f a9 3b
       -0.0051067406 -0.00042141034 -0.002007051 0.005161178
000160 43 78 4c bd c0 59 45 bc 75 0c 7a bc f6 63 5e ba
       -0.049919378 -0.012045324 -0.015261759 -0.0008483523
000170 68 02 d7 bb b3 d6 40 3a cd c0 a3 3b 46 08 55 3c
       -0.006561566 0.00073562114 0.004997349 0.013002461
000180 7c d3 bb bc 1e b4 fc bb 26 1b 43 bc f0 51 2c 3c
       -0.022927992 -0.0077119013 -0.011908328 0.010517582
000190 b4 3d cf bb cb 1f bb bb d0 ef 01 bc 89 19 81 bc
       -0.0063244943 -0.005710577 -0.007930711 -0.015759246
0001a0 0f 04 bf bb 9f 12 ce bc 25 40 d5 bb 0e 48 f3 3b
       -0.0058293412 -0.025155364 -0.0065078908 0.007424361
0001b0 73 76 e5 ba eb 14 49 bb af 31 d5 b9 35 ba 1f bb
       -0.0017506614 -0.0030682634 -0.00040663543 -0.0024372463
0001c0 cf 48 40 3d 50 a5 31 3c 06 0f 91 3c de 7f 4a 3c
       0.046944436 0.010842636 0.017707359 0.0123595875
0001d0 48 57 55 3c 3a b5 96 bc c5 d5 ca bc b2 e8 f4 bb
       0.013021298 -0.018396962 -0.024760136 -0.0074740285
0001e0 d3 ab e6 ba e5 b2 0c 3c 13 45 1d bc 7a 85 3b 3c
       -0.0017598815 0.008587574 -0.009598988 0.0114453975
0001f0 5c 0d c5 3a a6 a7 93 3b 3c 5a 4b bc 0b a2 19 3c
       0.0015033889 0.0045060692 -0.01241165 0.009377013
000200 ef 2b 57 bc 2d fe 83 bc c5 6c c1 3b bd da 55 3c
       -0.013133033 -0.016112411 0.005902859 0.01305264
000210 b8 97 bf bc ac c1 b2 bc 2c e5 d8 bc 8a 85 8e bc
       -0.023387775 -0.021820866 -0.026476465 -0.01739766
000220 5c fa 41 3b dc 15 a0 3b 3c 5f ef bb 79 37 8c bc
       0.0029598689 0.0048854183 -0.007305054 -0.017116295
000230 e8 b6 7a b9 f0 51 d9 bc d1 cf 31 3c 8e e2 a3 bc
       -0.00023909996 -0.026528329 0.01085277 -0.02000549
000240 fa 83 94 bc 7e 4a 4e bc 92 60 ce bc 59 19 d9 bc
       -0.018129338 -0.0125910025 -0.025192533 -0.026501345
000250 23 2d cb bc 44 97 7b 3c 1c 10 99 bc aa ca 5c bc
       -0.024801796 0.015355889 -0.01868444 -0.013476053
000260 da 0b 03 bc b4 db a6 bb ff 37 2d bb 6a 37 3d bb
       -0.007998431 -0.0050921086 -0.0026431081 -0.002887214
000270 35 f1 19 bd b3 9d 0b bc 15 ce f9 3c 68 ea 8b bc
       -0.03758355 -0.008521485 0.030493775 -0.017079547
000280 aa 5d 1b bc cb 7e aa ba f6 c8 89 3a c7 22 44 bb
       -0.0094827805 -0.0013007758 0.0010512162 -0.0029927955
000290 49 54 a0 3d ec d8 fa bc be 51 d2 bc 8d 15 43 bb
       0.07828576 -0.030621015 -0.025673743 -0.0029767484
0002a0 d7 e9 9a bc c8 1e e6 3a a9 c1 81 3a 8c 22 4b bb
       -0.018910332 0.0017556781 0.0009899634 -0.0030995933
0002b0 0e c3 73 3d f1 d8 71 bc 13 f8 ba bc f8 30 28 bd
       0.05951219 -0.0147611955 -0.02282337 -0.041062325
0002c0 26 c4 a2 bc e2 96 93 bc 1a ed 92 bc 4d 41 b1 3b
       -0.019868921 -0.018016282 -0.017935324 0.005409396
0002d0 95 80 3b bc c4 0f 8e bc 2c 6c cf 3b d9 14 2b 3c
       -0.011444231 -0.017341502 0.0063300338 0.010441982
0002e0 47 65 02 ba 57 c3 02 bd 2c 2d 16 3c 5d 80 b8 bc
       -0.0004974198 -0.03192457 0.009166043 -0.022522146
0002f0 03 6d d2 bc 22 4c de bc 08 27 e7 bc 91 12 1f bd
       -0.025686746 -0.027135912 -0.028216854 -0.038836066
000300 09 8f 9c 3c c5 15 f0 3a bb e5 59 bc 41 1f 86 bb
       0.019111173 0.0018317035 -0.013299401 -0.004093081
000310 e8 70 42 bc ae 95 60 3b a5 14 c6 3c dd b1 33 3b
       -0.011867739 0.0034268904 0.024179766 0.0027419247
000320 37 cc 8b bc 4a a2 a1 3a 10 3c c9 bc 5b 6f 07 3c
       -0.01706515 0.0012331691 -0.024564773 0.008266295
000330 65 f5 70 bc a8 b1 10 bb 09 13 b5 bc 54 0b 5b bc
       -0.014706944 -0.0022078548 -0.022103803 -0.0133694
000340 af 27 8e 3b fb a7 8a bc 2c b0 76 bc fe b5 81 bc
       0.0043382267 -0.016925802 -0.015056651 -0.015833851
000350 ff bb 1e bd 79 f4 8b 3c 62 98 d9 bb 69 cf 93 3c
       -0.038753506 0.017084347 -0.00664048 0.018043237
000360 c3 d3 72 bc 9f 53 cb bb 1b 2f 82 bc 0e 41 82 bc
       -0.014820996 -0.006205037 -0.015891602 -0.015900161
000370 72 87 b0 bc d9 83 0d bc 75 05 43 bc 34 99 56 bc
       -0.02154896 -0.008637392 -0.0119031565 -0.01309805
000380 94 1f 61 bd 02 c0 77 bb d5 6d 05 bd c6 80 a5 3b
       -0.054961756 -0.0037803655 -0.032575447 0.0050507514
000390 30 13 14 bd e6 b3 a1 bc d1 e0 63 bc d9 c9 4c bb
       -0.03615111 -0.019739103 -0.013908581 -0.003124824
0003a0 8a 96 a2 3b 6c c9 bb ba ed d5 bb 3c a3 03 d1 bc
       0.0049617933 -0.0014326996 0.022929156 -0.02551443
0003b0 aa 1e 13 bb 75 d7 ec bc fa 90 54 3a 58 db 72 bb
       -0.0022448697 -0.028911332 0.00081087614 -0.0037057009
0003c0 ee 01 da bc d8 5f f8 ba 8a aa 45 3c 69 59 9e bc
       -0.026612248 -0.0018949462 0.012064585 -0.019329743
0003d0 24 f2 04 bc c2 a5 05 bd 4a 2f 6a 3a 1e fc 47 bb
       -0.008114371 -0.032628782 0.0008933438 -0.0030515264
0003e0 ee d4 93 ba 67 ba ea 39 8a 24 13 3c 96 fd 8d 3c
       -0.0011278668 0.0004477084 0.00898088 0.017332833
0003f0 5e ff a8 3c dc 75 37 3c 49 28 2a bc de 25 37 3c
       0.020629581 0.011197533 -0.010385581 0.011178462
