ml_output/Oligo_NN/atac/model_0.pth (torch, 474380 bytes, 48 tensors)

query f4 [1, 64]
2.0401037 -0.35134962 -0.62416524 0.5532416 -0.21999434 0.019568693 0.68103796 -1.6581798
-1.2881409 0.15642405 0.031128308 -0.18342696 -0.36200717 0.50082994 0.106521584 0.84117323
-0.15496589 0.93846595 -0.6139741 -0.1051513 -0.4073007 -2.0622418 1.304534 -0.8639325
0.43013397 -0.9018621 -0.29493085 0.10176017 -2.751183 -1.1561352 1.1898133 -1.8832593
1.0125644 1.9785246 -1.4428021 -0.5529502 1.5706556 0.35061398 1.087542 -0.59791523
-1.310382 -0.50032175 0.9979244 -1.6878129 0.1976096 1.0436034 0.009982601 -0.5902013
0.068375945 1.0353917 0.55010545 -0.875685 -2.7312713 0.88659453 -0.60718167 0.8350924
-0.10827243 -2.067515 0.33292368 -0.76717865 2.111598 -1.0600104 -0.79341424 -2.809954
00000000: 0f91 0240 19e4 b3be 4bc9 1fbf 3ea1 0d3f
00000010: 3246 61be 864e a03c 8158 2e3f 3c3f d4bf
00000020: cde1 a4bf a02d 203e cb00 ff3c 47d4 3bbe
00000030: 0159 b9be 6436 003f fd27 da3d 2157 573f
00000040: 61af 1ebe 4e3f 703f 682d 1dbf 9159 d7bd
00000050: b889 d0be c5fb 03c0 f8fa a63f ae2a 5dbf
00000060: 853a dc3e 6fe0 66bf 2d01 97be a367 d03d
00000070: 6213 30c0 3dfc 93bf cd4b 983f a40e f1bf
00000080: b69b 813f 4b40 fd3f bdad b8bf 258e 0dbf
00000090: 3e0b c93f ad83 b33e 9434 8b3f f910 19bf
000000a0: 99ba a7bf 1615 00bf f977 7f3f 410a d8bf
000000b0: 2c5a 4a3e cc94 853f 108e 233c 6f17 17bf
000000c0: b008 8c3d b787 843f b6d3 0c3f e42c 60bf
000000d0: 26cd 2ec0 dcf7 623f 4270 1bbf 9ec8 553f
000000e0: f0bd ddbd 2a52 04c0 f974 aa3e d265 44bf
000000f0: 6c24 0740 6cae 87bf 321d 4bbf 49d6 33c0

cls_embeddings.atac f4 [1, 1, 64]
0.0920477 -0.61102635 0.33810475 -1.2742972 -0.57182884 0.77615047 1.3248602 0.45710674
1.6602426 -0.23575288 0.15494956 1.7691805 0.75019747 -0.2568451 0.2230276 -0.60154414
-0.93563575 0.54246706 1.8372002 1.2256503 -0.11372075 -0.59916216 -0.7682466 0.46350017
0.3602682 1.0686672 -1.8865527 1.5788554 -0.014491288 -0.62221867 2.1947336 -1.6754081
0.1794195 -0.19073749 0.5112056 -0.7712194 1.6091368 -0.011416585 -0.3236195 -0.14851682
1.0993928 1.4590813 3.0136468 0.15132806 0.63789856 0.6941508 0.34317636 -1.505088
0.23035067 0.28688854 0.2772072 0.7276903 1.3665121 -0.01736887 -0.7846472 0.70265365
-1.3900217 -1.1577538 -0.3794266 -1.3158487 1.2253311 0.29093233 0.1899415 0.25194556
00000000: 8183 bc3d 396c 1cbf 111c ad3e 2c1c a3bf
00000010: 6063 12bf ccb1 463f 0595 a93f e509 ea3e
00000020: d482 d43f 3469 71be 19ab 1e3e 8274 e23f
00000030: f10c 403f 3381 83be 5961 643e ccfe 19bf
00000040: d385 6fbf 1fdf 0a3f 6029 eb3f 1ce2 9c3f
00000050: 6de6 e8bd b162 19bf cfab 44bf e54f ed3e
00000060: 1375 b83e 16ca 883f 8f7a f1bf ef17 ca3f
00000070: de6c 6dbc b949 1fbf 8476 0c40 c673 d6bf
00000080: bfb9 373e b050 43be 5fde 023f a26e 45bf
00000090: 32f8 cd3f a10c 3bbc 75b1 a5be cb14 18be
000000a0: e7b8 8c3f 2dc3 ba3f 97df 4040 bef5 1a3e
000000b0: 524d 233f deb3 313f d0b4 af3e b9a6 c0bf
000000c0: 0ce1 6b3e 0ee3 923e 1aee 8d3e e949 3a3f
000000d0: dee9 ae3f 2949 8ebc a4de 48bf 1ce1 333f
000000e0: 3bec b1bf 4731 94bf 3444 c2be bb6d a8bf
000000f0: a6d7 9c3f 15f5 943e 0680 423e 02ff 803e

modality_embeddings.atac.weight f4 [64, 9]
-0.07856652 -0.2108555 0.09606181 0.03441987 -0.2198988 -0.049496405 0.031784542 0.08138666
-0.010267073 0.09350169 -0.0030098828 0.09135572 0.142413 -0.05877199 0.12167119 0.17703038
-0.11583264 -0.30903116 0.03249469 0.13695069 0.12651381 -0.10482709 0.113356315 0.25061145
-0.18030472 -0.22809036 -0.13765347 0.25834513 -0.07531226 -0.027924102 -0.0018047836 0.13903134
-0.059813857 -0.055191875 -0.20247716 0.036906436 -0.23282763 -0.29019102 -0.051060487 0.14753671
-0.08715311 0.019347453 -0.05217636 0.15620892 -0.18348153 0.0055211964 -0.25940305 0.02896463
0.2141649 -0.16054258 0.120038435 0.15567052 -0.2678998 0.16128014 -0.24797374 -0.21956632
-0.0395656 -0.07862236 0.22057214 0.044404887 0.07256309 -0.23859781 0.123675644 0.21436258
0.24931347 -0.06329355 0.033091847 0.24089715 0.09578549 -0.235601 -0.072377995 -0.1953906
0.1036524 -0.24928263 0.08710414 -0.04269787 0.05852981 -0.0046937247 0.2007171 0.08928207
-0.12780462 -0.21536388 -0.04414246 0.23558061 -0.07462517 -0.18243258 0.03133298 -0.024160825
0.090242 0.07985574 -0.34578392 -0.27711388 -0.080415584 0.19487986 0.05436022 0.1679342
0.005084501 -0.0038620015 -0.06943711 0.06304678 -0.033354357 0.123467565 0.12817176 0.092746645
-0.05145577 -0.09808536 0.12699975 0.0012048514 0.07974436 0.24773411 -0.0352028 -0.15007783
0.044714868 -0.34341708 -0.07149861 0.17103654 0.23322228 -0.052358728 0.07488571 -0.23583189
0.21005102 -0.09269806 0.12759432 -0.2686259 -0.025629943 -0.17496434 -0.16255021 0.20847237
0.24346249 -0.03640743 -0.0584409 0.20856564 0.06629868 -0.20398657 -0.08873665 -0.261699
-0.16677411 -0.075151816 0.033314537 0.090450495 0.16639176 0.12646152 -0.037788708 -0.118674
-0.20818703 0.06409885 -0.29148227 0.15137231 -0.056170326 -0.1747515 -0.17846239 0.14113264
-0.18440938 -0.19216616 -0.044994995 -0.18966886 0.01791748 -0.07375579 -0.15551423 0.034456328
0.17166518 0.18509549 -0.17398372 0.0725674 0.07297564 0.19046204 -0.017652955 -0.16598837
0.03176535 -0.24945985 -0.16853245 -0.0030935246 -0.15895118 -0.1456699 0.15758643 -0.053021424
0.047907338 0.04591825 -0.011315963 0.07884964 0.25108552 0.27497935 0.0909728 0.102134295
-0.018751139 -0.19019929 0.09040872 0.1663476 0.05412449 -0.05064703 0.123215534 -0.11738799
-0.14124088 0.2134092 -0.13351831 -0.21456102 0.14477736 0.059666757 -0.29402456 0.0936132
0.25035247 -0.25908503 0.26111683 0.3030484 0.25208774 -0.11511151 -0.022269793 -0.30370402
0.14150606 -0.01617985 -0.04333661 0.24042723 0.13315319 -0.22587273 0.15692773 -0.0065173716
0.12169306 0.030229475 -0.120074384 0.12922983 0.00883384 -0.35099798 0.16104983 0.16491553
0.04090209 0.21560664 0.2315504 -0.20410576 0.031472996 -0.2590654 -0.25814858 0.13110004
0.22391431 0.07451399 0.17702192 -0.082233004 0.02879967 0.11678812 0.014181025 0.30027908
-0.23517747 -0.13265286 -0.12524387 0.19170496 0.060068417 0.011253924 0.009943076 0.18231435
0.12145082 0.0948019 -0.28391567 -0.003659724 -0.11002473 0.26565167 0.07388328 0.059106097
00000000: 7ce7 a0bd 81ea 57be 0ebc c43d d9fb 0c3d
00000010: 272d 61be bebc 4abd 8230 023d 0dae a63d
00000020: 3a37 28bc d07d bf3d 7441 45bb b518 bb3d
00000030: b7d4 113e e6ba 70bd bf2e f93d 7447 353e
00000040: aa39 edbd 5539 9ebe 2719 053d cd3c 0c3e
00000050: d68c 013e 96af d6bd 5b27 e83d 2550 803e
00000060: cda1 38be 8590 69be 08f5 0cbe d045 843e
00000070: 503d 9abd 16c1 e4bc 7d8e ecba 3b5e 0e3e
00000080: 60ff 74bd e010 62bd 2c56 4fbe 342b 173d
00000090: 5e6a 6ebe eb93 94be cd24 51bd dd13 173e
000000a0: 547d b2bd 8d7e 9e3c e1b6 55bd 3bf5 1f3e
000000b0: 95e2 3bbe 27eb b43b 7ad0 84be 3b47 ed3c
000000c0: 0b4e 5b3e 4665 24be b6d6 f53d 1868 1f3e
000000d0: 2a2a 89be 9f26 253e d4ec 7dbe fed5 60be
000000e0: 8a0f 22bd c304 a1bd aadd 613e e6e1 353d
000000f0: f59b 943d fc52 74be a849 fd3d dd81 5b3e
00000100: 084c 7f3e 0ca0 81bd 518b 073d bead 763e
00000110: 2f2b c43d 6341 71be ea3a 94bd 7914 48be
00000120: b647 d43d f243 7fbe a863 b23d f6e3 2ebd
00000130: f4bc 6f3d d1cd 99bb c988 4d3e 85d9 b63d
00000140: 37df 02be 5988 5cbe b9ce 34bd 0b3c 713e
00000150: 15d5 98bd 9bcf 3abe 0357 003d ecec c5bc
00000160: ccd0 b83d 688b a33d 970a b1be dfe1 8dbe
00000170: edb0 a4bd 968e 473e d2a8 5e3d f1f6 2b3e
00000180: e39b a63b a219 7dbb 0b35 8ebd ac1e 813d
00000190: 949e 08bd 90dc fc3d 753f 033e f4f1 bd3d
000001a0: 49c3 52bd fae0 c8bd 390c 023e 1bec 9d3a
000001b0: 0351 a33d 03ae 7d3e d030 10bd 01ae 19be
000001c0: f026 373d 5dd4 afbe dd6d 92bd 3424 2f3e
000001d0: d2d1 6e3e 1b76 56bd ae5d 993d ea7d 71be
000001e0: 9d17 573e 7bd8 bdbd 16a8 023e 5589 89be
000001f0: e3f5 d1bc da29 33be 9073 26be c879 553e
00000200: 3b4e 793e f51f 15bd ba5f 6fbd 3b92 553e
00000210: 9ac7 873d dbe1 50be 90bb b5bd 69fd 85be
00000220: d5c6 2abe 32e9 99bd d374 083d 1c3e b93d
00000230: 9a62 2a3e 217f 013e 55c8 1abd 5b0b f3bd
00000240: fb2e 55be 4246 833d 2a3d 95be 5801 1b3e
00000250: db12 66bd 0ff2 32be d8be 36be 1385 103e
00000260: d0d5 3cbe 35c7 44be ac4c 38bd 8e38 42be
00000270: aec7 923c 470d 97bd 1f3f 1fbe 1422 0d3d
00000280: ffc8 2f3e ac89 3d3e ca28 32be 389e 943d
00000290: 4174 953d 7b08 433e ee9c 90bc dbf8 29be
000002a0: 621c 023d 6772 7fbe c593 2cbe bbbc 4abb
000002b0: 19c4 22be 7e2a 15be 565e 213e fe2c 59bd
000002c0: 7c3a 443d c614 3c3d 9766 39bc ec7b a13d
000002d0: 488e 803e 18ca 8c3e f34f ba3d c92b d13d
000002e0: fd9b 99bc 9ac3 42be 3528 b93d 0657 2a3e
000002f0: a4b1 5d3d 4373 4fbd 6d58 fc3d 1d69 f0bd
00000300: 73a1 10be f187 5a3e 06b9 08be e2b5 5bbe
00000310: 8440 143e 2165 743d 638a 96be 47b8 bf3d
00000320: 332e 803e cba6 84be 1bb1 853e 2929 9b3e
00000330: a511 813e 95bf ebbd 246f b6bc 187f 9bbe
00000340: f7e6 103e 9b8b 84bc bb81 31bd 8e32 763e
00000350: 4f59 083e 2e4b 67be aab1 203e ad8f d5bb
00000360: 363a f93d cea3 f73c 8fe9 f5bd d354 043e
00000370: cfbb 103c 02b6 b3be 3fea 243e 9edf 283e
00000380: f388 273d fdc7 5c3e 8c1b 6d3e 1a01 51be
00000390: d4e9 003d 38a4 84be 0d2c 84be 173f 063e
000003a0: cb49 653e ca9a 983d 3c45 353e c769 a8bd
000003b0: 49ed eb3c 9c2e ef3d 8857 683c 2ebe 993e
000003c0: 5dd2 70be 27d6 07be ee3f 00be 4e4e 443e
000003d0: 4d0a 763d 6162 383c 49e8 223c 9db0 3a3e
000003e0: 35bb f83d 8027 c23d 655d 91be fbd7 6fbb
000003f0: a554 e1bd 7f03 883e 1e50 973d 3c19 723d

modality_embeddings.atac.bias f4 [64]
-0.001411455 0.06259534 0.111254364 0.11646655 -0.028871745 -0.12287021 -0.115666136 0.12719171
-0.11582569 0.0056591015 -0.2017443 -0.035831008 0.109602734 0.15257104 0.027061 -0.16725329
0.006085923 -0.13205652 0.10288905 -0.13380644 -0.07340949 0.067993045 -0.16357155 -0.05865988
-0.07856893 -0.0056941775 0.091080956 -0.06681931 0.16224302 0.1869473 -0.102443546 -0.15352237
0.10137379 -0.05591841 -0.12249426 -0.08852964 0.15250708 -0.12806553 0.016577039 0.1604428
-0.0575297 0.13463955 -0.046561167 -0.087569274 0.20523573 0.109968185 -0.1679645 0.055705704
-0.063367896 -0.04034531 0.13022733 0.0043743174 0.089924276 0.17138255 -0.18054281 -0.031734172
0.09979607 0.011606033 -0.055704102 -0.031480104 0.051486768 0.14428936 -0.015802002 -0.031225359
00000000: 9200 b9ba fc31 803d 54d9 e33d 0486 ee3d
00000010: 7084 ecbc 60a3 fbbd 5ee2 ecbd 8b3e 023e
00000020: 0536 edbd fc6f b93b 0f96 4ebe 89c3 12bd
00000030: 6677 e03d 953b 1c3e 08af dd3c 7244 2bbe
00000040: 6c6c c73b d339 07be 7fb7 d23d 8e04 09be
00000050: b757 96bd f03f 8b3d 4d7f 27be 5845 70bd
00000060: bfe8 a0bd 3996 babb a788 ba3d 90d8 88bd
00000070: 0923 263e 1d6f 3f3e eccd d1bd f834 1dbe
00000080: 109d cf3d b40a 65bd 45de fabd 074f b5bd
00000090: d12a 1c3e 9c23 03be 92cc 873c 1e4b 243e
000000a0: 43a4 6bbd f3de 093e ecb6 3ebd 8557 b3bd
000000b0: 5129 523e 0037 e13d e3fe 2bbe aa2b 643d
000000c0: 07c7 81bd 2041 25bd 505a 053e 6f56 8f3b
000000d0: 382a b83d e87e 2f3e 37e0 38be b1fb 01bd
000000e0: e261 cc3d 3b27 3e3c fc29 64bd 48f1 00bd
000000f0: cae3 523d 97c0 133e 3373 81bc 53cc ffbc

modality_transformers.atac.layers.0.self_attn.in_proj_weight f4 [192, 64]
0.010873987 0.101443805 0.033771366 0.09102087 -0.14092422 -0.0059091775 -0.071514025 0.041127272
0.07587152 -0.14512396 0.0048324047 -0.104358494 0.13322988 0.014539907 0.12678578 0.10134653
0.023790954 0.060875513 -0.10910896 -0.020096943 -0.039454218 0.086769015 0.11376168 0.05494913
0.08648675 0.18198207 -0.025463471 -0.09795324 0.08856116 -0.025738774 0.075194284 0.14082219
0.09917699 -0.036829855 -0.050973903 -0.12979262 -0.010887759 0.15430067 0.15071502 -0.16188277
0.00022519588 0.13933562 -0.0148789855 0.12981963 -0.040164996 -0.07126711 -0.054144133 -0.06325593
0.13457148 0.14312896 -0.03283972 0.10461235 -0.0007143207 -0.025759619 -0.10186487 -0.018028194
-0.17204587 -0.025198728 0.08035554 0.07352137 -0.1049453 -0.14147793 -0.044331137 -0.053386595
0.1606268 -0.09675303 -0.08143957 -0.08179123 0.082737215 -0.13269874 0.14811513 -0.09107968
0.062168762 0.07384059 0.20810528 -0.19235775 -0.08851773 0.24352166 0.044866275 0.19386531
0.18810818 -0.0839795 0.034633685 0.010992367 -0.19530565 -0.000181615 0.08657494 -0.023235312
0.06758936 -0.078061245 -0.01119175 -0.10901844 -0.0681121 -0.020875582 -0.11457059 0.010584871
0.030156964 -0.14170605 0.16921861 0.12305769 0.040588163 -0.0163192 -0.07302978 0.12326546
-0.032190103 -0.10725352 -0.14387994 -0.06307558 0.019561393 -0.113918446 -0.06140679 0.17927685
0.028578825 0.019504514 0.10155311 0.0920854 -0.07871518 0.070714034 -0.18907876 -0.092873
0.0628519 0.08633732 0.0955721 0.15077503 -0.090784915 -0.14885461 -0.039593056 -0.07939618
-0.020101111 0.12929097 0.1551102 0.1749671 -0.06272938 -0.15442552 0.0033249804 0.027976645
-0.027993552 0.11107881 0.058395285 0.007479057 -0.14481178 -0.03527211 0.056543283 0.032180082
0.13716184 -0.06422131 -0.0713254 0.032926828 -0.02713185 0.0040952656 0.13178271 0.1238761
-0.15024775 -0.2105773 -0.080074824 -0.07900093 -0.124310315 -0.1331967 -0.065189466 0.08123102
0.090978496 0.04166141 0.048625093 -0.06250424 -0.079022944 -0.11283059 0.04253404 0.14283624
-0.10258519 -0.021735452 -0.15333599 0.17037968 0.0059717163 0.029724212 0.00055459683 0.13911104
-0.10260806 0.054821502 0.17251097 -0.13772494 0.069645986 0.17781734 -0.053438995 -0.04951498
0.13128594 -0.07740027 0.13866389 0.068090856 0.13918707 0.087056175 -0.012305391 0.00503572
0.005380941 0.04760376 -0.12187369 -0.07657582 -0.02284913 -0.0034286792 0.10367835 -0.12790546
0.08233459 0.03724642 0.0111970445 -0.08774864 0.19824392 -0.101580605 -0.03996751 -0.008433242
-0.18641347 0.067666255 -0.01718389 0.1545922 0.1378101 -0.15585454 -0.011406633 0.02701776
0.18556497 0.12143086 -0.12738456 0.11020561 0.027359901 0.1892199 0.07182034 0.015737852
-0.049347073 -0.024673948 -0.016250316 0.076678246 -0.102812596 -0.15766992 0.07630372 0.06003014
-0.02465346 0.0036965732 0.20773189 -0.015143595 -0.026120558 -0.013325029 -0.068501055 -0.18285348
-0.044323705 0.043530524 -0.037216578 0.12327172 -0.13099355 -0.18534456 0.0964863 0.07275678
-0.0021737465 0.09071282 -0.19478756 0.07769058 0.0068871654 0.004946571 0.014256907 0.16843632
00000000: cf28 323c c5c1 cf3d d853 0a3d 2669 ba3d
00000010: 704e 10be c6a1 c1bb f275 92bd 1275 283d
00000020: 8762 9b3d 609b 14be 2659 9e3b e8b9 d5bd
00000030: 6a6d 083e ca38 6e3c 22d4 013e c58e cf3d
00000040: 3fe5 c23c 9a58 793d 8574 dfbd 58a2 a4bc
00000050: bf9a 21bd f4b3 b13d e2fb e83d 5712 613d
00000060: f71f b13d 8259 3a3e c598 d0bc b59b c8bd
00000070: 8e5f b53d 1fda d2bc 76ff 993d b133 103e
00000080: 4e1d cb3d e7da 16bd 03ca 50bd 5be8 04be
00000090: 9262 32bc ff00 1e3e 0a55 1a3e 99c4 25be
000000a0: 8f22 6c39 ffad 0e3e fdc6 73bc 70ef 043e
000000b0: 0d84 24bd 7ef4 91bd 3dc6 5dbd 538c 81bd
000000c0: 1bcd 093e 6690 123e f182 06bd 003f d63d
000000d0: 4041 3bba d605 d3bc 879e d0bd ddaf 93bc
000000e0: cb2c 30be 906d cebc 7291 a43d 5f92 963d
000000f0: 90ed d6bd 97df 10be 9194 35bd e7ab 5abd
00000100: 5a7b 243e 7426 c6bd cac9 a6bd 2982 a7bd
00000110: 2172 a93d 2ee2 07be 7eab 173e fc87 babd
00000120: aca4 7e3d bc39 973d 8d19 553e 6ef9 44be
00000130: c948 b5bd be5d 793e b3c5 373d a184 463e
00000140: 6e9f 403e 72fd abbd 0ddc 0d3d 5419 343c
00000150: 34fe 47be e86f 3eb9 344e b13d fb57 bebc
00000160: 4a6c 8a3d 93de 9fbd 9a5d 37bc 0f45 dfbd
00000170: 5b7e 8bbd 4503 abbc fca3 eabd 2b6c 2d3c
00000180: bd0b f73c 641b 11be a547 2d3e ac05 fc3d
00000190: c63f 263d d8af 85bc a390 95bd 9a72 fc3d
000001a0: c5d9 03bd bca7 dbbd 4355 13be c52d 81bd
000001b0: 373f a03c 134e e9bd b085 7bbd 5a94 373e
000001c0: 241e ea3c eec7 9f3c 14fb cf3d 4597 bc3d
000001d0: 6d35 a1bd 85d2 903d dd9d 41be 3334 bebd
000001e0: 7fb8 803d 9fd1 b03d 4ebb c33d c564 1a3e
000001f0: 71ed b9bd 586d 18be 542c 22bd 779a a2bd
00000200: 16ab a4bc da64 043e 35d5 1e3e 932a 333e
00000210: 4378 80bd b921 1ebe eae7 593b 472f e53c
00000220: bc52 e5bc 4a7d e33d e52f 6f3d e112 f53b
00000230: 8a49 14be 7d79 10bd ee99 673d 43cf 033d
00000240: 2774 0c3e 7686 83bd 0d13 92bd 48de 063d
00000250: 9d43 debc 9431 863b 0cf2 063e c1b2 fd3d
00000260: 8cda 19be 93a1 57be 45fe a3bd 3dcb a1bd
00000270: 6896 febd b764 08be 0e82 85bd 735c a63d
00000280: ef52 ba3d 28a5 2a3d 1b2b 473d 3902 80bd
00000290: c8d6 a1bd b913 e7bd 2c38 2e3d aa43 123e
000002a0: 2f18 d2bd 8c0e b2bc 1c04 1dbe 0378 2e3e
000002b0: 63ae c33b 3180 f33c 5d62 113a 2073 0e3e
000002c0: 2d24 d2bd 838c 603d b7a6 303e c407 0dbe
000002d0: 8ea2 8e3d c015 363e d9e2 5abd 38d0 4abd
000002e0: d26f 063e 0884 9ebd e8fd 0d3e 3873 8b3d
000002f0: 0e87 0e3e 824a b23d 8d9c 49bc ae02 a53b
00000300: 9b52 b03b 29fc 423d ea98 f9bd c9d3 9cbd
00000310: 192e bbbc b1b3 60bb 5155 d43d a6f9 02be
00000320: 0a9f a83d b48f 183d cf73 373c 8fb5 b3bd
00000330: 7400 4b3e 7e09 d0bd f9b4 23bd 952b 0abc
00000340: 2ce3 3ebe 9b94 8a3d 3bc5 8cbc 6b4d 1e3e
00000350: 171e 0d3e 5598 1fbe e3e2 3abc 5954 dd3c
00000360: be04 3e3e beb0 f83d 1971 02be 7bb3 e13d
00000370: df21 e03c ddc2 413e 8b16 933d abec 803c
00000380: 2820 4abd 0521 cabc 621f 85bc 7c09 9d3d
00000390: 698f d2bd 3974 21be 2045 9c3d 2ae2 753d
000003a0: 0ef6 c9bc 3542 723b abb7 543e d71c 78bc
000003b0: c8fa d5bc 3951 5abc 484a 8cbd f13d 3bbe
000003c0: c68c 35bd 104d 323d 6970 18bd e275 fc3d
000003d0: 2c23 06be f7ca 3dbe 9c9a c53d 8201 953d
000003e0: 6a75 0ebb a5c7 b93d 6476 47be 3d1c 9f3d
000003f0: bbad e13b d816 a23b cd95 693c 927a 2c3e

modality_transformers.atac.layers.0.self_attn.in_proj_bias f4 [192]
0.012321753 -0.062319163 -0.03500025 0.061958194 0.031979103 -0.03395989 0.018593363 0.018830093
-0.02461858 -0.006219103 -0.02824354 0.010318487 -0.027189918 -0.03903285 -0.02028384 -0.009843489
-0.011539472 -0.023957433 0.015697712 0.0047261966 0.024897994 -0.0181551 0.0057715713 -0.0054117157
0.014705206 -0.0033755933 0.0054130866 -0.021912625 -0.0034378257 -0.0012307622 -0.026322322 0.01599568
0.042726297 -0.0102971485 0.0046822093 -0.0030304878 0.01122042 -0.020592071 -0.01125117 0.009987115
-0.000799041 -0.003298655 -0.027253335 0.021651305 -0.023662152 -0.014036962 0.032805458 -0.0085756285
-0.06526511 0.019075276 -0.04055112 -0.0037111738 -0.008206202 -0.029509757 0.032728553 -0.030673703
0.05733158 -0.01253961 0.045482825 -0.036293425 -0.0054773954 0.07877533 -0.01848233 -0.031973004
-0.00063704595 0.00048997963 -0.007525741 -0.00166345 -0.0015145137 -0.0055518434 -0.0018494847 -0.0061431513
-0.0009829588 0.00826729 -0.0019314684 -0.005091232 -0.0012415736 -0.0020814599 -0.0013560994 0.0033718273
-0.0013753728 -0.0020727245 0.003711897 -0.0010139403 0.0007875617 -0.0016715024 0.0045738025 0.0019873846
-0.0022473137 0.0031527437 0.001633101 -0.0013366572 -0.0004927924 0.0045128935 -0.0011261354 0.00308715
-0.011409663 0.00778476 -0.0035550524 -0.0034450118 0.003937396 0.009726785 0.0017478766 0.008748454
0.0093735065 -0.0021538811 -0.0017800484 -0.0069544264 0.006144049 -0.0028490822 -0.003329268 -0.0016291363
0.007958496 -0.004887622 -0.003357928 0.0008633525 0.0008064431 0.0053422577 -0.004580593 0.006278483
-0.009957885 0.0022347094 0.0016537491 0.0049982965 -0.0018544493 -0.007760336 -0.0012366103 0.008460445
0.026167873 -0.025516557 -0.014437149 0.017897736 0.0053548208 -0.03599912 -0.027635016 0.014395646
0.017774994 -0.017957835 0.013694525 -0.007478957 -0.014796213 -0.012497282 0.016169108 0.029038763
-0.0061663724 -0.018892974 0.0010927296 0.023462554 0.00044188983 0.0046770126 -0.0069267903 -0.008041876
-0.01601515 0.008291092 0.0082438765 0.01075862 0.014706116 0.004943447 -0.022602428 0.00208385
-0.009584796 -0.002288496 0.0062105204 0.017440794 0.009914078 -0.011754079 -0.0067473594 0.008918641
-0.00995114 -0.0022780087 0.008396186 -0.013999726 0.016658425 0.001547751 -0.0046599787 0.013448208
0.027409073 0.015526261 -0.021802751 -0.015808608 0.023168068 0.011458121 0.011895491 0.025140591
0.008831275 -0.0005116628 -0.0035667154 -0.019253729 -0.0147093935 0.0057204743 0.012734522 -0.001057072
00000000: 2ee1 493c 6142 7fbd 6c5c 0fbd e0c7 7d3d
00000010: 85fc 023d 8719 0bbd 1c51 983c 9141 9a3c
00000020: e7ac c9bc 9ec9 cbbb ff5e e7bc df0e 293c
00000030: 64bd debc e9e0 1fbd 4c2a a6bc 9646 21bc
00000040: 0e10 3dbc 6142 c4bc 7d98 803c 36de 9a3b
00000050: e1f6 cb3c 01ba 94bc 731f bd3b c354 b1bb
00000060: 1bee 703c 0f39 5dbb 4360 b13b 1b82 b3bc
00000070: 254d 61bb 8751 a1ba e9a1 d7bc 5f09 833c
00000080: c501 2f3d 5fb5 28bc 386d 993b 269b 46bb
00000090: dad5 373c b4b0 a8bc d456 38bc ffa0 233c
000000a0: bc76 51ba 3f2e 58bb 6342 dfbc 145e b13c
000000b0: 21d7 c1bc 49fb 65bc 045f 063d cb80 0cbc
000000c0: b7a9 85bd c143 9c3c ee18 26bd 2a37 73bb
000000d0: 4e73 06bc 72be f1bc 600e 063d 6b47 fbbc
000000e0: 85d4 6a3d f072 4dbc 334c 3a3d 6aa8 14bd
000000f0: b97b b3bb f654 a13d 4168 97bc 20f6 02bd
00000100: 6eff 26ba fa71 003a 7e9a f6bb 1f08 daba
00000110: a682 c6ba 3dec b5bb 696a f2ba 7d4c c9bb
00000120: a0d6 80ba 8773 073c 5329 fdba 59d4 a6bb
00000130: 4cbc a2ba 1a69 08bb 25bf b1ba e0f9 5c3b
00000140: da45 b4ba 8cd6 07bb 4c43 733b 31e6 84ba
00000150: 5f74 4e3a 5016 dbba d6df 953b c83e 023b
00000160: ab47 13bb 439e 4e3b c70d d63a c632 afba
00000170: bd2e 01ba e5e0 933b d59a 93ba c851 4a3b
00000180: 98ef 3abc 4d17 ff3b e2fb 68bb b5c5 61bb
00000190: 4605 813b 185d 1f3c 0219 e53a ad55 0f3c
000001a0: 5693 193c 2128 0dbb 8350 e9ba f5e1 e3bb
000001b0: 0554 c93b abb7 3abb d92f 5abb be88 d5ba
000001c0: 5a64 023c 5828 a0bb af10 5cbb 9b52 623a
000001d0: 7b67 533a 1b0e af3b cd18 96bb bcbb cd3b
000001e0: 6626 23bc 3474 123b 9dc2 d83a c0c8 a33b
000001f0: fe10 f3ba 6b4a febb c215 a2ba ae9d 0a3c
00000200: 025e d63c 1908 d1bc cb89 6cbc 469e 923c
00000210: 7e77 af3b d073 13bd d462 e2bc b7db 6b3c
00000220: dd9c 913c 4f1c 93bc 005f 603c 0a12 f5bb
00000230: d16b 72bc 66c1 4cbc 1475 843c b3e2 ed3c
00000240: 480f cabb 70c5 9abc ec39 8f3a 8b34 c03c
00000250: 73ad e739 a041 993b 21fa e2bb 13c2 03bc
00000260: 3432 83bc 5cd7 073c 5311 073c ec44 303c
00000270: ecf1 703c a4fc a13b ba28 b9bc 3491 083b
00000280: 8c09 1dbc 97fa 15bb 9f81 cb3b ffdf 8e3c
00000290: a86e 223c 2e94 40bc f418 ddbb 7e1f 123c
000002a0: 1b0a 23bc a54a 15bb 2890 093c 1b5f 65bc
000002b0: 4077 883c e8dd ca3a bcb2 98bb df55 5c3c
000002c0: fe88 e03c dc61 7e3c af9b b2bc 0e81 81bc
000002d0: f6ca bd3c d8ba 3b3c 4ee5 423c a4f3 cd3c
000002e0: 0db1 103c 1c21 06ba 8ebf 69bb ffb9 9dbc
000002f0: abff 70bc d172 bb3b 75a4 503c 738d 8aba

modality_transformers.atac.layers.0.self_attn.out_proj.weight f4 [64, 64]
-0.24693443 -0.054528918 0.20098914 -0.20635155 -0.17343986 -0.15749298 0.16990553 0.046895467
-0.046260867 0.24191286 0.19021295 0.08619718 -0.07716779 -0.17607479 0.1536744 -0.053199425
-0.008313697 0.07820634 -0.16257972 -0.050894517 -0.062083904 -0.10763129 0.15454292 -0.10123318
0.13566588 0.065747045 0.220271 0.13986957 0.08929737 0.06486249 -0.061562072 0.14112009
0.044214416 0.005504676 -0.17027405 0.13693258 0.050083153 -0.106925875 -0.08598094 0.18610784
0.10591314 0.095188126 0.05679529 -0.08383703 0.015082441 0.0005075186 -0.1518265 -0.17451304
-0.043722976 0.0067871637 0.20132303 0.0019059753 0.0098149795 0.0018200567 -0.1577369 0.104266874
-0.12726675 -0.100552924 0.03986268 0.13980909 -0.08836032 -0.11771733 0.14027488 -0.1453925
0.2510718 -0.30632183 -0.092982054 -0.12571117 -0.21263696 -0.17384398 0.2324605 0.22851744
0.06278529 -0.18714401 0.093429536 -0.07000113 -0.009209891 0.21063681 -0.0147384545 0.028586715
-0.15156956 0.09240414 -0.21486372 0.05585 -0.0040732394 0.22456719 0.038034514 -0.052527018
0.18179026 0.07224876 -0.13765165 0.053690273 -0.14542545 -0.23594387 0.18363374 0.10321269
0.028851872 -0.1424902 0.18720335 0.0269622 -0.17560266 0.12065218 -0.08751842 0.063261434
-0.15402792 -0.18445304 -0.053016715 0.08518951 -0.17920542 0.15041803 -0.020991903 0.100439206
0.24575019 0.018929519 0.101624444 0.012260261 0.11705218 0.09424206 -0.0015365336 0.21310689
0.31526557 0.13561006 -0.17268321 -0.23875841 0.015970381 0.23876627 0.2175407 0.016049802
0.092835344 0.2587731 0.19410636 0.047549166 0.019936085 -0.13094038 0.025445295 -0.24814497
-0.0686865 0.009180094 0.1263952 0.18904817 -0.02749969 0.15387121 0.07742991 -0.06397792
0.1900224 0.14864475 0.032870967 -0.14197434 0.1298029 -0.10780156 -0.037818085 0.11653076
-0.06153162 -0.057237357 0.1959124 0.09673383 -0.14368455 0.18794361 0.0654803 0.16351436
0.010500996 0.012447269 -0.020069955 0.16221553 -0.07755684 0.07617783 -0.08095362 -0.04436963
-0.057488628 0.08709114 0.05662864 -0.042129632 -0.08003732 0.020085733 -0.15495245 0.11757074
-0.08690669 -0.08897147 0.17765057 0.18440223 0.17071024 -0.11957624 0.13091007 0.06459104
-0.12108652 -0.05025104 0.11974293 -0.0980493 0.11207453 -0.032712813 -0.24228628 -0.06314113
0.1346232 -0.22034204 -0.1479744 0.07781621 0.034646858 0.16655368 -0.14066467 -0.12582515
-0.14895104 -0.15929523 0.13489775 -0.0236882 -0.1439147 -0.08736122 -0.08662529 -0.006986321
0.115639314 0.08889909 -0.043668196 0.1766316 -0.07515354 -0.09637368 -0.20795082 -0.08017961
-0.15653357 0.15620102 0.19131757 0.056226783 0.05138612 -0.05711741 -0.1695971 0.14762078
-0.06223588 -0.09693188 -0.12822463 0.13251941 -0.11671467 0.10367679 0.12747146 0.0815152
-0.12010535 0.024840647 0.048349153 -0.10730772 -0.13934636 -0.207631 0.015212481 0.12803423
0.046263263 0.0020588078 0.10827101 -0.043475714 0.16000031 0.15111576 -0.11859776 0.17684871
-0.10973536 0.081176296 -0.15237199 -0.010456735 0.17933598 0.22207262 -0.03563033 0.04729235
00000000: 61dc 7cbe b759 5fbd 19d0 4d3e d24d 53be
00000010: 389a 31be d745 21be b7fb 2d3e 7615 403d
00000020: 097c 3dbd 01b8 773e 2fc7 423e 2688 b03d
00000030: 250a 9ebd f34c 34be d25c 1d3e a4e7 59bd
00000040: 2c36 08bc a52a a03d 4c7b 26be c576 50bd
00000050: b14b 7ebd cb6d dcbd 8040 1e3e 5753 cfbd
00000060: ffeb 0a3e 63a6 863d b98e 613e f839 0f3e
00000070: 8ae1 b63d a0d6 843d 8328 7cbd c981 103e
00000080: 2d1a 353d 9260 b43b 525c 2ebe 0e38 0c3e
00000090: fe23 4d3d f4fb dabd c616 b0bd 0e93 3e3e
000000a0: fde8 d83d fef1 c23d 2ea2 683d c0b2 abbd
000000b0: 581c 773c ff0a 053a 6878 1bbe 8cb3 32be
000000c0: dd16 33bd db66 de3b a027 4e3e ebd1 f93a
000000d0: 02cf 203c f88e ee3a c885 21be df89 d53d
000000e0: 3752 02be b1ee cdbd 0d47 233d 1d2a 0f3e
000000f0: 41f6 b4bd c915 f1bd 38a4 0f3e c6e1 14be
00000100: 7c8c 803e 37d6 9cbe 606d bebd 6eba 00be
00000110: 81bd 59be 2804 32be 200a 6e3e 7a00 6a3e
00000120: 9395 803d aea2 3fbe fc57 bf3d c15c 8fbd
00000130: 15e5 16bc 2db1 573e 8f79 71bc b02e ea3c
00000140: 0d35 1bbe 623e bd3d 3c05 5cbe f8c2 643d
00000150: cf78 85bb f1f4 653e 14ca 1b3d 9226 57bd
00000160: 3a27 3a3e 28f7 933d 8ef4 0cbe 55ea 5b3d
00000170: 69ea 14be 459b 71be 7c0a 3c3e 2d61 d33d
00000180: c35a ec3c f3e8 11be 3cb2 3f3e d5df dc3c
00000190: 2fd1 33be 7d18 f73d db3c b3bd 368f 813d
000001a0: 7fb9 1dbe 42e1 3cbe 0e28 59bd d677 ae3d
000001b0: a081 37be 2f07 1a3e 36f7 abbc 12b3 cd3d
000001c0: f0a5 7b3e 1412 9b3c 7a20 d03d 43df 483c
000001d0: 0eb9 ef3d fb01 c13d 8365 c9ba b138 5a3e
000001e0: 7d6a a13e 5ddd 0a3e ded3 30be 167d 74be
000001f0: 51d4 823c 257f 743e fdc2 5e3e e07a 833c
00000200: 7520 be3d e87d 843e d1c3 463e eac2 423d
00000210: 0051 a33c 3c15 06be a772 d03c b719 7ebe
00000220: 82ab 8cbd 1b68 163c be6d 013e d895 413e
00000230: 0847 e1bc 6a90 1d3e 9393 9e3d db06 83bd
00000240: 3b95 423e 5436 183e b5a3 063d b961 11be
00000250: 0deb 043e 10c7 dcbd 23e7 1abd aea7 ee3d
00000260: 9408 7cbd b871 6abd 439d 483e 631c c63d
00000270: 0b22 13be 4a74 403e 891a 863d 4f70 273e
00000280: 5f0c 2c3c a1ef 4b3c bf69 a4bc d41b 263e
00000290: 1fd6 9ebd 1f03 9c3d 03cb a5bd eebc 35bd
000002a0: 3279 6bbd d75c b23d 6ff3 673d 1f90 2cbd
000002b0: 9bea a3bd d68a a43c dbab 1ebe eec8 f03d
000002c0: 22fc b1bd ad36 b6bd 08ea 353e f0d3 3c3e
000002d0: aace 2e3e 63e4 f4bd 4a0d 063e 4f48 843d
000002e0: 36fc f7bd 09d4 4dbd c83b f53d 12ce c8bd
000002f0: 5587 e53d dffd 05bd e519 78be 2350 81bd
00000300: aada 093e 58a1 61be 9a86 17be 1b5e 9f3d
00000310: dde9 0d3d 0c8d 2a3e 660a 10be 4fd8 00be
00000320: 9f86 18be 4a1e 23be a322 0a3e c20d c2bc
00000330: 605e 13be 70ea b2bd 9a68 b1bd 82ed e4bb
00000340: 4ed4 ec3d ba10 b63d 6cdd 32bd eade 343e
00000350: 19ea 99bd 905f c5bd 0ff1 54be 3535 a4bd
00000360: 564a 20be 29f3 1f3e c1e8 433e 0e4e 663d
00000370: 417a 523d f2f3 69bd ddaa 2dbe e729 173e
00000380: 0deb 7ebd 3984 c6bd 514d 03be 2bb3 073e
00000390: 1a08 efbd 7f54 d43d e187 023e 71f1 a63d
000003a0: cbf9 f5bd 9d7e cb3c c309 463d 26c4 dbbd
000003b0: d0b0 0ebe 399d 54be c53d 793c 681b 033e
000003c0: 8c7e 3d3d 10ed 063b 31bd dd3d 9713 32bd
000003d0: 1fd7 233e 17be 1a3e 62e3 f2bd d417 353e
000003e0: efbc e0bd c23f a63d 6707 1cbe ba52 2bbc
000003f0: daa3 373e 0167 633e 1cf1 11bd a0b5 413d

modality_transformers.atac.layers.0.self_attn.out_proj.bias f4 [64]
0.007112128 -0.013972939 0.019407745 0.00567064 0.0012679921 0.008894543 0.0031426116 0.007869431
0.0154658025 0.006587971 -0.010205667 0.0060013067 -0.006297734 0.00484999 0.017550848 0.002231248
-0.011600912 0.0061229886 -0.013815529 -0.03224776 0.010106769 0.006627948 -0.012014663 0.0071639093
0.008663159 -0.0037741088 -0.003042986 -0.0017080357 -0.007027054 -0.0040497673 -0.0067863762 0.0006026927
-0.0048378743 -0.0050794203 0.0025888023 -0.014418384 -0.0075252135 -0.01580169 -0.00938886 0.0022666324
-0.018856896 0.008485229 0.02050184 0.023493607 0.0019031567 0.015673919 -0.013256021 -0.018381815
-0.0054935194 -0.0010237141 -0.0005246047 0.023227295 0.00050606974 -0.0017448355 0.009773155 -0.0116588585
-0.007332321 -0.0063701766 0.0006865951 0.021044308 0.012869693 0.0120185455 0.0078024906 0.0121388715
00000000: db0c e93b c1ee 64bc fefc 9e3c c7d0 b93b
00000010: c132 a63a 6bba 113c 46f4 4d3b c9ee 003c
00000020: 4764 7d3c e8df d73b ab35 27bc 9ca6 c43b
00000030: 395d cebb aaec 9e3b ccc6 8f3c 213a 123b
00000040: c011 3ebc 5aa3 c83b 875a 62bc 3a16 04bd
00000050: dd96 253c 422f d93b 26d9 44bc 3abf ea3b
00000060: ecef 0d3c 0a57 77bb d56c 47bb 2be0 dfba
00000070: 3443 e6bb e9b3 84bb 4060 debb 06fe 1d3a
00000080: 0887 9ebb 4471 a6bb e5a8 293b 163b 6cbc
00000090: 1196 f6bb 8c72 81bc bcd3 19bc c88b 143b
000000a0: c779 9abc a105 0b3c 7af3 a73c aa75 c03c
000000b0: 5873 f93a 9766 803c c82f 59bc 7695 96bc
000000c0: fb02 b4bb 252e 86ba a085 09ba 2b47 be3c
000000d0: c4a9 043a f7b2 e4ba 951f 203c cc04 3fbc
000000e0: f743 f0bb eabc d0bb 9efc 333a 1d65 ac3c
000000f0: 68db 523c 6fe9 443c 09ac ff3b 1ee2 463c

modality_transformers.atac.layers.0.linear1.weight f4 [256, 64]
-0.047360417 -0.10206284 -0.13590811 0.038848605 -0.12805897 0.03578278 0.104431994 -0.097179264
-0.016575562 -0.09748103 -0.073149994 -0.08588841 0.03444558 -0.10599251 0.1321294 -0.16760589
-0.042596523 -0.07534096 -0.09376159 -0.027813489 0.14642629 0.123847865 0.026922466 -0.09583332
0.009167611 0.16254029 0.10526153 -0.06629727 -0.01730272 -0.048481252 -0.04912 -0.054065898
0.11353532 -0.022762338 0.078891344 -0.12185811 -0.076694295 0.053741146 0.12770873 0.068272516
0.06561271 0.0722213 -0.05811749 0.10763597 -0.09468483 -0.036366735 -0.0798292 -0.0422625
0.13976797 0.11013612 0.07260432 -0.06840566 -0.023679292 0.0044157677 -0.13751607 0.09255155
0.1081982 -0.03110077 0.09233404 0.042257495 -0.13350774 0.11227012 -0.015672477 0.073628336
0.10232416 -0.11796119 -0.049426336 0.14255896 0.12778129 -0.06936955 -0.1259545 -0.13439173
-0.1238229 0.09347539 0.116533786 -0.046736203 -0.11697828 -0.008391269 0.009724173 -0.112219416
-0.02690488 -0.06057132 -0.05244275 0.015584659 0.077105455 0.06998629 0.10853096 -0.08981579
-0.044256173 -0.10605578 0.028760038 0.0011873208 -0.0031539723 -0.033247165 0.07288324 -0.10101039
0.1252839 0.15516488 -0.005075842 0.05499037 -0.054169007 -0.12545489 0.06315503 -0.028039131
-0.031630356 0.016127048 -0.12551038 -0.115388185 -0.033754647 0.12939301 -0.04856579 0.07323758
-0.10355835 0.11468333 0.036923423 0.11510945 -0.13151489 0.012648281 0.06662702 -0.02688412
-0.10699868 -0.047337305 -0.12043216 -0.066375166 -0.12396202 0.08566339 0.029185541 -0.037891064
-0.12271434 0.13756299 -0.009544758 -0.00034966844 -0.009984446 -0.044316474 0.08874561 -0.05221367
0.09817357 0.0013733992 0.09342166 0.05811282 0.034326248 -0.115710266 0.10213002 0.13660586
-0.14171752 -0.07746483 -0.06422652 -0.03173066 -0.057013053 0.12872803 -0.07161485 0.11879297
0.041105848 -0.04843396 -0.1215106 0.085820235 -0.07743466 0.12274957 0.1268056 0.06582376
-0.002568984 -0.00077941385 0.12567729 0.12468831 0.034523986 -0.07253731 0.04145683 -0.051122237
0.038032185 -0.09942627 0.039675172 0.0812488 0.06396638 0.06836258 -0.12603147 0.02635922
-0.14317262 0.07001387 0.03643977 0.09836809 0.12099929 0.04293519 0.029904772 -0.14183451
-0.06853812 -0.14581048 -0.08650487 -0.072964825 0.06750726 0.16139792 0.0023026764 -0.09033485
0.07019184 0.033204302 -0.043743033 -0.06258962 -0.0014176238 0.11384119 -0.061161265 0.028892186
-0.081156194 0.043045435 0.008860354 -0.07771337 0.08228063 -0.07418005 0.11087179 -0.008866617
-0.052618258 -0.0519764 0.039788757 0.11512269 -0.1239824 -0.08932736 -0.037626833 -0.1385204
0.020906322 -0.09016281 0.02419564 -0.023615025 0.088542394 0.14692812 0.09570345 -0.0890803
-0.058427494 0.0581384 -0.086824015 -0.035553087 -0.067583896 0.10147134 0.13715948 -0.035202086
0.029233774 -0.11276715 -0.048992936 -0.016009863 0.019748716 0.124958806 -0.06494172 -0.012607555
0.03588822 -0.03890751 -0.04887697 0.06889392 -0.06104279 0.07126175 0.0041371626 -0.08461101
0.117793106 0.10713914 0.001490063 -0.08769156 0.043640535 -0.08844759 -0.042842172 0.12939483
00000000: fffc 41bd 5206 d1bd 7f2b 0bbe b71f 1f3d
00000010: e421 03be f790 123d 71e0 d53d ec05 c7bd
00000020: 79c9 87bc 22a4 c7bd aacf 95bd 43e6 afbd
00000030: cf16 0d3d 9a12 d9bd ee4c 073e e1a0 2bbe
00000040: b179 2ebd 5c4c 9abd 1406 c0bd 1dd9 e3bc
00000050: c6f0 153e f3a3 fd3d 818c dc3c 4244 c4bd
00000060: bf33 163c f670 263e 5b93 d73d ddc6 87bd
00000070: 6fbe 8dbc 4794 46bd 0e32 49bd 3474 5dbd
00000080: 3585 e83d 1578 babc c991 a13d bf90 f9bd
00000090: e611 9dbd ad1f 5c3d 14c6 023e 76d2 8b3d
000000a0: f55f 863d c3e8 933d 9b0c 6ebd 3f70 dc3d
000000b0: 1fea c1bd 49f5 14bd 7e7d a3bd 711b 2dbd
000000c0: 561f 0f3e 0c8f e13d 93b1 943d 4418 8cbd
000000d0: 13fb c1bc 25b2 903b 03d1 0cbe ab8b bd3d
000000e0: 0597 dd3d 0bc7 febc a119 bd3d 3216 2d3d
000000f0: 41b6 08be e0ed e53d 9163 80bc 74ca 963d
00000100: 548f d13d a395 f1bd 4573 4abd fafa 113e
00000110: 19d9 023e 9f11 8ebd 37fa 00be fc9d 09be
00000120: dc96 fdbd 0670 bf3d 44a9 ee3d 766e 3fbd
00000130: 4f92 efbd 887b 09bc 2352 1f3c 4bd3 e5bd
00000140: 9f67 dcbc a219 78bd 36ce 56bd cc56 7f3c
00000150: 77e9 9d3d f954 8f3d 7b45 de3d 57f1 b7bd
00000160: f645 35bd c633 d9bd 2c9a eb3c e09f 9b3a
00000170: e0b2 4ebb 2e2e 08bd cf43 953d 89de cebd
00000180: 6c4a 003e 8be3 1e3e 4053 a6bb 953d 613d
00000190: 52e0 5dbd 3f77 00be 6d57 813d 52b2 e5bc
000001a0: d58e 01bd df1c 843c cb85 00be a450 ecbd
000001b0: 5042 0abd 9a7f 043e ecec 46bd 96fd 953d
000001c0: 6616 d4bd 18df ea3d 043d 173d 81be eb3d
000001d0: d7ab 06be bc3a 4f3c bf73 883d 163c dcbc
000001e0: 2022 dbbd c3e4 41bd 23a5 f6bd b4ef 87bd
000001f0: cddf fdbd 4a70 af3d 8416 ef3c a933 1bbd
00000200: a851 fbbd 50dd 0c3e 9e61 1cbc b453 b7b9
00000210: cd95 23bc 3185 35bd 42c0 b53d 00de 55bd
00000220: 3a0f c93d a103 b43a db53 bf3d b507 6e3d
00000230: ae99 0c3d 81f9 ecbd 8b29 d13d 68e2 0b3e
00000240: 661e 11be e1a5 9ebd 3289 83bd 02f8 01bd
00000250: 8586 69bd 48d1 033e ceaa 92bd bb49 f33d
00000260: 9b5e 283d b062 46bd 8dda f8bd 85c2 af3d
00000270: 1096 9ebd 2064 fb3d 54d9 013e 9cce 863d
00000280: 665c 28bb 9451 4cba 8cb1 003e 965c ff3d
00000290: 0669 0d3d 718e 94bd a3ce 293d 8d65 51bd
000002a0: a3c7 1b3d 00a0 cbbd 6f82 223d c565 a63d
000002b0: ce00 833d ae01 8c3d 650e 01be 4aef d73c
000002c0: d89b 12be 6f63 8f3d de41 153d 3675 c93d
000002d0: 7ace f73d cfdc 2f3d dafa f43c 113d 11be
000002e0: b75d 8cbd 584f 15be 7729 b1bd 956e 95bd
000002f0: 3f41 8a3d 7f45 253e 80e8 163b 7a01 b9bd
00000300: bdc0 8f3d 3c01 083d e52b 33bd fd2e 80bd
00000310: 90cf b9ba 9225 e93d 3c84 7abd 4eaf ec3c
00000320: 3835 a6bd 6950 303d 052b 113c 3028 9fbd
00000330: bf82 a83d b6eb 97bd c010 e33d 4a45 11bc
00000340: 3e86 57bd 35e5 54bd 89f9 223d 72c5 eb3d
00000350: 7cea fdbd 43f1 b6bd 981e 1abd 4bd8 0dbe
00000360: bc43 ab3c 48a7 b8bd ef35 c63c 4c74 c1bc
00000370: b755 b53d 5374 163e 2c00 c43d bb6f b6bd
00000380: ab51 6fbd 8822 6e3d cad0 b1bd 1da0 11bd
00000390: 6d69 8abd 35d0 cf3d 8973 0c3e 1030 10bd
000003a0: ab7b ef3c 77f2 e6bd d1ac 48bd 1e27 83bc
000003b0: 0fc8 a13c 67ea ff3d 2a00 85bd eb8f 4ebc
000003c0: 87ff 123d 7b5d 1fbd 3833 48bd 4118 8d3d
000003d0: 0108 7abd aef1 913d 0991 873b 8a48 adbd
000003e0: 833d f13d c46b db3d 384e c33a a297 b3bd
000003f0: 6bc0 323d 0324 b5bd 467b 2fbd 1480 043e

modality_transformers.atac.layers.0.linear1.bias f4 [256]
0.026308615 -0.0013866343 0.004784771 -0.0072218333 0.0066742455 0.013054984 -0.01565586 -0.002245243
-0.020887956 0.0063928436 -0.0044551226 -0.0031708817 -0.023801992 0.0007785933 0.015060154 -0.016952315
-0.029166777 -0.010453951 -0.007128005 -0.0053902054 -0.015209064 0.0073994263 -0.003393317 -0.0075815306
0.003761656 0.009492945 -0.0035830094 -0.0026048205 -0.0002821727 -0.007469278 -0.013091833 0.0011195753
0.01502205 -0.0041295765 -0.0018963187 -0.00015224787 -0.005378857 -0.009701556 -0.0009512569 0.0025622905
0.020473585 -0.008713727 0.0014361906 -0.011427903 0.0029980785 -0.013295025 0.007968812 0.027217954
-0.03657688 0.004675176 -0.009765344 0.021939782 -0.0056927036 -0.011519616 -0.022040993 -0.022047536
-0.014684254 -0.007991257 0.0142739825 -0.010906566 -0.005769161 -0.0042429953 0.034835283 -0.016524808
-0.0038680225 -0.0059200022 0.011457994 -0.0024700023 -0.0098529775 0.011937918 -0.0022619287 0.0063316924
0.0022699046 -0.020476595 -0.0021340891 -0.02503736 0.010751975 -0.013729898 -0.015398583 -0.0059429724
-0.071287565 -0.0054881414 -0.007556404 -0.010986479 -0.0029494877 -0.0028879007 -0.015870636 -0.006550038
0.0018352773 -0.011266104 -0.022183122 -0.0028910507 0.0018874564 0.0036612882 -0.022945113 -0.017557414
-0.00485163 0.00737517 -0.011723822 -0.00059033785 -0.0096615 0.03343252 -0.0011544332 0.028283514
0.00011849633 0.003800424 0.0071866144 0.0001926781 0.008604065 -0.012064151 -0.004446813 0.024989411
-0.017191796 -0.012527194 -0.015026501 -0.003473009 -0.0018530466 0.0100980755 0.0038570224 -0.0034564082
0.018527651 -0.018630024 -0.0074330787 -0.02728914 -0.015770778 -0.015336939 0.031506125 -0.011718407
0.004593115 0.03250088 0.031380232 -0.035943836 -0.0032013312 0.0086215 -0.003128575 0.015669417
0.011910371 -0.0076476578 0.027609233 0.028048133 -0.006461631 -0.009479953 0.017301751 0.00027662487
-0.02381767 0.01892594 0.0070807613 -0.004065701 0.03997888 0.0038748628 -0.030348651 0.01376558
-0.003008516 0.003584025 -0.05457695 -0.010915595 -0.009788405 0.0040476937 0.0015508275 -0.0062047304
-0.022733182 0.029527446 0.027772523 -0.027969446 0.0018457884 0.0042036967 0.010288897 -0.021127814
0.018656548 -0.017023506 -0.014093176 -0.021810422 -0.002924128 -0.011782069 0.0029564723 0.0036250087
0.0031182833 -0.010688902 0.006355245 -0.0004875751 0.014596845 0.016705628 0.024610404 -0.01440176
-0.034117296 0.0062851612 0.01394652 -0.013788729 -0.017516304 -0.008685034 0.017260024 -0.04114117
-0.019202903 -0.0038183627 -0.01513478 0.0155973 0.01953995 -0.026952464 -0.004612075 -0.007466407
-0.0088972235 -0.009752036 -0.011736265 -0.007821092 0.00092831044 0.029577777 -0.009290462 -0.0059734075
-0.02336305 -0.024123713 -0.0008678706 -0.03352719 0.017773869 0.01722381 -0.020994285 0.017879518
0.013976248 -0.00874851 0.0075935475 -0.02732182 -0.02489474 -0.024846122 -0.0013379529 -0.04069964
-0.009457521 -0.014335131 -0.029770523 -0.01764506 -0.023113512 -0.015149714 -0.010874499 0.014613489
-0.01919416 0.0035868268 -0.019949531 0.01725369 -0.054887526 0.0059540034 -0.004422442 0.009093242
-0.002358463 -0.014095698 -0.013788015 -0.01563849 -0.008340598 -0.01781056 -0.035178054 -0.005034752
0.008116004 -0.0029857797 -0.0075446554 -0.0030568095 -0.015750518 -0.0038809788 -0.022926273 -0.00653665
00000000: 2a85 d73c babf b5ba 91c9 9c3b 21a5 ecbb
00000010: a1b3 da3b 92e4 553c b840 80bc ed24 13bb
00000020: 381d abbc 0f7b d13b 47fc 91bb 91ce 4fbb
00000030: 65fc c2bc 831a 4c3a ddbe 763c 95df 8abc
00000040: 2aef eebc 0c47 2bbc 0a92 e9bb 52a0 b0bb
00000050: 702f 79bc e376 f23b 6a62 5ebb 7d6e f8bb
00000060: 1d86 763b 4c88 1b3c ecd0 6abb a3b5 2abb
00000070: 94f0 93b9 d8c0 f4bb 217f 56bc b7be 923a
00000080: 0b1f 763c 6651 87bb e68d f8ba baa4 1fb9
00000090: 1f41 b0bb 46f3 1ebc c55d 79ba 1aec 273b
000000a0: 38b8 a73c 05c4 0ebc 8f3e bc3a 193c 3bbc
000000b0: 697b 443b 60d3 59bc 9f8f 023c 30f8 de3c
000000c0: a3d1 15bd 3832 993b d2fe 1fbc 0fbb b33c
000000d0: dc89 babb c5bc 3cbc 508f b4bc 099d b4bc
000000e0: 3a96 70bc c3ed 02bc 6cdd 693c 74b1 32bc
000000f0: 3b0b bdbb d308 8bbb 71af 0e3d 095f 87bc
00000100: a67e 7dbb 94fc c1bb 4fba 3b3c c3df 21bb
00000110: 626e 21bc 4297 433c de3c 14bb 167a cf3b
00000120: aec2 143b 88be a7bc 13dc 0bbb 261b cdbc
00000130: 0d29 303c 5ef3 60bc 574a 7cbc 44bd c2bb
00000140: 37ff 91bd ded5 b3bb b69b f7bb a200 34bc
00000150: 314c 41bb ef42 3dbb 2303 82bc b3a1 d6bb
00000160: b08d f03a 7795 38bc 61b9 b5bc c877 3dbb
00000170: 8764 f73a 39f2 6f3b 64f7 bbbc 91d4 8fbc
00000180: 6cfa 9ebb 69ab f13b 4615 40bc e7c0 1aba
00000190: 454b 1ebc 8af0 083d 5a50 97ba d4b2 e73c
000001a0: 3c81 f838 8910 793b b17d eb3b a209 4a39
000001b0: 10f8 0c3c b7a8 45bc 92b6 91bb 98b6 cc3c
000001c0: cfd5 8cbc dc3e 4dbc b731 76bc 6c9b 63bb
000001d0: ede1 f2ba 6672 253c 19c6 7c3b e884 62bb
000001e0: 4dc7 973c fe9d 98bc 2f91 f3bb 798d dfbc
000001f0: b831 81bc c947 7bbc 910c 013d 90fe 3fbc
00000200: d781 963b a51f 053d 8f88 003d d839 13bd
00000210: 6dcd 51bb 3141 0d3c c708 4dbb 265d 803c
00000220: b723 433c 3499 fabb c22c e23c 33c5 e53c
00000230: 17bc d3bb ce51 1bbc 67bc 8d3c f607 9139
00000240: 461d c3bc 930a 9b3c bb05 e83b 9239 85bb
00000250: e5c0 233d 69f1 7d3b bc9d f8bc 0789 613c
00000260: 862a 45bb f6e1 6a3b 148c 5fbd 53d7 32bc
00000270: 8c5f 20bc 84a2 843b 2345 cb3a 0d51 cbbb
00000280: f03a babc 8be3 f13c 3483 e33c 2e20 e5bc
00000290: 62ee f13a 2abf 893b c392 283c 3d14 adbc
000002a0: 9ed5 983c e174 8bbc 11e7 66bc c5ab b2bc
000002b0: baa2 3fbb 9409 41bc 60c1 413b 8e91 6d3b
000002c0: 1d5c 4c3b 8120 2fbc a93f d03b 39a1 ffb9
000002d0: 9b27 6f3c 3eda 883c c29b c93c 5cf5 6bbc
000002e0: 94be 0bbd c1f3 cd3b f27f 643c 1fea 61bc
000002f0: 5a7e 8fbc ac4b 0ebc e564 8d3c a583 28bd
00000300: 684f 9dbc 7f3d 7abb def7 77bc d18b 7f3c
00000310: 3f12 a03c 6acb dcbc e420 97bb c3a8 f4bb
00000320: a9c5 11bc 01c7 1fbc 7749 40bc 0a24 00bc
00000330: dc59 733a 184d f23c 0637 18bc 93bc c3bb
00000340: de63 bfbc 189f c5bc cf81 63ba cf53 09bd
00000350: 819a 913c f318 8d3c 35fc abbc 1178 923c
00000360: a2fc 643c e955 0fbc 4bd3 f83b 02d2 dfbc
00000370: 0ef0 cbbc 188a cbbc 405e afba aab4 26bd
00000380: b8f3 1abc e6dd 6abc 50e1 f3bc 5f8c 90bc
00000390: 8c58 bdbc 8236 78bc f42a 32bc 6a6d 6f3c
000003a0: 123d 9dbc f810 6b3b 336d a3bc 9c57 8d3c
000003b0: bed1 60bd cd19 c33b 22ea 90bb d2fb 143c
000003c0: 7190 1abb a4f1 66bc 20e7 61bc 4a1c 80bc
000003d0: 01a7 08bc 74e7 91bc dd16 10bd 90fa a4bb
000003e0: fdf8 043c 12ad 43bb 2839 f7bb c154 48bb
000003f0: 3b07 81bc 0558 7ebb e1cf bbbc 6531 d6bb

modality_transformers.atac.layers.0.linear2.weight f4 [64, 256]
0.058775157 0.10147614 0.01525587 0.093693696 0.07315803 0.042537596 -0.05490267 0.0191315
0.08674218 0.01631972 -0.035299435 0.037518613 -0.039371863 -0.1029775 -0.048651066 -0.1036219
-0.07010749 -0.054672003 0.036563806 0.020945199 -0.11407543 0.079706825 -0.015608299 0.0065592574
-0.007560638 -0.08078481 -0.019037597 -0.2745965 0.031111052 -0.058620464 0.09553451 -0.12869285
-0.03528416 -0.11372955 -0.073925324 -0.0333168 -0.10510223 -0.021762554 -0.1391797 0.09262264
-0.13709013 -0.013373261 -0.070268914 -0.002267127 -0.042609487 -0.051927075 -0.118199155 -0.07191065
0.20566435 -0.04918547 0.09454201 0.036030423 0.026288703 -0.00067124795 -0.039488386 0.07635547
0.012841573 -0.028553654 -0.031671066 0.09627366 -0.036531996 -0.10569402 -0.05566903 -0.06319546
0.021341896 -0.0600969 0.062929265 -0.01623266 -0.08258706 0.058112543 0.103573665 -0.078259595
-0.00038577276 -0.08398285 -0.029650789 -0.09679739 -0.022898382 0.0030587977 -0.07623269 0.0017761071
0.15200748 -0.0050762836 0.0699229 0.11973506 -0.13924754 0.037173774 0.112159826 0.006112664
0.14563495 -0.008526581 -0.061282072 0.13209942 0.07821425 -0.032863174 0.17372023 -0.108638056
-0.036593713 -0.088430665 0.06476607 -0.03580624 -0.07372695 -0.15855993 0.15656698 -0.06533304
0.081720114 -0.09058532 -0.03629429 0.10695719 -0.13381849 0.100271694 -0.06902982 -0.07409012
-0.03478908 -0.115627095 -0.024338478 -0.068860106 -0.069532216 -0.037213918 0.14258954 0.019763337
0.1639173 0.11283289 -0.06343565 0.053275812 0.019061042 0.09370851 -0.0005943226 -0.12745756
0.13153581 -0.13913119 -0.03001026 -0.06834886 -0.00441946 -0.11200373 -0.03169044 -0.064824216
0.0164264 -0.04822647 -0.10651722 0.00217986 0.03807126 -0.19920751 -0.062083524 0.03757482
0.13941063 -0.016340023 -0.041639093 0.07952681 0.12867053 0.06283953 -0.108788006 0.10515911
0.033986483 -0.103080064 0.123998016 -0.0893446 0.03251108 -0.031611737 -0.123215295 0.034587678
0.06543394 0.06398858 -0.0037985425 -0.09823005 -0.04741956 -0.11427219 0.12627918 -0.063655846
0.037395053 -0.06551505 -0.08448184 0.10684398 0.037695955 -0.03354406 -0.030777965 -0.00571199
-0.052529737 -0.10898819 0.13023734 -0.094729155 -0.09288273 0.15415703 0.011125281 0.042883895
-0.10512798 0.059917238 0.0876784 -0.10641255 -0.10314881 -0.053549416 -0.0073182546 0.008275338
-0.17881681 -0.019123465 0.09467918 0.0947488 0.0079155965 -0.051918734 -0.0307878 0.010090938
-0.02979345 -0.072379045 -0.0072275214 0.077459514 0.0017039002 0.06976972 -0.01797884 0.04814348
0.038879298 0.04011717 -0.080297254 0.08071894 -0.076049715 -0.017596357 0.12382992 0.03806417
-0.13545398 0.022104936 -0.015697585 0.031971302 0.124071814 0.007772388 0.116737954 0.12228282
-0.030910783 -0.12640882 0.023911713 -0.011097569 -0.14538968 0.042572554 0.021525718 0.10315727
-0.034923278 0.167494 0.0059632147 0.098200575 -0.037980128 -0.023167351 -0.11450198 0.090471864
0.0013349863 -0.041397654 0.109461695 -0.12235102 -0.03769488 0.023468263 -0.07920864 -0.12200175
0.059312735 0.11286154 -0.049447246 0.049127113 -0.09744328 -0.0013370888 0.009375314 0.049691077
00000000: 38be 703d b9d2 cf3d c2f3 793c 7be2 bf3d
00000010: e1d3 953d e73b 2e3d 9fe1 60bd aab9 9c3c
00000020: e2a5 b13d efb0 853c 2496 10bd 1ead 193d
00000030: 6444 21bd dee5 d2bd 5746 47bd b837 d4bd
00000040: 8494 8fbd c0ef 5fbd eec3 153d 4495 ab3c
00000050: 61a0 e9bd 553d a33d f3b9 7fbc 0aef d63b
00000060: 3abf f7bb 8272 a5bd bcf4 9bbc ea97 8cbe
00000070: 9bdc fe3c 031c 70bd 99a7 c33d 0fc8 03be
00000080: 2086 10bd 0aeb e8bd 2966 97bd 3277 08bd
00000090: d73f d7bd 6247 b2bc 2085 0ebe f0b0 bd3d
000000a0: 5b61 0cbe 861b 5bbc 26e9 8fbd 1494 14bb
000000b0: 4987 2ebd 7cb1 54bd 6612 f2bd e445 93bd
000000c0: ad99 523e b476 49bd 3e9f c13d a394 133d
000000d0: 685b d73c b0f6 2fba 93be 21bd 4260 9c3d
000000e0: 7665 523c 5ae9 e9bc 85b9 01bd 202b c53d
000000f0: 93a2 15bd 1b76 d8bd 3505 64bd 9f6c 81bd
00000100: 33d5 ae3c 2b28 76bd 0fe1 803d 5bfa 84bc
00000110: 6823 a9bd 6b07 6e3d 6e1e d43d 9146 a0bd
00000120: 8b41 cab9 33ff abbd 36e6 f2bc b63d c6bd
00000130: 6395 bbbc 1c76 483b e21f 9cbd 44cc e83a
00000140: d9a7 1b3e f456 a6bb bd33 8f3d a837 f53d
00000150: e896 0ebe 8743 183d 0db4 e53d be4c c83b
00000160: 5421 153e 13b3 0bbc e902 7bbd 1245 073e
00000170: cb2e a03d 899b 06bd b7e3 313e a17d debd
00000180: 4ae3 15bd 231b b5bd 13a4 843d 90a9 12bd
00000190: 28fe 96bd 895d 22be 1853 203e 54cd 85bd
000001a0: e05c a73d cc84 b9bd 52a9 14bd 5f0c db3d
000001b0: b707 09be 3f5b cd3d 825f 8dbd 90bc 97bd
000001c0: ff7e 0ebd e6cd ecbd 7d61 c7bc 8706 8dbd
000001d0: e866 8ebd 9f6d 18bd fe02 123e b9e6 a13c
000001e0: f0d9 273e ee14 e73d 8dea 81bd bd37 5a3d
000001f0: e725 9c3c 3fea bf3d 51cc 1bba 3c84 02be
00000200: 53b1 063e 6878 0ebe 14d8 f5bc 7dfa 8bbd
00000210: 1ed1 90bb 3662 e5bd d6cd 01bd 8fc2 84bd
00000220: a890 863c 1e89 45bd b325 dabd fbdb 0e3b
00000230: 9cf0 1b3d 0efd 4bbe 4b4b 7ebd 0ee8 193d
00000240: a9c1 0e3e 83db 85bc c18d 2abd f4de a23d
00000250: 35c2 033e 03b2 803d 3fcc debd a95d d73d
00000260: 6935 0b3d a41b d3bd acf2 fd3d 4dfa b6bd
00000270: 572a 053d 4f7b 01bd 4d58 fcbd cfab 0d3d
00000280: 3b02 863d 720c 833d f8f0 78bb d62c c9bd
00000290: 033b 42bd 8a07 eabd 544f 013e ff5d 82bd
000002a0: 8e2b 193d c12c 86bd d104 adbd 04d1 da3d
000002b0: 1367 1a3d 7f65 09bd 1222 fcbc a52b bbbb
000002c0: 6c29 57bd 3335 dfbd f05c 053e 5c01 c2bd
000002d0: 4d39 bebd 57db 1d3e d046 363c 06a7 2f3d
000002e0: 574d d7bd c76b 753d bc90 b33d d3ee d9bd
000002f0: af3f d3bd a256 5bbd f8cd efbb 4995 073c
00000300: c11b 37be d0a8 9cbc 28e7 c13d a90b c23d
00000310: 6bb0 013c bda8 54bd b236 fcbc 7654 253c
00000320: 6511 f4bc 773b 94bd d8d4 ecbb 18a3 9e3d
00000330: 6755 df3a 6de3 8e3d 5c48 93bc 1932 453d
00000340: e63f 1f3d e751 243d e372 a4bd f94f a53d
00000350: f4bf 9bbd 3c26 90bc 8b9a fd3d 2de9 1b3d
00000360: 73b4 0abe 6915 b53c 3998 80bc 57f4 023d
00000370: 5d19 fe3d 84af fe3b 4f14 ef3d 6a6f fa3d
00000380: 9c38 fdbc 5071 01be 7fe2 c33c 94d2 35bc
00000390: 08e1 14be 8f60 2e3d b456 b03c 1e44 d33d
000003a0: b60b 0fbd 8c83 2b3e 1267 c33b 621d c93d
000003b0: 0d91 1bbd 75c9 bdbc 0480 eabd 5049 b93d
000003c0: b5fa ae3a 9690 29bd 742d e03d 2c93 fabd
000003d0: f265 1abd 8440 c03c 2438 a2bd 0edc f9bd
000003e0: e9f1 723d f323 e73d 3289 4abd 8339 493d
000003f0: 5890 c7bd 4141 afba eb9a 193c df88 4b3d
