ak_workspace/result_data/baseline_results/DG_Glut/dmr/imbal_model_4.pt (torch, 828102 bytes, 53 tensors)

cls_embedding f4 [1, 1, 64]
0	0xbf4db9e8	-0.80361795
1	0xbffbed2d	-1.9681755
2	0xbfa914f0	-1.3209515
3	0x3f88727c	1.0659938
4	0x3e49e637	0.19716726
5	0xbf022b2f	-0.5084714
6	0x3ef43779	0.47698572
7	0xbe0d8d1a	-0.13823357
8	0x3cac15d5	0.021006504
9	0x3eff300a	0.49841338
10	0xbf9103c9	-1.132928
11	0xbf1204f0	-0.57038784
12	0xbfab87a3	-1.3400768
13	0x3f147e6d	0.5800541
14	0x3e4c9f93	0.19982748
15	0x3f5440bb	0.8291127
16	0x3fb5e591	1.4210683
17	0xbfcbb144	-1.5913472
18	0x3d396147	0.045258787
19	0x3f661c6f	0.89887136
20	0x3f882c37	1.0638493
21	0x3f53ed1a	0.82783663
22	0xbe847aa1	-0.25874808
23	0xbfde8a82	-1.7386019
24	0x3fbe74f5	1.4879442
25	0xbfe0f2eb	-1.7574133
26	0x3f2379f0	0.63857937
27	0xbef750df	-0.48303887
28	0x3f39c8c6	0.7257198
29	0x3f73e6b8	0.95273924
30	0x3e8432cb	0.25820002
31	0x3ec5641a	0.38552934
32	0xc0280f34	-2.625928
33	0x3f0e50c1	0.5559197
34	0xbfbc7ac0	-1.472496
35	0x3d1e15eb	0.03859512
36	0xbf901846	-1.1257408
37	0xbf22da3d	-0.63614255
38	0xbee25df9	-0.4421232
39	0xbf95f486	-1.1715248
40	0xc00aa42c	-2.1662703
41	0x3f4307b5	0.76183635
42	0x3f258ad2	0.6466495
43	0xbf7ce662	-0.98789036
44	0xbd7fdfb8	-0.062469214
45	0x3f06965e	0.5257319
46	0x3f81f42f	1.0152644
47	0x3f895de8	1.0731783
48	0x3f76b7f7	0.9637446
49	0x3f8af23a	1.0855172
50	0xbfefaf4b	-1.872537
51	0x3f8ce019	1.1005889
52	0xbf2f6b2e	-0.6852292
53	0x3f8bfbb8	1.0936193
54	0x3f543cd9	0.82905346
55	0xbf95717c	-1.1675258
56	0x3c2434d5	0.010022362
57	0x3f3e0fcd	0.7424286
58	0xbf999d0c	-1.2001052
59	0xbdb2444e	-0.08704434
60	0xbef731eb	-0.48280272
61	0x400106af	2.016033
62	0x3f8f9f15	1.1220423
63	0xbfacf05b	-1.3510851

weight f4 [64, 10]
0	0xbe81b75c	-0.25335205
1	0x3e953399	0.29140928
2	0xbdc8a0c5	-0.09796289
3	0x3ea00d62	0.3126021
4	0xbe4dd3d2	-0.20100334
5	0xbdeeb8e4	-0.11656359
6	0xbe277cd1	-0.16356207
7	0x3cdfb10a	0.027306098
8	0x3d85dda3	0.065364145
9	0xbd694553	-0.05695088
10	0x3da78383	0.08179381
11	0x3e23187d	0.1592731
12	0x3d8f33bf	0.06992292
13	0xbc2e09d5	-0.010622461
14	0xbd7bbd27	-0.061459687
15	0x3c7bc067	0.0153656965
16	0xbe889375	-0.26675
17	0xbe840a13	-0.25788936
18	0x3e8fad11	0.28061727
19	0xbe618bff	-0.2202606
20	0xbea700db	-0.3261784
21	0x3e75ac68	0.23991549
22	0xbe8ea9fe	-0.2786407
23	0x3d288493	0.041142058
24	0x3c812b32	0.015767667
25	0xbd8aaf75	-0.06771747
26	0x3e6108ea	0.21976057
27	0xbdd744d9	-0.105111785
28	0xbe661a49	-0.22470964
29	0x3d4ab31a	0.04948721
30	0x3dd327db	0.10310336
31	0x3d86799f	0.06566166
32	0xbe7f4073	-0.24926929
33	0xbe8f8b33	-0.28035888
34	0xbd0f209f	-0.03494322
35	0xbe0e594b	-0.1390125
36	0xbe4e1fb3	-0.2012928
37	0xbda355d1	-0.079753526
38	0xbe59bf2b	-0.21264331
39	0xbe7926f5	-0.24331267
40	0xbd1e19e1	-0.0385989
41	0xbdbb46d0	-0.09144366
42	0x3e91f48f	0.28506896
43	0x3e7a2b1e	0.2443051
44	0x3c92bf57	0.017913504
45	0xbe8a3d16	-0.2699973
46	0x3d672697	0.056433287
47	0x3e704352	0.2346318
48	0xbe2b414b	-0.16724126
49	0x3dd54084	0.10412696
50	0xbd404e92	-0.04694993
51	0xbe1faede	-0.1559405
52	0xbe35c323	-0.1775022
53	0x3e644844	0.22293192
54	0xbc8395a5	-0.016062567
55	0xbe8a6124	-0.27027237
56	0x3e98f3a4	0.29873383
57	0xbda91609	-0.08256156
58	0xbe361ce5	-0.1778446
59	0xbcb4872b	-0.02203711
60	0x3c9fa569	0.019488053
61	0xbe4721f0	-0.1944654
62	0x3cbde061	0.023178281
63	0xbe505b68	-0.20347369
64	0x3e12ea35	0.14347155
65	0x3df028a2	0.117265
66	0x3da31453	0.07962861
67	0x3ac22f21	0.0014815071
68	0xbde8b8ad	-0.11363349
69	0x3e64a504	0.22328573
70	0x3e97568b	0.29558215
71	0x3e9a0a23	0.3008586
72	0xbe602793	-0.21890096
73	0xbe54806d	-0.20752116
74	0xbbfb867a	-0.007675943
75	0xbe9be9cf	-0.3045182
76	0x3e0c797a	0.13718215
77	0xbc8db8c9	-0.017300026
78	0xbe716a67	-0.23575746
79	0xbe5e75ec	-0.21724671
80	0xbd202452	-0.039097138
81	0x3d97fa61	0.07420803
82	0xbdeb0572	-0.11475648
83	0x3d450acc	0.048106
84	0xbe428457	-0.18995796
85	0xbd0053cf	-0.031329926
86	0x3e98c0db	0.29834637
87	0xbe42ef49	-0.19036593
88	0xbd41e3f9	-0.047336552
89	0xbe869369	-0.2628434
90	0x3db05187	0.086093
91	0xbe96fd96	-0.29490346
92	0xbe171ed4	-0.14757854
93	0xbcffef4f	-0.03124204
94	0x3e2fc907	0.1716653
95	0xbe2dd8b0	-0.16977191
96	0x3d7290f7	0.05922028
97	0x3ddc1e0e	0.1074792
98	0xbd2aab0d	-0.041667033
99	0xbe87518b	-0.264294
100	0x3e994bf3	0.29940757
101	0xbe5c4fa9	-0.21514763
102	0xbe74452a	-0.23854509
103	0xbe283cf9	-0.16429509
104	0xbdcebbbe	-0.10094403
105	0xbc814791	-0.015781196
106	0x3de776ae	0.11301933
107	0x3dc7ca54	0.09755388
108	0x3dd454bf	0.103677265
109	0xbdb3c28e	-0.08777343
110	0xbe90b1fd	-0.28260794
111	0x3e53bb8e	0.20677015
112	0x3dd1f96a	0.1025265
113	0xbe76ca54	-0.2410062
114	0x3e96ce0a	0.2945407
115	0xbe3b4646	-0.18288526
116	0xbd707a81	-0.05871058
117	0xbe8ae342	-0.2712651
118	0xbe59408f	-0.21216033
119	0x3e7f21be	0.24915215
120	0x3e95e540	0.29276466
121	0x3e80db87	0.25167486
122	0x3da82d21	0.08211733
123	0x3d293e01	0.041318897
124	0xbe8d0c2b	-0.27548346
125	0xbe9277bb	-0.28606972
126	0x3e935cb1	0.28781655
127	0x3c975f94	0.018478192
128	0x3dfd3cd7	0.1236512
129	0x3e0a7f79	0.1352519
130	0x3e322e1c	0.17400402
131	0x3e125bb0	0.14292789
132	0xbead8bb1	-0.3389564
133	0x3cb6d769	0.022319512
134	0x3e7a29d3	0.24430017
135	0x3e7e65b6	0.24843487
136	0x3d0b35cb	0.033986848
137	0x3d5ce31e	0.053927533
138	0x3e2a6700	0.16640854
139	0x3dcd05a5	0.10010842
140	0x3e890302	0.26760107
141	0xbd6ef171	-0.058335725
142	0xbe95b2a7	-0.29237863
143	0xbe6e6ed4	-0.23284465
144	0x3e47e76a	0.19521871
145	0xbe682eff	-0.22674178
146	0x3dfc26b3	0.12312069
147	0x3e612875	0.2198809
148	0x3ddbb54f	0.10727941
149	0x3e452190	0.19251084
150	0xbe71beef	-0.23607992
151	0x3e9808f8	0.29694343
152	0xbe0248e0	-0.12723112
153	0xbd20fefc	-0.039305672
154	0x3e70c2b8	0.2351178
155	0x3e60e258	0.21961343
156	0x3dcceb46	0.10005812
157	0xbdc8d0b4	-0.09805432
158	0xbe56db22	-0.2098203
159	0x3e36a28b	0.17835443
160	0xbcb2870a	-0.021792907
161	0xbe56a121	-0.20959903
162	0xbdd5467e	-0.10413836
163	0xbdf04d0d	-0.11733446
164	0x3d758e47	0.05995014
165	0x3e5935aa	0.21211877
166	0x3e9a07a4	0.30083954
167	0x3bb0d268	0.005396176
168	0xbe95d3ce	-0.29263157
169	0xbd840626	-0.06446485
170	0x3de9c38d	0.114142515
171	0xbd3c246b	-0.04593317
172	0x3c72442d	0.014786762
173	0x3e91f93c	0.28510463
174	0x3e209fd1	0.15685965
175	0xbd9ee7d2	-0.0775906
176	0x3e30173b	0.17196362
177	0xbe9b437e	-0.3032493
178	0x3e6f0158	0.23340356
179	0x3e853761	0.26018813
180	0xbcd00431	-0.025392624
181	0xbe785229	-0.24250092
182	0x3e87b0d2	0.2650209
183	0xbd98e0f1	-0.07464779
184	0xbb4da3aa	-0.003137807
185	0x3e820650	0.2539544
186	0x3e199fa8	0.1500231
187	0x3e804c90	0.25058413
188	0xbe72e1d1	-0.23718955
189	0x3e7d984a	0.24765125
190	0xbdfc25db	-0.12311908
191	0x3e7942b5	0.24341853
192	0x3e3aac01	0.18229677
193	0xbe19c62f	-0.15017007
194	0xbb87c572	-0.0041434104
195	0x3e56e5ce	0.20986101
196	0xbe3669b6	-0.17813763
197	0xbe3889d1	-0.18021323
198	0x3cf1ec05	0.029531488
199	0xbe3b19f4	-0.18271619
200	0xbd24a595	-0.040196974
201	0x3e6f0eee	0.23345539
202	0xbdee5982	-0.11638166
203	0xbe37c55d	-0.17946382
204	0xbc07fb37	-0.00829964
205	0x3d86cb7c	0.0658178
206	0x3d5cfece	0.05395394
207	0x3e123047	0.14276229
208	0x3e8c68ac	0.27423608
209	0xbe65c44f	-0.22438167
210	0xbe2d6c30	-0.16935802
211	0x39d55c3f	0.00040695255
212	0xbd4c8d53	-0.049939465
213	0x3c9beed3	0.019034779
214	0xbce8c45b	-0.028413942
215	0xbcc565df	-0.024096427
216	0x3d26dd25	0.040738244
217	0xbe102238	-0.14075553
218	0xbe63f4b9	-0.22261323
219	0x3e18baee	0.14915058
220	0x3e642e89	0.22283377
221	0xbe199599	-0.14998473
222	0xbe8a379b	-0.2699555
223	0xbe54460e	-0.20729849
224	0x3e88113d	0.26575652
225	0x3e472bb3	0.19450264
226	0x3e25a8b3	0.16177635
227	0x3d95c8e4	0.073137075
228	0x3e8b8065	0.27246395
229	0x3bc9a967	0.0061542275
230	0xbe0404e3	-0.12892489
231	0xbd1f1a95	-0.03884371
232	0x3e399cf5	0.1812628
233	0x3db3a675	0.087719835
234	0x3d8bca90	0.06825745
235	0xbe3fcc7f	-0.18730353
236	0x3e9ed8b3	0.31024703
237	0xbe8cad1a	-0.27475816
238	0xbd81dda7	-0.06341105
239	0xbe7debf5	-0.24797042
240	0x3e11e588	0.14247715
241	0xbe3b71e9	-0.18305172
242	0x3e8a840d	0.27053872
243	0x3e89ec5e	0.26938146
244	0xbe41fe77	-0.18944727
245	0xbe733c56	-0.23753485
246	0xbe80c247	-0.25148222
247	0x3e6b5d0c	0.22984713
248	0x3cbb4faf	0.022865145
249	0xbdbb5d81	-0.09148694
250	0x3d072a69	0.03299943
251	0xbe8da06e	-0.2766146
252	0x3ddcc4e3	0.10779741
253	0x3dc2f8a4	0.09520081
254	0x3e42dbfb	0.19029228
255	0xbe261b32	-0.16221312

bias f4 [64]
0	0x3e363be7	0.17796288
1	0x3de22b00	0.11043358
2	0x3a2dd96b	0.0006631824
3	0xbe7d4c51	-0.24736144
4	0x3e25a879	0.16177548
5	0x3ddf59c2	0.10905792
6	0x3e143b3e	0.14475724
7	0x3e1bb07d	0.15204044
8	0x3e46f2a1	0.19428493
9	0x3e93b7fe	0.28851312
10	0x3e9c2701	0.30498508
11	0xbe7b6315	-0.24549516
12	0xbe8d4891	-0.27594426
13	0xbc927310	-0.017877132
14	0xbdc31163	-0.09524801
15	0xbe791b82	-0.243269
16	0xbca6217c	-0.020279638
17	0x3e372297	0.17884289
18	0x3dd5f2f0	0.10446727
19	0x3dc39453	0.09549775
20	0x3d43f10e	0.04783731
21	0x3e249d96	0.1607574
22	0xbe52d5fe	-0.20589444
23	0xbd857c3a	-0.06517835
24	0x3e590014	0.21191436
25	0x3e9e0ebb	0.30870613
26	0x3e448a8c	0.19193476
27	0xbd989df9	-0.07452006
28	0x3e8995a8	0.2687199
29	0xbea074aa	-0.31339008
30	0xbc7c6449	-0.015404769
31	0x3e821ca4	0.25412476
32	0x3b2dbf55	0.0026511748
33	0xbd423c7a	-0.047420956
34	0xbdd4f492	-0.103982106
35	0xbe12a269	-0.14319767
36	0x3e37c9a1	0.17948009
37	0xbe8a67d6	-0.27032346
38	0xbdab4b62	-0.083639875
39	0x3e301ef3	0.17199306
40	0xbe7b77d5	-0.24557431
41	0x3e38af21	0.18035556
42	0xbe8c81da	-0.2744282
43	0x3e15391e	0.1457257
44	0xbe4f7ca5	-0.20262392
45	0x3e9e9165	0.30970302
46	0x3e26a4a3	0.16273741
47	0xbe25ba7c	-0.1618442
48	0x3e0488e7	0.12942849
49	0x3cb2fdf7	0.021849615
50	0x3b97f8b7	0.0046378034
51	0x3abe1cac	0.0014504394
52	0xbe58dfe7	-0.21179162
53	0xbe647331	-0.22309567
54	0x3b2219b7	0.0024734566
55	0xbe72221a	-0.23645821
56	0xbdb2bcdb	-0.087274276
57	0xbe3b1e46	-0.18273267
58	0xbe964e48	-0.293566
59	0x3de2b4f2	0.11069669
60	0x3cde1fa3	0.027114695
61	0xbdb8f8da	-0.0903184
62	0x3e85bbee	0.2611994
63	0x3e67b0a2	0.22625974

in_proj_weight f4 [192, 64]
0	0xbe00b40f	-0.12568687
1	0xbdbb715c	-0.09152481
2	0x3aeb7b5a	0.0017965839
3	0x3d969423	0.073524736
4	0x3d29de97	0.041472044
5	0xbd80428a	-0.06262691
6	0x3db3a054	0.087708145
7	0xbc97b8ef	-0.0185208
8	0xbdc5e545	-0.0966287
9	0x3d3cbef7	0.046080556
10	0x3d82509e	0.06363033
11	0xbc68f28d	-0.014217985
12	0x3e0b3a5a	0.13596478
13	0xbe124098	-0.14282453
14	0x3d8fbdaf	0.07018601
15	0x3d371273	0.04469533
16	0xbdf24dd0	-0.11831248
17	0x3d9f3b14	0.0777494
18	0xbd35073e	-0.04419636
19	0xbb2c2d53	-0.0026272133
20	0x3c857327	0.01629026
21	0xbdbcdcb6	-0.09221785
22	0x3b266aee	0.0025393325
23	0x3ca3ef9f	0.020011721
24	0x3d8f82ef	0.070073955
25	0x3ba5068d	0.0050361813
26	0x3dd30718	0.103040874
27	0xbd32b3af	-0.04362839
28	0x3b9d83d5	0.0048069754
29	0x3b95c9ac	0.0045711603
30	0xbd8c7316	-0.068578884
31	0x3ce02043	0.027359134
32	0xbd232e60	-0.03983915
33	0xbddf4c10	-0.1090318
34	0x3e0f73da	0.14009038
35	0x3c9ce708	0.019153133
36	0xbe1c82b6	-0.15284237
37	0xbd865f88	-0.0656119
38	0x3d34a6f9	0.04410455
39	0xbd8d6df1	-0.06905735
40	0xbc42e227	-0.011894739
41	0xbca201c6	-0.019776236
42	0x3d397342	0.045275934
43	0x3e10b287	0.14130603
44	0x3de5deef	0.11224162
45	0x3e0c5fb9	0.1370839
46	0xbd4d0856	-0.050056778
47	0x3bd73a2e	0.006568215
48	0x3dcdfc6d	0.10057912
49	0x3dc9ca38	0.09853023
50	0x3d4c6ee0	0.049910426
51	0x3da515ef	0.08060824
52	0xbcaa5b5f	-0.020795522
53	0x3d9490c5	0.07254175
54	0xbd88c8a3	-0.066788934
55	0xbde63967	-0.112414174
56	0xbda6f413	-0.08152022
57	0x3df4a917	0.11946314
58	0xbe0aeceb	-0.1356694
59	0xbd805243	-0.0626569
60	0xbdd94ae7	-0.106099896
61	0x3b0b7a26	0.0021282523
62	0xbe16cfb7	-0.14727674
63	0xbe0bc795	-0.13650353
64	0xbdf121ba	-0.11774011
65	0x3bf39cae	0.007434449
66	0x3defc1f2	0.11706914
67	0x3e22f557	0.15913902
68	0x3e1b9483	0.15193371
69	0xbd329154	-0.043595627
70	0x3a9ef814	0.0012128376
71	0x3dc07565	0.09397391
72	0x3dff5919	0.12468166
73	0xbce4cf45	-0.027930865
74	0xbe09ba5a	-0.13449994
75	0x3df3b65f	0.11900019
76	0x3e107de5	0.14110525
77	0x3d16a8d3	0.036782097
78	0x3d606235	0.054781158
79	0x3d82ef9e	0.063933596
80	0x3db9e2bc	0.09076449
81	0xbdb23638	-0.08701748
82	0xbe1012ee	-0.14069721
83	0x3d227eae	0.039671592
84	0x3ca60059	0.020263838
85	0xbdd83034	-0.10556069
86	0x3c2582c4	0.010101978
87	0x3d952c64	0.072838575
88	0xbd0fbb61	-0.035090808
89	0xbd577fa8	-0.052611977
90	0x3bed8084	0.0072479863
91	0xbd6d3cb3	-0.057919215
92	0x3ddc2466	0.1074913
93	0xbac8e1a6	-0.0015326038
94	0x3e08b426	0.13349971
95	0x3dc4da1d	0.09611914
96	0x3db0049c	0.08594629
97	0x3e177965	0.14792402
98	0xbdf0e807	-0.11763006
99	0xbe02ff53	-0.12792711
100	0xbdb06632	-0.08613242
101	0xbd94faca	-0.07274397
102	0xbdaf8b7a	-0.08571525
103	0x3aeb50db	0.0017953174
104	0xbc9e499b	-0.019322207
105	0xbd4b871d	-0.0496894
106	0xbbce4c0a	-0.0062956857
107	0xbe26bd8d	-0.16283245
108	0x3b58056f	0.0032962223
109	0xbd96c838	-0.073624074
110	0xbd0c071c	-0.034186468
111	0x3dc71c97	0.0972225
112	0xbdef9d18	-0.11699885
113	0xbdc05076	-0.09390347
114	0x3dde5d61	0.10857654
115	0x3d95095c	0.07277176
116	0xbd640996	-0.055673204
117	0x3b61760a	0.0034402632
118	0xbcba174a	-0.022716183
119	0xbde8d0e1	-0.113679655
120	0xbdd69d64	-0.10479239
121	0xbd8edd0f	-0.06975757
122	0xbe0fb575	-0.14034064
123	0x3c807626	0.015681338
124	0x3df2082f	0.11817967
125	0x3d762839	0.060096953
126	0x3de439d8	0.11143845
127	0x3d81aa66	0.06331329
128	0x3b44fad1	0.0030056725
129	0x3e283ec0	0.16430187
130	0x3dfed5b2	0.12443103
131	0xbcce61b1	-0.025193067
132	0xbd96fc4a	-0.07372339
133	0x3e063903	0.13107686
134	0x3dd160ee	0.10223566
135	0xbe201b29	-0.15635361
136	0xbd0669f8	-0.032815903
137	0x3e192556	0.14955649
138	0xbd121ef4	-0.03567405
139	0xbdddf5bc	-0.10837886
140	0x3e1845a9	0.14870323
141	0x3e219f7b	0.15783493
142	0xbd146fa7	-0.036239292
143	0x3db773e5	0.08957652
144	0x3dd442e9	0.103643246
145	0x3c3b4667	0.011430359
146	0x3dd341a9	0.10315258
147	0xbdcd3801	-0.100204475
148	0x3dc3191a	0.09526272
149	0x3d202cc5	0.039105196
150	0xbdd7e240	-0.10541201
151	0xbdd06ce8	-0.10177022
152	0x3d96d9d5	0.07365767
153	0xbdc1c6f3	-0.09461775
154	0xbddead60	-0.108729124
155	0xbd491cef	-0.04909986
156	0xbb8df00c	-0.0043315943
157	0x3cc691f1	0.024239512
158	0xbda5f357	-0.08103054
159	0x3da5c4f7	0.08094209
160	0xbd60c3d8	-0.05487427
161	0xbe1d99a4	-0.1539064
162	0xbdeb93ee	-0.11502825
163	0x3d98c90f	0.07460224
164	0x3d52a118	0.051423162
165	0x3df99461	0.12186504
166	0xbe08f4bd	-0.1337461
167	0xbd9cbb06	-0.076528594
168	0xbda10640	-0.0786252
169	0x3e1f3502	0.15547565
170	0x3ceaa490	0.028642923
171	0xbdb15d00	-0.086603165
172	0xbaed7708	-0.0018117139
173	0x3dbf322f	0.09335744
174	0xbc907e3d	-0.01763832
175	0x3dee8eb3	0.116483115
176	0x3d911574	0.0708417
177	0x3d276b6d	0.040873934
178	0x3e01131d	0.12604947
179	0x3de7555e	0.112955794
180	0x3d861a4b	0.06547984
181	0xbd2ff890	-0.042961657
182	0x3dc7b489	0.09751231
183	0x3d08db9a	0.033412553
184	0x3e0c6de5	0.13713796
185	0x3e0c5131	0.13702847
186	0x3cca4dc9	0.024695294
187	0xbd37a29f	-0.044832822
188	0xbdd05894	-0.10173145
189	0xbbf52a4f	-0.00748185
190	0x3cb799b3	0.022412157
191	0xbd94ee2c	-0.0727199
192	0x3d0c8b12	0.034312315
193	0xbc225eff	-0.009910344
194	0x3df8ccc6	0.121484324
195	0x3beec6c5	0.007286879
196	0x3d883394	0.06650463
197	0xbd6b045f	-0.057377215
198	0xbcbcff6f	-0.023071019
199	0xbcb11897	-0.02161817
200	0xbdb142ee	-0.08655344
201	0xbcc98736	-0.024600606
202	0x3e0bcbec	0.13652009
203	0x3df201d1	0.11816753
204	0x3e083421	0.13301136
205	0x3da395a8	0.07987529
206	0xbdf1aaab	-0.118001305
207	0xbda82620	-0.08210397
208	0xbe25e149	-0.1619922
209	0x3d27f024	0.0410005
210	0xbdacb8c1	-0.084336765
211	0x3e1a8694	0.150904
212	0x3e119cf1	0.14220025
213	0x3d09705c	0.03355442
214	0x3d2ce7b4	0.042213157
215	0x3cba428c	0.02273681
216	0x3aac1c0c	0.0013130917
217	0xbd86839b	-0.065680705
218	0x3c07b546	0.008282965
219	0x3e072ed5	0.13201459
220	0x3db36c30	0.087608695
221	0x3d901ba9	0.07036526
222	0x3db61d16	0.088922665
223	0xbd3756d2	-0.044760533
224	0xbddea978	-0.10872167
225	0xbe068780	-0.13137627
226	0xbb52d4b8	-0.0032170247
227	0x3d1ebe3c	0.03875564
228	0xbd150f6b	-0.036391657
229	0xbd61b043	-0.055099737
230	0xbdcbc0de	-0.09948896
231	0xbe0ed9d8	-0.13950288
232	0x3e04a11d	0.12952085
233	0x3d869c8e	0.06572829
234	0x3c707250	0.014675692
235	0xbd63a3f7	-0.05557629
236	0x3e03afa3	0.12859969
237	0x3e152201	0.14563753
238	0xbdd7dbee	-0.10539995
239	0xbdb49596	-0.08817594
240	0xbdb8a64d	-0.09016094
241	0xbd28497d	-0.04108571
242	0xbe04ed7d	-0.1298122
243	0xbdaaa175	-0.08331577
244	0xbbd9ef1a	-0.0066508176
245	0xbe08f5b5	-0.1337498
246	0xbd18bb86	-0.03728821
247	0xbe09cd8a	-0.13457313
248	0x3e02ca71	0.12772538
249	0x3da8e3b9	0.0824656
250	0xbccedc3a	-0.025251497
251	0x3db6a919	0.089189716
252	0xbdede511	-0.116159566
253	0x3d7604fc	0.060063347
254	0xbd687cd1	-0.05675966
255	0xbd4e8d37	-0.05042764

in_proj_bias f4 [192]
0	0xbbb96c0e	-0.005658633
1	0x3be4b1b1	0.0069791903
2	0x3a93eb58	0.0011285348
3	0x39fe86d0	0.00048547098
4	0x3aba9d96	0.0014237638
5	0xba8310e4	-0.0009999541
6	0xb9898c8c	-0.00026235392
7	0x3acfc349	0.0015851046
8	0x3c671bdd	0.014105764
9	0xbbaead48	-0.0053307153
10	0xbc88456d	-0.016634667
11	0x3bb526c6	0.005528304
12	0x3b7a034a	0.0038148933
13	0x3b3b0559	0.0028537123
14	0xbc0132f9	-0.007885688
15	0xbc3729e1	-0.011179418
16	0x3c92755b	0.017878225
17	0x393473d8	0.00017209293
18	0x3c5804af	0.01318471
19	0xbc486a39	-0.012232357
20	0xbba55ee5	-0.0050467127
21	0xbb4b71d6	-0.0031043193
22	0x3b595dfc	0.0033167591
23	0x3c70ffb1	0.014709399
24	0x3b3abf43	0.0028495349
25	0x3c039f22	0.008033546
26	0x3bb8ed2b	0.005643507
27	0x3b153c75	0.002277163
28	0xbbe4fec8	-0.00698838
29	0xbc086bc6	-0.008326476
30	0x3b824190	0.003975101
31	0xbbffab70	-0.0078024194
32	0x3bfbb63d	0.0076816366
33	0x3bb28e57	0.005449097
34	0xbbc09f57	-0.00587837
35	0x3b52347c	0.003207474
36	0xbba65e3b	-0.005077151
37	0xbb2e99bd	-0.0026641928
38	0x3b83965b	0.0040157265
39	0x3a426750	0.00074159075
40	0xbb85e445	-0.0040860497
41	0x3c26dd6e	0.010184629
42	0xbaa8c6ef	-0.001287667
43	0x3a17be69	0.0005788566
44	0x3a716b73	0.00092094316
45	0x3bdd50ef	0.006754033
46	0x3a8ba604	0.0010654335
47	0xbb73294f	-0.003710348
48	0x3a9b4632	0.0011846481
49	0x3b9152db	0.004434926
50	0x3c8d71e0	0.017266214
51	0xbc28aafe	-0.010294674
52	0x3a798d46	0.00095196476
53	0xbc22da27	-0.009939707
54	0x3c1cdfc8	0.009574838
55	0x3bfd7ece	0.0077360636
56	0x3c1f25d2	0.009713607
57	0x3aa9f77e	0.0012967435
58	0x3c69848b	0.014252792
59	0x3bf704f7	0.0075384337
60	0xba9e2838	-0.001206643
61	0x3bbc4c4d	0.0057464004
62	0x3a8b3d21	0.0010623076
63	0xba553a32	-0.0008133977
64	0xb8dd7d7c	-0.000105614745
65	0x39eb92c7	0.0004493205
66	0xb7225fad	-9.678229e-06
67	0xb8a56731	-7.887034e-05
68	0x3942531a	0.0001853224
69	0x39b3c8e1	0.00034291207
70	0xb92b049c	-0.00016309548
71	0xb83cca72	-4.5011235e-05
72	0x3a8969dc	0.0010483819
73	0xba8695f0	-0.0010268074
74	0x38bdb010	9.0450165e-05
75	0x39bb5249	0.00035728727
76	0x364ec775	3.0812491e-06
77	0x394ffb94	0.00019834779
78	0xb9146d3b	-0.00014155071
79	0xbad7783d	-0.0016439032
80	0xb9a82531	-0.00032071167
81	0x38172948	3.603965e-05
82	0xb93bf3ba	-0.00017924505
83	0x39003834	0.00012227969
84	0x39a8b90a	0.00032181322
85	0x3976af72	0.00023525747
86	0xb8d86c2b	-0.000103198305
87	0xb9e62ebd	-0.0004390384
88	0x388fb509	6.852492e-05
89	0xb91c88a5	-0.00014928223
90	0x38c77afe	9.5119685e-05
91	0x37e56e18	2.7350194e-05
92	0xb88b641f	-6.6466855e-05
93	0xb91704f5	-0.00014402329
94	0xb73f8a76	-1.1416725e-05
95	0xb73c6a7e	-1.1230468e-05
96	0xb899670e	-7.314804e-05
97	0x380558df	3.179244e-05
98	0x393738bc	0.00017473375
99	0x38b2b655	8.5216634e-05
100	0xb99da96e	-0.00030071608
101	0x386267e0	5.397934e-05
102	0x397f9210	0.00024373108
103	0xb8f39226	-0.00011614365
104	0xb9a733cd	-0.00031891317
105	0xb9a9fcea	-0.00032422628
106	0x39700089	0.00022888383
107	0x38862d9d	6.398114e-05
108	0xb94149b1	-0.00018433366
109	0x391cafbc	0.00014942785
110	0xb68dfa8d	-4.2312954e-06
111	0xb90b09de	-0.00013259749
112	0xb8a18daa	-7.703465e-05
113	0x37887ea9	1.6271444e-05
114	0x38a8b982	8.045418e-05
115	0x37d4f7e7	2.5387808e-05
116	0xb9c93085	-0.00038373857
117	0xb911d1af	-0.00013906391
118	0x373e804a	1.1354752e-05
119	0x392b504e	0.00016337747
120	0xb7b3ded2	-2.1442222e-05
121	0xb8d80c33	-0.00010301955
122	0xb93d953b	-0.00018080037
123	0xb8a06c30	-7.649546e-05
124	0x38f9c582	0.00011910034
125	0xba1fd684	-0.0006097334
126	0x38a38b9f	7.798452e-05
127	0xb85b934a	-5.2350842e-05
128	0x3c4e38d8	0.012586795
129	0x36ec2f58	7.0388596e-06
130	0x3ac6c3bd	0.0015164536
131	0x3be6c30e	0.0070422953
132	0xbc1b8fb6	-0.009494713
133	0xbb923338	-0.004461672
134	0x3be87260	0.0070937127
135	0xbbb1d2ac	-0.0054267254
136	0x3bc5d2c6	0.006037089
137	0xbb1b8ec3	-0.0023736216
138	0x3c15ba83	0.009138706
139	0x3c0a3023	0.008434328
140	0x3b0c6cb5	0.00214271
141	0xbb602c5a	-0.0034206123
142	0xbad95387	-0.0016580679
143	0x3b5fbf49	0.0034141114
144	0xba311dbc	-0.0006756445
145	0xbc015c0f	-0.007895484
146	0x3ba2b222	0.0049650827
147	0xbb5438f7	-0.0032382587
148	0x3c1db9b0	0.009626791
149	0x3ba98db5	0.0051743635
150	0xbbb8b708	-0.0056370534
151	0x3b09bc12	0.002101664
152	0xbba1b8c8	-0.0049353577
153	0xbb731d12	-0.0037096185
154	0x3ae289f9	0.0017283551
155	0x3c05b7d2	0.008161502
156	0x3afd772f	0.0019337888
157	0x39cef153	0.00039471182
158	0x3b3da60e	0.0028938088
159	0xbcb4c82b	-0.022068104
160	0x3c2406ea	0.010011414
161	0xbc73c825	-0.014879261
162	0x3a141e65	0.0005650281
163	0x3b22b486	0.0024826839
164	0x3b92ed8a	0.0044838833
165	0xbacf945d	-0.0015837062
166	0x3bdab404	0.0066742916
167	0x3bd0dfe2	0.006374345
168	0x3ca4a41d	0.020097787
169	0xbb506aba	-0.0031801895
170	0xbbd92c42	-0.0066275904
171	0x3c64adec	0.013957482
172	0xbbff49b1	-0.007790767
173	0x3b3a5d4f	0.0028436964
174	0x3b108992	0.0022054655
175	0x3c4b66fa	0.012414688
176	0xbb8f9cee	-0.004382721
177	0xbc0a1bae	-0.008429451
178	0xbb40d12b	-0.0029421549
179	0x3c81dbbc	0.015851848
180	0x3b827650	0.003981389
181	0x3abf348c	0.0014587804
182	0xb94e5c67	-0.00019680113
183	0x39fe6e00	0.00048528612
184	0x3c218ab1	0.009859727
185	0x3b577066	0.0032873391
186	0xba7bd6b2	-0.0009606882
187	0xbb9a538b	-0.004709666
188	0xbb18ba79	-0.0023304506
189	0xbb50ffac	-0.0031890674
190	0x3c4a2ac6	0.0123393
191	0x3aba6230	0.0014219936

weight f4 [64, 64]
0	0x3d24d4f6	0.040242158
1	0xbd91fc6c	-0.07128224
2	0x3dd4aed3	0.103849076
3	0xbb6cfc78	-0.0036161225
4	0xbdbf6bc1	-0.09346724
5	0x3dcd99a3	0.100390695
6	0xbdf10ae2	-0.11769654
7	0x3d33bde3	0.043882262
8	0x3d6b1a8e	0.05739837
9	0x3d731555	0.059346516
10	0x3d713694	0.05888994
11	0xbc8e0ea5	-0.017340967
12	0x3c8afec7	0.01696719
13	0xbb26a541	-0.002542809
14	0xbdb6ad7b	-0.089198075
15	0xbdf668d0	-0.1203171
16	0xbdd63a36	-0.104603216
17	0xbe001a55	-0.12510045
18	0xbd2f7038	-0.04283163
19	0xbc46ed05	-0.012141471
20	0xbc1118c8	-0.008856006
21	0xbdee6b52	-0.116415635
22	0x3da929da	0.08259936
23	0x3d943842	0.07237293
24	0x3d3b76dd	0.045767654
25	0x3d5bcf01	0.05366421
26	0xbc97b6f5	-0.018519858
27	0x3d1835f5	0.037160832
28	0xbd8a39cd	-0.06749306
29	0x3dfc0fbe	0.1230769
30	0xbdd230af	-0.10263192
31	0x3d5a4368	0.05328694
32	0x3ccb81d0	0.024842173
33	0xbc849b50	-0.01618734
34	0x3d692342	0.05691839
35	0x3d3d8b42	0.046275385
36	0xbda96e39	-0.082729764
37	0xbdca055f	-0.09864306
38	0x3dce1839	0.10063214
39	0xbd2403fb	-0.04004286
40	0x3dc7625c	0.097355574
41	0xbd9db5c7	-0.07700687
42	0x3dda1f95	0.10650555
43	0x3c456789	0.0120486105
44	0x3b7aaa06	0.0038248315
45	0xbdb684b1	-0.089120276
46	0xbdcf0daf	-0.10110032
47	0x3d3c54bc	0.045979246
48	0x3e097d6b	0.1342675
49	0x3d958331	0.073004134
50	0x3dac3ad1	0.08409656
51	0x3db8f372	0.090308085
52	0x3dba65e0	0.09101462
53	0x3dfe6498	0.124215305
54	0xbd93837f	-0.07202815
55	0xbbbbab38	-0.005727198
56	0x3d6abe72	0.05731053
57	0x3d86cb21	0.065817125
58	0xbca41348	-0.020028725
59	0x3d5a39b6	0.053277694
60	0x3c9fc41a	0.019502688
61	0xbe0dd0b5	-0.13849147
62	0x3c8dfbfb	0.017332068
63	0xbd906ec2	-0.070523754
64	0xbd953924	-0.07286289
65	0x3d1929cd	0.03739338
66	0x3d9bf4d6	0.07615058
67	0x3ddc6c8f	0.107628934
68	0xbd9f0074	-0.07763758
69	0xbdae7a88	-0.08519465
70	0x3d8bfe29	0.068355866
71	0x3c14b6dd	0.009076801
72	0xbddedfd4	-0.108825356
73	0xbda0419a	-0.078250125
74	0x3ca6401c	0.020294242
75	0xbd86e32d	-0.06586299
76	0x3d650cfa	0.05592058
77	0x3d1b51e4	0.037919894
78	0xbdf8ea87	-0.121541075
79	0x3de7a9d3	0.11311688
80	0x3df7ff1e	0.121092066
81	0x3cbe04fc	0.023195736
82	0x3da20028	0.07910186
83	0x3d0a8175	0.033814866
84	0x3d33c798	0.04389152
85	0xbdee14cd	-0.11625061
86	0xbd582cf3	-0.052777242
87	0x3da3e525	0.0800269
88	0x3da3f7c1	0.0800624
89	0xbb0375db	-0.002005926
90	0xbda8ba82	-0.082386985
91	0xb91127f5	-0.00013843163
92	0xbd6e07a3	-0.05811275
93	0x3dba60eb	0.09100517
94	0x3d9cd36c	0.07657513
95	0x3d453e7f	0.048155304
96	0x3dd39395	0.103308834
97	0x3d77331f	0.060351487
98	0xbcc2de06	-0.02378751
99	0x3dba663f	0.09101533
100	0x3db40e66	0.08791809
101	0x3dbe33fe	0.092872605
102	0xbdf3c129	-0.11902077
103	0x3d9c3a52	0.07628311
104	0xbd81587a	-0.06315704
105	0x3de7e700	0.11323357
106	0xbd38be73	-0.0451035
107	0x3cc8fc46	0.024534356
108	0x3d3f9625	0.04677405
109	0x3cf00c23	0.029302662
110	0x3cba9f26	0.022780966
111	0x3c46194c	0.012090992
112	0x3c4bdf20	0.012443334
113	0x3d3d26c9	0.046179567
114	0x3d3fcddc	0.046827182
115	0x3d402f95	0.046920378
116	0xbdd22ba1	-0.10262228
117	0x3d95f1a0	0.07321477
118	0x3cc70985	0.024296531
119	0x3d977afd	0.07396505
120	0xbdb85c4b	-0.090019785
121	0x3d28f825	0.041252274
122	0x3c8d8adb	0.017278126
123	0xbd1601ef	-0.036622938
124	0xbdb2f3d2	-0.08737911
125	0xbd8396ab	-0.06425222
126	0x3ba79177	0.0051137763
127	0xbd978581	-0.07398511
128	0xbda892b6	-0.08231108
129	0xbcba46bd	-0.022738809
130	0xbdd5b30e	-0.104345426
131	0xbd3177c0	-0.043327093
132	0xbddcc3f3	-0.10779562
133	0x3d55ef59	0.052230213
134	0x3de03b9d	0.1094887
135	0xbd604e78	-0.054762334
136	0xbda0ec59	-0.0785758
137	0xbdda7a67	-0.10667878
138	0x3d24ff7d	0.040282715
139	0x3db79619	0.08964176
140	0x3d3308f2	0.043709703
141	0xbe058742	-0.13039878
142	0xbd9dc04c	-0.07702693
143	0xbc98c2bc	-0.018647544
144	0xbda749a2	-0.08168341
145	0x3d28be42	0.04119707
146	0x3dc2a6ac	0.095044464
147	0xbddd9c75	-0.108208574
148	0xbc29720f	-0.010342135
149	0xbd8c2a55	-0.06844012
150	0xbdb03f69	-0.086058445
151	0xbc604e25	-0.013690506
152	0xbd995039	-0.074860044
153	0xbdb97c19	-0.09056873
154	0x3cc1426c	0.023591243
155	0x3dd42d45	0.10360197
156	0x3e1a9dfb	0.15099327
157	0x3d4f0f16	0.050551496
158	0x3e0539a3	0.13010268
159	0xbbafab6d	-0.0053610117
160	0x3cb24d76	0.021765452
161	0x3e034a50	0.12821317
162	0x3d9b0592	0.07569422
163	0x3dd52714	0.10407844
164	0x3e0437e3	0.12911944
165	0x3df76323	0.12079456
166	0x3d809e5b	0.06280204
167	0x3cf7ecf6	0.030264359
168	0xbce86c51	-0.028371962
169	0xbdaba37e	-0.08380793
170	0xbda838da	-0.082139686
171	0x3d3519a8	0.04421392
172	0x3dcae0fb	0.09906193
173	0x3db57185	0.08859543
174	0x3cd9ae3f	0.026572345
175	0xbdcc6274	-0.09979716
176	0xbc8bb039	-0.017051803
177	0x3d4e90d1	0.050431076
178	0x3df0b92c	0.11754069
179	0x3c499621	0.01230386
180	0x3dc44c13	0.095848225
181	0x3cf79c5e	0.030225929
182	0x3dc72770	0.09724319
183	0xbd29cf18	-0.041457266
184	0xbdc45470	-0.09586418
185	0x3d222779	0.039588425
186	0xbcdd3195	-0.027001182
187	0xbb82cdbf	-0.003991812
188	0x3d44d2fa	0.048052765
189	0x3e0a79fb	0.13523094
190	0xbd1bea10	-0.038065016
191	0xbdf24abc	-0.11830661
192	0xbd4e4726	-0.05036082
193	0xbdd84d08	-0.105615675
194	0xbdd718c2	-0.10502769
195	0xbdccd9e5	-0.100024976
196	0xbdf5b953	-0.119982384
197	0x3d1b340f	0.037891444
198	0xbacbd845	-0.0015552124
199	0xbd4a9d61	-0.049466494
200	0x3dc0d998	0.09416503
201	0x3ca46632	0.020068262
202	0xbdb38a17	-0.08766573
203	0xbda2a4db	-0.079416
204	0x3dbea34a	0.09308489
205	0x3d7c17a8	0.061545998
206	0xbddeca8c	-0.108784765
207	0xbe022d60	-0.12712622
208	0xbd5378f6	-0.05162903
209	0x3df3b803	0.11900332
210	0xbda596dc	-0.08085415
211	0x3dda4116	0.106569454
212	0xbddbbd20	-0.10729432
213	0xbdb0dfb4	-0.08636418
214	0x3b7fb3ba	0.0039017037
215	0xbd965f71	-0.07342423
216	0x3e054786	0.13015565
217	0x3aa457e5	0.0012538402
218	0xbd97eee7	-0.07418614
219	0x3cf4fbcc	0.029905222
220	0x3c96c408	0.018404022
221	0xbdbcdccf	-0.092218034
222	0x3dffe33d	0.12494514
223	0x3ccf8faa	0.025337059
224	0xbda4a104	-0.08038524
225	0x3deb308b	0.11483868
226	0x3dbdd1c5	0.09268526
227	0x3d9292ad	0.071568824
228	0xbd69a5ad	-0.057042766
229	0xb9b6a70d	-0.00034838208
230	0xbd0719c3	-0.032983553
231	0x3cab9ab7	0.020947797
232	0xbd8d9495	-0.069131054
233	0xbd0e3a3b	-0.0347235
234	0x3dd5de61	0.10442806
235	0x3d80fc32	0.062981024
236	0xbd2a2ab0	-0.041544616
237	0x3d22a41d	0.039707292
238	0xbd90db60	-0.070730925
239	0x3da1a49f	0.07892727
240	0x3d42cf80	0.04756117
241	0x3dd2a21e	0.10284828
242	0xbdc60576	-0.0966901
243	0x3a691618	0.0008891537
244	0xbc4b3200	-0.012402058
245	0x3db9ae20	0.09066415
246	0xbc7e6969	-0.015528061
247	0x3d9cc0a0	0.07653928
248	0x3de70c80	0.11281681
249	0xbd9ea23a	-0.07745786
250	0xbd8b37d1	-0.067977555
251	0xbd38fffa	-0.045165993
252	0xbd37c235	-0.044862945
253	0x3cba32be	0.022729274
254	0x3ddb55f2	0.10709752
255	0x3dc95670	0.0983094

bias f4 [64]
0	0x3bb97089	0.005659167
1	0x3a386d63	0.0007035343
2	0x399d3579	0.00029985214
3	0x3adaba4a	0.0016687599
4	0xbc56620f	-0.013084902
5	0x3ac21f2b	0.0014810314
6	0x3929d6be	0.00016197094
7	0x3c0df293	0.008663791
8	0xbb236556	-0.0024932227
9	0x3b4fbba6	0.003169754
10	0xbbca8b05	-0.006181123
11	0x388f5c21	6.835932e-05
12	0xbaa655c2	-0.0012690353
13	0xbbf9555e	-0.0076090535
14	0xba821338	-0.000992394
15	0x37f42bc5	2.9107448e-05
16	0x3c026102	0.007957699
17	0x38de4f00	0.000106005
18	0xbbc719bc	-0.006076066
19	0x3b844325	0.0040363246
20	0xb9e398c5	-0.00043410636
21	0xba6757b8	-0.0008825022
22	0x3c685593	0.014180559
23	0x3c0e55af	0.008687421
24	0xbb994aa8	-0.004678089
25	0x3b9443e5	0.004524695
26	0x3a7fc5da	0.000975696
27	0xbc035e73	-0.008018124
28	0xbb63a067	-0.0034733058
29	0xbbc55b09	-0.006022815
30	0x3b211619	0.0024579822
31	0xbaab6583	-0.0013076517
32	0x3ad7c32d	0.0016461365
33	0x3b7b8539	0.0038378967
34	0x37f8f861	2.9679564e-05
35	0x3ba62413	0.0050702184
36	0x3bd0d641	0.0063731973
37	0xbbc3d461	-0.0059762453
38	0x3acc44c1	0.0015584455
39	0xbc595bef	-0.013266548
40	0x3bafddb8	0.005367007
41	0xba49c223	-0.000769647
42	0xbba6918e	-0.0050832694
43	0x3b70a617	0.003672009
44	0x3b997818	0.0046835057
45	0xbbb5df64	-0.005550312
46	0x3b05feed	0.0020446137
47	0x3a047fb9	0.00050544325
48	0x3809affa	3.2827236e-05
49	0x3b426f5b	0.0029668424
50	0x3c467ba5	0.01211444
51	0xbb2494b1	-0.002511304
52	0xbb489c39	-0.0030610694
53	0x393bb189	0.00017899847
54	0x3b1719c9	0.002305614
55	0x3b358b00	0.0027701259
56	0x3bf04c6c	0.007333329
57	0xbbf356af	-0.007426105
58	0x3b8df671	0.0043323566
59	0xbbd9c474	-0.0066457335
60	0xbc1dc5fa	-0.009629721
61	0x3c0b77e1	0.008512468
62	0x386b8b0b	5.615786e-05
63	0x3bf941d7	0.0076067257

weight f4 [256, 64]
0	0x3dace597	0.08442228
1	0xbdccb1aa	-0.09994824
2	0xbdaad9d9	-0.083423324
3	0x3deb0045	0.11474661
4	0xbdcb7ea9	-0.09936268
5	0x3d9d792f	0.076891296
6	0xbd210f98	-0.039321512
7	0xbd85375c	-0.065046996
8	0x3d9e6d0c	0.07735643
9	0xbc094279	-0.008377665
10	0x3a30b8ce	0.0006741405
11	0xbdb4fe65	-0.088375844
12	0x3bf7c45c	0.0075612497
13	0xbc7ed500	-0.015553713
14	0x3d7aa7f6	0.061195336
15	0x3dcbdf96	0.09954755
16	0xbd80fb7c	-0.06297967
17	0xbd54b923	-0.051934373
18	0xbde3f63b	-0.11130949
19	0x3ca0112f	0.019539444
20	0xbda7d581	-0.081950195
21	0xbd7b4951	-0.061349217
22	0xbda0a3a8	-0.07843715
23	0xbcd2625e	-0.02568167
24	0x3d890f1c	0.06692335
25	0x3e02ed1e	0.12785766
26	0x3d7a8387	0.06116059
27	0x3d32aaf3	0.04362006
28	0xbd3b8d8f	-0.045789298
29	0x3d88c0b6	0.06677382
30	0x3d4b56b9	0.049643252
31	0xbcf16ab4	-0.029469825
32	0x3c9bc0ed	0.019012893
33	0xbc973430	-0.018457502
34	0x3d933b37	0.07189029
35	0xbdc7c65e	-0.097546324
36	0x3d7cea38	0.061746806
37	0x3ce0bb8d	0.027433181
38	0x3dc9b847	0.09849601
39	0x3d02b44c	0.031910226
40	0xbd764b19	-0.060130212
41	0x3de75a07	0.11296468
42	0x3d826a2d	0.06367908
43	0x3d9212ac	0.07132468
44	0xbd3a6124	-0.045502797
45	0x3b27c566	0.0025599836
46	0xbc8c1b73	-0.017102933
47	0xbc2d78a1	-0.010587842
48	0x3ce48f4d	0.027900362
49	0xbde07db0	-0.10961473
50	0xbd9c79d2	-0.07640423
51	0x3c0cf9b6	0.008604458
52	0xbdc9bea4	-0.09850815
53	0xbdafb0a0	-0.085786104
54	0xbcd3c76d	-0.02585193
55	0x3cdabb62	0.02670068
56	0x3ca7d76b	0.020488461
57	0x3de88550	0.11353552
58	0xbc6e2e85	-0.014537458
59	0xbc83d023	-0.016090458
60	0x3c99db8f	0.018781452
61	0x3c38e7a0	0.011285692
62	0xbd9edc34	-0.07756844
63	0x3de1c7dc	0.11024448
64	0x3c1c8dd3	0.009555298
65	0xbcd61e3b	-0.026137462
66	0x3df9baca	0.1219383
67	0xbd253249	-0.04033116
68	0xbd7bcec9	-0.061476503
69	0x3bcb0653	0.0061958223
70	0xbd6d4ce5	-0.05793466
71	0xbd7545bf	-0.05988097
72	0x3df307ab	0.11866697
73	0xbd1b2ea5	-0.03788628
74	0xbd584341	-0.052798513
75	0xbce3f4cd	-0.027826691
76	0xbd78f6fe	-0.060782425
77	0xbcf5571c	-0.029948764
78	0xbdd32c13	-0.10311141
79	0xbdc68fa8	-0.09695369
80	0xbd206fe9	-0.039169226
81	0x3d52f8e9	0.05150691
82	0xbd5baccc	-0.05363159
83	0xbc68eea5	-0.014217054
84	0x3dd1dce3	0.10247209
85	0xbd4a5e8a	-0.049406566
86	0xbd891f74	-0.06695452
87	0xbdb943ca	-0.09046133
88	0xbcf0db2b	-0.029401382
89	0x3d6abbde	0.05730807
90	0x3d9448db	0.072404586
91	0x3d3134aa	0.043263115
92	0x3d14cfbd	0.036330927
93	0xbbf43963	-0.00745313
94	0xbcf02e83	-0.029319054
95	0xbd634f6c	-0.055495664
96	0x3ce2b286	0.027673017
97	0x3da65b9a	0.0812294
98	0x3d392408	0.045200378
99	0xbdc81e43	-0.09771397
100	0x3dad8f80	0.08474636
101	0x3c48ab12	0.012247818
102	0xbd3fc4f5	-0.046818692
103	0xbdf06982	-0.11738874
104	0x3bf0dafe	0.0073503247
105	0x3d4827f3	0.048866224
106	0xbd2ebe73	-0.042662095
107	0x3d15f7a9	0.03661314
108	0xbbd0c9f3	-0.0063717305
109	0xbdf874b8	-0.12131637
110	0x3ca3b798	0.019985005
111	0x3dd65a20	0.10466409
112	0x3c8b5a7c	0.01701092
113	0x3cf87a3e	0.030331727
114	0xbdf75d58	-0.12078351
115	0x3d8694ca	0.06571348
116	0xbd3847d4	-0.044990376
117	0x3da28f9f	0.0793755
118	0xbc9a9da2	-0.018873993
119	0xbd03d5dc	-0.032186374
120	0xbcf3fa3c	-0.029782407
121	0x3d929295	0.071568646
122	0x3d5a34f3	0.053273153
123	0xbc9ed6b1	-0.019389482
124	0xbd7cca70	-0.061716497
125	0x3d5510cb	0.05201797
126	0x3cb66636	0.022265535
127	0xbd31abd9	-0.043376777
128	0x3d92c486	0.0716639
129	0xbd8aaa04	-0.06770709
130	0xbd8a9444	-0.06766561
131	0x3d031a3b	0.032007437
132	0xbcf97cb4	-0.03045497
133	0x3c2908f3	0.010317075
134	0xbccde754	-0.02513472
135	0xbd8ed885	-0.069748916
136	0xbdcfc9be	-0.10145901
137	0xbd5cc536	-0.053899013
138	0xbc968903	-0.01837588
139	0xbd94f0c2	-0.072724834
140	0xbd9bfb43	-0.07616284
141	0x3db84b78	0.089987695
142	0xbcd94552	-0.026522312
143	0x3d07b018	0.03312692
144	0x3deb990d	0.115038015
145	0x3d846bc6	0.06465869
146	0x3d0f4730	0.03498
147	0x3cc53a04	0.024075516
148	0x3dd7b28c	0.10532102
149	0x3dfa00bc	0.12207171
150	0x3cbc7ee4	0.023009725
151	0x3bcc837b	0.0062412596
152	0xbde9bbe1	-0.11412788
153	0xbcac02b0	-0.020997375
154	0x3d926a37	0.07149165
155	0x3d6f1635	0.058370788
156	0xbb14c4c1	-0.0022700282
157	0x3dac3bfa	0.08409877
158	0xbd615ccb	-0.055020135
159	0x3b7d8171	0.003868189
160	0x3dd7a37d	0.1052923
161	0x3ce8d201	0.02842045
162	0x3cd06dda	0.025443006
163	0x3de9c575	0.11414615
164	0x3db4e410	0.08832562
165	0xbd60721d	-0.054796327
166	0xbdaac66d	-0.08338628
167	0x3da666b6	0.08125059
168	0xbcffa78c	-0.031207822
169	0xbd407168	-0.046983153
170	0x3d9706d2	0.07374348
171	0xbd976524	-0.07392338
172	0xbdc077e3	-0.093978666
173	0xbdb5518e	-0.08853446
174	0xbc1725d5	-0.009225328
175	0x3e03a737	0.12856756
176	0xbd217671	-0.039419595
177	0xbd146c98	-0.036236376
178	0x3d5bfe10	0.05370909
179	0x3cc88adf	0.024480281
180	0xbb8750be	-0.0041294983
181	0x39f7617e	0.0004718415
182	0x3c90ff61	0.0176999
183	0x3dbff8ec	0.0937365
184	0x3c1fe4c2	0.00975913
185	0x3de2c78b	0.11073216
186	0xbc1ec033	-0.009689379
187	0x3d5fe6c6	0.054663442
188	0xbdd08bdc	-0.10182926
189	0xbdcd5912	-0.100267544
190	0xbcfec890	-0.031101495
191	0xbd0cfcf9	-0.03442094
192	0xbdabd2f2	-0.08389844
193	0x3cbd471a	0.023105193
194	0x3d726746	0.05918052
195	0x3d726659	0.059179638
196	0x3dd83553	0.10557046
197	0xbd1ccd44	-0.038281694
198	0xbd0eaffd	-0.034835804
199	0xbe126b17	-0.14298664
200	0x3da2cca7	0.079491906
201	0x3cda2fa5	0.026634047
202	0x3d6505e6	0.05591383
203	0xbd7d7375	-0.061877687
204	0xbcdaf3f2	-0.02672765
205	0x3d3ee5e0	0.046605945
206	0xbda9a7d1	-0.082839616
207	0x3dfff9cb	0.12498816
208	0xbddce4ad	-0.10785804
209	0xbd947333	-0.07248535
210	0x3d941cdd	0.07232068
211	0x3c8fb021	0.01754004
212	0xbd8840e2	-0.066530004
213	0x3d42d509	0.047566447
214	0xbd779df6	-0.060453378
215	0x3df7394e	0.12071477
216	0x3d231211	0.03981215
217	0xbd8cd9c2	-0.068774715
218	0xbcafa2e3	-0.021439975
219	0x3dfc09a3	0.123065256
220	0x3d43df30	0.04782027
221	0x3da51a86	0.080616996
222	0xbdcaa805	-0.098953284
223	0xbd628769	-0.05530492
224	0x3dc4c1d0	0.09607279
225	0x3d6ba239	0.057527754
226	0xbac3f80c	-0.0014951243
227	0xbcee3a8f	-0.029080657
228	0xbdc43aaf	-0.095815055
229	0x3d83e55a	0.0644023
230	0xbde10b7e	-0.1098852
231	0xbd611393	-0.054950308
232	0x3c3ac435	0.011399318
233	0x3da4dd11	0.080499776
234	0x3d0efa8b	0.034906905
235	0xbe15bccf	-0.14622806
236	0xbd8c1c20	-0.06841302
237	0xbdae571c	-0.085127085
238	0xbda9e1d4	-0.082950264
239	0xbdf31a43	-0.118702434
240	0xbdc274c8	-0.094949305
241	0xbdf3e0dd	-0.11908124
242	0x3df2a127	0.118471436
243	0xbd9de68f	-0.07709991
244	0xbd712389	-0.05887178
245	0x3d09ac3b	0.033611517
246	0xbde81e9f	-0.113339655
247	0xbcc03fe6	-0.02346797
248	0x3dd02eb0	0.10165155
249	0xbdd52b37	-0.10408633
250	0x3e01a882	0.12661937
251	0x3dc83848	0.0977636
252	0x3d4fab02	0.050700195
253	0x3de258e1	0.110521086
254	0x3b518bff	0.0031974313
255	0xbdddcc2a	-0.10829957

bias f4 [256]
0	0x3d1dcf1f	0.038527604
1	0xbc3727d9	-0.011178934
2	0x3dfa94cd	0.12235413
3	0x3d839c82	0.06426336
4	0xbd9f9b3d	-0.07793281
5	0xbdd93ce1	-0.10607315
6	0xbd85a743	-0.06526043
7	0xbcba945f	-0.022775827
8	0xbd363006	-0.044479392
9	0xbd506342	-0.05087591
10	0xbdc45c4d	-0.095879175
11	0xbd970755	-0.07374445
12	0xbabad2c2	-0.0014253485
13	0xbe029641	-0.1275263
14	0x3dcb29cd	0.09920082
15	0xbb640e42	-0.0034798537
16	0xbdc0483a	-0.09388776
17	0xbda3bcff	-0.079950325
18	0x3dbd3abd	0.09239719
19	0xbdcae3f4	-0.0990676
20	0x3d581673	0.052755784
21	0xbc73e2ab	-0.014885585
22	0x3da0758d	0.07834921
23	0x3d44e358	0.048068374
24	0xbc14848d	-0.009064806
25	0x3d9cc3eb	0.07654556
26	0xbdd5761a	-0.10422917
27	0xbdfc1f7e	-0.12310694
28	0x3dc93629	0.09824783
29	0x3ce8ec72	0.028433058
30	0x3d93d1c4	0.07217744
31	0xbc64e38f	-0.01397027
32	0x3dc59b62	0.096487775
33	0x3e00af87	0.12566958
34	0x3cef6721	0.02922398
35	0x3d406db1	0.04697961
36	0x3de2bdd9	0.11071367
37	0xbd8d7270	-0.06906593
38	0x3d7fd1dc	0.062455997
39	0xbd3d62df	-0.04623687
40	0x3d2795c3	0.04091431
41	0xbdc32f6b	-0.09530529
42	0xbc7defc8	-0.015499063
43	0x3dc581cd	0.09643898
44	0x3d9e050e	0.07715808
45	0x3c62e92a	0.013849536
46	0x3db0ec1f	0.086387865
47	0xbba0ed76	-0.00491112
48	0xbd6694f1	-0.056294385
49	0xbd825e16	-0.06365602
50	0x3db527fa	0.088455155
51	0xbd30caec	-0.04316227
52	0xbd72194f	-0.059106167
53	0x3dc53cdd	0.096307494
54	0x3d76d761	0.060263995
55	0x3d0cfba6	0.03441968
56	0x3c6a7fbb	0.01431268
57	0x3cfbc482	0.03073335
58	0x3b87b88b	0.0041418723
59	0xbcdb8da3	-0.026800936
60	0xbcc9bb61	-0.024625482
61	0x3db59a2c	0.088672966
62	0xbdfbcd61	-0.12295032
63	0x3d8cbde3	0.068721555
64	0xbdb3e699	-0.087842174
65	0xbde47237	-0.11154597
66	0x3db2e6a9	0.08735401
67	0x3dd19b59	0.10234708
68	0xbdfa7fa4	-0.12231377
69	0xba804fcb	-0.0009789405
70	0x3df3ac09	0.118980475
71	0xbca65bbb	-0.020307412
72	0x3d35f7ba	0.044425704
73	0xbe009ab5	-0.12559016
74	0xbcf46d53	-0.029837286
75	0xbd7178c4	-0.05895306
76	0x3dab5ba6	0.0836709
77	0x3d36f35d	0.044665683
78	0x3c9664e3	0.018358653
79	0xbcf79b26	-0.030225348
80	0x3d066493	0.03281076
81	0x3c0fc2d8	0.008774482
82	0x3dc8dc7b	0.09807678
83	0xbdddc2af	-0.108281486
84	0xbe10134d	-0.14069863
85	0x3dbc2ea8	0.091885865
86	0xbbc2d4bd	-0.0059457705
87	0x3def9e87	0.117001586
88	0x3dbf7719	0.09348888
89	0xbd181267	-0.037126925
90	0x3cdb8d72	0.026800845
91	0x3d6ec70e	0.058295302
92	0x3ca4b21b	0.020104459
93	0xbd88f8d3	-0.066880845
94	0x3ba82305	0.005131128
95	0xbd7e02b2	-0.06201429
96	0xbdfd1493	-0.1235744
97	0x3d697ccf	0.057003792
98	0xbc1a35d8	-0.009412251
99	0xbcc5b9e6	-0.024136495
100	0xbd81c6c5	-0.063367404
101	0xbdb340d0	-0.087525964
102	0xbd1a7728	-0.037711293
103	0xbe02f25c	-0.12787765
104	0x3d9e5fba	0.07733102
105	0x3d57e9e6	0.052713297
106	0xbddb208b	-0.106995665
107	0xbdb3a008	-0.08770758
108	0xbce2131a	-0.027596999
109	0x3d15cda8	0.036573082
110	0x3df0b49f	0.11753201
111	0x3df13a5d	0.1177871
112	0x3d6ffc4e	0.058590226
113	0xbde75965	-0.112963475
114	0xbbe058da	-0.0068465294
115	0xbca149d6	-0.019688528
116	0x3ace607b	0.0015745306
117	0x3bf053b4	0.007334197
118	0x3de8b844	0.11363271
119	0x3d4163ce	0.04721432
120	0xbc984cad	-0.01859125
121	0x3db4d614	0.08829895
122	0xbd99e63a	-0.07514615
123	0xbd487bee	-0.048946314
124	0x3d711711	0.05885989
125	0xbd29bf11	-0.04144198
126	0xbd8a335f	-0.067480795
127	0x3d965c02	0.07341768
128	0x3a2193eb	0.0006163704
129	0xbdd07b38	-0.10179752
130	0x3d2e7e9a	0.042601205
131	0x3da31153	0.07962289
132	0x3dd7ab1e	0.10530685
133	0xbc022421	-0.007943184
134	0xbd99fa79	-0.07518477
135	0xbc24bec4	-0.010055248
136	0xbdd12bfd	-0.10213468
137	0x3d9c2c52	0.07625641
138	0x3da37ec9	0.07983167
139	0x3c221fba	0.0098952595
140	0xbd1e16f9	-0.038596127
141	0xbdb9cb06	-0.09071927
142	0x3d08dd7a	0.03341434
143	0x3d87e6e7	0.06635838
144	0x3e026914	0.12735397
145	0x3d40b249	0.047045026
146	0xbda7f68a	-0.082013205
147	0x3d8e20f1	0.06939877
148	0xbd0549e7	-0.032541182
149	0x3d829d58	0.06377667
150	0x3daafd3f	0.08349084
151	0xbd4efe50	-0.0505355
152	0xbe022faf	-0.12713502
153	0x3d036a58	0.03208384
154	0x3dd761e0	0.10516715
155	0x3c1f3286	0.009716636
156	0x3d86b03a	0.06576581
157	0x3dcf34c0	0.10117483
158	0xbdf35335	-0.11881105
159	0x3c08ef4b	0.008357833
160	0xbdeb1ef7	-0.114805155
161	0xbdb2ecff	-0.0873661
162	0xbc9ca05a	-0.01911943
163	0x3d390d4f	0.045178708
164	0x3de4a6ba	0.11164613
165	0x3bdcee14	0.0067422483
166	0x3c95e064	0.018295474
167	0x3dc77588	0.09739214
168	0x3dafac62	0.08577801
169	0x3db426a9	0.08796436
170	0x3d64937a	0.055804707
171	0x3d70044b	0.058597844
172	0x3bfc6b1d	0.0077031986
173	0xbd5b01f0	-0.053468645
174	0x3d58f105	0.05296423
175	0x3d8e0559	0.06934614
176	0xbc660b85	-0.014040832
177	0xbd90b4c4	-0.07065728
178	0x3cf5cd6c	0.03000518
179	0x3d8722c5	0.06598429
180	0xbd437e50	-0.047727883
181	0x3d81dc80	0.06340885
182	0x3ddb38b7	0.10704177
183	0xbd45eef5	-0.04832359
184	0xbdbf743c	-0.09348342
185	0xbc574ba4	-0.013140593
186	0xbb3eb975	-0.002910224
187	0x3a3cef7f	0.00072073186
188	0xbae6cca3	-0.0017608594
189	0x3dd840a9	0.10559208
190	0x3da25d64	0.07927969
191	0xbd35fa25	-0.04442801
192	0xbd8082d7	-0.06274956
193	0xbca7ac85	-0.020468006
194	0xbd5a5ee0	-0.053313136
195	0xbdaf2b3e	-0.0855317
196	0x3dad5336	0.08463137
197	0xbd70a402	-0.05875016
198	0x3d26363e	0.040579073
199	0x3db9100e	0.09036265
200	0xbdc5ee44	-0.09664586
201	0x3d8529d0	0.06502116
202	0x3dad7f0f	0.084715
203	0xbdc2acd2	-0.09505619
204	0xbc850699	-0.016238498
205	0x3b9aba2d	0.004721901
206	0xbdd8ea02	-0.105915084
207	0x3dfb7394	0.12277904
208	0x3d759d2a	0.059964336
209	0x3d4947ad	0.04914062
210	0x3de711de	0.11282705
211	0xbd690012	-0.056884833
212	0xbdb91fa1	-0.09039236
213	0xbde8fdd1	-0.11376537
214	0xbd091d9d	-0.033475507
215	0xbd2131a0	-0.039353967
216	0x3bf32d21	0.0074211513
217	0xbcc50128	-0.024048403
218	0xbe0955fa	-0.13411704
219	0x3d2ecc39	0.04267523
220	0xbd949eac	-0.07256827
221	0xbd1ab0fa	-0.037766434
222	0x3d528aab	0.051401775
223	0xbce2aee4	-0.027671285
224	0x3d0fba10	0.035089552
225	0xbda8f049	-0.08248956
226	0xbb3dd99b	-0.0028968814
227	0xbccf3176	-0.02529214
228	0x3d9938e7	0.074815564
229	0xbd882469	-0.0664757
230	0xbd737302	-0.059435852
231	0xbde9f8b0	-0.114243865
232	0x3d9e61a1	0.07733465
233	0x3dc04fdd	0.09390233
234	0xbd96c5aa	-0.0736192
235	0xbc2434e5	-0.010022377
236	0xbd26ba08	-0.040704757
237	0x3d27dfa0	0.04098475
238	0xbdf0b934	-0.11754075
239	0xbdfd7315	-0.12375466
240	0x3c1c15bb	0.009526665
241	0x3d2df9d8	0.042474598
242	0xbda10ac0	-0.078633785
243	0xbc7847bf	-0.015153824
244	0x3de4bf9d	0.1116936
245	0x3bbffec5	0.0058592283
246	0x3dd06891	0.101761945
247	0x3d77185d	0.06032597
248	0x3d2f05fd	0.04273032
249	0x3de44dd9	0.11147661
250	0xbd123ec4	-0.03570439
251	0x3d79cd55	0.060986836
252	0xbcf97ace	-0.030454066
253	0xbdca4c61	-0.09877849
254	0x3bf15b3e	0.0073656132
255	0x3dbccea8	0.09219104
