ak_workspace/result_data/baseline_results/DG_Glut/mcg_genebody/imbal_model_3.pt (torch, 828614 bytes, 53 tensors)

cls_embedding f4 [1, 1, 64]
000000 de a6 e5 bf c0 00 49 bf c5 a0 26 bf 6b c1 1b 3e
       -1.7941549 -0.7851677 -0.65089065 0.15210502
000010 54 01 a7 bf 11 21 01 3f 97 35 eb be e5 16 e8 bf
       -1.304728 0.5044108 -0.45939323 -1.8131987
000020 a4 93 b8 3e 10 1c e7 3f 78 0a bd bf 02 e1 38 bc
       0.3605014 1.8055439 -1.476882 -0.011284115
000030 24 6c 59 bf ac c3 74 bd 56 27 c6 bf 6c 86 d3 be
       -0.84930634 -0.05975692 -1.5480754 -0.41313493
000040 d9 da f2 be 78 53 e6 bf e5 b8 6f 3f 8c 73 ce be
       -0.47432593 -1.7994223 0.936415 -0.4032253
000050 2b 8a 99 bf 8a a1 45 3b 0f b7 a8 be 46 4a 5a bf
       -1.199529 0.00301561 -0.32952163 -0.8526958
000060 af 0e 56 3e b5 24 65 bf 1b 7c e3 be 87 93 bb be
       0.20904039 -0.89509135 -0.44430622 -0.36635992
000070 73 d1 a8 3e 29 43 97 3f 02 29 ba 3e 1c 54 eb be
       0.32972297 1.1817371 0.3635941 -0.45962608
000080 ff 10 90 3f 4f 94 15 40 10 e6 66 3e 97 39 fe 3e
       1.1255187 2.337177 0.225487 0.49653313
000090 88 56 f7 3f 94 20 d3 3f 79 d1 bb 3d 23 06 fb bd
       1.9323282 1.6494317 0.09170813 -0.1225703
0000a0 c0 cc d9 3e 5f 8c 9f bf be c0 ac be 90 d7 4d 3f
       0.42539024 -1.2464713 -0.337408 0.8040705
0000b0 2e 56 c4 3f 2f 46 65 3e 1b 76 f5 3f bf af 0d c0
       1.53388 0.22390054 1.9176668 -2.2138517
0000c0 fd 5e 7c 3f 8e 0f 85 3e 3a 26 db 3f 3c 19 49 3e
       0.9858244 0.2598843 1.7121041 0.19638532
0000d0 ce 00 02 c0 c8 b7 e3 3e f2 37 7d bf a7 d8 a0 3f
       -2.031299 0.4447615 -0.9891349 1.2566117
0000e0 63 61 f3 be 76 c8 90 3f ae 05 de 3e 14 ec a6 be
       -0.47535238 1.1311176 0.43363708 -0.32601988
0000f0 30 f9 02 3e e6 b6 61 be 18 73 09 3f 4b e7 1f 3f
       0.1279037 -0.22042426 0.53691244 0.624623

weight f4 [64, 12]
000000 69 f7 76 3e f8 d9 95 bd e5 48 4f 3e a3 19 32 3e
       0.24117817 -0.07316965 0.20242651 0.17392592
000010 15 d9 1e bd 5a a3 65 be 04 47 8f be 54 08 0d 3d
       -0.038781244 -0.22425595 -0.27983868 0.03443177
000020 b9 94 08 bd 40 ec 48 bd fc 57 96 bd 86 6d 8d 3d
       -0.033344958 -0.04905343 -0.073410004 0.069056556
000030 3c e1 5a 3e b6 7b 5d 3e 76 d8 1c be 28 f1 de bd
       0.21374983 0.21629223 -0.15316948 -0.10885841
000040 5b e2 8e 3d c2 aa 91 3d 37 77 89 be 7e b5 60 3e
       0.06976768 0.071126476 -0.26848766 0.21944234
000050 11 b1 5e be 3a de 88 3e ca 80 86 be ec 22 bd bd
       -0.21747233 0.26732045 -0.26270133 -0.092351764
000060 41 95 1e be 5c 39 4a 3e ef b4 c8 bd 52 88 53 be
       -0.15486623 0.19748443 -0.09800135 -0.20657471
000070 1e 92 c8 bc 30 61 98 bc d0 86 a4 3d 06 90 63 3e
       -0.024483737 -0.01860103 0.08033526 0.2222291
000080 52 1b f9 3d 05 2e 85 3e 84 db 3c 3e 76 8a 63 be
       0.12163414 0.26011673 0.18443114 -0.22220787
000090 71 31 4d 3e b1 ab ec bd 8e 20 a3 bc b3 32 a9 bc
       0.20038392 -0.11556185 -0.019912984 -0.020654058
0000a0 3f 3b 7f be d0 50 37 3e a3 b6 1c 3e 98 f1 56 bd
       -0.24924944 0.17901921 0.15304045 -0.052476496
0000b0 cb f7 e8 3d 05 c0 2a be 46 68 da bc bf df 4a be
       0.11375388 -0.16674812 -0.02666105 -0.19811915
0000c0 10 94 10 3e ed 81 43 be 6f a7 47 be 19 fa 3b 3d
       0.14118981 -0.19092532 -0.19497465 0.04589281
0000d0 f5 64 c4 bd fb ac 0c 3e a8 32 6f 3e 1c db 1a 3e
       -0.095895685 0.13737862 0.23359168 0.15122646
0000e0 49 5e 92 3d 93 9d b9 bd 54 5c 82 be 06 de 34 3e
       0.0714689 -0.09063258 -0.25461066 0.1766282
0000f0 c0 23 44 bd ba 00 25 3e 2c d0 0a bd 7c 40 29 be
       -0.047885656 0.16113558 -0.033889934 -0.16528505
000100 ca d7 7f be 55 26 91 3e 2a 39 d5 3d e2 6e 1a be
       -0.2498466 0.28349558 0.10411294 -0.15081361
000110 08 a7 b9 bc 8e 82 95 bd 27 6b 5b be f6 1f f6 3d
       -0.022662655 -0.07300292 -0.21427594 0.12017815
000120 88 87 19 3e 9c f0 c8 3b b6 ce 24 3e 07 40 88 be
       0.14993107 0.0061321985 0.16094479 -0.2661135
000130 50 35 80 3e 1d 0d 85 3d 2d 3a 19 3e 99 a9 50 be
       0.25040674 0.06496642 0.14963599 -0.20377196
000140 6b 9a 65 3e 87 b1 ff bd fb de 31 3d 3c e7 01 be
       0.22422187 -0.124850325 0.04342554 -0.12685865
000150 e8 80 26 3e 49 ee 7e bd 50 06 8a 3d 45 4f 88 be
       0.16260111 -0.062238965 0.06739485 -0.26622978
000160 a6 68 cb bd ba a0 1a bc 99 6a 05 be f2 dd 63 be
       -0.099320695 -0.009437734 -0.13028945 -0.22252634
000170 63 c9 28 be b6 e9 ec bd 7c aa 98 3e f3 0d d0 bc
       -0.16483073 -0.11568014 0.2981757 -0.025397277
000180 41 58 25 be bb cd 53 be 2f 07 69 be 31 ce 75 bd
       -0.16146947 -0.20683949 -0.22756647 -0.060011093
000190 9f 37 9e bd aa 51 de bb 0c c7 52 3e fc c6 36 3e
       -0.07725453 -0.0067846375 0.20583743 0.17849344
0001a0 44 3f 03 be 3d 93 ca 3d ad 6a 7b 3e 35 45 d5 3d
       -0.12817103 0.09891365 0.24552412 0.10413591
0001b0 e2 0a 85 3e cd 78 40 be c2 db a3 bc f0 67 4c 3e
       0.25984865 -0.18796082 -0.02000225 0.19961524
0001c0 ac 79 39 be bb 46 80 bd 71 3a 93 be 0f 74 39 3e
       -0.1811282 -0.06263491 -0.28755525 0.18110679
0001d0 c2 89 61 3e 80 1a 10 be 53 64 4b b8 c7 3e 37 be
       0.22025207 -0.14072609 -4.8492406e-05 -0.17895041
0001e0 b8 d4 84 3e 0a dc 89 3d c6 ff 2a be 0e 53 7f be
       0.25943542 0.06731422 -0.16699132 -0.24934027
0001f0 18 d5 70 be 26 ab 10 be e9 9a 84 bd 68 5a 28 be
       -0.23518789 -0.14127788 -0.06474859 -0.16440737
000200 12 6d 11 bc 7a ac 6a 3e 86 29 53 3e a9 8b 03 be
       -0.008876102 0.22917357 0.20621309 -0.12846245
000210 c5 01 40 3e 65 a2 4b be 62 a4 83 3e 24 a4 af bd
       0.18750675 -0.19886167 0.25711352 -0.08576229
000220 48 3f dd 3d 4f 1f 6b bd 30 84 97 be 0b 11 c6 3d
       0.108030856 -0.057402905 -0.2959304 0.096712194
000230 77 dc 13 3e 0a 2f 20 3e 55 b3 18 be 63 f4 65 3e
       0.1443957 0.15642944 -0.1491216 0.22456507
000240 d6 2b 7c 3e 98 c7 0e bd c7 71 8c be 0d 21 eb 3d
       0.24626097 -0.034858316 -0.27430555 0.11480913
000250 a8 f3 8f 3d 43 64 4d bd 1e 53 63 be 3c cc 15 3c
       0.070288956 -0.050144445 -0.22199675 0.009142932
000260 14 b0 15 3e 8c 0c 82 be c7 ca 25 3d 9d 31 78 bd
       0.1461795 -0.25400198 0.040476587 -0.06059419
000270 47 bb 7a 3e f6 fa 79 3c ea 37 28 be b6 38 73 3e
       0.24485503 0.015257588 -0.1642758 0.23752102
000280 77 aa c2 3c c8 11 1b 3e 2b e1 f4 bc 07 51 ea 3d
       0.023762925 0.15143502 -0.029892525 0.11441236
000290 39 a0 de 3d ed 48 25 3d b6 f5 9f bd e4 34 8b 3e
       0.10870404 0.04035275 -0.078105375 0.2718879
0002a0 d6 2a 5a 3c 88 11 58 bc 27 66 8f 3e 58 eb 8f bc
       0.013315877 -0.0131877735 0.28007624 -0.017568275
0002b0 11 da 9a bd 47 c6 d3 3b 44 3f d4 3d c8 e5 97 be
       -0.07561124 0.0064628455 0.103636295 -0.29667497
0002c0 8c 5b 3f bd 88 f5 6c 3e de f0 8b bc ac a6 88 3e
       -0.046718165 0.23140538 -0.017082628 0.2668966
0002d0 19 a1 fa 3d 53 50 6e 3d 68 2f 83 3b da 52 33 3e
       0.12237758 0.058182072 0.004003454 0.17512074
0002e0 b4 83 8e bd db bd da bc aa 05 8d be 6b 6c 2c 3d
       -0.06958714 -0.026701858 -0.27543384 0.042095583
0002f0 c5 a5 5d 3d b8 41 33 3e 2b 88 74 3d ed 41 3c bd
       0.05411317 0.17505538 0.059700172 -0.04596131
000300 ad 5c 83 bd 28 1f 16 be 90 fe 71 be db b3 1a be
       -0.06414161 -0.14660323 -0.23632264 -0.15107672
000310 42 84 72 3e 78 ba c8 bd 69 96 a4 3d f1 31 86 be
       0.23683265 -0.09801191 0.08036501 -0.26209977
000320 96 bd e8 3d ea a0 2b 3e 6b 31 60 be bf 30 4a 3d
       0.11364286 0.16760603 -0.21893851 0.049362894
000330 f4 bd ab bd 48 b2 a4 3d 7f 29 fa bd a8 e8 8e 3e
       -0.0838584 0.08041817 -0.12214946 0.27911878
000340 94 ff a3 bd b7 b1 8b be 65 98 7b be 08 61 de bd
       -0.08007732 -0.27284023 -0.24569853 -0.10858351
000350 27 09 5f 3d cb 1e e7 3d 50 e6 97 3c 41 e6 0f bd
       0.054452088 0.1128517 0.018542439 -0.035131697
000360 13 8a 88 be 8b 31 4b 3e 8e dd aa 3c 97 30 48 3e
       -0.26667842 0.19843118 0.020857599 0.19549786
000370 d2 0c 71 bd 95 ca 7f be 51 fb 5a 3e bb bf 06 be
       -0.058850117 -0.24979623 0.21384932 -0.13159077
000380 ef 6f c9 bd 7a a9 1f bd 7c e5 75 ba 3c a6 44 be
       -0.09835803 -0.038979985 -0.0009380204 -0.19204038
000390 98 bf c2 bd ef a2 1b 3d c8 c3 c3 3d 76 53 8c be
       -0.095092 0.037997182 0.09558827 -0.27407426
0003a0 c1 c0 62 be 78 85 60 3d af 57 ae bc 45 9d 1d be
       -0.22143842 0.054814786 -0.021282045 -0.15392025
0003b0 9a dd 76 3e b3 82 89 3d f9 63 a7 3d 95 5a 68 bc
       0.24107972 0.06714382 0.08173365 -0.014181753
0003c0 60 33 4d 3e cb 63 e5 bc 8a 6e 4e be 75 b5 3d 3d
       0.2003913 -0.028001687 -0.20159355 0.04631563
0003d0 62 24 78 be 6d 5d a2 bc 43 50 e9 3c 17 ea 64 be
       -0.24232629 -0.01981994 0.028480655 -0.22354923
0003e0 87 00 31 bd 86 4e 7d 3e 25 e6 4f 3e 6d b0 00 be
       -0.043213394 0.24736986 0.20302637 -0.12567301
0003f0 6d a0 80 3e 38 28 63 be 7c 8d 40 be 26 9f 59 be
       0.25122395 -0.22183311 -0.18803972 -0.21252117

bias f4 [64]
000000 48 99 8d be 85 0b b5 bd 1b 31 4a 3d 5f ef d5 bd
       -0.27656007 -0.08840088 0.049363237 -0.10446047
000010 27 9e 45 3e 58 1f 89 3e ea 4d 50 be ab 5b 03 be
       0.19298612 0.26781726 -0.20342222 -0.12827937
000020 0d 5a 2a 3e 01 49 91 bd 0b ba ce bd b3 74 23 3e
       0.16635914 -0.070940025 -0.10094079 0.15962486
000030 4c 2e 53 3d 3b 8b b8 bd 2b 88 0a 3d 7c c8 9a bc
       0.051557824 -0.09010931 0.033821266 -0.018894427
000040 e2 b3 43 3e e9 3c 23 3e 9d e0 20 bd a8 19 11 3d
       0.19111589 0.15941204 -0.039276708 0.03542486
000050 6f 9d 0c be 12 5e 8d 3d 05 65 09 3d 16 23 e4 bd
       -0.13731931 0.06902708 0.033543605 -0.111395046
000060 57 fc ed bd 60 45 58 3e 4a 74 1e 3e 25 70 3a be
       -0.11620396 0.21120214 0.15474048 -0.18206842
000070 30 c2 44 be 61 49 35 3e 42 28 34 3b 6f 0f 5e 3d
       -0.19214702 0.17703773 0.0027489816 0.054213937
000080 ca 61 7d 3d 19 8f 7a 3e 7f be 8c 3d ce c3 1a bc
       0.061860837 0.2446865 0.06872272 -0.009446098
000090 2c 3e 67 be a5 d1 36 be 40 3a 52 bd 5c ce 40 3e
       -0.2258231 -0.1785341 -0.051325083 0.1882872
0000a0 2c fd 00 be 78 a7 de bd db f8 4e 3d 72 cd d6 36
       -0.12596577 -0.10871786 0.050530296 6.401614e-06
0000b0 4b 18 8b be 09 01 27 3e 15 38 2f 3e cb 4b d4 3d
       -0.27166972 0.16308989 0.17111237 0.10366019
0000c0 fb 02 3c bd 49 71 95 bd dc 8b 1b 3a ac 3c 29 3e
       -0.04590128 -0.07296998 0.00059336214 0.1652705
0000d0 8a 86 4e 3d 16 92 a1 bd 74 a9 e5 3d 1b 8d 08 3d
       0.050421275 -0.07889192 0.11213961 0.033337694
0000e0 74 b3 3a 3e bc 38 7d 3e fe c6 77 3b 75 95 a3 bd
       0.18232518 0.24728674 0.0037807818 -0.07987491
0000f0 31 74 a1 bc 89 f0 55 3e 67 35 ec 3d 89 67 50 be
       -0.019708725 0.20892538 0.11533623 -0.20351996

in_proj_weight f4 [192, 64]
000000 c9 c9 17 3d cc 98 07 3e c7 a2 2a bd 44 d1 f2 bd
       0.03705767 0.13241881 -0.041659143 -0.118563205
000010 05 06 a9 bd 73 15 50 bd 7b b3 33 bd 78 82 01 3e
       -0.08253101 -0.050801706 -0.043872338 0.12647426
000020 16 66 28 3d d5 df 0f 3e 26 05 fd bd c8 11 a0 3d
       0.04111298 0.14050229 -0.123544976 0.078158915
000030 b0 02 bd 3d 84 9e b2 bd 84 38 64 bc 76 4c a6 bc
       0.09229028 -0.08721641 -0.01392949 -0.020300131
000040 a0 0f ea 3a d3 c2 b4 bd 8d 03 89 bb 79 47 b8 3d
       0.001785744 -0.08826222 -0.0041813315 0.08998007
000050 f8 89 4e 3c 7b 6d 00 3d 9b 8c 08 be 34 04 b7 3d
       0.0126061365 0.03135441 -0.13334887 0.089363486
000060 d3 62 21 be cf 6a 20 3e 41 07 b7 3d 80 32 a3 3d
       -0.15760355 0.15665744 0.089369304 0.079686165
000070 7e c7 0e be b2 b6 ac 3d 7f b4 cc bd 91 93 5f bc
       -0.13943288 0.08433284 -0.099953644 -0.013646022
000080 61 3a d4 3c 7c 73 11 3d 57 02 55 bd 89 18 25 3b
       0.025906743 0.035510525 -0.052004185 0.0025191626
000090 cc 7a c1 3d 04 59 3c 3d 83 5b 8e bd db 78 07 bd
       0.0944725 0.04598333 -0.06951048 -0.03307424
0000a0 ea a9 4c bc 1f 01 be 3c cb c1 7f bd be 31 9c 3b
       -0.012491683 0.023193894 -0.062440675 0.004766672
0000b0 b4 7f e6 bd 46 02 78 bc a8 f4 95 3d be 64 05 3d
       -0.11254826 -0.015137261 0.07322055 0.03256678
0000c0 c9 5d ea bd 4d a2 2b be 81 c2 9b ba 5b 31 e6 bd
       -0.11443669 -0.16761132 -0.0011883528 -0.112398826
0000d0 19 71 b7 bd 60 ae b6 bd 5a 04 ca 3d f6 60 39 3d
       -0.089571185 -0.08919978 0.09864111 0.045258485
0000e0 13 66 9d 3d ac ea 90 bd c8 95 12 be 30 a5 51 3d
       0.07685485 -0.0707601 -0.1431495 0.051182926
0000f0 f2 7d ee 3d 52 dc d0 bc 5d a1 69 3d 99 3b 09 be
       0.11645116 -0.025495682 0.057038654 -0.13401641
000100 3f f5 b4 bd eb 78 6d bd e0 ed bb 3d 08 ec df bc
       -0.088358395 -0.057976644 0.091762304 -0.027334228
000110 c1 de 9e bd c2 53 ce bd 35 63 da 3d 86 4a dd bd
       -0.07757331 -0.10074569 0.106634535 -0.1080523
000120 fb 55 15 bb 08 4d b5 3d 47 58 ab 3c 90 9d 80 39
       -0.0022786844 0.08852583 0.020916117 0.00024531456
000130 bf 1c b0 3d 8f f7 62 3d 8a bf 18 3e 3c 89 17 bd
       0.08599233 0.05541187 0.14916816 -0.03699611
000140 6b 25 1d 3e 45 09 1c 3e 53 c5 0d 3d 3c f3 ed bd
       0.15346305 0.15237911 0.03461201 -0.11618659
000150 78 fc c5 3b 6c f9 db 3c af 05 13 bd b4 f5 ab 3d
       0.0060420595 0.026852332 -0.035894092 0.083964735
000160 9a bc 78 bd 8a e5 e4 bc 37 28 ec 3c 36 e2 07 3e
       -0.06072674 -0.027941484 0.02882777 0.13269886
000170 8d 57 b5 bc b4 01 15 3e 1f ac e6 3d 2c 62 0e be
       -0.022136474 0.14551431 0.11263298 -0.13904637
000180 4e 09 bc 3d 6b de 9a 3d 52 16 c7 3c ed e1 71 3d
       0.09181462 0.07561954 0.024302635 0.05905335
000190 2b cd 1c 3d 5b bd 8b bc 02 96 fb bd 8b 55 cf bd
       0.0382816 -0.017058065 -0.12284471 -0.10123738
0001a0 e5 b7 6d 3d 32 4c 8f bc cb d7 b0 bd 4d ab 1c 3d
       0.058036704 -0.017492387 -0.08634909 0.038249303
0001b0 5d 2f a9 bd 46 45 f9 bd 53 c9 91 3d 2e ba ae bd
       -0.08260987 -0.12171416 0.07118478 -0.08531605
0001c0 d8 7c b0 3d 9d 21 18 be ee 98 23 be 3f 55 28 be
       0.08617562 -0.14856572 -0.15976307 -0.16438769
0001d0 a3 80 0f 3d 11 29 06 bc f7 01 61 3d 06 84 c7 bd
       0.035034787 -0.008188502 0.054933514 -0.09741978
0001e0 35 1f 28 3e 6b 40 16 be 3c 4f d1 3d 71 ea 06 be
       0.16418155 -0.14673011 0.10220191 -0.1317537
0001f0 4e fe a8 bd e3 ca 0a be 01 b9 e9 bd 9c 0f b5 bd
       -0.0825163 -0.13553958 -0.1141224 -0.08840868
000200 90 43 00 3c 9a e3 4b 3c 60 cc 8a 3d 2a 68 4b bd
       0.007828608 0.012444401 0.06777263 -0.049659885
000210 71 7c 26 bd ca eb c3 3d bf 05 cc bd 42 c7 84 3d
       -0.04064602 0.095664576 -0.099620335 0.06483318
000220 81 76 22 bd f7 c1 4c bd 30 77 1e bc 9a 68 91 bd
       -0.039663795 -0.049989667 -0.009671971 -0.07100029
000230 da d7 94 bd 2c a6 16 3e ee 2e 00 be a1 1e 9d bc
       -0.07267733 0.14711827 -0.12517902 -0.019179644
000240 ab 01 39 bc 7c cd 16 bd ac 58 58 3c 6c c3 d1 3b
       -0.011291902 -0.03681706 0.013204735 0.00640147
000250 41 77 1b be a9 5b b2 3d 9c 73 11 be 63 3e e2 3c
       -0.1518221 0.08708889 -0.14204258 0.027617639
000260 16 6d f3 bd 6b 42 e3 bd 49 3d 2f be 47 9a b2 3d
       -0.11886041 -0.110966526 -0.17113222 0.08720832
000270 6b cf d7 bd 6a 62 83 3d 97 a2 0c be 6e 1f f5 bc
       -0.10537609 0.06415255 -0.13733898 -0.029922213
000280 6f 52 ff 3d 8f 4b 07 bd 11 92 71 3d 53 0a d0 bd
       0.12466895 -0.033031043 0.05897719 -0.10158219
000290 e7 20 0d 3e 81 3b 51 bd 4f c1 04 be ca 8a cf bd
       0.13782082 -0.051082138 -0.12964366 -0.10133894
0002a0 12 76 74 bd 48 02 d1 3c f6 93 91 bd 65 05 da 3d
       -0.059682913 0.025513783 -0.071082994 0.1064556
0002b0 14 64 e4 bd 24 b5 87 bd bc 76 18 3e 9e 45 bc 3d
       -0.11151901 -0.06626347 0.14889044 0.09192966
0002c0 2d 3e 94 bd 74 ac 07 3e d0 6b 19 be a3 fd 75 3d
       -0.072384216 0.1324938 -0.14982533 0.06005634
0002d0 5d 6c ef 3c 13 24 6f 3d 9e 20 da 3d 34 9d cf bc
       0.029226476 0.058384012 0.106507525 -0.025343515
0002e0 a0 0d 24 3d 14 4d d5 3d 73 20 c6 bd d9 e2 03 bd
       0.040052056 0.10415092 -0.09674158 -0.03219876
0002f0 e7 f7 ce bd dd 36 b8 bb f4 a1 24 3d 51 aa 1f 3d
       -0.10105877 -0.0056217746 0.040193513 0.038980786
000300 d3 90 32 bd 5b 90 cc 3d b6 69 a2 3c 19 e2 92 3c
       -0.043595146 0.09988471 0.019825798 0.017930077
000310 af bc c7 3d 0f 54 8d bd c7 e4 97 bc 5f a5 b9 bd
       0.097527854 -0.069007985 -0.018541707 -0.09064745
000320 b0 2f 42 3d 54 c6 a0 bd 40 40 47 bd 9f a3 a7 bd
       0.04740876 -0.07850328 -0.048645258 -0.08185505
000330 4e ef fd bd de dd 2a bd 90 57 a8 bd b7 c3 1c be
       -0.12399159 -0.041715495 -0.08219826 -0.15309034
000340 e3 79 31 bd 45 46 03 bd 89 b9 34 bd fd 76 46 bd
       -0.04332913 -0.032049436 -0.044122253 -0.04845332
000350 50 d5 e2 3d 79 c7 21 be 99 e2 95 bd 77 06 1c be
       0.110758424 -0.15798749 -0.07318611 -0.15236841
000360 74 48 0a 3e 2d 78 dd bc 9a d3 da 3d 59 ba fb ba
       0.13504201 -0.027034843 0.10684891 -0.0019205316
000370 6c 80 fb 3c 15 20 60 3d cd 88 05 3c f8 8a d7 bc
       0.030700885 0.054718096 0.008150292 -0.026311383
000380 0d 53 bf bc 41 f3 f8 bd 99 51 4c 3d e2 4a a4 bd
       -0.023355031 -0.12155772 0.049882505 -0.08022095
000390 7e 2e e4 3b 7a 1d 14 3e 24 60 8d 3d 3b 37 23 3e
       0.00696355 0.1446437 0.06903103 0.15939038
0003a0 b1 e0 0a 3e 56 98 aa bd 87 1b ad 3d be b7 04 bd
       0.13562275 -0.08329837 0.08452516 -0.032401793
0003b0 44 24 f3 3d 15 22 90 bd 5c 2b 15 3d 73 1b 0a bd
       0.118721515 -0.07037751 0.036418304 -0.033717584
0003c0 bf ba df 3c 47 a6 59 bc 12 d8 86 3d be c0 a4 3d
       0.027310727 -0.0132842725 0.06584181 0.08044575
0003d0 c0 bb 97 3d 9d c8 ee 3d a6 c7 c7 bd e4 b6 de 3c
       0.07408857 0.11659358 -0.09754877 0.027186818
0003e0 b6 08 5b 3c 56 b4 2a 3e 37 b1 9e bd c0 7a 14 be
       0.013368776 0.16670355 -0.07748645 -0.1449995
0003f0 e6 9b 16 be c8 bf e4 bd 68 5d b7 3d f1 5e 09 3e
       -0.14707908 -0.11169392 0.08953363 0.13415124

in_proj_bias f4 [192]
000000 4e d1 45 bc d0 bd 98 bc c8 06 aa 3b ab db 94 3c
       -0.012073828 -0.018645197 0.0051887967 0.018171152
000010 92 a0 4c 3c dc 30 a1 bc d0 20 40 3c eb 5d 45 bc
       0.012489455 -0.019676618 0.011726573 -0.012046318
000020 2c 4b 49 3c 5e 71 ca bb 60 c1 36 3c 8a f6 5a 3c
       0.012285989 -0.006178065 0.011154503 0.013364444
000030 13 53 4e bc 8d 3e 6d 3b 02 7a 46 bc 9a 43 16 3c
       -0.012593049 0.0036200613 -0.01211405 0.009171391
000040 61 f2 88 bb e8 32 0d 3a e1 c5 5f 3c 6d 5b 05 bb
       -0.0041792844 0.0005386309 0.013658018 -0.0020348683
000050 a4 11 06 bc 68 e6 62 bc fa 1e 5f 3b 6f ad 8e 3b
       -0.008182917 -0.013848878 0.0034045563 0.004354171
000060 83 99 8a 3c 7d c2 ff bc 75 a9 a2 bd 9a cd 33 3c
       0.016918903 -0.031220669 -0.079424776 0.010974312
000070 2d c4 af bc 9b 92 03 3b df 6a 2f bc 95 ee be 3b
       -0.021455849 0.0020076397 -0.010706632 0.005826781
000080 c6 96 98 bc 32 d4 b6 3a 72 d8 a3 3c 44 53 13 3d
       -0.018626582 0.0013948737 0.02000067 0.03596808
000090 99 b5 2b bc b7 09 1b bc c7 20 3d 3c 10 61 55 bc
       -0.010480308 -0.009462765 0.011543459 -0.01302363
0000a0 5e e3 b3 3b 55 31 b3 39 f3 93 cf bb d6 7a 8e 3b
       0.0054897508 0.00034178296 -0.0063347756 0.0043481393
0000b0 7b ef 72 3c ca 98 94 bb 53 2f ed bb a8 1c dc 3b
       0.014827604 -0.0045348154 -0.0072383075 0.0067172833
0000c0 66 48 18 3c 7e c0 98 bc 81 29 4e bc 14 12 b1 b8
       0.009294605 -0.018646475 -0.0125831375 -8.443385e-05
0000d0 fe ce 2d bc 1b ae 5d bc 5a 6f 72 3c 3a 96 09 bc
       -0.010608433 -0.0135302795 0.014797056 -0.008397633
0000e0 d5 89 3a 3c 81 94 19 bc e5 0d 58 3c f1 6e 30 3b
       0.011385401 -0.009373785 0.013186906 0.0026921595
0000f0 ae 2e a3 bb ba aa a0 ba 8f ea 4a 3c 50 ce 4b 3b
       -0.00497993 -0.0012257912 0.012385025 0.0031098314
000100 ae 20 a6 3a 19 37 3d 3a 88 f3 6a b8 99 77 01 ba
       0.0012674534 0.0007217988 -5.6016754e-05 -0.0004938781
000110 8a ba 00 b9 c8 94 1b 3a ea a2 4d ba 3f 15 28 3a
       -0.00012276522 0.0005934951 -0.00078444055 0.00064118573
000120 1e a8 54 ba fe 40 b1 3a ea c3 aa b9 7f 8a 85 ba
       -0.00081122096 0.0013523398 -0.00032570894 -0.001018837
000130 ae d9 b9 3a a1 c9 83 ba 7b c5 4f 3a 69 24 6c 39
       0.0014179253 -0.0010054597 0.000792585 0.00022520278
000140 68 d8 80 b8 16 a9 63 39 00 6d d3 b9 be 6d 08 b9
       -6.1438244e-05 0.00021711396 -0.00040326267 -0.00013010853
000150 b4 bc 50 b8 a2 92 af 38 ab ce fc b9 21 e4 c8 39
       -4.9766808e-05 8.371963e-05 -0.00048219165 0.00038316942
000160 7d 0f f9 37 d6 0e 40 ba 6b 5b 1e ba c3 9d ae 38
       2.9690325e-05 -0.00073264295 -0.0006040844 8.326352e-05
000170 d2 88 20 ba 7b df 14 39 52 e6 cd 39 e5 61 4e 39
       -0.00061239034 0.00014197633 0.0003927225 0.0001968216
000180 7a f6 c0 38 24 51 85 b6 98 fa a4 b9 dc c5 97 b9
       9.201183e-05 -3.973155e-06 -0.00031467224 -0.0002894838
000190 b8 10 51 b9 b1 49 38 39 c8 6f 12 39 5f fd 4c b9
       -0.00019938021 0.0001757506 0.00013965287 -0.00019549344
0001a0 93 90 e4 b8 27 1a f5 b9 1a fd ee 38 09 d5 01 b9
       -0.00010898816 -0.00046749527 0.00011395868 -0.0001238176
0001b0 f1 44 f7 b9 1a 0b 45 b9 0b d3 6a 38 53 fb e4 b9
       -0.00047162877 -0.0001879152 5.5986497e-05 -0.000436748
0001c0 c9 19 6f b8 4c f4 5d b8 ae 9c 0a b8 78 71 cd b8
       -5.7006055e-05 -5.2918025e-05 -3.3047683e-05 -9.796297e-05
0001d0 a1 65 10 39 e4 24 08 b8 9f c7 b4 b7 db 7c 4b b8
       0.0001377077 -3.2459284e-05 -2.1550628e-05 -4.8515252e-05
0001e0 07 79 ba 36 46 1c ff b9 cd bb 4c b9 cb ed 6d b9
       5.5573214e-06 -0.00048658455 -0.00019524917 -0.00022690666
0001f0 a6 82 19 b9 d5 6a bf b9 94 25 6f b9 65 06 4f b7
       -0.00014639887 -0.00036509955 -0.00022806815 -1.233965e-05
000200 1b 3f 18 3c 06 39 cd 39 64 80 f4 bb 4b 0b 4e bb
       0.009292389 0.00039143133 -0.0074615944 -0.0031439837
000210 5e 6a 15 bc 37 e0 fd bb 47 47 cf ba ce 21 8f 3b
       -0.009119598 -0.0077476758 -0.0015814089 0.0043680435
000220 1c 93 85 bb 1a 41 3d bc c0 d6 e6 3b 74 be f8 3b
       -0.0040763747 -0.011551166 0.007044643 0.007591063
000230 66 2f fc 3a ab 30 91 3b 7e 09 4b ba f7 57 64 bc
       0.00192402 0.0044308505 -0.000774525 -0.013936988
000240 d1 29 de 3b ee 79 15 3c 02 02 d6 bb 41 de 49 3b
       0.0067798872 0.009123309 -0.006531001 0.003080264
000250 60 18 68 39 ca da 99 3b fe 0d ae 37 69 05 2b ba
       0.00022134325 0.004695271 2.0748932e-05 -0.00065239385
000260 0d a3 43 3c da 80 4b 3a 35 be d7 39 55 3a 87 bb
       0.01194073 0.0007763036 0.0004114971 -0.0041268268
000270 75 2a 0b 3a ee 30 4a 3b 16 a4 13 bb d1 45 4c 3b
       0.0005308756 0.0030851918 -0.0022528223 0.0031169544
000280 d6 09 b1 3a c5 de 97 bb b5 f6 a6 ba ee 05 43 3c
       0.001350696 -0.0046347105 -0.0012738319 0.011903269
000290 a9 7a b8 3b c5 41 19 bc 70 ad 36 b9 bf a8 8c bb
       0.0056298566 -0.00935406 -0.00017421483 -0.004292577
0002a0 46 31 f0 bb 61 c3 2e bc e4 6d 5d 3c 5c fd 8b 3c
       -0.0073300926 -0.010666699 0.0135149695 0.017088585
0002b0 0a 1c a2 3b 3f a4 9a 3b 1e 65 1a bc 97 41 69 bb
       0.00494719 0.0047192867 -0.009423522 -0.0035592073
0002c0 dd 71 04 3b c6 d2 13 3c 6f 85 30 3c 88 5b 00 bb
       0.002020947 0.00902242 0.010774001 -0.0019585807
0002d0 86 99 a3 3b 4f 3a b7 bb 6e af b4 3c 6d 76 48 3b
       0.0049926667 -0.0055916677 0.022056308 0.0030588165
0002e0 97 ad 32 3c 52 3b 30 ba 1c d3 c9 bb a1 ea 9b bc
       0.010905645 -0.00067227066 -0.0061591994 -0.019032778
0002f0 d7 d6 cd 3b 68 49 37 bb dd 3e 5f bc 46 1e e1 bb
       0.0062817144 -0.0027967338 -0.013625828 -0.006870064

weight f4 [64, 64]
000000 c8 f8 84 bd 4f 84 6d 3d 35 49 b2 3d 5c 84 cc ba
       -0.06492764 0.057987507 0.087053694 -0.0015603411
000010 ca 9f be 3d 1a d7 0e be 30 43 eb 3d 4a 7e 29 3d
       0.09307821 -0.13949242 0.114874244 0.041380204
000020 03 5d 2a 3c 32 49 ba 3d 95 43 ca bd 22 bf db bd
       0.010398152 0.09095992 -0.098761715 -0.10729815
000030 73 fb d9 bc 1a 71 c5 3d ee 4e c3 3d 36 d3 74 bd
       -0.026609158 0.09640713 0.09536539 -0.05977174
000040 a7 5a e6 bd ff 72 c1 bd a3 1f 6f 3b a1 aa 3a 3d
       -0.11247759 -0.09445762 0.0036487363 0.04557288
000050 e2 46 bc 3d 2f ff c8 3d dd b6 c3 3d 06 0e 03 bd
       0.09193207 0.098142974 0.09556363 -0.031995796
000060 c8 da f5 3d 44 aa 81 3c 42 8e a5 bd 53 ea 6a bd
       0.1200462 0.01582826 -0.08083774 -0.057352375
000070 de c7 89 bc 34 94 c1 3d 70 67 9c bd 7e 2d a0 3d
       -0.016818937 0.09452096 -0.07636917 0.07821177
000080 ae 50 c6 3d a8 ec 1a bd b4 ae 98 bc 7f 72 c0 bc
       0.09683357 -0.03782335 -0.018637992 -0.023492096
000090 64 7f a1 3d f9 24 c1 3d 7f bd 9b bd 59 80 81 3d
       0.07885626 0.0943088 -0.07604503 0.063233085
0000a0 c9 76 2b 3b 3b 45 dd 3d 28 e9 1e bd 43 d8 ae 3c
       0.002616333 0.1080422 -0.038796574 0.021343356
0000b0 ea 10 a3 bc a3 e4 3b 3d aa 08 d3 bd 1c b4 a2 bd
       -0.019905526 0.04587234 -0.10304387 -0.079445094
0000c0 f0 f9 c0 bd 27 7f 80 bc f8 5e 57 3d 35 d1 b2 3d
       -0.09422672 -0.015685631 0.052580804 0.08731309
0000d0 9c f9 c2 bd 43 4d 8a bd 47 cf ce 3d fc 5e b9 3d
       -0.095202655 -0.06753018 0.10098129 0.0905132
0000e0 2a 83 cf 3d 67 89 52 bc c8 cf cd bd 4e 64 c7 3d
       0.101324394 -0.012850142 -0.10049397 0.097359285
0000f0 f9 66 af 3d b9 dc eb bd 65 21 f2 3c 55 da ba 3d
       0.08564562 -0.11516709 0.02955694 0.09123675
000100 40 38 8f bd 1a f9 b6 bd 2d 03 4e bd 20 d4 83 bd
       -0.06993151 -0.08934231 -0.050295997 -0.06436944
000110 50 d0 80 bc cc 31 dc bd fe fb a9 bd f2 3c 8d bc
       -0.015724331 -0.107516855 -0.08300017 -0.017240975
000120 7d 26 ed 3c 1e d2 ef bd 38 2b 0c 3e 15 3b 85 bc
       0.028949017 -0.117099985 0.13688362 -0.016263524
000130 f9 66 bc 3d 95 86 ca 3d f2 66 a8 bd 45 84 b5 3c
       0.09199328 0.09888951 -0.0822276 0.022157798
000140 be c5 e3 3d be c4 c6 bd 1d ee db bc 42 fe cf bd
       0.11121701 -0.09705494 -0.02684694 -0.10155918
000150 3c 55 d5 3d b6 ed aa 3d bb ab ab bd c3 a2 b8 bd
       0.10416648 0.08346121 -0.08382364 -0.09015419
000160 5a f3 4b 3d c4 ce 1e 3c fd e2 9f bd 69 2b d3 3d
       0.049792625 0.009692851 -0.078069665 0.10311014
000170 fd 23 9c 3d 4a f3 0d 3e a3 b7 ca bc b0 ec 94 bd
       0.07624052 0.13862339 -0.024745768 -0.07271707
000180 6e 33 a7 3d 35 e1 99 39 26 47 e5 3d 42 de 04 3e
       0.08164106 0.00029350226 0.11195211 0.1297541
000190 7a 24 9c 3c 38 4e 0a be 17 a4 59 3d 8b 79 d9 bd
       0.019060362 -0.135064 0.053135004 -0.106188856
0001a0 1e e5 ab bd f3 99 cc 3d 8e 96 01 3e b1 e9 f5 bd
       -0.0839331 0.09990301 0.12655088 -0.12007464
0001b0 32 01 53 bc 75 82 b2 3d cd 45 08 bd 42 f7 24 bd
       -0.012878703 0.08716289 -0.033269692 -0.040274866
0001c0 39 ee bb 3d 5d 52 e7 bc 89 63 b9 bc 34 e6 d2 bd
       0.09176297 -0.028237516 -0.02263047 -0.10297814
0001d0 58 54 96 3c 74 63 ab bd b6 cd 4f bb ff 82 d1 bc
       0.018350765 -0.083685786 -0.0031708307 -0.02557516
0001e0 8f 4b 48 bd 66 75 19 bd 39 68 ae 3d 16 fb b9 bc
       -0.048900183 -0.037465475 0.08515973 -0.022702735
0001f0 5c f0 89 3c 4f cc dc 3c d8 52 9d bd 8b 58 c9 3d
       0.016838245 0.02695289 -0.07681817 0.09831341
000200 87 c5 4a 3d 6c 3c e1 bc 74 7f dc 3c 70 a7 3f bd
       0.049504783 -0.027494632 0.026916243 -0.04679054
000210 a7 8c de 39 86 4b f0 3d 4d 30 21 3d 82 0e a2 bd
       0.00042447934 0.11733155 0.039352704 -0.079129234
000220 19 92 c9 3d 25 84 64 bc f2 be c5 bd d9 6a b4 3d
       0.09842319 -0.013947521 -0.096555606 0.08809442
000230 45 3a ad bd 3c a9 d4 ba c3 1c c1 bb 65 c7 e2 bd
       -0.0845838 -0.0016224752 -0.0058933212 -0.11073188
000240 65 c4 5f 3d e0 c0 b7 3c 51 10 a4 bc f6 11 6c bd
       0.054630656 0.022430837 -0.020027312 -0.057634316
000250 35 bd b3 bd b1 a1 cc bc 2b 6e ad 3d ef 68 6c 3d
       -0.08776323 -0.024979444 0.084682785 0.05771726
000260 ba 86 37 bc ae 95 f2 bd 54 89 d9 3b a6 dc 6b bd
       -0.011201555 -0.118449554 0.0066386852 -0.057583474
000270 9d 83 4e 3c 6f 68 3d 3c ca 9f a0 bd 89 97 6a bc
       0.012604621 0.011560543 -0.07842977 -0.014318355
000280 f6 6c 87 bd f0 80 1a 3c f7 38 1c 3d 3c d6 da 3d
       -0.066125795 0.009430155 0.038140263 0.10685393
000290 0c 49 0f 3e c1 6b bd 3d d2 c8 5c 3d c4 a9 bb 3d
       0.13992709 0.09249068 0.053902455 0.091632396
0002a0 95 03 61 bd 00 c8 ae 3d 1f 3b e6 bd 54 48 52 bd
       -0.054935057 0.08534241 -0.11241745 -0.05133851
0002b0 e7 b4 80 3d ff 6a 93 bd 9b a9 76 bb e6 c9 14 3d
       0.062845044 -0.07198142 -0.0037637714 0.036325358
0002c0 ea a9 dd 3c b6 bc a2 3d 64 c6 c7 3c 59 27 0d 3e
       0.02705856 0.0794615 0.024386592 0.13784541
0002d0 be 08 97 3d d9 87 94 bd be 55 7f 3c a4 1c f8 bc
       0.07374714 -0.072524734 0.015584407 -0.030287094
0002e0 6c f6 01 3d 04 ef ed 3c c8 66 a9 bd 2b 49 be bc
       0.031729147 0.029044636 -0.08271557 -0.023228249
0002f0 69 44 6c bd 9d ea c1 3d 69 73 7b 3d 74 a2 bf 3d
       -0.05768243 0.09468577 0.06138936 0.09357157
000300 7c 45 08 be 25 9c 69 3c b3 a6 81 3d 8b b3 ff 3c
       -0.13307756 0.014258419 0.063306235 0.031213542
000310 57 c5 71 bb ad 7b 3c bb 68 52 ed bd 9b 3e b8 3d
       -0.0036891305 -0.002876024 -0.11587983 0.08996316
000320 ee db ba bd 8b dd ab bb 3f c3 ea 3c 40 a2 31 bd
       -0.091239795 -0.005244916 0.028657554 -0.043367624
000330 ff be c3 3c f1 97 35 bd 78 54 65 bb 3e 08 4c 3d
       0.023894785 -0.044334356 -0.0034992974 0.049812548
000340 33 cc 12 3d d5 7b 8a bd 21 e3 bc bc 19 0e be bd
       0.03583927 -0.067619 -0.023057522 -0.09280033
000350 c7 97 9a 3d aa e5 9d 3d fd c9 f1 3d 42 8e 88 bd
       0.075484805 0.077098206 0.11806104 -0.066677585
000360 e9 2c d5 3d 97 7d ad 3d 07 af ed bd 4a e0 eb 3d
       0.104089566 0.0847122 -0.116056494 0.11517389
000370 86 2a 07 3d 26 5b f9 bc 44 0c ab bd 80 08 92 bc
       0.032999538 -0.03043897 -0.08351949 -0.017826319
000380 04 93 ce 3d 13 33 4e 3b a4 04 0f 3e 0a ec c7 3c
       0.10086635 0.0031463548 0.13966614 0.024404544
000390 9e 39 36 bd 38 17 12 bb 9f d4 88 bd 18 19 ea 3d
       -0.04448854 -0.0022291671 -0.06681179 0.114305675
0003a0 64 88 12 be ce dd 32 bd 11 6c 00 be 6a d9 46 bd
       -0.14309841 -0.04366856 -0.12541224 -0.048547186
0003b0 c7 61 0e bd e9 bf 00 3d ea 58 c1 3d 6c 36 58 3c
       -0.034761216 0.03143302 0.09440787 0.013196569
0003c0 fb 16 94 bd c3 1f f3 3c 7c 19 5b bd 60 c2 ad bb
       -0.07230946 0.029678231 -0.0534911 -0.0053027123
0003d0 e1 b7 49 3d 25 c0 42 bc b1 7a 2a 3d 6c b7 9a 3d
       0.049247626 -0.011886631 0.041620914 0.07554516
0003e0 0f 65 f6 3d 62 0e 00 bd d7 48 88 bc a0 e0 98 bb
       0.12030994 -0.031263717 -0.016636295 -0.0046654493
0003f0 d9 13 90 bd ad 7e 87 3c 7e da 46 3d ec 40 7f 3d
       -0.07035036 0.016539896 0.048548214 0.062317774

bias f4 [64]
000000 77 f8 90 3a 94 6a 0a bb fe d4 68 3a e2 12 e1 3b
       0.0011060376 -0.0021120654 0.0008881836 0.006868706
000010 b1 44 21 3a e8 6a ab 3b 42 90 4f bc 28 0a be 3b
       0.00061518984 0.00523125 -0.012668671 0.0057995506
000020 05 db d7 3a de 88 58 bb 8c ac 64 bb bb 42 e7 3a
       0.0016468471 -0.0033040564 -0.0034892885 0.0017643789
000030 f2 25 2b 3b 86 24 94 3a d4 fe 1b bc 71 5c 62 ba
       0.0026115146 0.0011302389 -0.009521205 -0.00086349907
000040 e9 6b 9c bb d3 26 7f 3b f9 bb 32 bc 7f 5b 33 3a
       -0.004773606 0.0038933053 -0.010909074 0.0006841942
000050 b8 43 1f 3c 2d 42 a8 3b 47 df 40 bc 69 04 14 3c
       0.009720735 0.005134842 -0.0117719835 0.009034255
000060 3f 16 6f 39 75 be 0b 3c c4 a0 15 3c 25 f9 27 bb
       0.00022801103 0.008529295 0.009132568 -0.002563068
000070 84 fd b0 bb fa 46 f0 39 9e 6c 37 bc b5 de 82 bc
       -0.005401315 0.0004582925 -0.01119533 -0.015975336
000080 8f 74 23 bc a4 f1 80 bb 15 9e 42 bc f8 de b1 3b
       -0.00997652 -0.003935056 -0.01187851 0.0054281913
000090 c2 42 91 ba 32 36 03 3b 41 bf 47 3b 33 17 20 bb
       -0.0011082517 0.0020021317 0.0030478986 -0.002442789
0000a0 fe 73 57 3c 19 08 c4 3b 37 ff a3 bb 51 49 a7 3b
       0.013150213 0.0059824106 -0.005004789 0.0051051755
0000b0 52 eb e1 bb 9f ee 9a ba e4 d0 88 bb 1e b5 da 3b
       -0.0068945074 -0.0011820382 -0.0041752923 0.006674423
0000c0 5f d6 64 bb b6 43 35 bc 37 d6 d9 3b cf 2e 16 bc
       -0.0034917814 -0.011063507 0.006647851 -0.0091664335
0000d0 17 ff d6 3c 23 a0 cc 3b 31 9c 1a 3c e1 d2 24 3a
       0.026244683 0.0062446757 0.009436653 0.0006287527
0000e0 7b 93 0c 37 3d 35 87 bb 8e b4 7b 39 62 2d 11 3b
       8.378988e-06 -0.0041262195 0.00024004487 0.0022152294
0000f0 87 05 d4 3b 01 1c 28 bb 0b 10 da 3a ac 02 1e bb
       0.0064703855 -0.0025651457 0.0016636861 -0.002411048

weight f4 [256, 64]
000000 1f 43 60 3d f9 b3 e4 bd 86 30 55 bd a5 a5 8f bd
       0.05475151 -0.111671396 -0.05204823 -0.07014016
000010 2d 49 2f 3b 56 8a 77 3c 15 2d f6 bd 01 b6 dc bc
       0.0026746497 0.015108665 -0.120203175 -0.026942255
000020 9f b6 18 3c 10 92 0d 3d 96 e1 b0 bd 4b a5 03 3d
       0.009320884 0.034563124 -0.08636777 0.032140058
000030 6d fe ad bd 93 60 53 bd a4 58 cb 3d cf cf a2 bd
       -0.084957935 -0.051605772 0.09929016 -0.079497926
000040 be 4a 0f 3c 99 7e 57 3d b1 e3 62 3d bc cf 48 bd
       0.008745847 0.052610967 0.055392925 -0.049026236
000050 b8 a7 d8 3d 7f 52 e0 bd e0 96 c1 3d f5 2c ee bc
       0.10578865 -0.10953235 0.09452605 -0.029074172
000060 86 69 d3 3d 6e e2 ce bd 93 36 e4 3c 51 f9 d4 bc
       0.103228614 -0.10101782 0.027858054 -0.02599779
000070 48 4a 8e bd 64 de 76 3d 0f 99 27 3d c1 e7 8b 3d
       -0.06947762 0.060270682 0.040917452 0.06831313
000080 58 31 ea bd dd fd 83 bb 7b 7e 00 be de c2 c6 3d
       -0.11435193 -0.0040280656 -0.12548248 0.09705137
000090 16 9a a5 bd 5a 78 a1 3d 9a 31 51 bd ae a0 6a 3d
       -0.0808603 0.07884283 -0.051072694 0.057282142
0000a0 a0 d4 87 3c f2 d2 99 bd 65 9e c9 bc 4a cb bb bd
       0.01658088 -0.07510938 -0.024611661 -0.09169634
0000b0 03 39 ce bd 45 87 bc 3c 32 a4 a7 bc 51 58 33 bd
       -0.10069468 0.02301372 -0.020464037 -0.043785397
0000c0 3c b9 fb 3b 8a 97 21 bd 98 f6 6d 3d d2 4e d4 3d
       0.007681994 -0.03945116 0.0580965 0.10366596
0000d0 a9 81 f0 bd 6f a5 6d 3d ff 33 f2 bc 79 3c 92 bd
       -0.11743481 0.058019098 -0.02956581 -0.071404405
0000e0 cb 8b d7 3d cc 2a a4 ba b5 ac ca bd 19 7b 77 bd
       0.1052471 -0.0012524961 -0.098962225 -0.06042013
0000f0 af 45 5b 3d 12 53 d7 3d c8 51 d8 3d 9a a2 3c 3d
       0.053533252 0.10513891 0.105624735 0.046053506
000100 c1 57 88 bc 68 78 64 bd fa 8d 02 bd 31 fe fb bc
       -0.016643407 -0.05577889 -0.03187368 -0.030760856
000110 98 c5 aa bd 1c 95 9e 3d 56 d0 01 bd ea 1e a0 3a
       -0.08338469 0.07743284 -0.031692825 0.0012216244
000120 2b d5 b3 3d f0 25 8f bd 56 2f 03 3d 7b f2 22 3d
       0.08780893 -0.06989658 0.032027565 0.03978203
000130 d5 02 15 bd 73 1a a1 3d 83 63 fa 3d ef ca 96 3d
       -0.036379654 0.07866373 0.122260116 0.07362925
000140 46 04 e4 3d d7 9a ee 3d 45 96 87 3d 7b a6 f6 3c
       0.111336276 0.11650627 0.066204585 0.030108681
000150 13 a4 9d 3c a5 be 8a 3d f0 16 93 bc 37 c5 b2 bc
       0.019243276 0.06774644 -0.017955273 -0.021822555
000160 a0 86 f2 bd 0c cc 86 3d 9b 99 59 3d 1f 62 fe 3c
       -0.11842084 0.065818876 0.053125005 0.031052647
000170 cb cb ef bd ae 36 ee bd 62 c3 01 bd 3e 99 37 3c
       -0.11708792 -0.11631523 -0.031680472 0.011205969
000180 dd 98 34 3b 1d 6d eb 3d ad fb 3a bd 1c 52 44 3d
       0.0027556934 0.11495421 -0.045650173 0.047929868
000190 4b eb 91 3d f3 08 14 bd 64 a0 0d 3c c2 22 8f 3b
       0.07124957 -0.036141347 0.008644197 0.004368157
0001a0 de 53 14 bd 08 8d e6 bd 27 b8 da bd 50 b2 1d bd
       -0.036212794 -0.11257368 -0.106796555 -0.03850013
0001b0 ac 37 0f be 00 73 1c 3d 15 5b e8 3d 38 91 86 bd
       -0.13986081 0.03819561 0.113454975 -0.06570667
0001c0 85 17 c7 bd 01 f9 56 3c 6b 84 c4 bd 58 c0 1a bd
       -0.09721283 0.013120891 -0.09595569 -0.03778109
0001d0 32 cb 6c bd f8 3a c9 3d b5 e4 b2 bc 03 47 7b 3d
       -0.05781097 0.098257005 -0.021837572 0.06134702
0001e0 75 6e 07 3e a9 ea 7a bc 72 85 b6 bd 3e 5e fb 3d
       0.1322573 -0.015314736 -0.089121714 0.12273835
0001f0 e9 99 c2 bd 35 43 84 3d a8 f3 9b 3d af a3 ab bd
       -0.09502012 0.06458131 0.07614833 -0.083808295
000200 4b a6 8f bd db 64 c5 bd fb ba b6 3d 52 9d 54 3d
       -0.0701414 -0.09638377 0.089223824 0.051907845
000210 9a 7c 00 3c 4b be 25 3d 01 66 95 bc 23 d3 8a bc
       0.007842207 0.04046468 -0.018237116 -0.016946381
000220 09 dd cb 3d 95 63 e8 bc f0 be ef 3c 6e ff 9a bd
       0.099542685 -0.028367797 0.02926585 -0.075682506
000230 b9 6d d8 bd 37 b7 34 3d 81 df 17 3d 5d 58 7d 3a
       -0.10567803 0.04412004 0.037078384 0.0009664351
000240 f2 28 9c 3d ac e3 16 bc 58 f2 05 3d 6f 41 a5 bc
       0.07624997 -0.009209555 0.03270182 -0.020172803
000250 12 3d 85 bc dd dd cb bd 5f 3c b4 bd 43 e4 e5 3c
       -0.016264472 -0.099544264 -0.08800577 0.028062945
000260 c3 06 7d bd b1 9f f3 3c b3 47 c8 bd 46 fa e9 3d
       -0.061774027 0.029739233 -0.097793005 0.11424689
000270 c9 35 d7 3c 8c 7e e7 bd 89 ba c2 bc 1f 5b 77 bc
       0.026270764 -0.11303434 -0.023770588 -0.015097409
000280 d2 32 c6 3c 4b 8a 80 3d 40 5a 95 bd 99 69 8d bd
       0.024194155 0.06276377 -0.072926044 -0.06904907
000290 c4 93 d1 3d 4a 1d ef 3c 64 e3 50 bd 8f 31 5b 3d
       0.10233262 0.02918877 -0.050998107 0.05351406
0002a0 50 f1 2e 3b f7 16 03 3e ed 17 ac bd d2 59 b8 3b
       0.0026694126 0.12801729 -0.08403001 0.005625942
0002b0 03 ce 65 3d b2 58 e3 3c df e5 81 3c 75 1a e9 3c
       0.05610467 0.027752254 0.015856681 0.028454999
0002c0 42 97 0d bd b1 f5 f2 bd e0 bd 8c bd 68 3a 8f bd
       -0.03456808 -0.11863268 -0.06872153 -0.06993562
0002d0 20 ac 9a bc ac f9 ba 3d 46 27 ee bd 26 43 42 bc
       -0.018880904 0.091296524 -0.116285846 -0.01185683
0002e0 40 5a 31 3d 9b cb f2 bd a1 86 0c be 29 e2 06 3e
       0.04329896 -0.11855241 -0.13723232 0.13172211
0002f0 6e f4 2f bd f7 45 54 bc 33 f1 9f 3c 1b 6d a7 3d
       -0.042957716 -0.012956134 0.019524192 0.08175107
000300 b8 96 b5 3d 46 80 9a bd 1d 74 3f bd 4e 19 fd 3b
       0.08866638 -0.075439975 -0.046741594 0.007723964
000310 ce 8e 63 3d 6a 12 e3 3d 21 2c e7 bd fb 18 71 bd
       0.05555611 0.110874966 -0.11287714 -0.058861714
000320 29 19 e7 bd 4e 64 c9 bd a5 91 be 3b 17 0c ae bd
       -0.11284096 -0.09833585 0.005815702 -0.084984
000330 8c 81 91 3d 8b 6d ae bb d9 e1 05 be db 1e f5 bd
       0.07104787 -0.005323117 -0.13074435 -0.11968776
000340 77 47 a7 3c 38 f2 99 bc 53 22 b2 bd 5a 4a f4 3c
       0.02041982 -0.018792257 -0.08697953 0.02982061
000350 c7 23 b3 3d 8d c9 0d bc 45 83 e3 3d f9 89 c8 3c
       0.08747058 -0.0086540105 0.11109022 0.024479853
000360 4c 96 01 bd 50 91 e4 3c d1 8a 06 bd f4 67 90 bc
       -0.031637475 0.027901322 -0.03284723 -0.017627694
000370 11 1b 38 bc 5d 49 28 3d 0f 0e 90 3c 5a 18 b4 3d
       -0.011236922 0.04108559 0.017584829 0.08793707
000380 1f bf 0c be 5e 2a 1a bd 33 24 a5 3d cb cd 74 3d
       -0.13744782 -0.03763806 0.08063545 0.059766572
000390 ee 28 f5 bc 7c 89 ec bd 21 c0 88 3b 5c ba dc ba
       -0.029926743 -0.115496606 0.004173294 -0.0016840207
0003a0 3a 42 ee 3d 00 c2 a3 bc 42 1a 0b be 5f a2 39 bd
       0.116337255 -0.019989967 -0.13584235 -0.045320865
0003b0 a8 00 ed b9 d5 4d 32 3c 8b cb 0b bd 0c 77 e6 3c
       -0.00045204652 0.010882814 -0.03412966 0.028132938
0003c0 a4 cb 09 3d d3 6e ce bd 17 56 03 be db f1 85 3c
       0.033641472 -0.10079732 -0.1282581 0.016350677
0003d0 81 c2 b1 bd 3c 97 71 bb fb d0 46 3d 8f ef e5 bb
       -0.08679677 -0.0036863824 0.048539143 -0.007017083
0003e0 69 ef e0 bd 35 20 2f bd e3 f4 12 bc ca 59 f7 bd
       -0.10983164 -0.042755324 -0.008969518 -0.12077673
0003f0 60 3b c9 3d 2c 52 d7 bc ea a0 e5 3b 6b 34 c1 bd
       0.09825778 -0.0262843 0.007007708 -0.09433826

bias f4 [256]
000000 a9 3d 47 3d 18 60 c1 3d d0 b7 39 3d 42 04 b9 3d
       0.048642788 0.094421566 0.045341313 0.09034015
000010 1f 89 37 bd d9 ab 59 3c f9 68 06 3d 4b 21 b3 bd
       -0.044808503 0.013285601 0.032814953 -0.087465845
000020 29 13 c0 3d d5 6b 1b bd a1 1a e3 bd 64 17 2d 3d
       0.093786545 -0.037944634 -0.110890634 0.042258635
000030 21 88 f8 bd d3 d7 8d 3d a8 96 5e bd 72 d9 a4 bb
       -0.121353395 0.06925931 -0.054342896 -0.0050308043
000040 18 f2 f3 3c 1c 2f 60 bd c1 51 c0 3d 15 f7 a6 bd
       0.029778525 -0.054732427 0.09390593 -0.08152596
000050 88 c3 e0 bd c7 ca 78 3d 4f 9c c0 3d 27 66 bd bc
       -0.109747946 0.06074026 0.094048135 -0.02312
000060 0b e3 6e bd db 4f 18 3c bd b4 f1 3c be 98 c5 bd
       -0.058321994 0.009296383 0.029505128 -0.09648274
000070 3e 7a dd bb ee 94 a3 bd de d3 aa 3d 51 cd 54 3c
       -0.006758957 -0.079873905 0.08341192 0.012988404
000080 03 b3 09 be e8 10 cc 3c be bb e2 bc d4 b2 e6 3d
       -0.13447194 0.024910405 -0.027677413 0.112645775
000090 d3 7b 91 bd 04 38 dc bc c5 f3 e8 bd eb 10 c6 3c
       -0.07103696 -0.02688218 -0.1137462 0.024177989
0000a0 63 ca 17 3c 2b 2c b1 bd 46 e4 7a 3d ee c4 3c bd
       0.009264561 -0.086510025 0.061252855 -0.046086244
0000b0 f9 08 73 3c d7 b6 99 3b b4 76 5f 3d 25 6f 5f 3d
       0.014833682 0.0046909857 0.054556563 0.054549355
0000c0 a0 af 7a 3c 62 8e c0 3d 98 46 c6 bd 85 0e 90 3d
       0.015300661 0.09402157 -0.096814334 0.070340194
0000d0 86 bc cd 3c dd ae d4 3a fd 7a d7 3d 92 76 ef bd
       0.025114309 0.001622643 0.10521505 -0.11692537
0000e0 ae 75 79 bd 35 b5 15 bc 91 2d e5 bd 53 cd 41 3d
       -0.060903244 -0.009137441 -0.11190332 0.047314953
0000f0 aa 63 f5 3d 85 47 ec 3d 9b d8 9b bc ad 07 02 bd
       0.119819 0.11537079 -0.019024184 -0.0317456
000100 2b f5 09 3c 42 6e c6 bd 76 dc 4b bd f7 e3 c2 3d
       0.008420269 -0.09688999 -0.049770795 0.09516137
000110 5a 16 2f 3d 68 97 82 3d 32 45 a8 3d 1d 95 ec bd
       0.042745925 0.06376535 0.08216323 -0.115518786
000120 4b 16 d8 3d ae 1d b1 3d 54 5c a0 3d 55 f7 40 3d
       0.10551127 0.08648239 0.0783011 0.047110874
000130 57 e3 6b 3c ea bb c1 3d c8 57 fa 3d db 1d d9 3d
       0.014397464 0.0945967 0.12223774 0.106013976
000140 bf 1e 6f 3d af b4 72 bc a9 66 74 bd 2e fb 86 3d
       0.05837893 -0.014813586 -0.059668217 0.065908775
000150 ce 55 91 bd 65 87 78 3c f2 bd 36 bd af 05 85 bc
       -0.07096444 0.015168999 -0.04461474 -0.016238062
000160 d6 35 52 3d 25 52 03 be ec 0a a5 3d 56 a0 e8 bd
       0.051320873 -0.12824304 0.08058724 -0.11358707
000170 c7 53 cb 3c 06 ae 31 bc 3e 54 e8 bd 7c 40 e3 3d
       0.024820222 -0.010844713 -0.11344193 0.11096284
000180 83 30 cb bc 89 26 7f 3d 99 93 7c bb 0f ab 2d bd
       -0.024803406 0.06229261 -0.0038540123 -0.042399462
000190 28 64 ff bd 86 eb 75 3d ee a5 6c 3d 03 10 88 bd
       -0.12470275 0.060039066 0.05777543 -0.06643679
0001a0 63 4a f8 3c 1d 30 b9 3d 5b 05 3f bd 86 a3 ce bd
       0.030308908 0.0904238 -0.046635967 -0.10089783
0001b0 ac e2 75 bc 0b cf dd bd af 59 d0 bc ee 64 a4 3d
       -0.015007656 -0.10830506 -0.02543339 0.08027063
0001c0 28 10 d1 3d e1 90 7c bb 64 6e ef bd 01 1d 11 3d
       0.1020816 -0.0038538503 -0.11690977 0.03542805
0001d0 da af c5 bd e7 46 cd bd 03 cb 9b 3d 12 5a d4 bd
       -0.09652682 -0.10023289 0.07607081 -0.10368742
0001e0 a3 5c 54 bd b1 eb cd 3d 8a 9d cf bd 1e 7e cd 3c
       -0.051846158 0.1005472 -0.1013747 0.025084551
0001f0 56 0b db 3c de 4d 70 bd 9b 92 cd bd f7 b9 68 3b
       0.026738804 -0.05866801 -0.100377284 0.0035511234
000200 13 85 d2 3d d2 f8 8c bc 76 c0 d1 bd 24 ed 9b bd
       0.10279288 -0.01720849 -0.10241787 -0.0761359
000210 d4 5e f0 bd fa 92 e8 bd 31 36 1e bd b4 f5 bb 3d
       -0.11736837 -0.113561586 -0.0386259 0.091777235
000220 d0 cf b0 3d 88 31 e4 3d 97 bb ad bd f5 b5 85 3d
       0.08633387 0.1114226 -0.084830455 0.06528846
000230 64 29 52 bc e8 77 dc 3d 99 89 de 3c 96 f2 6e 3d
       -0.012827251 0.10765058 0.027165221 0.058336817
000240 00 83 45 bb cb d0 b3 bd e7 57 c0 3d f9 6c 01 be
       -0.0030137897 -0.087800585 0.09391766 -0.12639226
000250 a5 cd 6e bd c6 74 d2 3d 45 2f a3 3c 3e d7 75 3d
       -0.058301587 0.10276179 0.01992 0.060019724
000260 b2 44 ed bb bb c2 6c 3b 4f 5e bf bd ca a6 4f bd
       -0.007240855 0.003612681 -0.0934416 -0.05069617
000270 6a ca 04 be 74 58 15 3d 98 52 0e 3d 81 17 b9 bd
       -0.1296784 0.03646131 0.034746736 -0.09037686
000280 c4 5a 20 bd 09 7b 34 bd 55 d0 80 bd ae 83 c3 bd
       -0.03914906 -0.044062648 -0.06289736 -0.095466
000290 e2 3f a8 3d 92 2c 94 3d 2b b2 21 3d 05 0f 80 bd
       0.0821531 0.072350636 0.039476555 -0.06252865
0002a0 27 05 79 3c ce 39 b3 3d cd 77 ad bd 95 ab 99 bc
       0.015198982 0.0875126 -0.08470116 -0.018758575
0002b0 9f 7c 85 bc 14 a3 0f 3d 22 c8 01 bd 56 e7 01 be
       -0.016294776 0.035067633 -0.031685002 -0.12685904
0002c0 a7 6c 29 bd 94 a3 72 bd 74 ba ba 3d f5 74 a5 bd
       -0.041363385 -0.05923803 0.09117594 -0.080789484
0002d0 f5 07 e9 3d b3 ff a5 3c 0e 16 d7 bd 08 b2 b4 bd
       0.11378471 0.020263528 -0.105022535 -0.08823019
0002e0 67 12 8b bc 27 b9 eb bd ef 1f 9a bd f7 31 8c 3d
       -0.016976548 -0.115099244 -0.07525622 0.068454675
0002f0 50 f1 aa bd 8d 0e b3 3d 81 0a b2 bd 52 07 b7 bd
       -0.08346808 0.0874301 -0.0869341 -0.08936943
000300 aa 38 9a bd 5c d2 67 bd 56 82 c1 3d 4d 8e ba bd
       -0.07530339 -0.0565971 0.09448688 -0.09109173
000310 44 6a 9e bd 4d 19 5e bd b8 11 d0 bd ac da ae 3d
       -0.07735112 -0.054223347 -0.101596296 0.08537802
000320 c2 f9 b1 bb 9a 8b fa 3d 21 50 58 bd e9 c4 5a 3d
       -0.005431385 0.12233658 -0.052810792 0.053410444
000330 2b 7d 87 3d 23 aa de bc f6 57 f1 3b 17 ba 54 3d
       0.06615671 -0.027180737 0.007365222 0.05193528
000340 d4 b4 4c 3d 0a ef 8a 3d 00 78 05 be e6 e3 88 bd
       0.04997714 0.06783874 -0.13034058 -0.06684093
000350 58 bc ef bc bf ab 47 3d b7 67 d8 3c f5 e5 bc bd
       -0.029264614 0.048747774 0.026416643 -0.09223548
000360 58 df 17 3d 81 4d cd 3d b8 7f 78 3d 70 79 b5 bb
       0.03707823 0.10024548 0.060668677 -0.005538158
000370 7d 90 72 3c 21 e0 06 3d 8c 60 df bd 8b 7a 5e 3d
       0.0148049565 0.03292859 -0.10907087 0.054316085
000380 bc b7 7c bd 56 8f c5 bd 17 01 cc bd dc 97 3f bd
       -0.06169866 -0.0964648 -0.09961145 -0.046775684
000390 dd 8e 59 bd f1 00 cc 3c 5b 4f 9e 3d 88 19 f9 bb
       -0.05311476 0.024902793 0.077299796 -0.0076019205
0003a0 a9 74 9e bd d7 ec bb bd 21 35 c2 bc 7a 6e 89 bc
       -0.07737095 -0.09176033 -0.023706974 -0.016776312
0003b0 99 12 e5 3d 15 37 b4 bc 64 a3 1f bd 78 33 6b bd
       0.11185188 -0.021998921 -0.03897418 -0.05742213
0003c0 ac b2 b1 3d 25 d9 e5 bc bd 12 ad 3d ec b9 bc 3d
       0.08676657 -0.028057644 0.0845084 0.09215149
0003d0 8c 2f c9 3d 4d 32 92 3d 81 90 9c 3d 54 94 fb bd
       0.09823522 0.071385 0.076447494 -0.12284151
0003e0 ac 98 c1 bc 1b a4 2a bd 25 c5 29 bc 7a 9d 5e 3d
       -0.02363237 -0.04166041 -0.010361944 0.0543494
0003f0 4a 74 e2 bd ab 2d 06 be 45 4b a2 bc 60 0a af 3d
       -0.11057337 -0.13103358 -0.019811282 0.08546901
