ak_workspace/result_data/baseline_results/DG_Glut/mcg_genebody/imbal_model_1.pt (torch, 828614 bytes, 53 tensors)

cls_embedding f4 [1, 1, 64]
0.46101707 0.7339116 -0.13776906 0.55652714 0.23118153 -0.71709937 -1.3062656 0.65024763
1.338592 -1.7154436 2.0563622 -0.06672774 2.056465 1.2478442 1.6259028 1.8568816
0.58537215 0.4990565 -0.44267666 0.19909976 1.6901095 -0.20275733 0.121368356 -0.06717736
0.44349214 1.3247743 -0.9486715 -1.3370111 -0.7931541 -0.07827279 -0.40347338 0.80430174
0.22118992 1.7501843 0.45880505 -0.5241902 -0.3034813 -0.8486642 0.25625756 0.32006475
-0.124423705 1.4004018 -0.49076667 1.4890918 0.06659248 -0.09856153 -0.31837943 -1.1869247
-0.8422815 -0.06824372 0.19990362 1.6697369 -0.7542135 -2.8493788 -1.0886842 1.2629839
-0.5954316 -0.9282233 -0.35917768 -0.59650797 -1.4860564 -0.09692691 -1.5378358 0.8520419
00000000: 6e0a ec3e a1e1 3b3f 5513 0dbe 9078 0e3f
00000010: daba 6c3e d393 37bf b633 a7bf a176 263f
00000020: fc56 ab3f a893 dbbf 709b 0340 8ea8 88bd
00000030: 1f9d 0340 5cb9 9f3f 951d d03f 4cae ed3f
00000040: f3da 153f 5584 ff3e 84a6 e2be cfe0 4b3e
00000050: 8255 d83f 9e9f 4fbe f98f f83d 4994 89bd
00000060: 6711 e33e 3492 a93f 23dc 72bf 2e23 abbf
00000070: 260c 4bbf 7c4d a0bd 1094 cebe b8e6 4d3f
00000080: 9c7f 623e 0a06 e03f 7fe8 ea3e 5431 06bf
00000090: e761 9bbe 0f42 59bf 3134 833e 87df a33e
000000a0: dbd1 febd 5e40 b33f c545 fbbe 8f9a be3f
000000b0: a361 883d a1da c9bd a102 a3be 26ed 97bf
000000c0: c39f 57bf 5dc3 8bbd 89b3 4c3e f0b9 d53f
000000d0: 2314 41bf 395c 36c0 015a 8bbf 75a9 a13f
000000e0: 356e 18bf 0ba0 6dbf 23e6 b7be bfb4 18bf
000000f0: 1937 bebf 9e81 c6bd ced7 c4bf 6b1f 5a3f

weight f4 [64, 12]
0.026950905 0.29593107 0.28510702 0.09092949 -0.047551934 -0.26906553 -0.2692562 0.11177608
0.07995297 -0.20643662 0.14617616 0.19878587 0.30288008 -0.1157529 -0.1217712 -0.1440063
-0.2688836 0.0066108084 0.041065663 -0.08202153 0.22457229 -0.22818775 0.14663623 -0.24830629
-0.053614303 -0.26362827 0.008837243 0.08859468 0.118990205 -0.22706933 0.20087498 0.27777958
-0.1648388 -0.041134227 0.18290956 -0.120744355 0.1457542 0.070941634 -0.23640285 -0.24514626
-0.012106765 -0.25273415 -0.19208343 -0.07490768 0.17813927 0.27674145 -0.26674747 0.18166721
0.0013937593 -0.14181674 -0.081788436 0.035485115 0.2726021 0.03807527 -0.074385665 0.29183692
-0.25238165 -0.229186 0.07335433 0.21008414 -0.2610773 0.10813094 -0.032635443 -0.24625134
0.29266137 -0.2700759 0.24608521 0.09417565 -0.16120446 0.026891448 -0.1075091 -0.2160029
0.1014213 -0.062125757 -0.04548896 -0.18445747 -0.26059023 0.14440407 -0.28592396 0.07674838
0.22119236 -0.034037102 -0.08379639 -0.02312744 0.0148159 -0.17882018 -0.16060409 -0.25732267
0.26532197 -0.1776983 -0.24175459 -0.0023905076 0.08363893 0.1652796 0.2000844 0.24053285
-0.03351851 0.25098458 -0.0031132447 0.09101619 0.13934992 0.043247566 -0.0273694 0.15174644
0.10032034 -0.028062668 0.03751284 -0.21552214 -0.10842446 -0.13008446 0.04762138 0.10178247
0.2162668 -0.1470374 0.05795265 0.1358986 0.11995911 -0.27175608 0.17223378 -0.07647106
0.054889023 -0.23198052 0.15166058 0.08338049 -0.29313847 -0.2709814 0.15496539 0.16373946
0.21317224 0.09051917 0.055036224 0.1829561 0.17316735 -0.24535175 -0.07570295 -0.019684682
0.09702267 -0.060588613 -0.014544486 0.10116083 -0.08936899 0.13589074 -0.21326944 0.13339221
0.25235242 0.252483 0.16502807 0.030284405 0.2575927 0.12878308 -0.21851845 0.088284075
-0.2854653 -0.07300592 -0.08175208 -0.15304834 0.1180309 -0.09566384 0.02356297 0.19342647
0.23537484 0.18660359 -0.2075801 0.076351464 0.068371564 0.010988532 -0.05103411 -0.04767502
-0.117165476 0.1117321 -0.24921218 0.27833027 -0.08489766 0.03562937 0.28976235 -0.23689225
0.16117771 -0.032096297 0.07209204 0.15956272 -0.2649509 -0.022262607 -0.23302229 -0.03685295
0.2347815 0.2480596 -0.17753191 0.28927782 0.22727683 0.111374214 0.24223028 -0.27250886
-0.19990921 -0.09394867 0.12709238 0.2905166 0.2889195 -0.26072192 -0.007884533 0.10654254
0.031110719 -0.08777442 -0.089596555 -0.07931918 0.15088041 -0.28063762 -0.25758976 -0.20604266
-0.23041254 -0.14581993 0.2612391 -0.08675549 0.13633506 -0.1513812 0.16509183 0.06747564
0.070663095 -0.098277844 -0.018197943 -0.08093729 0.17444232 -0.10219515 -0.028775385 0.014370213
0.2000328 0.049192384 -0.2423441 0.11226958 -0.05796632 -0.08187685 -0.0784588 0.2179303
-0.24475788 -0.023831397 0.0913518 -0.063481346 0.223805 -0.28668424 0.2146114 0.16205506
-0.04072429 0.12904367 -0.17773321 -0.13515668 0.031051833 -0.09047147 -0.29672062 0.2323695
0.22171052 0.026622482 -0.09959305 0.14340459 -0.045613103 0.14286466 0.058680706 -0.16272996
00000000: 25c8 dc3c 4784 973e 8cf9 913e 3e39 ba3d
00000010: d1c5 42bd f5c2 89be f3db 89be dcea e43d
00000020: 62be a33d 1f64 53be 34af 153e 868e 4b3e
00000030: 1913 9b3e db0f edbd 2e63 f9bd 6376 13be
00000040: 1cab 89be 7b9f d83b 7834 283d e7fa a7bd
00000050: 47f6 653e 0daa 69be cf27 163e 0144 7ebe
00000060: ac9a 5bbd 49fa 86be 15ca 103c 2171 b53d
00000070: 23b1 f33d dd84 68be 2cb2 4d3e 2039 8e3e
00000080: 81cb 28be 5d7c 28bd a54c 3b3e d148 f7bd
00000090: 9740 153e d949 913d 9713 72be 9f07 7bbe
000000a0: 745b 46bc 5f66 81be 85b1 44be 3369 99bd
000000b0: 246a 363e 0eb1 8d3e 2093 88be f806 3a3e
000000c0: cdae b63a 6838 11be b280 a7bd d758 113d
000000d0: 8192 8b3e d0f4 1b3d 8357 98bd a66b 953e
000000e0: 2b38 81be bcaf 6abe cc3a 963d 4c20 573e
000000f0: edab 85be c173 dd3d beac 05bd 5029 7cbe
00000100: b6d7 953e 6347 8abe c3fd 7b3e 2adf c03d
00000110: c812 25be 744b dc3c bb2d dcbd dd2f 5dbe
00000120: f8b5 cf3d 9477 7ebd a252 3abd 6be2 3cbe
00000130: 156c 85be a9de 133e a064 92be 412e 9d3d
00000140: 4080 623e 7d6a 0bbd 719d abbd c275 bdbc
00000150: 63be 723c a31c 37be 6675 24be ccbf 83be
00000160: 48d8 873e 8bf6 35be 848e 77be 10aa 1cbb
00000170: e34a ab3d 0e3f 293e ede2 4c3e 3e4e 763e
00000180: b54a 09bd 0d81 803e 9407 4cbb b266 ba3d
00000190: bfb1 0e3e 5c24 313d cb35 e0bc 6b63 1b3e
000001a0: c074 cd3d aee3 e5bc 10a7 193d d6b1 5cbe
000001b0: a50d debd dc34 05be a30e 433d 5473 d03d
000001c0: 0b75 5d3e f990 16be c25f 6d3d 0129 0b3e
000001d0: 1fad f53d 9d23 8bbe 0d5e 303e dc9c 9cbd
000001e0: 50d3 603d 4d8c 6dbe e94c 1b3e 64c3 aa3d
000001f0: 3f16 96be 13be 8abe 3faf 1e3e 51ab 273e
00000200: d349 5a3e 1d62 b93d aa6d 613d d858 3b3e
00000210: c852 313e 7d3d 7bbe 260a 9bbd c541 a1bc
00000220: d2b3 c63d c42b 78bd ff4b 6ebc 692d cf3d
00000230: 1707 b7bd f126 0b3e 4e63 5abe f897 083e
00000240: 5634 813e 7445 813e 1efd 283e 0017 f83c
00000250: 31e3 833e b6df 033e 4dc3 5fbe 48ce b43d
00000260: 8228 92be 2184 95bd a26d a7bd b4b8 1cbe
00000270: 2fba f13d 67eb c3bd 2107 c13c 9711 463e
00000280: 1a06 713e 0315 3f3e e18f 54be 285e 9c3d
00000290: 6406 8c3d 3e09 343c 2509 51bd e246 43bd
000002a0: 74f4 efbd cdd3 e43d 7a31 7fbe 4e81 8e3e
000002b0: d3de adbd 1af0 113d bb5b 943e e293 72be
000002c0: c50b 253e 6877 03bd fea4 933d 6964 233e
000002d0: a5a7 87be 1260 b6bc 659d 6ebe 1ef3 16bd
000002e0: 906a 703e 5603 7e3e edca 35be 391c 943e
000002f0: 42bb 683e 2a18 e43d 370b 783e 4886 8bbe
00000300: 00b5 4cbe 2968 c0bd 8124 023e 97be 943e
00000310: 42ed 933e 587d 85be 212e 01bc fa32 da3d
00000320: e8db fe3c 13c3 b3bd 667e b7bd 1872 a2bd
00000330: 6580 1a3e bcaf 8fbe cee2 83be d9fc 52be
00000340: 44f1 6bbe d251 15be 22c1 853e ddac b1bd
00000350: 6b9b 0b3e ac03 1bbe d50d 293e ab30 8a3d
00000360: d0b7 903d e545 c9bd da13 95bc 73c2 a5bd
00000370: 02a1 323e b14b d1bd 5bba ebbc 0b71 6b3c
00000380: 66d5 4c3e f47d 493d 0d29 78be 98ed e53d
00000390: 186e 6dbd 0daf a7bd 02af a0bd 1f29 5f3e
000003a0: cfa1 7abe 103a c3bc a716 bb3d 8202 82bd
000003b0: 232d 653e 47c8 92be 17c3 5b3e c3f1 253e
000003c0: 83ce 26bd 0624 043e b2ff 35be 8366 0abe
000003d0: 6a60 fe3c 1b49 b9bd c4eb 97be 45f2 6d3e
000003e0: 1508 633e 6417 da3c 71f7 cbbd a7d8 123e
000003f0: ced4 3abd 1d4b 123e 2e5b 703d afa2 26be

bias f4 [64]
-0.18240298 -0.11041809 -0.13108501 0.1526135 0.09024187 -0.11534145 0.23733751 0.2739779
0.020908192 0.1824854 0.027152887 0.09944901 0.20675148 0.09298231 -0.028997041 0.19994253
-0.19596276 0.17765525 -0.044488482 0.16618896 0.0985757 0.11034363 -0.10812541 -0.29237255
0.21764693 -0.03709445 0.25196806 0.19020672 0.1839167 -0.26520315 0.11012896 0.008558855
-0.150659 0.1473089 -0.28330553 0.09152828 0.022275824 -0.13393806 -0.24846523 0.036647573
0.11084833 -0.1865096 -0.09500307 -0.15838045 0.22625458 0.2635225 0.014771423 -0.07840621
-0.012256676 0.0020862373 -0.27743638 -0.13782836 0.23975992 0.056288667 0.041757904 -0.17061208
-0.19482036 0.035220407 -0.100850396 0.083283395 -0.065850586 0.28609514 0.20203322 0.11196324
00000000: d9c7 3abe e122 e2bd 263b 06be b746 1c3e
00000010: bbd0 b83d 2338 ecbd 9b08 733e d546 8c3e
00000020: a847 ab3c 74dd 3a3e bb6f de3c ecab cb3d
00000030: a9b6 533e 826d be3d 348b edbc bcbd 4c3e
00000040: 76aa 48be 42eb 353e 8e39 36bd 702d 2a3e
00000050: 0ee2 c93d d7fb e13d db70 ddbd dbb1 95be
00000060: d6de 5e3e 5af0 17bd f501 813e 8dc5 423e
00000070: a954 3c3e b5c8 87be 4b8b e13d 713a 0c3c
00000080: 5a46 1abe 25d8 163e 6c0d 91be 2e73 bb3d
00000090: ca7b b63c 0f27 09be ab6d 7ebe c41b 163d
000000a0: 7304 e33d 5ffc 3ebe f890 c2bd 7c2e 22be
000000b0: 48af 673e 6cec 863e d703 723c 6f93 a0bd
000000c0: 3ad0 48bc 41b9 083b 240c 8ebe e122 0dbe
000000d0: a083 753e f28e 663d 560a 2b3d efb4 2ebe
000000e0: fd7e 47be 4643 103d a78a cebd 7c90 aa3d
000000f0: acdc 86bd 107b 923e cce1 4e3e fc4c e53d

in_proj_weight f4 [192, 64]
0.059447072 -0.080782354 0.13886397 -0.08643743 0.13065998 -0.14146076 -0.037382983 -0.16110387
0.121677816 0.056471866 -0.06301738 -0.10527676 0.07985819 -0.12187323 0.11183975 0.05296726
-0.06672256 -0.026403895 -0.05448891 -0.060940992 0.11253648 0.091298096 -0.045674674 -0.10629393
-0.043319542 -0.11492931 0.03598549 0.04078178 -0.017800191 -0.09839532 -0.09393313 -0.07768265
-0.030075414 0.0228873 0.049207404 -0.07361599 -0.0834413 -0.13879311 0.09929083 -0.055183355
-0.050850622 0.08245244 -0.13304956 -0.13409099 -0.13932356 0.010744602 -0.103722505 0.10408896
-0.08300165 -0.13325909 -0.11078027 -0.07507975 -0.11656353 -0.13444787 -0.11700342 -0.107749335
-0.116078 -0.13892367 -0.036663935 0.13429394 -0.15321001 0.11257822 -0.0126039935 0.10066606
0.025457975 -0.033079036 -0.16742705 -0.14896217 0.095543265 -0.13291678 0.04966715 -0.08729908
-0.08265998 -0.07049541 -0.050709795 -0.008446864 -0.031310383 -0.13322394 0.13742036 -0.07681158
-0.17155494 0.05513788 0.057037577 0.108765125 -0.1705706 0.016668823 0.037819978 -0.08311673
0.147052 -0.045865793 -0.033480003 0.12278491 0.10188175 -0.00954 -0.008197803 -0.04209944
-0.04300007 0.10590368 -0.0025202348 0.051931597 0.051390182 0.07763417 -0.07532849 -0.117424645
0.031680714 -0.0047834152 -0.06805317 0.021139564 -0.0038094132 -0.06796268 0.028265718 -0.009639588
0.15464346 0.034416374 0.05927377 -0.0058477838 -0.05513121 0.06923584 -0.071388476 -0.09460366
-0.180627 -0.046033178 0.010778077 0.032551624 0.029246693 -0.013024993 0.118347555 0.009634297
0.074992426 0.12450081 0.059805658 -0.044879884 0.114289574 -0.02848698 -0.04753862 0.15018634
-0.08782434 -0.0701731 -0.12904307 0.00713618 -0.021790074 -0.09903464 0.05150082 0.14709538
-0.066048965 0.018704481 -0.036052298 -0.06414951 0.11213828 -0.035845783 -0.117055945 -0.09944847
-0.0038330636 0.10658086 0.046605073 0.0772796 -0.09429448 0.022911945 -0.01687362 0.049317747
-0.066754445 -0.011845841 -0.08051503 0.086857885 -0.13502038 -0.001227749 0.052321073 0.08474247
-0.03442665 -0.09634562 0.047072336 0.015489233 -0.13028105 0.05670107 0.0676 -0.13304652
0.0801255 -0.051116653 -0.0002755774 -0.13415407 0.04467033 0.16443588 -0.059347924 -0.10238745
-0.043488756 -0.11474688 0.09510856 0.12259921 0.0091956975 -0.07069027 0.08888477 0.072420456
0.07539172 -0.05436988 0.042538024 -0.13099076 0.012450075 -0.15131336 -0.011716317 -0.038404632
0.08149004 -0.14216857 0.07241189 0.14348394 -0.0727697 -0.069538005 -0.122968316 0.1462714
-0.13716853 -0.14086384 0.1491247 -0.050731227 0.06533082 -0.088949144 0.044714853 -0.10960607
0.104114406 -0.14303054 0.13135345 -0.053416084 0.0312152 0.11606966 0.015144302 -0.10927385
-0.15976653 0.14525752 -0.025861427 0.08034355 0.015940202 0.13970777 0.09090774 0.029323291
0.062163685 0.12775686 -0.005541381 0.026136247 0.12767872 0.01186481 -0.15387362 -0.07612503
0.13389225 0.118749216 0.029145846 -0.023144696 -0.105877034 -0.08856762 0.04433492 -0.027138218
-0.04486162 0.08143586 -0.1278218 0.017020432 0.10409516 -0.08427967 -0.11947726 -0.119727366
00000000: c67e 733d 3871 a5bd 5b32 0e3e 1b06 b1bd
00000010: bbcb 053e 17db 10be e61e 19bd 6af8 24be
00000020: 3832 f93d 0b4f 673d 420f 81bd 589b d7bd
00000030: b18c a33d ac98 f9bd 3d0c e53d 33f4 583d
00000040: d6a5 88bd fb4c d8bc c32f 5fbd 439d 79bd
00000050: 8779 e63d 7ffa ba3d 5e15 3bbd a2b0 d9bd
00000060: d56f 31bd 0f60 ebbd 8565 133d cc0a 273d
00000070: b5d1 91bc 7c83 c9bd 0360 c0bd 1518 9fbd
00000080: b760 f6bc 267e bb3c b48d 493d fbc3 96bd
00000090: 46e3 aabd c81f 0ebe fe58 cb3d f107 62bd
000000a0: be48 50bd d3dc a83d 253e 08be 264f 09be
000000b0: d6aa 0ebe 210a 303c 776c d4bd 982c d53d
000000c0: c5fc a9bd 1275 08be c4e0 e2bd 69c3 99bd
000000d0: dcb8 eebd b4ac 09be 7d9f efbd afab dcbd
000000e0: 4dba edbd 0242 0ebe ec2c 16bd 5a84 093e
000000f0: 16e3 1cbe 698f e63d fb80 4ebc 022a ce3d
00000100: 3e8d d03c e27d 07bd ff71 2bbe 8a89 18be
00000110: 30ac c33d 561b 08be c86f 4b3d dcc9 b2bd
00000120: a349 a9bd e65f 90bd 13b5 4fbd b764 0abc
00000130: 513f 00bd db6b 08be ecb7 0c3e 644f 9dbd
00000140: 19ac 2fbe 42d8 613d 3ca0 693d 40c0 de3d
00000150: 0faa 2ebe 0e8d 883c 1fe9 1a3d 1b39 aabd
00000160: cd94 163e c5dd 3bbd 5422 09bd a876 fb3d
00000170: 61a7 d03d a94d 1cbc 1450 06bc 7670 2cbd
00000180: d720 30bd 07e4 d83d 862a 25bb 3ab6 543d
00000190: 837e 523d aafe 9e3d d345 9abd 557c f0bd
000001a0: a3c3 013d 32be 9cbb 765f 8bbd e12c ad3c
000001b0: 59a7 79bb 0430 8bbd 828d e73c 5def 1dbc
000001c0: db5a 1e3e 2ff8 0c3d 0dc9 723d c49e bfbb
000001d0: 43d1 61bd 85cb 8d3d 1f34 92bd 90bf c1bd
000001e0: 49f6 38be 498d 3cbd 8896 303c da54 053d
000001f0: c396 ef3c c866 55bc 3460 f23d 2cd9 1d3c
00000200: a195 993d 48fa fe3d c7f6 743d f8d3 37bd
00000210: a710 ea3d 875d e9bc dbb7 42bd 73ca 193e
00000220: 3fdd b3bd eab6 8fbd de23 04be 9ed6 e93b
00000230: 1981 b2bc acd2 cabd 86f2 523d 2ca0 163e
00000240: ae44 87bd 243a 993c 93ab 13bd d160 83bd
00000250: c1a8 e53d 07d3 12bd 07bb efbd a4ab cbbd
00000260: 2334 7bbb 1147 da3d f6e4 3e3d c444 9e3d
00000270: 771d c1bd d5b1 bb3c 8c3a 8abc 6801 4a3d
00000280: 8eb6 88bd 0f15 42bc 10e5 a4bd 8ce2 b13d
00000290: c842 0abe 6cec a0ba 9f4e 563d 768d ad3d
000002a0: f502 0dbd da50 c5bd ecce 403d 8dc6 7d3c
000002b0: 6568 05be 623f 683d de71 8a3d 593d 08be
000002c0: d718 a43d b25f 51bd 5f7b 90b9 af5f 09be
000002d0: 3cf8 363d e161 283e cf16 73bd 83b0 d1bd
000002e0: 4421 32bd 6a00 ebbd 47c8 c23d 4b15 fb3d
000002f0: 8da9 163c 0fc6 90bd 3809 b63d 2d51 943d
00000300: f966 9a3d f4b2 5ebd 5a3c 2e3d 7122 06be
00000310: 66fb 4b3c e4f1 1abe ccf5 3fbc 2d4e 1dbd
00000320: 40e4 a63d a394 11be af4c 943d 74ed 123e
00000330: 4808 95bd f169 8ebd d0d6 fbbd 2bc8 153e
00000340: e875 0cbe 9c3e 10be 25b4 183e 8ccb 4fbd
00000350: 2acc 853d f82a b6bd ec26 373d 2679 e0bd
00000360: ef39 d53d 9976 12be 8581 063e d3ca 5abd
00000370: 05b7 ff3c eeb5 ed3d ce1f 783c f8ca dfbd
00000380: d699 23be 63be 143e 58db d3bc 298b a43d
00000390: 0795 823c 8e0f 0f3e d62d ba3d 6637 f03c
000003a0: 599f 7e3d b2d2 023e 7994 b5bb af1b d63c
000003b0: 36be 023e 9f64 423c 0c91 1dbe 71e7 9bbd
000003c0: 0d1b 093e ca32 f33d 45c3 ee3c f299 bdbc
000003d0: 0fd6 d8bd f162 b5bd 8898 353d f850 debc
000003e0: d1c0 37bd d8c7 a63d b8e3 02be 6f6e 8b3c
000003f0: d82f d53d d29a acbd 7eb0 f4bd 9f33 f5bd

in_proj_bias f4 [192]
0.002505882 0.02149226 -0.013031742 -0.006925043 -0.021837343 0.013926941 0.032388642 0.0063778944
-0.021511497 -0.016381035 -0.011085845 -0.016457714 -0.013241953 -0.017391788 -0.022334464 0.021020345
0.016226368 -0.0003661649 0.0028707783 -0.008842221 -0.017127153 -0.012404998 -0.0006918477 -0.00046664692
-0.00549929 0.01602791 0.020618519 0.012726789 0.01275907 -0.024863146 0.015076715 -0.004194398
0.023738533 0.023915451 -0.02386709 -0.018332371 0.031544533 -0.016299013 -0.029583702 0.020144202
-0.007780796 -0.0071987286 0.006087978 -0.009725539 -0.0029490136 -0.013076821 -0.009452714 -0.03919634
0.0010593276 0.022738734 -0.0115174465 0.004824575 0.011744053 0.002949948 0.017718764 -0.012273514
0.014474912 0.0020020695 -0.03063451 0.016951533 -0.008907804 -0.019086475 0.0024741746 -0.020571636
0.0012030832 0.00075014104 0.00010873514 -0.00036238672 -0.0005394505 0.00032283465 0.0011956191 0.00097606936
6.277865e-05 0.00022772652 6.6588423e-06 7.529974e-05 -5.0816252e-05 2.1477363e-05 -1.904597e-05 -1.7916986e-05
-3.4219025e-05 -0.00090926496 -0.0010024994 -0.00063464727 -0.00082709215 -0.0005017949 -0.0008471134 9.137866e-05
0.00017245025 0.00067040615 -0.0003939052 8.5194966e-05 3.4390676e-05 2.473849e-05 -0.000103042956 -0.00039271972
0.00020100936 0.0002895011 -0.0006318108 0.00038516195 9.39864e-05 -0.0003457 -0.0006222858 -6.923695e-05
0.001042315 -0.00033614694 4.0930454e-06 -0.00029793222 0.00024360915 0.00010567619 0.0004212973 -0.00042688608
0.0001828272 -0.00017090108 0.0005285301 0.000173396 -7.846738e-05 -0.00011335216 -0.00017925393 3.497795e-05
-0.00039897006 0.00020277768 0.00022887417 0.00025251933 0.00033416384 0.0003952455 0.00032329056 0.0004675011
-0.008431609 -0.006162039 -0.015236873 0.0014637265 -0.010696235 -0.004948839 -0.0049006473 0.0045718704
0.005662271 0.004093592 -0.0053927894 0.003321675 0.0024140163 0.002018622 -0.019216433 -0.003473457
0.003046155 -0.0015334322 -0.0062502855 -0.00843958 -0.012770322 0.0067889695 0.0067997123 -0.0017563456
-0.0030657055 -0.008734774 -0.00038675673 -0.0072857384 -0.010908493 0.00089210906 -0.0070177168 0.0028321024
-0.0045690374 -0.0067720353 -0.012393536 0.0002743165 -0.001168372 -0.0020215753 -0.0022528789 0.014483323
-0.007472206 -0.0045055975 -0.002744924 -0.0006416571 -0.0128037855 0.00781986 -0.0053792656 -0.006177569
0.0036004714 0.006765663 0.0039713327 -0.004119706 -0.0037153075 -0.009245735 -0.009626037 0.0016467306
-0.007906268 0.0033156078 0.0013814174 0.0052052 -0.006790772 -0.0018237665 -0.0035984677 0.002916633
00000000: b939 243b 8910 b03c 1683 55bc 79eb e2bb
00000010: 3ae4 b2bc d32d 643c f4a9 043d a8fd d03b
00000020: e138 b0bc 8531 86bc 67a1 35bc 54d2 86bc
00000030: c7f4 58bc 3979 8ebc c4f6 b6bc dc32 ac3c
00000040: 29ed 843c d2f9 bfb9 ab23 3c3b f7de 10bc
00000050: 3e4e 8cbc 553e 4bbc 1d5d 35ba 4aa8 f4b9
00000060: 6333 b4bb f74c 833c 2be8 a83c 0684 503c
00000070: 6b0b 513c ccad cbbc 5304 773c 2971 89bb
00000080: 5077 c23c 56ea c33c ea84 c3bc c52d 96bc
00000090: d734 013d 8285 85bc 8559 f2bc 7405 a53c
000000a0: 0cf6 febb 50e3 ebbb a97d c73b de57 1fbc
000000b0: 3d44 41bb 2a40 56bc 8edf 1abc 578c 20bd
000000c0: 23d9 8a3a 9546 ba3c acb3 3cbc 7817 9e3b
000000d0: 216a 403c ea53 413b f126 913c d916 49bc
000000e0: 2e28 6d3c 2735 033b 39f5 fabc f1dd 8a3c
000000f0: 0af2 11bc 3d5b 9cbc c325 223b d985 a8bc
00000100: c6b0 9d3a 1da5 443a bc08 e438 b9fe bdb9
00000110: e969 0dba 2242 a939 52b6 9c3a e8de 7f3a
00000120: 08a8 8338 dfc9 6e39 056f df36 3dea 9d38
00000130: 8923 55b8 492a b437 e9c4 9fb7 6f4c 96b7
00000140: 6686 0fb8 bd5b 6eba 4c66 83ba 755e 26ba
00000150: 37d1 58ba e38a 03ba d110 5eba 8ba2 bf38
00000160: c3d3 3439 32be 2f3a 1085 ceb9 b3aa b238
00000170: b53e 1038 8185 cf37 c418 d8b8 f3e5 cdb9
00000180: 0ac6 5239 2ec8 9739 1ba0 25ba 90ef c939
00000190: 901a c538 123f b5b9 e520 23ba 4e33 91b8
000001a0: 4a9e 883a e13c b0b9 fe56 8936 c933 9cb9
000001b0: 5571 7f39 799e dd38 91e1 dc39 aecf dfb9
000001c0: 4eb5 3f39 e933 33b9 0e8d 0a3a a2d1 3539
000001d0: db8e a4b8 7ab7 edb8 1cf6 3bb9 4ab5 1238
000001e0: db2c d1b9 b8a0 5439 f1fd 6f39 9264 8439
000001f0: b632 af39 f438 cf39 537f a939 ef1a f539
00000200: bb24 0abc eeea c9bb 14a4 79bc 83da bf3a
00000210: 433f 2fbc df29 a2bb 9c95 a0bb a1cf 953b
00000220: 928a b93b 8a23 863b ffb5 b0bb 75b0 593b
00000230: 7934 1e3b db4a 043b c86b 9dbc f0a2 63bb
00000240: 00a2 473b 72fd c8ba 32cf ccbb 2a46 0abc
00000250: 9d3a 51bc 0176 de3b 1fd0 de3b 2e35 e6ba
00000260: 01ea 48bb 4c1c 0fbc 9cc5 cab9 34bd eebb
00000270: 89b9 32bc 6ddc 693a e0f4 e5bb cb9a 393b
00000280: ddb7 95bb f3e7 ddbb 420e 4bbc 23d2 8f39
00000290: 0f24 99ba 687c 04bb 09a5 13bb 764b 6d3c
000002a0: 68d9 f4bb b1a3 93bb 2fe4 33bb e134 28ba
000002b0: f8c6 51bc df1e 003c 8d44 b0bb 346d cabb
000002c0: e3f5 6b3b 7fb2 dd3b f421 823b 99fe 86bb
000002d0: 847c 73bb 6c7b 17bc 87b6 1dbc 1cd7 d73a
000002e0: 4b89 01bc ab4a 593b ad10 b53a 6290 aa3b
000002f0: 2085 debb 730b efba 45d4 6bbb fb24 3f3b

weight f4 [64, 64]
0.035734013 -0.07998356 0.090698935 0.08561275 -0.077348195 -0.07941636 0.042745385 0.035313204
0.057305157 0.01238945 -0.09448237 -0.021408523 -0.03655912 0.115436435 -0.0012641102 -0.044057924
-0.111991875 -0.023842903 -0.00889339 -0.030563096 -0.060173746 0.070241414 -0.10981439 -0.021937354
0.023809152 0.014301371 0.075372525 -0.08655794 0.025419673 -0.078259535 -0.06838182 -0.048150856
0.0033734292 0.09310527 0.0029156872 0.10137233 0.0057873777 0.07160358 0.07697327 -0.08527287
-0.12028472 0.04727969 -0.018606264 0.05708735 0.08874008 -0.08419222 0.13125168 -0.1039669
0.0068182037 0.12623604 0.041402135 0.10812603 0.08237465 -0.08049745 0.09465268 0.1141069
-0.060401727 -0.08652968 0.028147222 0.029608762 -0.07601084 0.10289293 -0.012026767 -0.0018328396
-0.08860879 0.06607086 -0.10899506 -0.078896865 -0.11816938 -0.05183905 -0.1121031 -0.12645839
-0.12700713 0.05802934 0.05886639 0.019881805 -0.019554947 -0.061824244 0.09947577 -0.087659396
-0.12809867 0.07871803 0.0871918 0.026911965 0.06992218 0.050093357 -0.023124514 0.09065366
-0.023398845 -0.10510924 0.026007213 0.07678429 -0.070494 -0.06067293 -0.064440206 -0.05123647
-0.005253329 -0.048709262 0.115534455 -0.11646476 0.10638105 0.10407052 -0.055271085 0.10084773
-0.12543184 0.1067866 0.026192741 0.12881623 -0.026315726 -0.09187105 0.042537052 -0.006206274
-0.046165105 -0.06415309 0.09723086 -0.07234047 -0.027371323 -0.088071994 -0.104214065 -0.06358229
-0.10472371 0.0627903 0.028370818 -0.033369973 -0.10674501 0.071366206 0.07951034 0.08226947
0.052352395 -0.0745144 -0.016071508 0.0034274303 0.009383855 0.09443554 0.06558852 0.093921274
-0.022000771 0.016230248 0.04703985 -0.016855743 0.11475473 0.079471365 -0.013058975 -0.118347906
-0.07332273 -0.015596152 -0.03901788 0.06885013 0.09953105 -0.09524819 0.07367796 0.0870835
0.024716683 0.1040269 0.0161365 0.09178236 -0.07551052 -0.03562823 -0.10364085 0.05476333
-0.0995583 -0.023277957 0.054367296 0.022438426 -0.046231076 -0.036771215 0.07406564 0.045812372
0.051795658 0.12187428 -0.061114427 0.09942541 -0.027639283 0.0471374 -0.012723683 0.005516791
0.09841018 -0.037760455 0.03897265 0.09469286 0.114817 0.016126426 -0.07218699 0.03817419
-0.021293424 -0.06547276 -0.12364862 0.12455921 0.020431114 -0.030988123 0.09024349 0.0679196
0.060575362 0.002930643 -0.034777336 -0.094519004 -0.03518735 0.056124102 -0.12007991 0.10653091
0.022617666 -0.086495675 -0.12479516 0.058032677 0.03306709 -0.084322885 -0.07974612 -0.12658256
0.012758326 -0.120740645 -0.14343129 -0.12572461 -0.07632907 -0.091784045 0.098687015 0.020004231
0.07836181 0.11165463 0.09982704 0.09152885 0.06465846 -0.11881699 0.11356138 -0.085206166
0.059875064 -0.07716468 -0.03489478 -0.0947345 -0.021014128 -0.09894045 -0.10616023 -0.0763992
0.089139275 0.014418699 -0.0043472014 -0.011015917 0.035605844 0.08630736 0.0033932657 -0.05094968
0.03803958 0.10177246 0.04559219 0.05524673 -0.07393305 -0.07284815 -0.032059144 -0.011412466
0.014000721 -0.052416123 0.046764363 0.06551159 -0.052169923 0.1361637 -0.09173538 0.019011782
00000000: d45d 123d 6cce a3bd 5dc0 b93d bd55 af3d
00000010: bb68 9ebd 0ba5 a2bd c915 2f3d 94a4 103d
00000020: d0b8 6a3d 1ffd 4a3c f97f c1bd ed60 afbc
00000030: 04bf 15bd f069 ec3d 80b0 a5ba 1576 34bd
00000040: ff5b e5bd 3152 c3bc 95b5 11bc 755f fabc
00000050: bf78 76bd bbda 8f3d 5ee6 e0bd f7b5 b3bc
00000060: 690b c33c 4c50 6a3c e95c 9a3d 4a45 b1bd
00000070: eb3c d03c 8946 a0bd c50b 8cbd d539 45bd
00000080: c014 5d3b faad be3d 1d15 3f3b 4c9c cf3d
00000090: 0ba4 bd3b e6a4 923d 29a4 9d3d 8ba3 aebd
000000a0: d657 f6bd 59a8 413d 2a6c 98bc 6dd4 693d
000000b0: 5cbd b53d f86c acbd d766 063e 99ec d4bd
000000c0: 3d6b df3b 0544 013e 4995 293d 2e71 dd3d
000000d0: 0ab4 a83d d9db a4bd 44d9 c13d e1b0 e93d
000000e0: cd67 77bd 7936 b1bd 0195 e63c 138e f23c
000000f0: 92ab 9bbd 87b9 d23d eb0b 45bc e43b f0ba
00000100: 8678 b5bd 2950 873d cd38 dfbd ae94 a1bd
00000110: ca02 f2bd 2f55 54bd 4f96 e5bd 4f7e 01be
00000120: 280e 02be 2cb0 6d3d e21d 713d 2bdf a23c
00000130: b231 a0bc 6b3b 7dbd f4b9 cb3d c586 b3bd
00000140: 4c2c 03be eb36 a13d 9d91 b23d 7b76 dc3c
00000150: 5c33 8f3d b12e 4d3d 9f6f bdbc a0a8 b93d
00000160: efae bfbc 8343 d7bd 140d d53c 1541 9d3d
00000170: 295f 90bd 2e84 78bd 3af9 83bd 55dd 51bd
00000180: 1e24 acbb 5d83 47bd 549d ec3d 1385 eebd
00000190: 4fde d93d ed22 d53d ef63 62bd 4189 ce3d
000001a0: 3471 00be efb2 da3d 2992 d63c 67e8 033e
000001b0: 1494 d7bc e426 bcbd 553b 2e3d 005e cbbb
000001c0: 9f17 3dbd b262 83bd f920 c73d 3e27 94bd
000001d0: d339 e0bc 175f b4bd 2f6e d5bd 6f37 82bd
000001e0: 6279 d6bd 3398 803d eb69 e83c f4ae 08bd
000001f0: 219d dabd 7228 923d 51d6 a23d e57c a83d
00000200: 776f 563d 019b 98bd 65a8 83bc bd9e 603b
00000210: bebe 193c 6c67 c13d 4653 863d cc59 c03d
00000220: f63a b4bc 4cf5 843c dcac 403d 0e15 8abc
00000230: 8704 eb3d e2c1 a23d 50f5 55bc 6360 f2bd
00000240: 3a2a 96bd 0187 7fbc 36d1 1fbd 4c01 8d3d
00000250: efd6 cb3d 7c11 c3bd 78e4 963d d658 b23d
00000260: a47a ca3c 0e0c d53d b130 843c 64f8 bb3d
00000270: 42a5 9abd e8ee 11bd a741 d4bd 834f 603d
00000280: 39e5 cbbd 6ab1 bebc 3eb0 5e3d cad0 b73c
00000290: cc5c 3dbd 6a9d 16bd baaf 973d c1a5 3b3d
000002a0: af27 543d 3999 f93d 1f53 7abd 8d9f cb3d
000002b0: c76b e2bc 2513 413d ff76 50bc 32c6 b43b
000002c0: 478b c93d b5aa 1abd c9a1 1f3d 55ee c13d
000002d0: 2d25 eb3d 911b 843c c6d6 93bd 8a5c 1c3d
000002e0: 8c6f aebc 9516 86bd 7d3b fdbd e618 ff3d
000002f0: 275f a73c ceda fdbc 94d1 b83d 6e19 8b3d
00000300: df1d 783d 0810 403b ae72 0ebd 2e93 c1bd
00000310: 9c20 10bd 63e2 653d 75ec f5bd e12c da3d
00000320: af48 b93c a524 b1bd 9b94 ffbd acb3 6d3d
00000330: 5b71 073d 7ab1 acbd ef51 a3bd dc9e 01be
00000340: 4c08 513c df46 f7bd a7df 12be f4bd 00be
00000350: 6a52 9cbd 46f9 bbbd 6b1c ca3d eadf a33c
00000360: 287c a03d 2fab e43d 1f72 cc3d 7a73 bb3d
00000370: a86b 843d 5256 f3bd de92 e83d 9280 aebd
00000380: 8e3f 753d 8408 9ebd d4ed 0ebd 2904 c2bd
00000390: d225 acbc 4aa1 cabd 896a d9bd 2f77 9cbd
000003a0: a78e b63d 683c 6c3c f872 8ebb 1b7c 34bc
000003b0: 6fd7 113d eac1 b03d 8d61 5e3b 9db0 50bd
000003c0: 64cf 1b3d 146e d03d e0be 3a3d 654a 623d
000003d0: 366a 97bd 6931 95bd 7350 03bd 5afb 3abc
000003e0: 4863 653c 4ab2 56bd fd8b 3f3d f12a 863d
000003f0: 21b0 55bd 7f6e 0b3e c2df bbbd 99be 9b3c

bias f4 [64]
-0.0030992206 -0.0006324975 0.0006654059 0.005259771 0.0035724556 0.0016499399 0.008882182 -0.008983224
-0.0113130035 0.0049238103 0.0035422768 0.0026930873 -0.005541617 -0.005732707 -0.0071878782 0.0007599209
0.003205575 -2.3142424e-05 -0.0018057417 0.008759331 -0.003115474 -0.0012228956 0.00078698527 -0.011693217
-0.020399647 -0.00877204 -0.0062738876 0.005428327 -0.006582036 0.0076735634 -0.0035914686 -0.0038993987
-0.0007233483 -0.0031254143 0.016890686 0.004025784 0.0027211735 0.0033747707 -0.0076254373 0.011215731
-0.010393116 -0.0007201288 -0.008170372 0.008282336 0.00798056 0.008693408 -0.0069982377 -0.0032950034
-0.00747018 -0.0016270478 -0.0029056077 -0.009425874 0.0033560765 0.00026868505 -0.0069233547 -0.003395012
0.0028328565 0.010901103 0.0021407318 0.004126763 0.015490331 0.00907971 -0.005090389 -0.009690581
00000000: 4b1c 4bbb 30ce 25ba a26e 2e3a 285a ac3b
00000010: dc1f 6a3b cc42 d83a 9286 113c 5f2e 13bc
00000020: 2d5a 39bc ea57 a13b 8b25 683b 827e 303b
00000030: 7496 b5bb 6fd9 bbbb 4b88 ebbb 6e35 473a
00000040: a014 523b fa21 c2b7 a3ae ecba 4c83 0f3c
00000050: fb2c 4cbb 9149 a0ba b04d 4e3a e894 3fbc
00000060: 291d a7bc 9ab8 0fbc 2f95 cdbb 1be0 b13b
00000070: 1fae d7bb 8472 fb3b d85e 6bbb 0e8d 7fbb
00000080: 159f 3dba c0d3 4cbb 565e 8a3c b9ea 833b
00000090: b755 323b 422b 5d3b cede f9bb 2fc2 373c
000000a0: e347 2abc 07c7 3cba 06dd 05bc a3b2 073c
000000b0: e5c0 023c cc6e 0e3c 7951 e5bb fcf0 57bb
000000c0: 69c8 f4bb aa42 d5ba 026c 3ebb fb6e 1abc
000000d0: 9ff1 5b3b 4cde 8c39 4fdd e2bb da7e 5ebb
000000e0: 72a7 393b 8a9a 323c 854b 0c3b cc39 873b
000000f0: 28cb 7d3c 10c3 143c 47cd a6bb 3ec5 1ebc

weight f4 [256, 64]
-0.032575525 0.07243073 -0.0829095 -0.034866534 0.07356887 -0.119558655 -0.08780166 0.07863752
0.008717846 0.0041913586 -0.10078914 -0.0021340214 0.07376551 0.064511515 -0.094787724 -0.075919755
0.04504922 -0.08990923 0.060701888 0.11083454 0.0017198616 0.063490756 -0.03859283 0.023206934
0.12960292 -0.05545745 -0.051391423 -0.014408163 -0.102110125 0.010727441 0.056517806 -0.045730058
0.049239703 -0.052321766 0.014278991 0.0033573764 -0.011115764 -0.14152066 -0.064138874 -0.028863996
-0.05876424 -0.040384416 -0.06881808 -0.12022019 0.079208136 -0.060124844 -0.062793 -0.07893667
0.02946727 0.051064014 -0.10368466 -0.0326963 0.017018601 0.08904623 0.08402078 0.10388023
0.1101222 -0.09738219 -0.047561515 0.06671309 0.07086687 0.12689568 -0.063299716 0.057340443
0.116653025 -0.065625384 -0.036058463 0.12145531 -0.10026704 -0.06898328 -0.02751544 0.033927925
0.002960416 -0.110556446 -0.02704421 -0.03519201 0.02179679 -0.06660749 0.020865262 0.019395871
-0.05662189 0.0068605756 -0.037242062 -0.105373435 -0.09450003 0.10282719 -0.10249938 -0.03891794
-0.080526434 -0.014565278 -0.014186446 0.07190303 0.10928468 0.108477816 -0.046138287 -0.10517753
-0.05634252 -0.09675842 0.12932117 0.024541887 -0.058413815 -0.100858755 -0.04381666 -0.08514282
-0.052257217 -0.08840073 -0.002784913 0.09120492 -0.054321937 0.08138299 -0.10159721 0.026297772
-0.08347038 -0.05609175 -0.09700514 -0.097156405 0.1204698 0.10132211 -0.046810105 -0.080552496
-0.071661696 0.061573632 -0.10223345 0.036995918 -0.07107676 0.1106311 0.0053314986 -0.081599206
0.04823673 -0.014253937 -0.073268324 -0.053817704 0.028839089 -0.045417912 0.038314402 0.12070441
-0.08367147 -0.03614727 0.061419737 0.024826685 -0.060779408 0.034331974 -0.015915675 0.06164075
0.032594305 0.011809293 0.018855257 -0.060358014 -0.028398242 -0.10967348 -0.06219126 -0.008693185
0.025261046 -0.08663894 -0.05174934 -0.006733181 -0.065608695 -0.086687416 -0.09552367 0.05683002
0.052567355 0.08874804 -0.10572648 0.07960121 0.009390692 -0.0012512393 -0.14426701 -0.0096556265
-0.021902543 0.03319304 -0.073825344 -0.0672593 0.08137321 -0.0387247 0.07176549 -0.068870835
-0.050104216 0.12371074 0.025695028 -0.03153603 0.07226016 -0.0715893 -0.065279976 -0.077341855
-0.05817878 0.031457007 0.12172735 -0.11822738 0.08977763 -0.07870712 -0.071034424 0.0267958
0.020307997 -0.06201844 0.020378899 0.07742112 -0.11195851 -0.100264564 0.033608474 0.08486966
0.108701736 -0.064633034 -0.0139856795 -0.004944057 -0.10026968 0.11397219 -0.088627875 0.059349056
0.086617775 0.017330475 -0.11169221 -0.03865835 -0.0043521244 -0.04839856 0.062497634 0.010462908
-0.11444826 0.118572 -0.05049255 -0.04794077 -0.069969125 -0.03548418 -0.010249985 0.047040038
0.07918215 0.01849889 -0.017671037 -0.040135875 0.12126946 0.035074178 0.11332271 -0.11115404
0.0077993604 -0.08816125 0.05310112 0.028514571 -0.113740765 0.08008692 0.087865844 0.07712112
0.12751234 -0.04483418 0.07522 -0.06314541 0.015960982 0.07386439 -0.027263684 -0.072378196
0.09467158 0.011769439 0.0076251095 -0.072570905 -0.07461419 -0.04705713 -0.052217722 0.093867004
00000000: ea6d 05bd 9056 943d 75cc a9bd 36d0 0ebd
00000010: 47ab 963d 2bdb f4bd 5bd1 b3bd b50c a13d
00000020: 4cd5 0e3c aa57 893b 896a cebd f0da 0bbb
00000030: 5f12 973d 9d1e 843d 1120 c2bd d17b 9bbd
00000040: 8885 383d 5522 b8bd 8ba2 783d 38fd e23d
00000050: fb6c e13a 7107 823d 8413 1ebd 781c be3c
00000060: a1b6 043e 5a27 63bd d07f 52bd 3710 6cbc
00000070: 1d1f d1bd 26c2 2f3c 377f 673d 714f 3bbd
00000080: 92af 493d 594f 56bd 6ef2 693c 6e07 5c3b
00000090: e51e 36bc cbea 10be 3e5b 83bd 3074 ecbc
000000a0: c6b2 70bd 216a 25bd 7ef0 8cbd 0136 f6bd
000000b0: e037 a23d 7845 76bd 9e99 80bd 8da9 a1bd
000000c0: 5865 f13c 8028 513d 9f58 d4bd 8eec 05bd
000000d0: 986a 8b3c df5d b63d 1613 ac3d 28bf d43d
000000e0: bf87 e13d 5070 c7bd ddcf 42bd dfa0 883d
000000f0: a622 913d f1f0 013e 48a3 81bd d0dd 6a3d
00000100: c8e7 ee3d 9a66 86bd 0ab2 13bd 90bd f83d
00000110: ce58 cdbd 1b47 8dbd 0f68 e1bc 02f8 0a3d
00000120: 8a03 423b 6b6b e2bd d28b ddbc 7f25 10bd
00000130: 2f8f b23c 8269 88bd a0ed aa3c 17e4 9e3c
00000140: 5bec 67bd aece e03b 228b 18bd 07ce d7bd
00000150: 3b89 c1bd 1097 d23d 32eb d1bd 6b68 1fbd
00000160: 0beb a4bd 34a3 6ebc 446e 68bc e541 933d
00000170: a5d0 df3d 9e29 de3d 80fb 3cbd 5167 d7bd
00000180: 6ac7 66bd 4729 c6bd c56c 043e 110c c93c
00000190: 5343 6fbd 098f cebd 1979 33bd 5c5f aebd
000001a0: aa0b 56bd 710b b5bd 1683 36bb a5c9 ba3d
000001b0: ae80 5ebd 20ac a63d 3312 d0bd 6d6e d73c
000001c0: 85f2 aabd 76c0 65bd a1aa c6bd f0f9 c6bd
000001d0: dfb8 f63d f781 cf3d f4bb 3fbd b5f8 a4bd
000001e0: 5ec3 92bd a234 7c3d c55f d1bd 0889 173d
000001f0: b190 91bd 8f92 e23d dab3 ae3b 7c1d a7bd
00000200: e193 453d 5889 69bc b40d 96bd f46f 5cbd
00000210: f43f ec3c 2208 3abd 90ef 1c3d e033 f73d
00000220: f35b abbd 290f 14bd 4393 7b3d 5561 cb3c
00000230: d4f3 78bd af9f 0c3d 9761 82bc 037b 7c3d
00000240: 9b81 053d c47b 413c 5776 9a3c f739 77bd
00000250: 6ea3 e8bc 7d9c e0bd 43bc 7ebd dc6d 0ebc
00000260: 41f0 ce3c c26f b1bd 1ef7 53bd 04a2 dcbb
00000270: da5d 86bd 2c89 b1bd eaa1 c3bd 98c6 683d
00000280: de50 573d 88c1 b53d 2087 d8bd f605 a33d
00000290: 6bdb 193c a000 a4ba bbba 13be a232 1ebc
000002a0: f66c b3bc 6df5 073d be31 97bd 3ebf 89bd
000002b0: ffa6 a63d cb9d 1ebd c9f9 923d 270c 8dbd
000002c0: 143a 4dbd 0e5c fd3d 617e d23c ed2b 01bd
000002d0: 23fd 933d 699d 92bd 82b1 85bd 6865 9ebd
000002e0: df4c 6ebd 10d9 003d 304c f93d 3221 f2bd
000002f0: 56dd b73d 3331 a1bd 7f7a 91bd de82 db3c
00000300: f55c a63c 0c07 7ebd a6f1 a63c f78e 9e3d
00000310: 814a e5bd 8257 cdbd 0aa9 093d 25d0 ad3d
00000320: 049f de3d 535e 84bd 3124 65bc c201 a2bb
00000330: 315a cdbd 406a e93d 8882 b5bd ff17 733d
00000340: a964 b13d a4f8 8d3c e3be e4bd 3858 1ebd
00000350: 449c 8ebb 923d 46bd 85fd 7f3d 9e6c 2b3c
00000360: d963 eabd e0d5 f23d 47d1 4ebd 8a5d 44bd
00000370: f94b 8fbd dc57 11bd 8eef 27bc 0ead 403d
00000380: 402a a23d fc8a 973c dac2 90bc 8465 24bd
00000390: 1f5c f83d f1a9 0f3d bd15 e83d bba4 e3bd
000003a0: c791 ff3b e38d b4bd 8f80 593d 6497 e93c
000003b0: ebf0 e8bd 9c04 a43d 02f3 b33d aef1 9d3d
000003c0: 9892 023e 0ca4 37bd f20c 9a3d 6152 81bd
000003d0: 9bc0 823c 3746 973d 1758 dfbc 053b 94bd
000003e0: 2ce3 c13d 9bd4 403c 0edc f93b 0ea0 94bd
000003f0: 53cf 98bd fabe 40bd 40e2 55bd 583d c03d

bias f4 [256]
-0.106848784 -0.0666075 0.0054302756 -0.026416674 0.035347395 0.022100301 -0.024816874 -0.12276485
0.053595435 0.040968295 0.116156206 0.009874393 -0.041402075 0.09566678 0.026053447 -0.107271604
-0.007428198 -0.09336613 -0.10487734 0.009463396 -0.051033992 0.017681539 0.09021478 0.025770463
-0.050856456 -0.023286635 -0.10203115 -0.041299015 0.0129192155 0.050510254 -0.04807149 -0.11963557
0.021173809 0.065431975 -0.08617223 0.08636032 0.10643417 0.025354994 0.122648485 -0.07748349
0.09229874 0.06747443 -0.0606943 -0.04839808 0.037714247 0.028507175 -0.026755642 -0.06753962
-0.04363286 0.045312922 -0.10717301 0.070901535 -0.028107736 0.038499705 0.035004012 -0.080742456
0.032407656 0.086948946 0.04959953 -0.09210502 -0.116788596 0.02596979 0.042719472 -0.112061225
0.05505963 0.0417952 -0.051707506 -0.004862161 0.0043806005 -0.119010754 0.069124416 0.08482041
-0.011623635 -0.012262263 -0.066811435 0.074526794 -0.06274379 -0.03844476 -0.019190183 -0.04909815
0.09630863 0.087504245 0.0103340205 -0.076978415 0.0042023 0.0255165 0.09616102 0.068352416
0.07251479 0.021910856 -0.083740495 -0.07495759 0.11819191 -0.12753361 -0.044981726 -0.021378404
-0.054070253 0.054270416 -0.035323363 -0.052587844 -0.006513114 -0.030493258 0.11215275 -0.07486695
-0.071318 -0.008926762 -0.01968585 -0.09029411 -0.08233231 -0.10393649 0.038362056 -0.029148327
-0.04966381 0.10967459 -0.12822 0.0871867 0.045014374 0.09953624 0.033288676 -0.08224419
0.020292021 -0.117919035 0.0800215 0.052587416 -0.058525503 -0.04351302 0.0027585593 -0.038485378
-0.11882974 0.006099245 -0.08627962 -0.033468504 0.039348498 0.08444628 -0.018395158 0.026595619
-0.034174047 0.11032854 0.103763066 -0.10898443 0.07602612 -0.101552024 0.020905994 -0.06403349
0.103963844 -0.09205823 -0.01290004 0.09283516 0.11234727 -0.032477137 -0.0833539 0.12575689
-0.08142858 -0.069463365 -0.12998629 -0.048732728 -0.0153246205 -0.03620146 0.10890417 -0.04505477
0.01708079 -0.06364125 -0.0130396085 -0.0404719 0.05093889 0.027161 -0.056997463 -0.070397325
0.058425706 -0.12837136 -0.03795986 -0.00075961056 -0.068405665 0.0037913686 -0.11796364 0.11735047
0.11962974 -0.1132272 0.06889482 0.11428934 -0.051551558 0.0943863 0.06553083 0.049885668
-0.012183433 0.06127559 0.018037343 0.06957938 -0.09093464 0.051916562 -0.08677941 0.09212426
0.05526432 0.06337193 -0.090341344 0.06039081 -0.043864306 -0.0063877557 0.123058364 0.03935639
-0.126567 0.032668296 0.028766751 -0.023116421 -0.103681415 -0.09682514 0.060909346 -0.11337841
-0.01865788 0.10920157 0.017285397 -0.07659052 0.11000157 0.112349436 0.0649807 -0.12141942
0.09518312 -0.0018259031 0.05871049 -0.07887402 0.069404565 0.012081117 0.045773894 0.013273726
-0.0627353 -0.022319302 -0.025175568 -0.03741475 -0.099727266 -0.10545019 -0.12149716 0.061820604
-0.030556938 -0.107433006 0.00939222 -0.054195557 0.032326177 0.018520825 0.09069155 0.04492059
0.064362854 0.054445256 -0.0009017923 -0.098439485 -0.10386862 0.09226268 -0.08657945 -0.061550036
0.06745626 0.0028598348 -0.049641583 -0.035264187 0.05713095 0.036837824 -0.115432724 0.08931227
00000000: 89d3 dabd 8369 88bd 74f0 b13b c867 d8bc
00000010: 6ec8 103d b10b b53c c24c cbbc 236c fbbd
00000020: e386 5b3d 5fce 273d 4ee3 ed3d 35c8 213c
00000030: 3995 29bd f2ec c33d 0a6e d53c 37b1 dbbd
00000040: 3e68 f3bb be36 bfbd eec9 d6bd 5c0c 1b3c
00000050: 0509 51bd e0d8 903c 87c2 b83d 941c d33c
00000060: dc4e 50bd 9dc3 bebc b5f5 d0bd 2829 29bd
00000070: 1eab 533c d7e3 4e3d 9ce6 44bd 7e03 f5bd
00000080: b274 ad3c 3301 863d 117b b0bd aedd b03d
00000090: 28fa d93d 47b5 cf3c 212f fb3d aaaf 9ebd
000000a0: 1f07 bd3d 0930 8a3d 969a 78bd 113d 46bd
000000b0: 417a 1a3d e187 e93c a62e dbbc 3652 8abd
000000c0: 5fb8 32bd 0b9a 393d 867d dbbd d334 913d
000000d0: 3242 e6bc deb1 1d3d 5e60 0f3d 4d5c a5bd
000000e0: e4bd 043d 4a12 b23d e028 4b3d 8fa1 bcbd
000000f0: dc2e efbd 99be d43c 9dfa 2e3d 5b80 e5bd
00000100: 3586 613d 7231 2b3d 40cb 53bd c352 9fbb
00000110: 248b 8f3b e9bb f3bd 1a91 8d3d 53b6 ad3d
00000120: 0f71 3ebc a9e7 48bc 6fd4 88bd 81a1 983d
00000130: d17f 80bd 4178 1dbd bb34 9dbc 241b 49bd
00000140: 763d c53d 6d35 b33d 0650 293c dca6 9dbd
00000150: 73b3 893b fb07 d13c 12f0 c43d 5afc 8b3d
00000160: a282 943d 657e b33c 2380 abbd 5d83 99bd
00000170: 9a0e f23d 2c98 02be c23e 38bd c321 afbc
00000180: c578 5dbd a84a 5e3d 3baf 10bd 5a66 57bd
00000190: f66b d5bb ffcc f9bc 57b0 e53d d853 99bd
000001a0: 2c0f 92bd 8e41 12bc 3844 a1bc 1eec b8bd
000001b0: d89d a8bd a8dc d4bd 8821 1d3d 79c8 eebc
000001c0: 476c 4bbd 129d e03d 1b4c 03be f18e b23d
000001d0: fe60 383d a8d9 cb3d b559 083d a46f a8bd
000001e0: 743b a63c 897f f1bd 50e2 a33d e765 573d
000001f0: 70b8 6fbd b53a 32bd f2c8 343b d8a2 1dbd
00000200: 025d f3bd 2ddc c73b 5fb3 b0bd 4516 09bd
00000210: e42b 213d 2cf2 ac3d 71b1 96bc 0edf d93c
00000220: 16fa 0bbd eef3 e13d bb81 d43d 3b33 dfbd
00000230: 95b3 9b3d 82fa cfbd 0c43 ab3c fe23 83bd
00000240: ffea d43d 0689 bcbd b05a 53bc 5c20 be3d
00000250: 5316 e63d bf06 05bd 73b5 aabd 6ac6 003e
00000260: 07c4 a6bd cf42 8ebd 201b 05be f89b 47bd
00000270: 1e14 7bbc fb47 14bd 2609 df3d 5a8b 38bd
00000280: 03ed 8b3c 5856 82bd 15a4 55bc ddc5 25bd
00000290: 4ca5 503d bf80 de3c 2c76 69bd 792c 90bd
000002a0: cb4f 6f3d c873 03be cc7b 1bbd 9a20 47ba
000002b0: 4518 8cbd 9c78 783b ec96 f1bd 7155 f03d
000002c0: 7000 f53d aae3 e7bd ba18 8d3d 8810 ea3d
000002d0: ba27 53bd 9b4d c13d 0735 863d ea54 4c3d
000002e0: 069d 47bc 1dfc 7a3d 0dc3 933c a27f 8e3d
000002f0: f13b babd 76a6 543d 67b9 b1bd a5ab bc3d
00000300: d75c 623d 24c9 813d e204 b9bd 5b5c 773d
00000310: 0fab 33bd 6150 d1bb 0606 fc3d 2a34 213d
00000320: c89a 01be 31cf 053d 40a8 eb3c a65e bdbc
00000330: ec56 d4bd 424c c6bd 147c 793d f132 e8bd
00000340: 69d8 98bc 13a5 df3d 1b9a 8d3c 7edb 9cbd
00000350: 8148 e13d 7617 e63d 9a14 853d bfaa f8bd
00000360: 5eef c23d 2453 efba 697a 703d b488 a1bd
00000370: fb23 8e3d e1ef 453c 687d 3b3d 0b7a 593c
00000380: 5d7b 80bd f8d6 b6bc fe3c cebc 3540 19bd
00000390: cf3d ccbd 45f6 d7bd 81d3 f8bd 9a37 7d3d
000003a0: 8b52 fabc d605 dcbd d3e1 193c 29fc 5dbd
000003b0: 7468 043d fcb8 973c 7ebc b93d a7fe 373d
000003c0: acd0 833d fd01 5f3d 4266 6cba a49a c9bd
000003d0: 12b9 d4bd 37f4 bc3d 9150 b1bd e41b 7cbd
000003e0: 8226 8a3d 116c 3b3b f954 4bbd 2e71 10bd
000003f0: 2502 6a3d 42e3 163d fe67 ecbd 5ae9 b63d

weight f4 [64, 256]
-0.0036827468 0.014576394 0.0013777466 -0.07125456 -0.020744452 -0.028628092 0.046169966 -0.016006712
-0.035988845 0.003942321 0.03034643 0.023111148 -0.0077912877 0.061624445 -0.053595327 -0.024930535
-0.032188006 -0.029726943 0.04174482 -0.026761455 -0.046660885 0.015862713 0.024383444 0.03581165
-0.009802122 0.01930592 -0.01662315 0.007850352 -0.03480181 -0.054245256 0.03595414 0.03846362
0.0530796 -0.032323748 0.05578183 0.033474743 -0.02789654 0.022167116 0.015007606 0.038671598
0.052568823 0.054662846 -0.048059467 0.055348553 0.016232712 0.028033653 0.040200423 0.0430296
-0.0209807 -0.06438394 0.04317293 0.04489733 0.025881615 0.038408376 0.032030553 -0.04823451
-0.03996055 0.024618315 0.0027111545 0.008817835 0.046167754 -0.022465294 -0.051909473 0.017674414
-0.022016274 0.068397634 -0.09907311 -0.054384712 -0.05410048 0.052227627 -0.016180921 0.052255977
0.015367762 -0.025889592 0.02084592 -0.015630504 0.0032998996 0.050266862 -0.060041957 0.013865443
-0.059791587 -0.049135942 -0.020327143 -0.05740283 -0.031437375 -0.04414846 0.05080587 0.006115353
-0.0380067 0.0073386678 -0.057843685 -0.048780274 0.019406848 0.002744719 -0.02881629 0.03202193
0.013583854 0.012925344 -0.013379007 -0.061785057 -0.031323116 0.0036283345 -0.058047656 -0.04028988
0.018961538 -0.010771722 -0.023599109 0.032492895 -0.060652103 0.039094727 -0.006753471 -0.04260285
0.0038853406 0.00908497 -0.034464277 -0.034329772 -0.052736834 -0.022279136 -0.0069965958 -0.026195692
0.037466444 0.008760134 0.027306499 0.015064404 0.020379264 -0.027773518 -0.023985503 -0.05915948
-0.012814427 -0.026926849 0.007059959 0.020809555 0.0042460375 0.022181338 0.060893968 -0.027442401
-0.012769903 0.0012598576 0.032064423 0.025509866 -0.03488897 0.0045695715 0.02615667 0.015936848
0.0023913411 -0.045896515 0.035582513 -0.030924093 -0.0027354264 0.030763786 0.067418985 -0.029408107
-0.0292383 -0.029140828 -0.015660316 0.047222648 -0.05922393 0.030123373 -0.05765039 0.01665554
-0.014644616 0.015614358 -0.008542733 0.022301033 0.020089144 0.002737299 0.032849573 -0.03192306
0.00616419 0.052106697 0.027990315 0.027948515 0.0059470735 -0.02334043 -0.01147892 0.049460087
-0.050375566 -0.0294267 0.05558438 0.047856085 0.021257447 -0.049605623 -0.016149066 0.05315287
0.06703971 -0.029958138 -0.028538477 -0.04456191 -0.04229783 0.010092568 0.020037884 -0.032520622
0.049514607 -0.033020087 0.02268396 0.03873827 -0.028077377 -0.026934788 -0.05095174 0.026913535
0.048481144 -0.05815672 0.014995549 0.0077445195 0.03220716 0.0130750295 -0.015192406 -0.009308977
0.000894412 -0.026311755 -0.048616126 0.04632649 -0.04798559 0.027936287 0.0638185 -0.067083694
0.038434897 0.015716035 0.023080964 0.02906406 -0.0006591792 -0.05940089 0.055423208 0.011395079
-0.045911994 -0.05670593 -0.036175635 0.027421743 0.020481596 0.0073469756 0.0032094114 0.011776698
0.04907644 0.029542297 0.057862636 0.060152188 -0.059086993 -0.028757565 0.01663633 -0.04637301
0.037645582 -0.066502936 -0.03846344 -0.049016286 0.05725349 0.048486643 0.052279197 -0.06315377
-0.02050521 0.06443241 -0.07419895 0.0045504994 0.04117648 0.031095324 -0.053345677 0.056835126
00000000: 3d5a 71bb d4d1 6e3c 8195 b43a e9ed 91bd
00000010: 45f0 a9bc 7685 eabc b81c 3d3d 8220 83bc
00000020: 0a69 13bd 962e 813b 1499 f83c 9753 bd3c
00000030: 0f4e ffbb ea69 7c3d c686 5bbd 1f3b ccbc
00000040: 92d7 03bd eb85 f3bc 9efc 2a3d d73a dbbc
00000050: 7c1f 3fbd 85f2 813c cabf c73c 3daf 123d
00000060: 1499 20bc 7327 9e3c 462d 88bc c39e 003c
00000070: 588c 0ebd 4630 5ebd a644 133d 078c 1d3d
00000080: ff69 593d e865 04bd 7d7b 643d d01c 093d
00000090: 4987 e4bc d097 b53c 76e2 753c 1c66 1e3d
000000a0: 6852 573d 26e6 5f3d 01da 44bd 2ab5 623d
000000b0: 77fa 843c d5a6 e53c 33a9 243d ce3f 303d
000000c0: b8df abbc badb 83bd 19d6 303d 43e6 373d
000000d0: ae05 d43c 1a52 1d3d 7832 033d 8d91 45bd
000000e0: acad 23bd 59ac c93c a0ad 313b ae78 103c
000000f0: 661a 3d3d 2309 b8bc 079f 54bd efc9 903c
00000100: 795b b4bc 0f14 8c3d d8e6 cabd 81c2 5ebd
00000110: 7798 5dbd a3ec 553d da8d 84bc 5d0a 563d
00000120: 11c9 7b3c 6916 d4bc 10c5 aa3c 8b0b 80bc
00000130: 2143 583b a0e4 4d3d 8eee 75bd e22b 633c
00000140: 06e8 74bd c542 49bd 1c85 a6bc 3b1f 6bbd
00000150: 7ac4 00bd 04d5 34bd d119 503d 4d63 c83b
00000160: eaac 1bbd 3579 f03b 80ed 6cbd d3cd 47bd
00000170: 1cfb 9e3c bee0 333b 2410 ecbc 6d29 033d
00000180: d08e 5e3c d2c4 533c 9f33 5bbc 5412 7dbd
00000190: ab4c 00bd 5ac9 6d3b 61c3 6dbd 0007 25bd
000001a0: 3a55 9b3c e07b 30bc eb52 c1bc 4517 053d
000001b0: 576e 78bd cb21 203d 394c ddbb 5380 2ebd
000001c0: 33a1 7e3b 20d9 143c 6a2a 0dbd 609d 0cbd
000001d0: 9402 58bd bc82 b6bc b343 e5bb 5998 d6bc
000001e0: 6a76 193d aa86 0f3c e1b1 df3c b1d0 763c
000001f0: 6af2 a63c 4a85 e3bc 3f7d c4bc 3651 72bd
00000200: 9af3 51bc b295 dcbc 3b57 e73b cd78 aa3c
00000210: 5822 8b3b a3b5 b53c f46b 793d e3ce e0bc
00000220: db38 51bc ce21 a53a fc55 033d 11fa d03c
00000230: bde7 0ebd 58bc 953b 8346 d63c fe8d 823c
00000240: 0cb8 1c3b fcfd 3bbd f8be 113d 8654 fdbc
00000250: d744 33bb 5604 fc3c f712 8a3d 45e9 f0bc
00000260: 2985 efbc bfb8 eebc 104a 80bc 896c 413d
00000270: cb94 72bd 4bc5 f63c d122 6cbd 3371 883c
00000280: f9ef 6fbc 5dd3 7f3c d2f6 0bbc a8b0 b63c
00000290: fd91 a43c 4264 333b 468d 063d c1c1 02bd
000002a0: f9fc c93b d56d 553d f24b e53c 49f4 e43c
000002b0: abdf c23b 6e34 bfbc 1412 3cbc a996 4a3d
000002c0: 9c56 4ebd 4310 f1bc 72ac 633d be04 443d
000002d0: 1924 ae3c 442f 4bbd 0c4b 84bc d3b6 593d
000002e0: 1e4c 893d c56a f5bc 86c9 e9bc 8d86 36bd
000002f0: 7d40 2dbd 4c5b 253c 7d26 a43c 5834 05bd
00000300: d4cf 4a3d 1240 07bd b6d3 b93c 05ac 1e3d
00000310: 8702 e6bc 58a6 dcbc c6b2 50bd c679 dc3c
00000320: 2a94 463d be35 6ebd e4af 753c bdc5 fd3b
00000330: a8eb 033d a638 563c 92e9 78bc ae84 18bc
00000340: f976 6a3a c08b d7bc b421 47bd d8c0 3d3d
00000350: 8a8c 44bd a4da e43c 46b3 823d 2d63 89bd
00000360: e96d 1d3d eabe 803c 4a14 bd3c c017 ee3c
00000370: c4cc 2cba 594e 73bd 7203 633d 6db2 3a3c
00000380: 370e 3cbd 7a44 68bd e72c 14bd 90a3 e03c
00000390: 05c9 a73c e6be f03b fd54 523b 0df3 403c
000003a0: 6104 493d b002 f23c 5f01 6d3d 2462 763d
000003b0: 3405 72bd fc94 ebbc ea48 883c a0f1 3dbd
000003c0: 4132 1a3d b132 88bd d78b 1dbd 4dc5 48bd
000003d0: a382 6a3d ee99 463d b622 563d c456 81bd
000003e0: 8bfa a7bc 24f5 833d 9ef5 97bd 5b1c 953b
000003f0: aba8 283d 9fbb fe3c ff80 5abd f3cb 683d

bias f4 [64]
0.0073848143 0.041285686 0.0153498305 -0.0054064337 0.033771113 -0.035456005 0.038160477 -0.033462733
0.0007744528 -0.015406917 0.021028168 0.049075726 0.035051256 -0.011585657 0.047317702 0.016701737
0.01669364 -0.008077742 0.014957647 0.0457536 0.011497119 -0.039283935 0.04562941 0.010939467
0.042301558 -0.011473872 -0.005489079 -0.010282141 0.039846618 0.015118261 0.047852784 0.0004336338
-0.01868707 -0.067075945 -0.018603489 0.032174453 -0.05394817 -0.030948399 -0.0523458 -0.008170356
0.0012153554 -0.013140008 -0.014138831 -0.02523254 0.046580367 0.017622825 -0.027636174 0.03561139
0.034614284 -0.007006986 -0.015567206 -0.0063173715 -0.036310837 0.050450936 0.049633402 -0.0049742064
-0.0014753476 -0.007878508 -0.008209368 0.04033505 -0.027129848 -0.03676574 -0.01729422 -0.032013766
00000000: 50fc f13b 2e1b 293d db7d 7b3c 7428 b1bb
00000010: 9453 0a3d 513a 11bd 294e 1c3d 3810 09bd
00000020: a604 4b3a 4b6d 7cbc 4443 ac3c a103 493d
00000030: e891 0f3d c4d1 3dbc 35d0 413d 15d2 883c
00000040: 1ac1 883c 8158 04bc eb10 753c 2068 3b3d
00000050: 6a5e 3c3c 31e8 20bd e7e5 3a3d 733b 333c
00000060: 6644 2d3d e8fc 3bbc bbdd b3bb 6d76 28bc
00000070: 3536 233d 95b2 773c 4801 443d 5859 e339
00000080: a015 99bc 1d5f 89bd 5866 98bc 5cc9 033d
00000090: c2f8 5cbd 7f87 fdbc 8d68 56bd f5dc 05bc
000000a0: 8f4c 9f3a 3049 57bc 8ea6 67bc 79b4 cebc
000000b0: 0ecb 3e3d be5d 903c 4265 e2bc 40dd 113d
000000c0: b5c7 0d3d dc9a e5bb 980d 7fbc f401 cfbb
000000d0: acba 14bd a4a5 4e3d 654c 4b3d abfe a2bb
000000e0: 7360 c1ba dc14 01bc 9680 06bc 5e36 253d
000000f0: 6a3f debc ac97 16bd 9cac 8dbc de20 03bd
