ak_workspace/result_data/baseline_results/DG_Glut/mcg_genebody/imbal_model_4.pt (torch, 828614 bytes, 53 tensors)

cls_embedding f4 [1, 1, 64]
00000000: 5811 193d b020 20bf cf72 58be 54f8 78bf
00000010: bf4f e5be 867f 593f 4b93 8a3c d640 e9bf
00000020: 09e0 443e ee54 0ec0 5d23 d03f d14f ec3f
00000030: c10c 72be cca4 86bf 850c 523e ecf1 223e
00000040: 3c0e debd d54b aabe 8109 343f 7920 8cbe
00000050: 0590 13c0 6ab9 ddbe 5f6c 0240 a7ab 043f
00000060: 0aaa df3f 4265 473f aeac 84bf a2fb 74bf
00000070: dcea 113f 8b3c 8e3f c360 a93e a2b8 21bf
00000080: 80f3 74bf 020d f6bd e338 543f d210 4dbf
00000090: c9df dbbf 117d 15bf 7018 47bf 0575 93bf
000000a0: 584d a23e 2d1a ecbe b7a0 a73e a3b7 a3bf
000000b0: e230 613f 0213 72be ae19 7e3f 2d2c 453f
000000c0: f356 75bf d058 5dbf 3963 1dbf 13de 39bc
000000d0: 59c6 273f 2f55 31bf 7c06 143f 0d1b b43e
000000e0: 690b e63f 9d9c 13bf 72ec 58bf c6d8 973f
000000f0: 9a4c 56be e6b1 64bf 0acf d1bd 890c 92be
0.037370056 -0.6254988 -0.21137546 -0.9725392 -0.44787404 0.8496021 0.016915938 -1.8222911
0.19226088 -2.2239337 1.6260792 1.8461858 -0.23637678 -1.0519042 0.20512588 0.15912598
-0.10842559 -0.3326098 0.70327 -0.27368525 -2.3056653 -0.43305522 2.0378644 0.5182442
1.7473767 0.7788888 -1.0365198 -0.9569646 0.5699899 1.1112226 0.33081636 -0.6317235
-0.9568405 -0.120142 0.828993 -0.8010379 -1.7177669 -0.5839396 -0.77771664 -1.1520087
0.31699634 -0.4611372 0.32739803 -1.2790416 0.87965214 -0.23640063 0.99257934 0.7702053
-0.958358 -0.8646364 -0.61479527 -0.0113444505 0.6553703 -0.69270605 0.57822394 0.35176888
1.7972232 -0.5766085 -0.84735787 1.1863029 -0.20927659 -0.8933395 -0.10244568 -0.2852519

weight f4 [64, 12]
00000000: c458 90be 2daa 023e ed03 73be 435f 5f3e
00000010: 28bb c0bd fc6e 433e e0a5 253d aac0 883e
00000020: d341 5f3e 2c0a 5f3e f6dc 7d3e ae75 6dbe
00000030: 65aa 2d3c dd95 0f3e c2f7 b53d ffb5 4a3e
00000040: e7b5 333e 66fe 1fbe 75a2 123e 2693 04be
00000050: 1b6f 51be 5a0f 1ebd 84cf 833e 86ec c3bc
00000060: 7448 bf3d da8c 37be adb4 52be 6d1b 6ebd
00000070: 46bd 92bd 2b21 313e 68bf 54bd b40b a63d
00000080: 694e 7d3d e0b7 0d3e 8c4c 2e3e ae2d 753e
00000090: c8df 203e ee7c 08bd d962 e73d e58d 8fbe
000000a0: 9ecc 603e 2f4b e9bc f417 c9bd 2444 303e
000000b0: 24fa 7cbe 5571 a7bd c131 0c3e fa46 85be
000000c0: 111b e3bd 8380 a4bd aba2 443e 6289 b1bd
000000d0: bc43 94be 8766 26be 3bce 923e ce2e 0b3e
000000e0: 3aa5 793d aae5 a6bd 207d babd 18fd 333d
000000f0: a8af 26be 8dc2 f03d 2126 bebd dd35 bd3d
00000100: ec5c eabd 19f7 e3bd d4a9 b8bd 051a 943e
00000110: 35b3 3abd 254a 463e cd08 06be 49b2 84be
00000120: fc79 3abd 27f5 47be fa3b 23be 73b9 0a3e
00000130: 3484 70be 99f6 79be 2713 933e 3861 47be
00000140: 4754 9a3e efd1 593d 0423 0e3b 8219 82be
00000150: 5c1d 5d3e aa6f 823e de0d c8bd 8279 51be
00000160: a65b a3bd 765b 8dbe cd62 053e a394 5abe
00000170: 89f7 27be 056e 883e 4dd2 5bbe 938a 7e3e
00000180: 4046 c6bd ea4d 69be 6ae2 873e 0128 583e
00000190: 04ef 45be d7f5 f7bd b3b8 37be c113 78be
000001a0: a903 993e 03dd 19bd f19e b4bd 9500 343e
000001b0: dff4 7e3e 97c5 45bd cda3 473e 1bd3 8cbe
000001c0: 64f4 173e 7577 3abe 4682 813d 8ffa 2abe
000001d0: 3aef 0c3e 06a3 433e 5502 e6bd d91c 043e
000001e0: 4067 3bbc 5a0f 09be 11f8 07be 077e 043e
000001f0: 3a4a 2dbe c40e 2dbe 0977 41be 04a9 653e
00000200: fa21 953d c0b1 85be 3a23 603d 39b0 9ebd
00000210: aadf 553e 6317 513d 399c d33d 8543 843e
00000220: b851 6c3e 1f75 8dbe 1c03 2cbd 52bc bb3d
00000230: ecfe b13d d01a c0bd df26 883c ddd3 993c
00000240: 125a 833d 2a2b 5ebe 0d63 d53c 59ad 283e
00000250: d516 8a3e d245 3a3d 3db7 48bd 125c c13d
00000260: b052 7dbe d962 51bd 9d1c 8e3e 0626 7f3e
00000270: 76ac 243a a271 f9bd 006d 28be 2d6c 1e3e
00000280: 4671 d9bd f082 8c3d 92ea 62bd a662 debd
00000290: 1707 313e 5d63 8fbd 9429 dfbc 74df 6a3d
000002a0: 65fb b2bd 83a6 79bd e70d 5d3c eb63 953c
000002b0: afaa f43c 41e7 8b3e ac91 7abd ab93 8f3e
000002c0: c5f4 7dbe ae6f 2bbe 01e9 0cbd 859b 5bbd
000002d0: c5a1 01be a7cf 383e 3e56 013e 96fb 9b3e
000002e0: 0ab2 2dbe 3c5d 7dbd a0dc 67be 045b 663e
000002f0: 5d43 37be 10c4 92bd 2f84 393e 99c8 943d
00000300: 12d8 3abe baa9 bd3d 98d9 8bbd e392 98bd
00000310: 4c52 3f3e 5755 64be 0904 68be f409 1a3e
00000320: ae4c 8dbe 6dfe 203d 2d10 86bd daa2 7d3e
00000330: cae6 8ebd 21fa bf3c 2ff0 b73b b99f 2c3e
00000340: 8ee1 453e 8fe8 343d 12cd d2bc ada2 cf3d
00000350: ae8d 4a3e 326f 4ebe 7662 63bc 44b2 373e
00000360: 487c 87be 4902 f8bd c214 06be 0dab 363e
00000370: 823c 623e 2f9b c63d 27fa 91be e563 82be
00000380: 1747 2d3e a7f0 f9bc d967 9bbd a0ca dc3c
00000390: 0119 44be ac4f ef3c c7a3 3abd 24f4 8e3e
000003a0: 1477 eb3d 3cb8 d83d fbca 23be fbb4 b5bd
000003b0: 2cf8 8a3d 2799 693e 0c9e 753e 1f9b c13d
000003c0: df2a 653e 9017 e73d 3731 33be 4c14 df3d
000003d0: c491 8fbe b72c 973d f8f1 03be 9b24 523b
000003e0: 5c32 1e3e 4190 933e 1b17 4bbe 4d6f 8cbe
000003f0: c089 ce3d 1075 31be b3ae 48be 494f 8f3e
-0.28192723 0.1276023 -0.23731966 0.21813683 -0.09410697 0.19085306 0.040441394 0.2670949
0.21802454 0.21781224 0.24791321 -0.23189422 0.010599707 0.14022012 0.08885147 0.19795989
0.17549859 -0.15624389 0.14319785 -0.12946758 -0.2045254 -0.03858886 0.2574426 -0.023916494
0.09339991 -0.17924824 -0.20576735 -0.058131624 -0.07165007 0.17297809 -0.05194035 0.08107701
0.061842356 0.13839674 0.17021388 0.23943207 0.15710366 -0.033322267 0.112981506 -0.28037944
0.21953055 -0.028478233 -0.09819022 0.17213494 -0.24704796 -0.08175913 0.13690855 -0.26030713
-0.11089147 -0.08032324 0.19202678 -0.08668782 -0.28957927 -0.16250049 0.28672966 0.13592073
0.060948588 -0.08149274 -0.09105897 0.04394254 -0.16277945 0.117558576 -0.09284616 0.09238789
-0.11443505 -0.111311145 -0.09016767 0.289261 -0.04558106 0.19364221 -0.13089295 -0.2591727
-0.04552649 -0.19527112 -0.15940848 0.13547306 -0.23487931 -0.24410476 0.2872555 -0.1947068
0.30142424 0.053178724 0.0021688351 -0.25410086 0.21593231 0.25475818 -0.0976827 -0.20456508
-0.07976465 -0.27608842 0.13025971 -0.21345763 -0.16403021 0.26646438 -0.21466942 0.2485755
-0.09681368 -0.22783628 0.26539928 0.2110901 -0.19329458 -0.12107437 -0.17941551 -0.24226286
0.29885605 -0.03756429 -0.08819378 0.17578347 0.24898098 -0.04828414 0.19496079 -0.2750481
0.14839321 -0.18209632 0.06323676 -0.16697143 0.13763133 0.19105157 -0.112309135 0.1290163
-0.011438191 -0.13384762 -0.13278224 0.129387 -0.16922846 -0.16900164 -0.18893065 0.22427756
0.07281871 -0.26112175 0.054721095 -0.077484556 0.20886102 0.051047694 0.103325315 0.25832763
0.23078048 -0.2762842 -0.041995153 0.091667786 0.086912006 -0.09380114 0.016620098 0.018777782
0.06413664 -0.21696153 0.026048208 0.16472377 0.26970544 0.045476742 -0.049002875 0.09441389
-0.24738574 -0.05111966 0.27756205 0.24916849 0.0006281802 -0.12179877 -0.1644783 0.15470953
-0.10617308 0.06860912 -0.055399485 -0.108586594 0.17287861 -0.07001374 -0.027241506 0.057342008
-0.08739356 -0.060949814 0.013492084 0.018236121 0.029866545 0.2732487 -0.06117408 0.2804235
-0.24800403 -0.16741821 -0.034401897 -0.05361511 -0.12659366 0.18047963 0.12630555 0.30465382
-0.16962448 -0.061856493 -0.22642756 0.22495657 -0.17896791 -0.07166302 0.1811683 0.072648235
-0.18246487 0.092608884 -0.06828612 -0.074498914 0.18683738 -0.2229818 -0.2265779 0.1504286
-0.27597564 0.03930514 -0.06546054 0.24769154 -0.06977613 0.0234347 0.005613349 0.16857804
0.19324324 0.044167098 -0.02573255 0.1013845 0.19780609 -0.20159605 -0.013878455 0.17939097
-0.26462007 -0.12109811 -0.13093856 0.17838688 0.22093394 0.09697568 -0.28511164 -0.25466838
0.1692165 -0.03051026 -0.07588167 0.026952088 -0.19150163 0.029212795 -0.045566346 0.2792064
0.11497322 0.10582015 -0.159954 -0.0887241 0.06785616 0.22812329 0.23986071 0.09453415
0.22379635 0.11283791 -0.17499243 0.10892543 -0.28040898 0.073815756 -0.12885273 0.0032065276
0.15448898 0.28820994 -0.19833033 -0.27428666 0.100848675 -0.17329812 -0.19597892 0.27990177

bias f4 [64]
00000000: afb2 88bd 37d5 cbbd 562c 723e 51cd 84be
00000010: a0a3 8a3e 5f06 77be 84b5 0fbe caee 813e
00000020: 9ac2 88be 4670 87bd 42dc 69bc 885d 203b
00000030: 1d63 76be 01d6 0f3e f5ec 4a3e 40a9 47be
00000040: a4b4 583e ec79 3e3e 2ca9 d43d 3e04 2b3e
00000050: bb7a 47be 8d0e 133e 0474 27be 78a3 023e
00000060: c951 c03d 16b1 52be 5259 5bbe 8867 163e
00000070: 933b 913e 2555 afbd 2bac c4bb 0480 84be
00000080: 62f0 72bd 17af 55be 010d f53d 530d 7dbc
00000090: 6902 83be 71b0 b73d c617 2cbe c8b6 1abe
000000a0: be02 5fbe 2321 57be ec70 36be a635 813e
000000b0: 8f48 b03d 2fd3 493e c1ce 1f3e 5c8b 323e
000000c0: 6916 223e 79ea 523e ec78 bebc 9f8a 1ebe
000000d0: df0d ccbd c75d 843e 1516 cb3d d3f2 d93d
000000e0: bef1 063e 9c72 23be 45d6 bf3d 5ed3 7d3e
000000f0: 6ecb 423e 06f4 2c3d 395d 303d 8135 86be
-0.06674706 -0.09952777 0.23649725 -0.25937894 0.2707796 -0.24123524 -0.14034086 0.25377494
-0.2671097 -0.06613211 -0.014273705 0.0024469811 -0.24061246 0.1404648 0.19816954 -0.19498158
0.21162659 0.18601197 0.103838295 0.16700837 -0.19480412 0.1436102 -0.1635285 0.12757671
0.09390599 -0.20575365 -0.21420792 0.14687932 0.28365764 -0.08561162 -0.0060019693 -0.25878918
-0.05931128 -0.20867573 0.11965371 -0.015445071 -0.25587776 0.089692004 -0.16805944 -0.15108788
-0.2177839 -0.21008734 -0.17816514 0.25236243 0.086075895 0.19709466 0.15606214 0.17435974
0.15828861 0.20597257 -0.02325102 -0.15482567 -0.09963583 0.25852796 0.09916321 0.10642018
0.13178155 -0.15961689 0.093670405 0.24787661 0.19022915 0.042224906 0.043057654 -0.26212695

in_proj_weight f4 [192, 64]
00000000: 6b50 483d e001 0fbd 7391 b63c 7a47 103e
00000010: 3f2f 083e bb16 04ba bd4f f63d 54f9 93bd
00000020: bb0f ab3d 8e45 fe3d 9d14 17bd 2b41 2dbe
00000030: 3e36 25bd 220c 8abd 4647 3f3d 20cb a4bc
00000040: 1c71 2dbe 45bb 79bd 9000 e93d d1a2 863b
00000050: 1366 243d 55b4 c73d 0d82 e7bc 2413 e93c
00000060: 86d9 17bd 8ab8 92bd 9af1 6dbd 9dbc 14bd
00000070: 742a 193c cc7e e93d 722a bcbb 25b8 283e
00000080: 0581 23bd 7529 29be f5b0 83bd f43f 003d
00000090: aa33 df3d 1312 e0bd cf68 96bd 9a28 753c
000000a0: f3dc a73c 0ce8 9bbd cac9 093e eab5 5e3d
000000b0: 5ac6 0abd 12cf 04bd 2237 003e 2a90 d13d
000000c0: 97e6 b2bc 0f9a cdbd eaa7 d0bc c626 e53d
000000d0: 0646 f23d 30e1 be3d a693 32bd 4d2c 933c
000000e0: 0580 943d d827 a63d 4aef 86bd cb6b d2bd
000000f0: 20a1 babd 4985 d93d 8256 b93c 11b9 0a3d
00000100: 0200 5f3d 0cf7 abbd 2b52 06be 6506 8cbd
00000110: cd20 12be 5334 53bc b285 8e3d 738f 05be
00000120: 5db7 303d eaca 6d3d dd81 08be 7682 1bbd
00000130: 58cd 223c e415 c23d 7a24 e1bd 0fc8 d93d
00000140: c9ca e73d 97a5 2f3d cbf6 05be d0fa c5bd
00000150: 6b24 96bb 0a44 a3bd d3c3 753d 6c54 debc
00000160: 2b68 073e a29b 9ebd 34c6 6bb9 e7c8 94bd
00000170: 75ad 4f3d ab9a f8bd 264e efbb 832d ca3c
00000180: e1e5 33be 1add 1b3c 711d 84bd 4390 1cbd
00000190: b32e b8bd 2ac4 08bc 46a8 f93d 67d4 e2bd
000001a0: 83f7 9cbd da5d 3cbd 444a b7bd ad4e f3bd
000001b0: 56be a33d 66b1 673c f819 a13d db6c 8e3d
000001c0: 4581 6e3d 1715 c0bc f693 143c fa0f 123e
000001d0: 1b85 3ebd f15c a93c 71b5 b13d 236b 0a3e
000001e0: ca80 d93a df72 fd3d 105e b6bd ef0e b4bd
000001f0: 9bdd 593d eddd d7bd 4fc3 0a3e 6655 f83d
00000200: 9a8b 3dbd ff1b f5bd 04fc 043d c5d0 6f3c
00000210: 8796 153e e90e 063e ff54 e93d 86b0 fcbd
00000220: 9087 86bd 25cf 093d 4e19 11bd 5727 bd3d
00000230: 6f62 923b 276c 143e b92f b5bc d05a f53d
00000240: a250 17be df15 f73d 105b edbd 4ae5 d83c
00000250: 78bf 203d 6d6a 523d db90 f2bd a0b7 b63d
00000260: ac5a 033d 01ea bd3d 48f1 213e 5970 18be
00000270: 21b2 ee3d 3c33 a1bd 43ff 5e3d bf15 103e
00000280: fc8b 84bd 4476 073e 0403 003e d667 4abc
00000290: 8d53 c4bd 4060 483d bbb1 c23c 9911 d1bc
000002a0: 89d3 283d 84f9 21be ff67 c3bd f8f0 0b3e
000002b0: 3f82 1ebd cd85 e4bd 08f9 52bd df0b 9b3d
000002c0: 7f21 b1bd 47f2 9b3d e2fc 75bc 39cd c63c
000002d0: 0039 ee3d 6c93 09be 48f6 12bd a6d6 e6bd
000002e0: 55a9 463d 35f5 79bc c21c 3d3b 6385 0fbe
000002f0: 33f6 95bd 4d55 243d 3ba8 3f3c c8f4 1c3e
00000300: aac9 afbc 5330 26bd 0a77 d0bb 7fd7 5d3d
00000310: e01c 25be b066 efbc 0e67 2f3c cf3c 54bd
00000320: ca8e be3c 255b e4bd da2c 07be b780 583c
00000330: 723b 2ebc 0d92 a63c cdb4 0dbe d870 133e
00000340: 7ef0 9abd c08d 59bd e4fa b73c 508f a3bd
00000350: f4c9 03be 6d6c b1bd e039 563c 83ee 95bd
00000360: 8060 c13d 9bc5 923c 46c0 063e 0197 c83d
00000370: 1aa8 b13b 453e 2c3d b8f1 023e cc3c aabd
00000380: d0bd 5fbd 8655 28bc fd00 8ebc f49a 77bc
00000390: 7fcd eebd c42f 80bd 50b6 db3d 2062 4d3d
000003a0: 792a f63d 1d02 e83d 1e94 bc3d ad03 d2bd
000003b0: be9a 13be e728 df3d d52f cc3d 85a5 0dbe
000003c0: d3fc c9bd e6c7 0abb ad8c e03d 5736 cf3c
000003d0: 5478 7abd a067 ab3d b0c8 1cbd 57fd 143d
000003e0: bc41 bf3d 014c bdbd ab4a cfbc 1b50 da39
000003f0: 915e aa3d d9a8 02be f67c 863d cfef d03c
0.048904818 -0.034913898 0.022286152 0.14089766 0.13299273 -0.00050387875 0.120269276 -0.0722529
0.0835261 0.1241561 -0.036884893 -0.16919391 -0.040334933 -0.067405954 0.04669883 -0.020116389
-0.16937679 -0.06096961 0.113770604 0.0041087647 0.040136408 0.097511925 -0.028260255 0.02845151
-0.03707268 -0.07164104 -0.058091737 -0.03631269 0.0093485005 0.11401138 -0.0057423646 0.16476496
-0.039917964 -0.16519721 -0.06430236 0.03131099 0.10898526 -0.109409474 -0.073442094 0.014963293
0.020491099 -0.07612619 0.13455883 0.054372706 -0.03388057 -0.03242404 0.12521031 0.10232575
-0.02183847 -0.1003915 -0.025470693 0.11189036 0.11829762 0.09320295 -0.04359784 0.01796546
0.0725098 0.08113068 -0.065886095 -0.10274466 -0.091127634 0.10621125 0.022624258 0.0338679
0.054443367 -0.0839673 -0.13117282 -0.06837157 -0.14270325 -0.012890893 0.06959094 -0.13043003
0.04314362 0.058054842 -0.13330789 -0.037966214 0.009936653 0.094768316 -0.109932855 0.10633861
0.11317975 0.04288253 -0.13082425 -0.09666979 -0.004581978 -0.07971962 0.060001206 -0.027139865
0.1322333 -0.07744528 -0.00022485183 -0.072648816 0.05070253 -0.121388756 -0.007303017 0.024679905
-0.1756816 0.009513164 -0.06450928 -0.038223516 -0.08993282 -0.00834755 0.12190299 -0.11075669
-0.076643966 -0.04598794 -0.08949712 -0.118802406 0.07995288 0.014141416 0.07866281 0.06954356
0.05822875 -0.023447556 0.00906848 0.14263907 -0.046513658 0.0206742 0.08677185 0.13517432
0.0016594168 0.123754255 -0.0890466 -0.08791911 0.053189855 -0.10540376 0.13551067 0.121256635
-0.046275713 -0.119682305 0.032466903 0.014637177 0.14608203 0.13091625 0.11393165 -0.12338357
-0.06568825 0.033644814 -0.035424523 0.09236019 0.0044673006 0.14494382 -0.022117482 0.11980212
-0.14776853 0.120647185 -0.115896344 0.026476521 0.0392451 0.051371027 -0.11844035 0.089217424
0.032068893 0.09273148 0.15814698 -0.14886607 0.11655069 -0.078711 0.054442655 0.14070795
-0.064720124 0.13228709 0.1250115 -0.012353858 -0.095862485 0.048919916 0.02376639 -0.025521087
0.04121736 -0.15817839 -0.0954132 0.13666141 -0.03869843 -0.11158333 -0.051507026 0.075706236
-0.08648967 0.0761457 -0.015013905 0.02426778 0.11631966 -0.13435143 -0.035879403 -0.1127141
0.04850133 -0.015256216 0.0028856252 -0.14015727 -0.073223494 0.04012041 0.011697824 0.15327752
-0.021458466 -0.04057343 -0.006361847 0.05416059 -0.16124296 -0.02922377 0.0107057225 -0.051815804
0.023261447 -0.11150197 -0.13200703 0.013214282 -0.01063429 0.020333314 -0.13838501 0.14398515
-0.075654015 -0.0531137 0.022458501 -0.07986319 -0.12870008 -0.08663259 0.013075322 -0.07320883
0.09442234 0.017916491 0.13159284 0.09794427 0.0054216506 0.042051572 0.12787521 -0.08312377
-0.05462438 -0.010274297 -0.017334456 -0.015112627 -0.11660289 -0.062591106 0.10728133 0.050142407
0.1201982 0.11328528 0.092079386 -0.10254607 -0.14414498 0.108964734 0.09970061 -0.13832672
-0.098626755 -0.0021176278 0.10964332 0.025294466 -0.06114991 0.08369374 -0.038277328 0.036374416
0.0933871 -0.09243012 -0.02530416 0.00041639883 0.08318818 -0.12759723 0.06566803 0.025504975

in_proj_bias f4 [192]
00000000: 9252 aabc b9cc 083c b208 e039 375c 8ebc
00000010: 04cd a93c 15d9 bf3c 0a92 9bbc 5688 fcbb
00000020: e00c 8f3b 0fdb 123c 1552 85bc 0755 863c
00000030: 130f bf3b c79a be3b ecdb 093a ebb6 143c
00000040: 09b7 133b 8469 2abc e3b4 5c3c cad1 433c
00000050: 3009 cb3c 2ae8 ee3b 5e2e 373b 22c2 87bc
00000060: 34b6 d8b9 e9e4 a138 0584 12bb 73a5 223b
00000070: bbe3 973a 00c8 a1b9 094d eaba 4cae 18bc
00000080: e0fb c33b d7fe 8ebc 0ff9 19bc 86fa 963c
00000090: 3565 783c b292 b3bb 5c79 4e3b abd7 bdbb
000000a0: 6adf b1bc 2c64 033c aaad 593b 937e 16bc
000000b0: e5ab c6bc bd4d d83a 1f6b c13c f3bd 433b
000000c0: 22bc 3bbb 2d41 b43b 3d16 d93b 346f 4a3c
000000d0: a465 6bbb 6ded 93bb 0519 7bba 9544 493c
000000e0: f516 293c b25b 94bc 5fa6 16bc 468a a63b
000000f0: edd6 43bc 23b7 abbc da22 33bc b570 c0bb
00000100: eaff 54b9 ab53 96b9 f448 e236 f213 9138
00000110: 0a01 c338 5ecb 1939 6b93 3539 55b3 8a39
00000120: 8586 a1b7 b397 35b7 48f0 89b9 93be 1eb9
00000130: 1bae 7037 5536 bfb9 ceef df39 de3b f737
00000140: 3008 c435 826e 4eb9 3e73 7139 95a9 5439
00000150: 2510 d8b9 5528 8438 ff7c 9cb9 8568 1c3a
00000160: 81fb aeb9 fce5 e339 cd62 f6b7 582f 9eb7
00000170: 87e3 103a 3ded bc39 24f6 5539 90e4 60b7
00000180: fcfc a0ba 1406 86ba c660 733a 3980 8e39
00000190: 7cde 52ba 4b0b a23a b63f b7b8 7c8d c7b9
000001a0: 347e 51b9 41f8 c137 b6c0 413a 82dc 89b9
000001b0: 19e7 6e3a 194e 36ba 68bc 77b9 9bb3 113a
000001c0: c5d2 8239 ddc0 f137 c345 7039 a0c4 0cb8
000001d0: fa1e e1b8 5e73 adb8 74c8 6139 50e2 31ba
000001e0: 231d 4dba 7ef7 40ba 8c2f b03a 3d93 b939
000001f0: e441 5fba 0564 7039 21e4 9ab9 aae6 2eb9
00000200: 8771 183b 45b8 8ebb 415b b03a e946 8fbb
00000210: 8029 c7b9 debf f03b 5c9a a73b d5b1 5c3b
00000220: f1e3 ceba 4071 d9bb 1adc c73a 47b4 9f3b
00000230: 4af5 ce3b 0480 0b3c 1e40 373b 7bfc 29bb
00000240: caaa ae3b 0cf1 a5bb b93e 90bb f60e 9e3c
00000250: 1a16 52bc 5a3b 2cbc a818 c63b 87f9 bc3b
00000260: c752 05bc 28ab 9fbb ae72 babb 4c28 7c3a
00000270: 6c9d f9ba 6733 513c 6e7c e5bb 503a de39
00000280: 5ddd 463c 3b8b c43b 1be1 38bc db85 6db9
00000290: 06b9 243b 4d54 0e3c 5acc c33b 22e8 a63c
000002a0: 47e4 abba 88a9 0abc 8376 ee3b 712d c6b9
000002b0: 0ac7 62bb c7b2 09bc 1df7 a83b ad64 18bc
000002c0: 130b 123b 7835 11bb 41b9 bebb 1e2d 0c3b
000002d0: 777e 69bc 0672 3cbc 49b5 b73b ed25 0c3c
000002e0: 3d7f 28bc 61ed 80bb 2c01 03bb be32 d93b
000002f0: 74d9 9ab9 5972 293a 474a 153c 80ad 6e3a
-0.020791326 0.008349591 0.00042731088 -0.017377956 0.020727642 0.023418942 -0.018990535 -0.007706682
0.0043655485 0.00896336 -0.016274491 0.016397966 0.0058306544 0.0058167907 0.0005258906 0.009076814
0.0022539517 -0.010401133 0.013470861 0.011951873 0.024784654 0.0072908597 0.002795122 -0.016572062
-0.00041334482 7.719716e-05 -0.0022356522 0.0024817854 0.0011588255 -0.00030857325 -0.0017875741 -0.009318899
0.0059809536 -0.017455501 -0.009397759 0.018430006 0.015160848 -0.005480134 0.0031505441 -0.005793532
-0.021712977 0.008019488 0.0033215084 -0.009185451 -0.024251888 0.001650266 0.02361065 0.0029867857
-0.0028646071 0.0055009336 0.0066249655 0.012355614 -0.0035918737 -0.0045143873 -0.00095786183 0.012284418
0.010320415 -0.01811013 -0.009194939 0.0050824014 -0.011953098 -0.02096135 -0.010933602 -0.0058728107
-0.00020313231 -0.00028672567 6.7438177e-06 6.917854e-05 9.298518e-05 0.00014666977 0.00017316423 0.00026455024
-1.9255336e-05 -1.0823761e-05 -0.000263097 -0.00015139049 1.4345652e-05 -0.0003647084 0.00042712543 2.9472572e-05
1.4605521e-06 -0.00019686858 0.00023026482 0.0002028107 -0.0004121076 6.301763e-05 -0.00029847768 0.00059665024
-0.0003337525 0.00043468166 -2.9371493e-05 -1.8857114e-05 0.0005527068 0.0003603491 0.00020404957 -1.3404657e-05
-0.0012282426 -0.00102252 0.0009284135 0.00027179884 -0.0008044017 0.0012362985 -8.737987e-05 -0.00038061652
-0.00019978808 2.3122995e-05 0.0007391082 -0.00026294967 0.0009113416 -0.00069543865 -0.00023625942 0.00055580743
0.00024952568 2.8819248e-05 0.00022914172 -3.3561722e-05 -0.00010734606 -8.270772e-05 0.00021532347 -0.00067857374
-0.0007824471 -0.0007361098 0.0013441904 0.0003539565 -0.00085165934 0.00022925444 -0.00029543138 -0.00016679862
0.0023261027 -0.0043554627 0.001345493 -0.004372467 -0.00037987158 0.007347091 0.0051148366 0.0033675332
-0.0015784485 -0.006635815 0.001524809 0.0048737857 0.006315862 0.008514408 0.00279618 -0.0025937844
0.0053304182 -0.0050641354 -0.0044020084 0.019294243 -0.012822652 -0.010512197 0.0060454197 0.0057670507
-0.008137411 -0.0048726983 -0.0056899404 0.0009619042 -0.0019044108 0.012768603 -0.0070033586 0.00042386586
0.012137738 0.005998043 -0.011284138 -0.00022651946 0.0025134697 0.008687091 0.0059752883 0.020374361
-0.0013114297 -0.008463271 0.0072773113 -0.0003779936 -0.00346035 -0.00840444 0.0051564113 -0.009301347
0.0022284433 -0.0022157114 -0.005820424 0.0021389197 -0.014251343 -0.011501795 0.0056063277 0.008553964
-0.010284242 -0.003934548 -0.0019989712 0.0066283634 -0.00029535184 0.00064638775 0.009111947 0.0009104833

weight f4 [64, 64]
00000000: 3f55 503d a690 04bd bfd4 78bc 8f6e 9f3d
00000010: 7d6d 8c3d 1647 c3bd 2ad1 993d 5935 98bd
00000020: aa36 303c a97c 663d 170e 82bc daf9 ec3d
00000030: 9aa4 533d b4d6 dc3d 7781 33bd 8e28 c5bd
00000040: 3cc2 0b3e 57c3 81bd 2bca e73d a5f4 fdbd
00000050: 33fd 113d f27c 223d bffe cebd 539d 0b3e
00000060: abd0 9c3d c20c d2bd 477f 86bd 58bb ccbd
00000070: a9d4 d73d 5459 d23c d8e5 1abd 76ff d23d
00000080: e403 25bd ba20 2e3a 10db 6abd 919e 673d
00000090: 7b80 f93c 9b57 f8bd 3528 1b3d ca60 f63d
000000a0: db28 e63c 079b bdbd f565 d7bd cfc9 c9bd
000000b0: 1191 4e3c 91d6 96bd 91e5 9a3d b2ea fbbc
000000c0: 0850 e2bd 8fc9 cf3c ed28 f0bd 3ecd 053e
000000d0: f530 bebd 2710 bc3d e1c7 c5bd 1d8c 833c
000000e0: ab9d 80bc dd00 8bbd ca41 69bd 5773 71bd
000000f0: 12e1 3fbc 4a1a a33d 64c5 433d b23d f3bd
00000100: 30e0 ad3c b05b 82bd 5f89 a0bc a74c 6dbc
00000110: ba49 6c3d f0af a23d 8bce c33d 3480 c3bd
00000120: 2f55 b8bd bdb9 1bbc d11a 1cbc 2c86 ef3d
00000130: 1669 213d f6fc 96bd 3ab5 7abd 804b ea3d
00000140: e16a 03be 235a a4bd fe4e d93d 0aa9 713c
00000150: e794 163c f721 e8bc 62fb efbd df3e 04be
00000160: 2cb9 fbbd 60f3 adbd 28dc d13c 8fa3 293d
00000170: fd4b a8bd 2092 d4bd 9d81 8fbc 8cd7 743d
00000180: d37c f7bd e3a9 efbc c98b aebd 9b5a e93c
00000190: 3203 4cbd b836 be3d d01e 10bc 7c0f f5bc
000001a0: 574e 1abd 8705 9fbd 6709 a9bc ef3f 9fbd
000001b0: ef45 70bd a430 f33d 75aa 28bd 42e1 c9bd
000001c0: 61d6 cb3c 280e 253d 1793 c6bd 5dd4 273d
000001d0: c4d3 54bc cec0 103d 0c8e bfbd 34e7 e6bd
000001e0: c840 ec3b 66f8 053d fed4 b03d d516 7e3c
000001f0: bd1f 12be 0f60 e1bd 1616 cdbc e179 e7bd
00000200: 9992 c53d 85a8 b9bb b3c3 0dbd fed0 903d
00000210: d58a 063e 8a93 1e3d 7293 92bb 3c5d bc3d
00000220: 8de8 06be a0da d8bd 55e3 4c3d b2b6 cc3d
00000230: d8a7 02ba ec68 133d 2983 153d 5f38 5a3d
00000240: 0ae1 4b3d ff50 bd3d ad12 babd 32de 973d
00000250: e2e9 7abc 8c4b 98bc f8a1 ad3d f16e 3cba
00000260: df47 cf3d 281f 76bd 518a 863c ff9d 38bb
00000270: 50fb d8bd 9842 363d 8e1b 92bd 60b7 ea3d
00000280: df68 7abc ea24 d5bd e834 d83d 16f1 123e
00000290: 6f63 6bbd a1eb c3bd ef2e 21bd 0597 7cbd
000002a0: e82b a1bd 7b05 79bd 4e25 4abd fa37 153d
000002b0: 620d 543d e19b 8f3d dc64 8cbd b402 d53d
000002c0: 16d4 06be 4392 8a3d 731c ab3d 83ec 16bd
000002d0: 3b75 d83d d4cb 03be faf2 8fbd 93a0 f03d
000002e0: 14dd 9cbd ef95 3abc 84c8 8e3d 970d 8c3d
000002f0: e754 c73d faa1 4f3d f9f8 a63d 8123 84bd
00000300: 12d9 94bd ccc5 d3bd 8209 8a3d c80a a43d
00000310: 658f 95bc 58dd 5abd 74c9 e0bd 765f 833c
00000320: b734 333d 02c4 7a3d 3a9d a03b 8f63 da3b
00000330: ca56 e43d 5c3d 9e3c 9724 dabd 288c d3bd
00000340: 16bc eebc dc8e c4bd 7689 a33d b1e2 613d
00000350: 9968 bd3d 4a6e a2bd 1ee6 653c 1d38 f9bb
00000360: 699c e73d be15 003d b4d7 5bbc de11 8cbd
00000370: de2c 2abd fb89 973d a974 a4bc 0d0c 8c3b
00000380: 50cf 63bd b5d3 a5bd 5d06 103d 0f8c 8c3d
00000390: 8015 f13c 74f9 31bd 6fd2 91bd 35fa acbd
000003a0: e430 87bd 1379 863c 9e54 5e3d f7d0 d93c
000003b0: 7a96 54bd 51d5 fd3d 3afe f53c cb1c 1b3d
000003c0: 8568 6b3d 7acd 963d e635 ab3c ca71 cc3c
000003d0: c9bc 6ebd ecfb ee3d e655 a2bd 5fd9 7abd
000003e0: 09f0 e5bc 104c 783d d106 893d d799 d3bd
000003f0: 33ec 36bb 49e4 e4bd 8d2e dbbd 8a50 00bd
0.050862547 -0.03236451 -0.015187441 0.07784759 0.06856821 -0.09535043 0.07510598 -0.0743205
0.01075522 0.05627123 -0.01587586 0.11571093 0.05167065 0.10783139 -0.04382464 -0.09626876
0.13648313 -0.06336086 0.11317857 -0.12400178 0.03564186 0.03966994 -0.10107183 0.13634233
0.07656988 -0.102563396 -0.06567245 -0.099966705 0.105386086 0.02567736 -0.037816852 0.103026316
-0.040286914 0.000664245 -0.05733782 0.056547705 0.030456772 -0.121260844 0.03788014 0.1203018
0.028095653 -0.09258085 -0.10517494 -0.09852945 0.012607829 -0.07365144 0.075633176 -0.03075156
-0.11050421 0.025364665 -0.11726556 0.13066575 -0.092866816 0.09182768 -0.096572645 0.016058022
-0.015700182 -0.06787274 -0.056947507 -0.058947887 -0.011711376 0.079639986 0.04779567 -0.11877002
0.021225065 -0.06365144 -0.019596754 -0.014483607 0.0576875 0.07943714 0.09560879 -0.09545937
-0.090006225 -0.009504733 -0.009527878 0.11695513 0.03940686 -0.07372467 -0.061207987 0.11440182
-0.1283374 -0.08025005 0.1061077 0.014749775 0.0091907745 -0.028336508 -0.11717869 -0.12914608
-0.12291178 -0.08493686 0.025617674 0.041415747 -0.082176186 -0.10379434 -0.01751786 0.059775874
-0.12084355 -0.029255813 -0.08522756 0.028485587 -0.049807735 0.092877805 -0.008796409 -0.02991461
-0.037672367 -0.07764726 -0.020634366 -0.07775866 -0.058660444 0.11874512 -0.041178185 -0.09857418
0.024882497 0.040296704 -0.09696024 0.04097401 -0.012989942 0.035340123 -0.09353265 -0.11274567
0.007209871 0.032707594 0.08634375 0.015508373 -0.1426992 -0.1100465 -0.025034945 -0.113025434
0.09647102 -0.005665841 -0.03461046 0.07071112 0.13138898 0.038714923 -0.0044731433 0.091974705
-0.13174649 -0.105885744 0.05002149 0.09995784 -0.0004984117 0.035988733 0.036502037 0.053276416
0.04977516 0.092439644 -0.090855934 0.07415427 -0.015314551 -0.018590711 0.08478159 -0.00071881624
0.1012113 -0.060088307 0.016423376 -0.0028170345 -0.10594809 0.044497102 -0.07134162 0.11460757
-0.015283792 -0.104074314 0.10556966 0.1434978 -0.057467874 -0.09566427 -0.0393514 -0.06166746
-0.078697026 -0.060796242 -0.049351983 0.036430337 0.051770575 0.070121534 -0.06855175 0.10400906
-0.13166842 0.067661785 0.08355036 -0.03684665 0.10569235 -0.12870723 -0.07028766 0.11749377
-0.07659355 -0.011388286 0.06971839 0.068385296 0.09732991 0.050691582 0.081529565 -0.06452084
-0.072679654 -0.10340461 0.06740095 0.08009869 -0.018256852 -0.053433746 -0.10975924 0.01603673
0.043751445 0.061222084 0.0049015554 0.0066647003 0.11149366 0.019316368 -0.1065151 -0.10329467
-0.02914242 -0.09597561 0.07985203 0.05514783 0.09248466 -0.07931192 0.014031915 -0.007605566
0.1130913 0.031270735 -0.013418127 -0.068393454 -0.041546695 0.073993646 -0.02007516 0.0042738975
-0.05561763 -0.080970205 0.03516232 0.068626516 0.029429197 -0.043450788 -0.07120215 -0.08446161
-0.06601122 0.016415155 0.054279916 0.0265889 -0.051901318 0.123942025 0.030028451 0.037869256
0.057472724 0.0736341 0.020899724 0.024956603 -0.05828551 0.11669144 -0.0792654 -0.061242457
-0.02806856 0.060619414 0.06690753 -0.10332077 -0.0027911782 -0.111763544 -0.10702238 -0.031326808

bias f4 [64]
00000000: befd 013b 250d e6ba 3237 96b9 e9cd 4bbc
00000010: 21b4 8bbb 0448 4b3a e5a9 be3b e032 06b9
00000020: 7792 893b 97cd a0bb 0727 b63b eb06 b2bc
00000030: aa27 02bb 2b8c 0a3c 77f9 913a a73e 713c
00000040: f983 e3b9 3c64 d4ba 603f 8b3b abe0 38bb
00000050: f046 2cbb c40d e1b8 7d79 2a3b 6b52 a83b
00000060: e7c7 c837 f029 b9bb 4b46 06bc 5bc2 293b
00000070: fcad ea3b 0eb4 26bc 6fbf 54ba 2640 623c
00000080: 2809 84ba 2b6b e4bb d2ac e5bb 4745 09bb
00000090: cb29 ca3b 48ce fe3a ca57 003b 4f87 ce3b
000000a0: 214b a53b 5347 b3bb c918 cbbb a374 963b
000000b0: cc02 cf3b b8f0 72bb bdbd a93b 9bc5 94bb
000000c0: 0554 a23b ca7b 9e3b 3aac 86ba 8a8d d03b
000000d0: 4cba 5b3c dc84 2abb 6ab8 80ba fee1 3ab9
000000e0: bb92 26bc fd6d a13a 271d 323b ece1 e63b
000000f0: 7cf9 0e3c 2524 b7ba d2ce 6b3b a482 14bc
0.001983508 -0.0017551525 -0.00028651353 -0.0124392295 -0.0042634164 0.00077545666 0.005818593 -0.00012798188
0.004198368 -0.0049073207 0.0055588516 -0.021731814 -0.0019860067 0.00845627 0.0011136968 0.01472441
-0.0004339514 -0.0016204189 0.0042494982 -0.0028210084 -0.00262874 -0.000107314 0.0026012354 0.005136778
2.3934945e-05 -0.0056507513 -0.00819547 0.0025903198 0.007161854 -0.010174764 -0.0008115684 0.0138092395
-0.001007353 -0.006970783 -0.007009127 -0.0020945834 0.006169533 0.0019440139 0.0019583576 0.006302751
0.0050443565 -0.005471149 -0.006198023 0.004591541 0.006317472 -0.003706975 0.0051800893 -0.004540158
0.0049538636 0.004836534 -0.0010274716 0.006364529 0.013411116 -0.0026019132 -0.0009820585 -0.00017822531
-0.010166819 0.0012316104 0.002717802 0.007045975 0.008726474 -0.0013972564 0.0035981429 -0.00906435

weight f4 [256, 64]
00000000: 6c08 663b b3cd 50bd 0372 71bd b724 efbd
00000010: b96d a1bc e11f 833c 0cc1 dfbc 8bfc a53d
00000020: 13ae 0abe ea71 60bc f0ad c73d bcae c3bd
00000030: a625 37bd 7adc 93bd 6a6d e0bd 6f29 983d
00000040: e266 0d3d f143 113d 4dd9 98bc e4aa 003e
00000050: 741b 923d 49c7 3ebd 7a6a bcbd 8d9a fc3d
00000060: a475 92bc 61ce 43bd 8195 6c3b 91ff 473d
00000070: 199d ae3d c8e6 683d 9f65 973d f069 61bd
00000080: 3ca8 f73d c0fa d03d ee27 14be 0969 f6bd
00000090: 5587 26bd cd25 39bd 5115 c73c f2d5 fb3d
000000a0: 7dfc bc3d f6a7 7c3d d616 56bd f1a1 0abe
000000b0: a897 c8bd 6861 4abd 4862 4e3d 4a6e 71bd
000000c0: 926e 0bbb 1098 e4bd 4b5c bd3c 0a04 9b3d
000000d0: 822e 113c 041b c3bd b1ec 07be 89e9 9b3c
000000e0: b420 efba 598e 863d 3f0c d8bc 86d1 bdbd
000000f0: f05a e33d f723 a13d 152f 9c3d 8940 b3bd
00000100: bcea e4bd bf89 56bd fd86 6b3c 5699 253d
00000110: 289b 8d3c 49c0 8cbc d3f0 9b3c 8615 33bc
00000120: 5f5c 813b fb4b f03d 678a c83d 0584 803d
00000130: 11c3 573d 6d77 c2bd fc52 073d 97b7 80ba
00000140: 8a26 a1bc 1bdf 953d 69ae 5bbd 0a3a 483d
00000150: d84e 423d 9b92 71bd 14e8 aa3c 62b8 8b3d
00000160: 89c9 a23d 7cb6 213d 13ae 39bd 4aeb e53c
00000170: 1d75 29bd 32e7 9cbc 948e f93c ecc5 d63c
00000180: 4b7a d1bd a55c d73d 340f adbd e8f3 9bbd
00000190: c064 17bd e26d 493c 2da3 99bd 1a4d 593d
000001a0: 8995 9b3d 93cf 7b3d 1185 983d cf95 443d
000001b0: 4d4d 84bc bf5a 80bc 7088 043d 9404 90bd
000001c0: 812c 88bc 7eae dabd 209f 753d 5d0d bcbc
000001d0: 252a b23c 7dac 05bc 9c10 673d 7bdf 68bd
000001e0: 4371 d0bd e3ca 013e 91ae 89bd 0ad6 03be
000001f0: d3db 8cbc bb7e cb3d 6b4f 65bd d81b 05bd
00000200: a738 dfbd 8c33 b73d 4762 0a3d b3e5 e13d
00000210: 97f5 793d 5ea5 763d c48f 90bd 7ec1 5eb9
00000220: fb2f ea3d 336e 4c3c 535d 333d 4cf2 84bd
00000230: ca68 de3d e9ef c93d 20e9 b43d 3b91 063c
00000240: f13a e2bb 2cd4 f6bc 4438 e63b 3991 a7bc
00000250: 3be7 c43d 38f5 95bd 5bf7 d3bd 28f3 c53c
00000260: d4b6 66bd 0a9a 873d 2d00 e6bd 8f0c bbbc
00000270: 8286 be3d 1fb2 aa3d 0425 023e bc00 3abd
00000280: 73f2 2c3d 3798 86bd e0b0 ed3c 438a 7fbd
00000290: 1e69 f03d 7e78 723d c9d1 693b c06d 983d
000002a0: 0b75 263d 2e0a c53b 6d03 b23d bdf2 e43d
000002b0: e8ca 3e3c b6ab 3abd 2953 60bd d75c e73c
000002c0: d41c ddbd d6f6 adbc f42b 813b 7b20 be3d
000002d0: 7ba1 203b 10df 59bd 3dd8 953d 8321 f33d
000002e0: 3882 033e 07e3 81bd 848a a33d 0a28 4c3d
000002f0: 4636 263b 65e6 e4bc aa39 82bd 678a 95bd
00000300: 17c6 863d a6de e33b 763b 093e 4e14 4a3c
00000310: af5a 9d3d c2a2 a6bd a929 643d 6391 883d
00000320: ba85 7ebc 0e59 9b3d cef4 25bc 8873 813c
00000330: 6bbb bf3c b790 f83d 66ca e63d 4716 f8bc
00000340: 6778 c13c c286 dabd e0b9 7e3d bfd4 d93c
00000350: bd43 b0bd 147c 8c3d 9b8e eabd e9a6 80bd
00000360: 6729 89bc 7b15 83bd 76b4 80bd 7fbc 7abd
00000370: d194 60bd 131d c0bd 0ec0 90bc d57f ccbd
00000380: b24b 86bd 3cf2 f3bd 691c 8d3c 9392 f1bd
00000390: 01e4 38bd b66d 28bd c169 cd3d e13f d3bd
000003a0: 5734 45bc 2f7d 52bd 43c8 b43d 28f6 523d
000003b0: f32f 2d3d 4558 f6bc 8671 e13d 6b9e 9dbd
000003c0: 5eb6 debd df59 cf3d 357a b8b9 7c89 2fbc
000003d0: c4e8 d33d 3aea 9ebc df83 50bc 830c e83d
000003e0: ab66 b6bc 9c4b d4bd cadc 8f3d 60a4 1abc
000003f0: 4a43 ce3c cadb 803d 585e 013e 96c1 05be
0.0035100235 -0.05097742 -0.05894662 -0.11676925 -0.01970564 0.016006412 -0.027313732 0.081048094
-0.13542967 -0.013699034 0.09749973 -0.09554812 -0.04471364 -0.07219787 -0.10958369 0.07429778
0.034521945 0.035465185 -0.018658305 0.1256519 0.071341425 -0.046576772 -0.09199996 0.12334166
-0.017878361 -0.04780424 0.0036099853 0.04882771 0.08526058 0.056860715 0.073924296 -0.05503267
0.12092635 0.10204077 -0.14468357 -0.120317526 -0.040656406 -0.045202065 0.024302157 0.12296666
0.09227846 0.061683618 -0.05226787 -0.13538338 -0.09794551 -0.0494093 0.050386697 -0.05894307
-0.0021275622 -0.11161816 0.023115298 0.0756913 0.008861186 -0.09526637 -0.13273884 0.019032257
-0.0018243999 0.065701194 -0.026373027 -0.09268479 0.11101329 0.07868188 0.07626168 -0.087525435
-0.111775845 -0.05237746 0.014375445 0.040429436 0.017285898 -0.017181532 0.019035732 -0.010930425
0.003947779 0.11733242 0.09792023 0.06275181 0.052676264 -0.09495435 0.033038124 -0.0009820339
-0.019671697 0.073179446 -0.053633127 0.048883475 0.047438473 -0.058977704 0.020862617 0.068222776
0.07948596 0.03948067 -0.045332026 0.028066296 -0.041371454 -0.019153211 0.030463494 0.026217423
-0.10228404 0.105157174 -0.084501654 -0.07614881 -0.036961317 0.0122942645 -0.075018264 0.053052045
0.07596881 0.061477255 0.074472554 0.04799443 -0.016150141 -0.015668271 0.03235668 -0.07032123
-0.016622784 -0.10677813 0.059966207 -0.02295559 0.021748612 -0.0081588 0.056412324 -0.056853753
-0.10177853 0.12675051 -0.06722749 -0.12874618 -0.017194664 0.09936281 -0.055983942 -0.032497257
-0.108994775 0.08945379 0.03378513 0.1103014 0.06102523 0.0602163 -0.07058671 -0.00021243651
0.11434933 0.012477445 0.043790173 -0.06491527 0.10859831 0.09860212 0.088335276 0.008213337
-0.006903999 -0.030130468 0.0070257504 -0.02045499 0.09614416 -0.073221624 -0.10349914 0.024163797
-0.056326702 0.066211775 -0.11230502 -0.022833137 0.09302999 0.08334755 0.12709433 -0.045410857
0.042223405 -0.065720014 0.029015005 -0.062387716 0.117387995 0.05919694 0.003567802 0.07442808
0.040638965 0.0060131764 0.0869206 0.11179111 0.011645056 -0.045573913 -0.054766808 0.028242512
-0.10796514 -0.021235865 0.003942007 0.09283539 0.0024510312 -0.053191245 0.07316635 0.11871626
0.12842643 -0.0634213 0.07985404 0.04984287 0.002536194 -0.027941892 -0.06358655 -0.07301789
0.065807514 0.006954032 0.13401589 0.012333943 0.07683312 -0.08136512 0.055703793 0.06668355
-0.015534813 0.07585345 -0.010129167 0.01580216 0.023404798 0.12136977 0.11269073 -0.03028406
0.023616983 -0.10670234 0.062188983 0.026590703 -0.0860667 0.068596035 -0.11452981 -0.062818356
-0.016743375 -0.064005814 -0.0628442 -0.06121492 -0.054829422 -0.093805455 -0.017669704 -0.099853195
-0.065574065 -0.11911437 0.017225461 -0.11795535 -0.045139316 -0.041120254 0.100299366 -0.10314918
-0.012036405 -0.051388916 0.088272594 0.051504284 0.042282056 -0.030071387 0.11007981 -0.076962315
-0.108746275 0.101245634 -0.00035186266 -0.010713931 0.10347131 -0.019398797 -0.012726753 0.113305114
-0.022265753 -0.10365984 0.07024534 -0.009438604 0.02517857 0.062919214 0.12633646 -0.13062128

bias f4 [256]
00000000: fea3 763c 5022 00be a38f d03d 16b7 3e3d
00000010: 170d 093d 9f14 3a3d 15de c7bd 9fd7 01be
00000020: 6957 fa3d b00a 40bc 0693 bdbd 4db5 b6bd
00000030: 5189 c13d 3036 863c 87a0 57bd 3f23 ae3d
00000040: a659 b0bc c9f2 b43c 587e 62bd ccb4 863d
00000050: ecd9 0abd 616a 96bd 9908 15bd bf0d 433d
00000060: 8ed6 efbd 17e8 8b3c 7648 adbc 3984 cf3d
00000070: 2f5f d03c 817c e43d 5fc3 643d 3d56 ba3d
00000080: 2381 913c 8c22 d5bd 9530 ca3d b29b 953d
00000090: 8235 d93d 3b26 bcbd 3c86 0b3d c0ef d4bd
000000a0: 19ba d6bc 1a30 b9bd 1552 a3bd 09f7 55bd
000000b0: 842f 583d 12ed bd3d c5e7 8a3d 06e6 93bd
000000c0: aee4 94b9 6a68 f0bc 0a1e c0bd c6b4 6d3d
000000d0: ff00 b9bd 4f5b 9ebd 0f54 893d aac8 443d
000000e0: 55ae 98bd 68e7 3ebd 93b4 a33d f468 1ebd
000000f0: 5c07 4c3c fbfa 4a3d 0835 4b3c d778 c2bb
00000100: ceab 66bc 62c9 653c a9ff 043d f4ec bebd
00000110: 68f2 a1bd 6200 aabc 8867 bbbc 0f95 ebbd
00000120: a7d1 ae3d 195d b33b 11e6 e3bd 8f9e 5c3a
00000130: 1f88 ab39 7cac 98bc 2c62 5fbd 3118 38bd
00000140: 4632 c5bd 016d e93d 93a9 56bd c547 ad3c
00000150: 9991 ebbd 9f8c 9dbd 8868 273d a543 fbbd
00000160: 2673 d1bc 1133 463d 22b0 6ebd acf7 8e3d
00000170: 5cf8 90bd 289a 673d b083 7f3d 4769 dabc
00000180: 6cc0 a5bd 1e21 ccbd a3b0 abbc c672 583d
00000190: c9d5 d43c 7aec 1f3d 1902 55bc 42d0 db3d
000001a0: c198 b33d 164b e23c 5b0a 2abd d429 e43d
000001b0: d1cf d73d a635 babc bc63 713c 8786 a2bd
000001c0: 1f75 ee3d a324 a73d f3cc 87bd 501a be3d
000001d0: e120 98bc 842e 4fbd 68c1 da3d 0583 d03d
000001e0: ab07 543c 615c 443d 4327 c8bd 684f 1a3c
000001f0: 35a4 14bc d8ee afbd e362 c3bc 954d 243c
00000200: 54b7 7b3d 8fa7 cc3d 56bd 6ebd 286f 523d
00000210: 8931 673d b88e f7bd 7307 54bd 2ccb febc
00000220: 9efe b4bd 20e1 4dbd 200a 443d 35d7 b9bd
00000230: 9da6 1bbd a903 dd3d ff6a 2fbd 7b7e e2bd
00000240: cd25 a73d c8a6 9c3d 24f6 803d f1e2 bd3d
00000250: 868e b23d e105 d4bd acd6 f4bc bfcf 8abd
00000260: 8ace 4c3d e8a0 983d 3a84 7c3d 6f64 45bd
00000270: 426f 693d 53d3 b7bd b046 ab3d 408d 2fbc
00000280: b7e0 e6bc b49d f13d 5d74 e4bd 265e 323c
00000290: d4ab 053d 4baf a0bd d7e4 df3d ace0 8e3d
000002a0: 8fda 01be 7a78 91bb fe4c 85bd 7fb8 8e3d
000002b0: 5f0b fdbc 5c3d d6bc 9ffe 6b3d 3fe7 a6bd
000002c0: 67e6 68bd 5882 eb3d 8f8f 2fbd fde8 b4bc
000002d0: d8ea f23d 1c43 b9bc 5714 653c 1923 94bd
000002e0: f12e 9fbc de52 6e3c a221 bebc ca9d 4c3d
000002f0: 1c62 8e3c c84a fabc e437 283d 11f2 843d
00000300: e27e 96bd 1626 de3d 21cd 5a3c 45ba 5a3c
00000310: 100a ac3d 1d5e 34bc cfb3 29bc 42eb ae3d
00000320: 3adb cd3c ba3c fdbc 95fe debc a86c 49bc
00000330: fbb9 293d cb08 e0bd 1745 dd3d dd82 703d
00000340: 35bf 39bd 28d9 9cbd ff25 babd 5976 db3d
00000350: c165 31bd 6cef b03d 34db 3cbb b6d3 aa3c
00000360: 5008 523c b7d2 443d cd6d 043d 594e b8bd
00000370: ec4d b83d 2927 4a3c 3d6d 18bd dc87 9abd
00000380: b446 d9bd 3bbb 97bd 51ff 673d 321d ab3c
00000390: cfff 1c3d 3c2b 573d 268a c33b cb36 cc3b
000003a0: 3c25 003d 8699 91bb ee33 1dbd 6053 953c
000003b0: 3b82 05be 382f 013c 8909 563d 8ac6 60bd
000003c0: 39c0 783d ec6b 79bc be73 f9bd 437f 5ebc
000003d0: f9ed 64bd fc03 583c e370 8fbc 0191 ce3d
000003e0: 10ca a9bb 47ae 20bd 3db7 9dbd c62c adbd
000003f0: 8cef 9b3c 6374 89bc 109f 84bd 6f0a eb3b
0.015053747 -0.12513089 0.101836465 0.046561323 0.03345975 0.045429822 -0.09759156 -0.12679909
0.122237034 -0.011721298 -0.09256558 -0.08921299 0.09450019 0.01638326 -0.052643325 0.085028164
-0.021527123 0.022088425 -0.055296272 0.06577453 -0.033899233 -0.07344509 -0.036385152 0.04762053
-0.11710845 0.017078442 -0.021152716 0.10132641 0.025436012 0.1115656 0.055850383 0.0909848
0.017761772 -0.1040698 0.098725475 0.07305087 0.10605909 -0.091869794 0.034063563 -0.10397291
-0.026211785 -0.09042378 -0.0797464 -0.052237544 0.05277969 0.09273733 0.06782488 -0.07221608
-0.0002839914 -0.029346664 -0.093807295 0.058033727 -0.09033393 -0.077322595 0.06705486 0.04804293
-0.07455126 -0.046607405 0.07993426 -0.03867431 0.0124529265 0.04955576 0.01240278 -0.0059348154
-0.014079047 0.014025064 0.03247038 -0.09322539 -0.079075634 -0.020752136 -0.022876516 -0.1150304
0.08536082 0.0054737446 -0.11127866 0.0008415961 0.0003271708 -0.018636934 -0.054536983 -0.044944946
-0.096287295 0.11397744 -0.052407812 0.021152386 -0.1150238 -0.07692837 0.040871173 -0.122687615
-0.025567602 0.048388544 -0.058273442 0.069808334 -0.07078621 0.0565435 0.062381446 -0.026661528
-0.08093342 -0.09967254 -0.02095825 0.05284383 0.025980847 0.03904388 -0.013000988 0.107330814
0.0876937 0.027623694 -0.041513782 0.111407906 0.10537685 -0.02273066 0.014733251 -0.07935815
0.11643433 0.08161285 -0.06630888 0.092823625 -0.018570365 -0.05058147 0.106814206 0.1018124
0.012941281 0.047939662 -0.097731136 0.009418346 -0.009072353 -0.08590478 -0.023850864 0.010028263
0.061454132 0.09992897 -0.058286034 0.051375538 0.056443725 -0.12087768 -0.051764917 -0.03110274
-0.08837627 -0.050263524 0.04786122 -0.090742506 -0.03800069 0.10791714 -0.04282665 -0.110592805
0.08161507 0.076489985 0.062969476 0.09271801 0.087185904 -0.10352684 -0.02988752 -0.06777906
0.05000166 0.074525654 0.06164954 -0.048191484 0.05699087 -0.08975854 0.08363092 -0.010714829
-0.028183324 0.117976576 -0.11155007 0.010886705 0.03263457 -0.078459345 0.109323196 0.069764465
-0.1268103 -0.0044394108 -0.06508826 0.069687836 -0.030889211 -0.026152305 0.057615872 -0.081495754
-0.056860354 0.114994705 -0.042861518 -0.022083754 0.11861199 -0.022615008 0.0139819 -0.07233257
-0.019431563 0.014546124 -0.023209397 0.049955167 0.017380767 -0.030553237 0.041068926 0.06491483
-0.0734842 0.10847108 0.013354571 0.013350074 0.08400357 -0.0110087665 -0.010357811 0.085409656
0.02512895 -0.030912746 -0.027221004 -0.012293972 0.04143713 -0.10939177 0.108041935 0.05871855
-0.045348365 -0.07658607 -0.090892784 0.107159324 -0.04330993 0.08639416 -0.0028817179 0.020852905
0.012819365 0.048052516 0.032331277 -0.08999319 0.089992374 0.012338438 -0.037213553 -0.07545444
-0.10609189 -0.07408758 0.056639973 0.020887945 0.038329896 0.052531466 0.0059673963 0.006232118
0.03128551 -0.0044433502 -0.038379602 0.018228233 -0.1303796 0.007884793 0.052255187 -0.05487684
0.060730193 -0.0152234845 -0.12180279 -0.013580146 -0.05589101 0.013184544 -0.017509883 0.10086251
-0.0051815584 -0.039228704 -0.077009656 -0.084558055 0.019035123 -0.01677913 -0.06475651 0.0071728746

weight f4 [64, 256]
00000000: 701c 20bc 68e7 8b3d 35b9 5e3d e8c1 09bd
00000010: 9017 11bd 4ff2 13bd f012 133d 7704 bb3c
00000020: 02bd 6dbb 0c39 973d 94ea 14bd 4722 433b
00000030: 6009 0abd 216a 473c 2fb8 53bb 2cb7 b43b
00000040: 0d4a 1a3c 26ae 543d e4c1 f3bb 1669 8bbc
00000050: 569c fa3c ac06 293b 443f c03c 2198 78bd
00000060: 0b7d 2c3d 1be1 873c 0373 23bd 8e56 a1bc
00000070: bfed 303d c3be a7bc 22b2 15bd f710 36bd
00000080: 5ef0 4a3d 2c23 25bd 1a72 34bd 96bc a7bc
00000090: 164c 20bd 40a7 6a3c 9094 06bc 4f65 573d
000000a0: 9c09 e03c 90dd 893c fc83 a6bc f097 a1bc
000000b0: a20e a8bc 5df3 703d 241f de3c cc6d f03c
000000c0: 4966 903b 4e85 22bd 1752 553d b6dd 683d
000000d0: 19be de39 77d6 09bd 3199 2b3c d21f 5a3d
000000e0: 0afb 7a3c cdd5 0b3d d2d7 18bd e12e acbc
000000f0: 25b1 70bb f028 18bd fb13 f53c 5913 10bd
00000100: 28e3 c43c 685b ddbc 75c8 5cbd cac3 84bc
00000110: c963 09bc 7be3 793d 07bb 5e3d 0e15 9ebc
00000120: 67db bdbb 689d c4bc 9cec 2d3d 9613 543d
00000130: c345 143d f8df db3c 70e0 1f3d 7a45 dfbc
00000140: 4612 30bc 8136 c23d f174 0fbd cf1d a8bc
00000150: 157d 803d f64b 04bd e860 d23c 3819 933c
00000160: 6b1f 3c3d ae39 76bd ce8a 063d c5ca 34bd
00000170: c5d9 fcbc 44bd 283c f411 28bd 8479 bdbb
00000180: 2aeb 273d 9081 26bd 83cd 19bd 8fa4 08bd
00000190: 69d8 253b 4faf 86bd 9404 553d d1a3 c2bc
000001a0: 85e2 48bc b6c4 71bd cffe 393b 9033 843c
000001b0: 129e 843b 6288 7d3d 46c1 7a3d 582c 9b3b
000001c0: 2542 32bd 0d61 f1bc c6ae 6b3c 844a 863c
000001d0: d0da 8fbc b77b 1c3d aa5c 5c3d 3af5 2cbd
000001e0: 640c ba3b f351 3dbc 6e98 523d 0b80 59bd
000001f0: 9fda 243d f552 edb9 6c38 bdbc 6452 f4bc
00000200: 871e 843d d249 6f3d 7437 083d c1fb 2cbd
00000210: 12d8 8d3d 86ad 3bbd 934f 55bc 7df4 45bd
00000220: c751 7bbd 08c9 483c 7f51 65bc a898 3abd
00000230: 83b3 4dbc d280 e03c 855e 553c d8b8 4b3b
00000240: 22b3 8abc 340b 513c fd5b 8f3b 395a d53c
00000250: f147 263d f836 babc 5c26 15bc 436e 283d
00000260: c15d f23c f07c 9fbd 9400 453d 8bab 50bd
00000270: 2025 82bc 3914 6f3c d4ba 58bb 610b 2e3d
00000280: 45bb 01bd 1cc8 d93c f905 933b a9b7 cbbc
00000290: a053 95bc f3f0 0ebb cbfa 993c 28be 4f3d
000002a0: e7d6 e53c 1592 1b3c 8467 153d 48c4 6b3d
000002b0: 41af 92bc 8f02 bbb9 0acd 593d c68c e2bc
000002c0: e0ff 9fbd 4188 ebbc cfbe 25bd f21b 153d
000002d0: 161c da3c 3c96 173d 3211 0d3d 0b6d f8bc
000002e0: 5dc6 e43c da08 5fbd cd16 23bb 3662 693c
000002f0: d6e4 9d3d 4b82 213d a6fb 983c bbb7 b1bc
00000300: b538 2fbd aad6 293c 2f70 4abd 7cee 213d
00000310: 1efd 6fbd dabc dfbc 9d8d 343d ce2a d4ba
00000320: 69ae 83bd 222f 3cbc ea8f 88bc 8da0 8d3c
00000330: f323 13bb 6655 3b3c f509 d43b 09b9 663d
00000340: 823d ff3c 8c72 02bd 421e 95bc 3d10 4a3d
00000350: c04f cfbc 0393 d1bc 350c eebc d4c1 9a3c
00000360: 8df8 74bd 5f0e e8b7 0560 f73b c6fb 81bd
00000370: 2f81 5dbd 216c ee3b 1e0f 52bc d60a 243d
00000380: cc7e c3bc ee22 773d d148 d63c 074e e63c
00000390: b6d0 113c 9bc5 57bd 26fa 753d 3d83 953c
000003a0: 68a0 8abd 7ad0 63bc ad74 92bc 8ee1 ab3c
000003b0: f26f cfbc 59e4 0ebb 8746 66bc 5258 3bbd
000003c0: af9c fcbc 501a 10bd 1424 703d 290a 233d
000003d0: 981e 313d a1d6 2c3d be63 113d 6804 66bd
000003e0: 4f60 253d 0f86 13bd 2ba9 59ba f544 3abd
000003f0: ffd3 d4bc ec53 863d ccd1 82bc dffb ce3c
-0.009772405 0.068312466 0.054375846 -0.03363219 -0.03542286 -0.036119755 0.035906732 0.022829277
-0.0036275988 0.07383928 -0.036356524 0.002977507 -0.033700347 0.012171299 -0.0032305827 0.005515
0.009417069 0.051923893 -0.007438885 -0.017017882 0.030592125 0.002579133 0.023467667 -0.060691956
0.042111438 0.01658683 -0.039904606 -0.019694593 0.043195482 -0.020476704 -0.036546834 -0.044449773
0.04954564 -0.040316746 -0.04405413 -0.020475667 -0.03913506 0.014322102 -0.008214131 0.05258685
0.027348332 0.016829282 -0.020326607 -0.01972577 -0.02051479 0.05882584 0.027114458 0.02934923
0.0044067246 -0.03967791 0.05208024 0.056852065 0.00042484773 -0.033651795 0.010473535 0.053253002
0.015318641 0.034139443 -0.037315197 -0.021018447 -0.003672668 -0.037148416 0.029916754 -0.0351747
0.024034098 -0.027021125 -0.05390211 -0.01620664 -0.008385607 0.061007958 0.054377582 -0.019297149
-0.005793977 -0.024000838 0.042461976 0.05177649 0.036199342 0.026840195 0.0390324 -0.027254809
-0.010746544 0.09483052 -0.035023633 -0.020522026 0.062738575 -0.032299004 0.025680974 0.017956361
0.0459284 -0.0601136 0.03284722 -0.04413869 -0.03086556 0.010299031 -0.041032746 -0.005782308
0.040995754 -0.040650904 -0.037549507 -0.03336006 0.0025305992 -0.06576406 0.05200632 -0.023759754
-0.012261038 -0.05902549 0.0028380638 0.016137868 0.0040471638 0.061897643 0.061219476 0.004735511
-0.04352011 -0.029465223 0.014384931 0.016392954 -0.017560393 0.03820392 0.05379931 -0.042226054
0.0056777466 -0.011555183 0.0514149 -0.053100627 0.040247556 -0.0004526597 -0.023098193 -0.029824443
0.06451135 0.05842001 0.03325601 -0.04223228 0.06925978 -0.04581978 -0.01301946 -0.048328865
-0.061357286 0.012254961 -0.013996481 -0.04555574 -0.012555006 0.027405176 0.0130230235 0.0031085517
-0.01693112 0.012759019 0.0043749795 0.026043998 0.040595952 -0.02273129 -0.009103384 0.04112078
0.029585721 -0.07787502 0.048096254 -0.050944846 -0.015886843 0.014592224 -0.0033070343 0.04249132
-0.031672735 0.026584677 0.004486796 -0.02486785 -0.018228352 -0.0021811097 0.018796345 0.050718457
0.028056575 0.009495278 0.036475673 0.057560235 -0.017905833 -0.00035669326 0.053174056 -0.027655017
-0.07812476 -0.028751494 -0.040465172 0.036403604 0.02662472 0.03700851 0.034440227 -0.030325433
0.027926618 -0.0544518 -0.0024885416 0.014244607 0.077096626 0.039430898 0.018674683 -0.021694055
-0.04277869 0.010366121 -0.049423393 0.039534077 -0.058591 -0.027311731 0.044080365 -0.0016187073
-0.064297505 -0.011485847 -0.016670186 0.01728847 -0.0022451847 0.011433935 0.0064709135 0.056328807
0.031157259 -0.03184752 -0.018202905 0.049331892 -0.025306582 -0.025582796 -0.029058555 0.018891253
-0.05980735 -2.7663247e-05 0.007549288 -0.0634685 -0.054078277 0.0072760736 -0.012820987 0.040049396
-0.023864172 0.060336046 0.026157768 0.028113378 0.008899858 -0.052678686 0.060053013 0.018251056
-0.06768876 -0.013904685 -0.017877901 0.020981576 -0.025321934 -0.0021803586 -0.014054901 -0.045738526
-0.030836431 -0.035181344 0.058628157 0.03980461 0.043242067 0.042196874 0.035495512 -0.056156546
0.04037505 -0.03601652 -0.0008303101 -0.04547592 -0.025979994 0.065589756 -0.01596918 0.025266586

bias f4 [64]
00000000: 84f1 1d3b 001d 3b3d 98b6 45bd c8b1 3abd
00000010: 209f 86bc 6917 c2bb ebd7 083d 9c63 d73c
00000020: ac64 17bd d09c 63bc f51c a33b 7ba5 1fbc
00000030: 38c7 84bd 2e6c 98bc 838c cabc fdc1 bf3c
00000040: 8dd1 163c 0626 283d b1fa 69bd 6e69 2a3d
00000050: dce0 8a3c 9f81 bbbc dfc8 d1bc 441a 0c3d
00000060: ef52 d9bc 7e59 0a3d 2e70 c8bb f0d4 4abd
00000070: 0b85 b6bc ac1d 5e3d ced0 db3b c8cc 74bb
00000080: 0938 033d 4fa2 583d 0e27 803c dfc7 83ba
00000090: 23df fb3c ee11 9cbc 0d46 943c 5df2 c83c
000000a0: 06e4 0c3d 928f 603d 934e 673c 766f 293b
000000b0: 61db 13bd 589a 633d 2835 74bc eaab e33c
000000c0: c017 24bd 9a0d fdbc e834 803d 6638 fbbc
000000d0: f5c2 c03c e4a4 2bbd a0a9 193d 2bdb 18bc
000000e0: ab76 af3c fcaa 3b3d 35d2 7ebb db60 b2bc
000000f0: 5b9d febc 9c43 56bd 44e2 0dba 9723 893c
0.0024100253 0.045681953 -0.048269838 -0.0455797 -0.016433299 -0.005923201 0.03340904 0.026292615
-0.036961243 -0.0138923675 0.004977817 -0.009744043 -0.064833105 -0.018606272 -0.024725204 0.02340793
0.009205234 0.041051887 -0.057123844 0.04160445 0.016952924 -0.022888957 -0.025608478 0.034204736
-0.026528804 0.033776753 -0.0061168885 -0.04951948 -0.022280237 0.054227516 0.006708241 -0.0037353504
0.03203586 0.052889165 0.015643623 -0.0010054073 0.030746048 -0.019051518 0.018099809 0.02452963
0.034397148 0.05482442 0.014117855 0.002585379 -0.036097888 0.055567116 -0.014905252 0.027791936
-0.040061712 -0.030890275 0.06260091 -0.030666541 0.023530463 -0.0419053 0.037515283 -0.0093295975
0.02141889 0.04581736 -0.0038882617 -0.0217747 -0.031080892 -0.05231057 -0.00054124394 0.016740603
